expriments/ours/STATS/ours/3407/models/79.pt (torch, 415482 bytes, 39 tensors)

feature_proj.weight f4 [64, 27]
00000000: 7f06 c93d 578a 803c 0270 8ebe 3936 523e
00000010: bbb8 e7bd 0e41 85bd 4ae0 c1bc 83ce 28bc
00000020: a5e0 1e3e b627 7dbd 3c8c 6f3d 70e1 24be
00000030: 01f9 dabd 5352 273e 9903 453e e688 0e3d
00000040: a871 32bc e957 40bd 4869 a53b c44f efbd
00000050: 4c76 ed3d 3587 16bd 2f05 83bd 258e 1c3e
00000060: ce4c b3bd f240 373d d01b 27bd 2e77 54bd
00000070: 11cd cbbd 3881 2cbe 6293 63be 15dc 23bd
00000080: 172c e23d dd66 c4bd c730 673e c492 2abe
00000090: 1f7a 1fbe 880d a63e 2cac 14be 6746 84bd
000000a0: f51c 4fbe 69e3 dcbd 94dc 183e 267f 3dbe
000000b0: 9c9b e6bd 667d 353e b204 0c3e ed8d 07be
000000c0: 58a3 45bd 14aa 203e 604e 99bc 6b61 263e
000000d0: 3e04 e2bc 8a0a 943d e77d a03c d211 19be
000000e0: 75a9 f8bc d1ca ab3d 52f6 133e 83ab a13d
000000f0: 6415 d23d bd48 d5bc 8f17 813d d18e 643d
00000100: 0bea 32be 9093 c0bc 1784 3c3e e120 0f3e
00000110: 6983 d33e b386 243e f991 8b3d 398f 1d3b
00000120: 4005 3b3e a238 0b3e 35c9 9b3d 5c7b 65be
00000130: 1682 e2bd 2c7e 073e 0789 433d 1749 ec3d
00000140: da98 8ebe c4f9 3dbe 30ff c8bd 88dd 77be
00000150: ad4f 333d aa09 06be c4c6 053e 9f50 14be
00000160: b8a5 843e 8ee0 57be a8f1 053e 3959 9fbc
00000170: 9147 d9bd ff18 36bd b023 063e 0a40 313e
00000180: 941d 4abd cc16 28be b2ce b3bd bba0 c3bd
00000190: acab 3a3e 430c f4bd 7ddf a8bd 53ee 0fbe
000001a0: 4fb8 56bd 3f02 1f3e 48cf 84bc c4f4 52be
000001b0: b06e 823d 9957 d23d 9d3f 5f3e 809d 493d
000001c0: 4457 f73d 6540 d6bd 74d9 28be 78b5 7dbe
000001d0: fbe9 513e bd85 b2bd f0b3 523c 4168 203e
000001e0: 7481 ce3c 89b5 94bd d497 5a3d 4ad5 293d
000001f0: e2c0 803e 1b79 cabc 5015 a9bd ec76 01be
00000200: b778 bdbd 8449 6ebd 0bf1 2e3d e8f7 bcbd
00000210: be0b d43d b9f1 f2bd 2cf5 233e 79c4 d5bd
00000220: 89bb 83bd eff4 443e b830 de3d d32e 96bd
00000230: ddb1 2a3d fa21 9bbd e3e6 293d 53eb 99be
00000240: 8883 15bc f24f 723e f266 d3bd 6c73 a53d
00000250: dd70 5b3e ecc0 b0bc 9e05 94bb c76d 3a3d
00000260: 191f 4c3d bffc 913d f405 5c3e b401 d3bd
00000270: 456a e6bd 3ee9 0d3e a365 bfbd eadd 89bd
00000280: 7a37 c73d aeb5 0bbe c618 6c3d 7eeb 0e3e
00000290: a25f 63bd 20f9 933d 7c79 f13d ea66 babc
000002a0: ac06 c63c e7dc ed3d 4f7a 92bd ba05 e5bc
000002b0: 3323 cd3d f180 b7bd 7ce7 133e a5c2 e73d
000002c0: 5349 ffbd dcfb b3bd a22c 05bd 2dc5 393e
000002d0: 8a28 c1bb 178a 01be 6e49 113e 1d27 c7bd
000002e0: 070c 5cbe bc23 35be 93e9 cc3d 948d b8bc
000002f0: 6213 61bd 42a1 c43d e635 c5bc 495e 33bd
00000300: 1812 9a3d a756 09be 009b 57bd 4fc6 03bc
00000310: d110 273d 88be 383e 1422 0b3e 82f1 923d
00000320: 1c6e d23d c73e 9dbd 7367 853b e3c0 ce3e
00000330: b1f2 41be aadd 2dbe 74b0 5f3c 4c3a c63c
00000340: 0fb4 4cbe 0afe 3dbd 608c f93a bb86 d63d
00000350: 714a 06be 5589 f03d 4e98 ae3d 5e3a 82be
00000360: b2f5 1abe 5d87 953d f324 9fbd baeb 1bbe
00000370: 5fa8 afbc d84f ccbd c4a4 b93d 0037 09be
00000380: 037a 4c3d 3cdb 1c3e 73a7 de3d cb95 9ebd
00000390: 7826 0b3e 9771 be3d 6280 f43e 1f1c 2dbe
000003a0: 644f 263e e743 3b3e 6327 7ebc e827 7c3e
000003b0: 334d eebd 14de 11be d2d8 253e cf75 70bc
000003c0: 2c47 2d3d 72d5 b5bd 6c2d 50bd a600 bebd
000003d0: 029f b1bd db8d c8bc 8220 1abc b105 303e
000003e0: 093b 003e ad5d ed3d 0974 e83d 1660 0d3e
000003f0: 5f61 3c3e d3db bcbd f70d 0e3e f0e6 3c3e
0.09815692 0.015690966 -0.2781983 0.20528497 -0.113145314 -0.06506549 -0.02366652 -0.0103031425
0.15515383 -0.06180545 0.058483347 -0.16101623 -0.10692025 0.16339998 0.19239654 0.034798525
-0.010891356 -0.046958838 0.005047951 -0.11685136 0.11594829 -0.036750037 -0.06397473 0.15288599
-0.08754884 0.04473967 -0.04079801 -0.05187147 -0.09951223 -0.16846168 -0.22224191 -0.04000481
0.11043566 -0.09589932 0.22577201 -0.16657549 -0.15573929 0.324322 -0.14518803 -0.06458741
-0.2022589 -0.107855625 0.14927894 -0.18505535 -0.11260149 0.17723617 0.13673666 -0.13237734
-0.04825148 0.1568988 -0.01871413 0.162481 -0.027589913 0.07228573 0.019591285 -0.14948204
-0.03035424 0.083882935 0.14449432 0.078940414 0.10257986 -0.02603566 0.063033216 0.055800263
-0.17472093 -0.023507863 0.18409763 0.13977386 0.41311195 0.16067009 0.068149514 0.0024041666
0.18263721 0.13595822 0.076067366 -0.22410339 -0.11059968 0.13231725 0.0477381 0.11537378
-0.2785099 -0.1855231 -0.09814298 -0.24205601 0.043777157 -0.13089624 0.13064104 -0.1448388
0.25907683 -0.21081755 0.13080466 -0.019451724 -0.10609353 -0.044457432 0.13099551 0.17309585
-0.049344614 -0.16414946 -0.087796584 -0.09552141 0.1822955 -0.11916401 -0.08245752 -0.14055757
-0.052421864 0.155282 -0.01621212 -0.20601183 0.06368768 0.10270614 0.2180161 0.04922247
0.120771915 -0.10461501 -0.16489202 -0.24776256 0.20499413 -0.08716915 0.012860283 0.1566477
0.025208212 -0.072611876 0.05336745 0.041463174 0.25147158 -0.02471595 -0.08256018 -0.12643021
-0.0925154 -0.05817558 0.042710345 -0.09226972 0.10353802 -0.11862511 0.16011494 -0.10437865
-0.06432254 0.1923406 0.10849136 -0.0733315 0.04167353 -0.0757484 0.041479956 -0.3006235
-0.009125598 0.23663309 -0.1032237 0.080786556 0.21429773 -0.021576367 -0.004517271 0.045514848
0.049834345 0.071282856 0.21486646 -0.10303059 -0.11250738 0.13858506 -0.093455575 -0.0673178
0.09727378 -0.13643524 0.057640813 0.1395702 -0.055511124 0.07225251 0.117907494 -0.022754151
0.024173103 0.116143994 -0.07152235 -0.027956832 0.10016479 -0.089601405 0.14443773 0.113164224
-0.12465157 -0.08788273 -0.03251327 0.18141623 -0.005894725 -0.12650333 0.14188167 -0.09724257
-0.21488963 -0.17689413 0.10005488 -0.022528447 -0.054950126 0.0960107 -0.024073552 -0.04379109
0.07522982 -0.13411961 -0.052638054 -0.008042886 0.04078752 0.18041432 0.13587219 0.0717497
0.10274908 -0.076779895 0.00407117 0.40381536 -0.18940236 -0.1697909 0.01365291 0.02419772
-0.19990562 -0.04638485 0.0019039027 0.104749165 -0.13114335 0.11744944 0.085251436 -0.25435156
-0.15132788 0.07301209 -0.077707194 -0.15226641 -0.02144259 -0.099761665 0.0906463 -0.13399887
0.049921047 0.15318006 0.10871782 -0.077434145 0.13588893 0.09299009 0.47754198 -0.16905259
0.16241223 0.18287621 -0.01551232 0.24624598 -0.11635818 -0.14244872 0.16195992 -0.014676525
0.042304203 -0.08878602 -0.050824568 -0.092774674 -0.086729065 -0.024481704 -0.0094071645 0.17189671
0.1252252 0.11590133 0.11350257 0.13806185 0.18396519 -0.09221616 0.13872515 0.1844747

feature_proj.bias f4 [64]
00000000: 7a11 bc3d c9b9 52bd c0c6 0e3e 333b 2bbe
00000010: 7bd8 993d 43d0 b33c ef6f b1bc 522e 563d
00000020: 4419 873d 567e 3bbe 3c0c e93b 8fae 263e
00000030: 14ff c5bc cefe c73d be8b 1abe f932 8cbd
00000040: b6f0 f3bc 6c17 643c 4758 de3d d7f4 983d
00000050: 5176 4a3a 0b99 8fbb 43ca 17bd a557 0f3e
00000060: de7e e73d ccfe 7ebd 2d94 05bc 7b86 57be
00000070: 6539 0fbe 6449 75bd 4624 c8bd dff3 47bd
00000080: de19 353e 4daa 3a3e 4543 d23d dd8a 8ebd
00000090: 7135 0b3c 35a7 d53d 92d2 7cbd a5ad 09bd
000000a0: 8ca3 2fbe b727 06be 2dc3 d03c db75 8abd
000000b0: e10e 023e cf2b 0e3e 4fed cf3d 006f 35be
000000c0: 698f dfbd 5d08 f73d 8886 9ebb 371f 943c
000000d0: 2719 313d 5826 a13d dab0 afbc 3fb0 fd3c
000000e0: 07f0 163e d0d5 8c3d 8c08 1fbe 064e 41be
000000f0: 2b4b 103e c3b3 123e 6b6f 58be 4ee9 38be
0.09183021 -0.05144671 0.13943005 -0.16721801 0.075119935 0.021949893 -0.02165982 0.05229027
0.06596616 -0.18309912 0.007112054 0.16277526 -0.024169482 0.09765397 -0.1509237 -0.0684566
-0.029777866 0.0139216 0.10856681 0.074685745 0.0007723319 -0.004382258 -0.037058126 0.13998277
0.11303495 -0.062254712 -0.008153004 -0.21047394 -0.13986738 -0.059884444 -0.097725436 -0.048816558
0.17685649 0.18229027 0.10266737 -0.0696008 0.008496628 0.10432283 -0.061724253 -0.033612866
-0.17152232 -0.13101088 0.025483692 -0.067607604 0.12700988 0.13883899 0.10152685 -0.17718124
-0.10916025 0.12062142 -0.0048378147 0.01808129 0.043236878 0.078686416 -0.021446634 0.03096783
0.1474 0.06876719 -0.15530604 -0.1887742 0.14091174 0.14326386 -0.21136253 -0.18057749

mamba_layers.0.norm1.weight f4 [64]
00000000: 195e 823f 6dc4 873f 128f 7f3f 89f6 833f
00000010: 0ae8 803f 4d0b 863f dbf4 733f f66e 753f
00000020: 1002 753f 7531 853f 8e7b 873f a85d 863f
00000030: bf39 883f 81cb 8e3f bc19 8c3f 6448 743f
00000040: b359 7b3f 6763 863f 9e3d 883f 43de 793f
00000050: d45f 823f 267b 813f 9489 7f3f 7634 833f
00000060: 1fde 853f 9edc 823f cc4e 823f 161b 7b3f
00000070: 55a0 803f f548 7f3f c50e 803f 234b 7f3f
00000080: b289 803f 0d2e 803f d039 803f dca0 843f
00000090: b260 883f 436b 823f 182b 7f3f a269 833f
000000a0: 4fc5 8c3f 60a7 7e3f 2eae 863f f4ac 733f
000000b0: d495 803f be3a 853f 61cd 7e3f 9f93 863f
000000c0: 2ccf 663f 8380 803f 3a09 813f 2dea 7d3f
000000d0: 6a82 8e3f 8ed3 803f ef71 8f3f 12c4 743f
000000e0: f96e 8b3f ce52 8b3f c171 843f f226 803f
000000f0: d526 823f a2e2 8a3f c74c 7c3f d9ba 793f
1.0184966 1.0606819 0.9982768 1.0309612 1.0070813 1.0472199 0.95295495 0.9587244
0.9570627 1.0405718 1.0584581 1.0497332 1.0642623 1.1155854 1.0945354 0.9542296
0.98183745 1.0499085 1.0643804 0.9760477 1.0185494 1.0115707 0.998193 1.0250385
1.0458411 1.0223577 1.0180297 0.98088205 1.004893 0.997207 1.0004507 0.99724025
1.0042021 1.0014054 1.0017643 1.036159 1.0654509 1.0188984 0.9967513 1.0266612
1.0997714 0.99474144 1.0521905 0.9518578 1.0045724 1.0408552 0.99532133 1.05138
0.9015987 1.0039219 1.0080941 0.9918545 1.1133549 1.0064561 1.1206645 0.9561168
1.0893241 1.0884645 1.0347215 1.0011885 1.01681 1.0850413 0.9855465 0.9755073

mamba_layers.0.norm1.bias f4 [64]
00000000: c336 0fbd 454a 1d3b 3f53 f6bc c1ee 593c
00000010: fa18 ab3c c622 71bc 7c85 2c3d c0d5 12bc
00000020: f6f8 ef3c d9e9 47b9 e17a 24bd 4ced db3c
00000030: ea00 27bc 0107 51bc 2055 9e3b feb1 c7bc
00000040: 6fa1 bcbc 5a4e 1e3d ece1 903c 9093 6bbd
00000050: 927d e9bc 3fa9 153d 123b f23c e43d b23b
00000060: 5ef5 7a3c aa56 ddbc c842 12bd 8303 b7bc
00000070: a831 233d b741 e5bb 88ed 753c eb77 18bc
00000080: 0290 003d 0c9d 87bb d195 d5bc 25b4 0e3d
00000090: ea14 2c38 d12f 9e3c 93f7 003d d752 0f3a
000000a0: 6333 16bc b93e 16bd 895d 5cbc eb7b 743b
000000b0: aa0e d13c dae8 dd3b 4912 163c a9ff e6bc
000000c0: d2a3 ac3d de12 1bbd 72b8 8fbc c74b f53b
000000d0: dcc4 343b fa56 93bb e198 3ab9 8aa5 07bd
000000e0: f9e6 4bbb a58d 89bc 4118 47bc 8119 3bbd
000000f0: e7c6 e2bc 1165 a73c 885d 0cbd 61d7 a8bc
-0.034964334 0.0024000567 -0.030068992 0.013301552 0.020885933 -0.014717763 0.042119488 -0.008962095
0.029293519 -0.00019065234 -0.04015625 0.02684655 -0.010193089 -0.0127580175 0.004831925 -0.024376865
-0.023026196 0.03864894 0.017685853 -0.057513773 -0.02850226 0.03653836 0.029569183 0.005439507
0.015317289 -0.027018864 -0.03570822 -0.022340542 0.039842278 -0.006996359 0.015010245 -0.009305934
0.031387337 -0.0041385945 -0.026072415 0.034839768 4.1027473e-05 0.01930991 0.031486105 0.0005467361
-0.009167525 -0.03668091 -0.013450035 0.0037305306 0.025519688 0.006772143 0.009159633 -0.02819808
0.08429684 -0.03785979 -0.017544005 0.00748584 0.0027583158 -0.0044964524 -0.00017795294 -0.033116855
-0.0031113012 -0.016791174 -0.012151779 -0.04567862 -0.027682735 0.020433934 -0.034268886 -0.020610513

mamba_layers.0.mamba.A_log f4 [128, 16]
00000000: b45d 5d3d 9832 3a3f b864 8e3f e9ee b83f
00000010: 419a d23f 1ccb e93f d453 f73f 3f26 0740
00000020: 239a 0f40 f49e 1540 a003 1c40 48ef 1c40
00000030: 97c9 2540 e4a8 2b40 51a0 2f40 aa29 3240
00000040: c4b0 56bc fead 303f 5a65 8c3f e51e b43f
00000050: 7312 cf3f 93ed e63f d6b8 fd3f 6537 0640
00000060: 1791 1140 fb2c 1540 68e4 1840 01b6 2440
00000070: ba03 2340 e706 2b40 30f2 3240 2fa3 3740
00000080: b34e 013b f5ef 343f 99fe 8c3f d3dd b43f
00000090: b36b cf3f ab76 e93f 2e78 fd3f 2090 0640
000000a0: 0ce9 0e40 c495 1540 d891 1a40 9203 2140
000000b0: 5990 2440 f863 2b40 cfdb 2e40 fd1f 3340
000000c0: 28fb 793c 6a03 313f 8682 8b3f 655a b03f
000000d0: f09c cc3f d3df e63f f973 fc3f 4dc3 0540
000000e0: 5b27 0b40 b648 1240 bdb2 1840 5b94 1f40
000000f0: d377 2540 a9bf 2840 1ba1 2c40 ad7d 3040
00000100: 2a29 a839 2a67 303f 5f70 8c3f bbe0 b03f
00000110: 2708 cd3f 43e1 e33f 98e1 f73f 048a 0440
00000120: b78e 0b40 d6a5 1240 27b0 1840 e67b 1e40
00000130: 1b13 2440 adca 2740 1cfa 2c40 66e8 2f40
00000140: 4b59 9a3d 71da 2b3f 3ccd 8d3f b799 ad3f
00000150: 2a88 cd3f 6a8c e43f 13ea fa3f 16b2 0440
00000160: 56ee 0c40 f04d 1340 7fb1 1740 d922 2340
00000170: 8dce 2140 190f 2b40 77a9 2c40 312b 3240
00000180: 1d54 65bd d97a 323f bc97 893f 8c48 b13f
00000190: 85cd ca3f 903a e73f fd64 fc3f 5372 0540
000001a0: e5d5 0d40 56fe 1340 53d8 1940 a97a 2240
000001b0: 677c 2440 6c51 2940 5120 2f40 fe9c 3140
000001c0: a3fa a7bc 0a41 363f 6ea2 8b3f 66cd b33f
000001d0: 264e d23f 85a2 e73f 7b31 0040 b16b 0640
000001e0: 69d0 1040 d068 1740 02c0 1940 57c0 2040
000001f0: ee88 2440 335d 2a40 6f62 3240 3ffc 3340
00000200: 5ed6 49be 4014 373f c43b 8d3f 4275 b33f
00000210: 9a1b cd3f 8d42 e23f 5f85 f53f 207f 0440
00000220: 4af6 0c40 99a2 1140 dc8b 1940 fc8e 1b40
00000230: 2727 1e40 a619 2740 e9be 2b40 e88f 3040
00000240: f4d3 2cbd 3471 3b3f 648f 8c3f fa0a b63f
00000250: 14fc cd3f e845 ec3f 154e fe3f be54 0840
00000260: 7c29 1140 2f6e 1840 661f 1b40 1656 2540
00000270: 982a 1f40 733d 2d40 f8ba 3140 1051 3540
00000280: 0e60 5ab9 6dea 303f 070c 8d3f 8f70 b03f
00000290: af82 ce3f 3422 e43f 482b f83f 34bf 0440
000002a0: 8a3d 0c40 9880 1240 1ecb 1940 b54b 1e40
000002b0: d788 2340 bd7a 2840 18c3 2c40 9fa9 3140
000002c0: 856b 46bd 7ed6 2f3f fafe 903f dcc8 b83f
000002d0: 3d01 db3f 4d20 ec3f b441 fd3f 69fd 0940
000002e0: 6a15 0f40 ecca 1540 06e3 1d40 7e9d 2140
000002f0: 5c8f 2c40 af19 2b40 b5f7 3040 a0de 3540
00000300: ac55 e93b bcf0 323f ba8c 8d3f 887b b13f
00000310: 1e03 ce3f 7d6c e63f 2f77 fa3f 6419 0640
00000320: 6d1e 0d40 6030 1340 1876 1940 0739 1f40
00000330: 113c 2440 4189 2840 e1d1 2c40 d157 3140
00000340: 0e93 12ba 08d5 303f 12b9 8c3f a0ba b03f
00000350: 392d ce3f dc0f e53f 1a0d f93f a802 0540
00000360: 92a6 0c40 c10a 1340 b3b6 1940 6fbf 1e40
00000370: a815 2440 f8f3 2840 4f9f 2d40 0c49 3240
00000380: 2b7c a6bb 9012 313f 1936 8b3f 2298 af3f
00000390: f5bf c93f b043 e43f 4cc1 f83f cdf2 0340
000003a0: ec30 0b40 4dd2 1240 52bd 1740 44af 1f40
000003b0: afe8 2340 f773 2840 e9a0 2c40 6c78 2f40
000003c0: 45d5 2dbc e0b3 343f 6d44 8e3f 4969 b23f
000003d0: ba64 ce3f 41f0 e83f b9dc fa3f 8807 0640
000003e0: b8f3 0f40 f588 1540 3769 1b40 4147 2240
000003f0: 8f69 2240 faa1 2a40 b3c3 3140 21c8 3440
0.05404444 0.7273345 1.1124487 1.444791 1.6453325 1.8265109 1.9322457 2.1117094
2.2437828 2.3378267 2.4377213 2.4521046 2.590429 2.6821833 2.74416 2.783793
-0.013103668 0.6901549 1.096843 1.4071928 1.6177505 1.8041252 1.9822032 2.097131
2.2744806 2.3308704 2.3889408 2.5736086 2.5471025 2.6722963 2.796032 2.869335
0.0019730746 0.70678645 1.1015197 1.4130195 1.6204742 1.823934 1.9802301 2.1025467
2.232974 2.337266 2.4151516 2.515843 2.5713103 2.6779766 2.732166 2.7988274
0.015257634 0.69145834 1.0899208 1.3777586 1.5985394 1.8037056 1.9722892 2.0900452
2.174277 2.285688 2.3859093 2.49343 2.5854385 2.636698 2.697333 2.7576706
0.00032074127 0.68907416 1.0971793 1.3818582 1.6018113 1.780312 1.9365721 2.0709238
2.1805856 2.2913718 2.3857515 2.4763122 2.563666 2.6217453 2.7027655 2.7485595
0.075365625 0.6713019 1.1078258 1.3562535 1.6057179 1.7855351 1.9602684 2.0733695
2.2020469 2.301632 2.3702085 2.549002 2.5282319 2.6727965 2.6978433 2.7838862
-0.05598842 0.697187 1.0749431 1.3850265 1.584397 1.8064747 1.9718319 2.0851028
2.21618 2.3123984 2.4038284 2.5387366 2.570093 2.6455946 2.7363474 2.775207
-0.020505255 0.7119299 1.0908945 1.4047058 1.6430099 1.8096472 2.00302 2.100323
2.2627203 2.3657722 2.4023442 2.5117395 2.5708575 2.6619384 2.787258 2.8122709
-0.19710681 0.71515274 1.1033864 1.4020159 1.6024048 1.767656 1.9181327 2.070259
2.2025323 2.2755492 2.3991613 2.430602 2.4711397 2.6109405 2.6835272 2.7587833
-0.04219432 0.7321961 1.0981259 1.42221 1.6092553 1.8458834 1.9867579 2.1301723
2.268157 2.381725 2.4237914 2.5833793 2.4869747 2.7068756 2.7770367 2.8330727
-0.00020825883 0.69107705 1.1019295 1.378435 1.6133631 1.7822938 1.9388208 2.07417
2.191256 2.2890987 2.4030223 2.4733708 2.555227 2.6324914 2.6994076 2.7759778
-0.048442382 0.68686664 1.1327813 1.4436297 1.7109753 1.8447357 1.9785676 2.156092
2.235682 2.3405104 2.4669814 2.5252376 2.69625 2.6734426 2.7651188 2.841713
0.0071208086 0.6989858 1.1058571 1.3865824 1.6094701 1.8001858 1.9567622 2.0952997
2.204982 2.2998276 2.3978329 2.4878557 2.5661662 2.6333773 2.70031 2.770985
-0.0005591371 0.6907506 1.0993979 1.3806953 1.6107551 1.7895465 1.9457123 2.0782871
2.1976666 2.2975314 2.401776 2.4804342 2.5638218 2.6398907 2.7128484 2.7857084
-0.00508072 0.6916895 1.0875884 1.3718302 1.5761706 1.7833157 1.943399 2.0616944
2.174861 2.2940857 2.3709302 2.4950724 2.5610769 2.632078 2.6973212 2.741725
-0.010609929 0.7058697 1.1114632 1.393838 1.6124489 1.819832 1.9598609 2.0942097
2.2492504 2.3364842 2.4282968 2.535599 2.5376928 2.6661363 2.7775695 2.824715

mamba_layers.0.mamba.D f4 [128]
00000000: 6029 853f 5145 823f ed7a 693f 6a1a 7c3f
00000010: 86c2 7e3f 9f01 7e3f db42 7d3f f539 803f
00000020: 0438 883f e011 763f d427 743f 104e 8d3f
00000030: db71 7e3f 7730 803f 9b5a 7b3f 49a1 6b3f
00000040: f7ef 783f 53d2 823f 2f62 7b3f ca86 7d3f
00000050: 93e8 7d3f 2979 873f 21e7 7e3f 94fe 7c3f
00000060: 5639 7c3f bba2 7f3f ac48 773f 5d48 783f
00000070: 15ab 7b3f 2e7f 803f 7193 823f bc08 803f
00000080: ed2c 813f ae76 763f 43f1 803f 1036 7e3f
00000090: d848 6c3f 1307 853f 97f0 7c3f 5cda 7a3f
000000a0: 1258 773f eec4 723f e785 823f 5471 793f
000000b0: c605 7b3f d8b9 7d3f f1bb 763f 2782 803f
000000c0: 6cd0 833f 5065 883f a271 7e3f 3de3 7d3f
000000d0: 933b 823f 09e3 803f 8820 803f 11ce 893f
000000e0: 6ebd 673f 3fab 853f 39c9 7c3f 3ae3 763f
000000f0: 502c 803f ae08 7e3f 9838 733f d4ec 7e3f
00000100: 58ef 7e3f 6124 7a3f 8c4a 783f 734b 863f
00000110: e598 783f 822e 883f e44f 7c3f cda2 7f3f
00000120: a5e4 843f e271 7f3f 8fc4 803f cdd8 773f
00000130: b261 7e3f 9c1e 883f 75da 743f c892 833f
00000140: fbb1 703f 2fb4 803f 2cde 833f ca47 833f
00000150: a1df 873f e580 7e3f 5963 803f 3210 823f
00000160: 3e17 763f fd96 793f 27c2 7a3f fb2d 703f
00000170: 4554 833f d521 803f 706d 7e3f 4cae 7a3f
00000180: 7362 833f 3531 763f 1067 813f 2353 7b3f
00000190: 0d7b 793f 8b6d 853f 13e2 7c3f 75cc 853f
000001a0: 42e0 743f 9d57 893f 7d71 7f3f 0616 823f
000001b0: a2b0 7d3f f78f 813f 11c1 7f3f 72b0 7e3f
000001c0: 098b 843f 3b9e 7d3f ae5e 7b3f 8807 7c3f
000001d0: 3735 803f bc3b 843f 9964 7c3f 4a7d 7d3f
000001e0: 6d13 7d3f 5dd2 853f 0140 773f 7666 7d3f
000001f0: 96ea 793f 8a59 863f 61f6 713f c330 803f
1.0403252 1.0177404 0.91203195 0.98477805 0.9951557 0.99221224 0.9893014 1.0017687
1.0642095 0.96121025 0.9537327 1.1039448 0.9939248 1.001479 0.9818513 0.92042977
0.9724116 1.0220436 0.9819669 0.99033797 0.99183005 1.058385 0.99571425 0.98825955
0.9852499 0.9985768 0.96595263 0.9698542 0.98307925 1.0038812 1.0201246 1.0002666
1.0091835 0.9627484 1.0073627 0.9930124 0.9229865 1.0392784 0.9880461 0.9798944
0.9661876 0.9483174 1.0197114 0.9743855 0.98055685 0.991117 0.96380526 1.0039719
1.029798 1.0655918 0.9939214 0.99174863 1.0174431 1.0069286 1.0009928 1.0766011
0.9052342 1.0442885 0.9874454 0.9644047 1.0013523 0.99231994 0.9500823 0.9958012
0.9958396 0.9771176 0.9698875 1.0491775 0.971083 1.0639193 0.98559403 0.9985779
1.0382277 0.99783146 1.0059985 0.96815187 0.9936782 1.0634341 0.9564584 1.0279169
0.94021577 1.0054988 1.0302176 1.0256283 1.0615121 0.9941543 1.0030318 1.0161192
0.96129215 0.97496015 0.979525 0.9382016 1.0260092 1.0010325 0.9938574 0.97922206
1.0264419 0.96168834 1.0109577 0.9817373 0.97453386 1.0424055 0.9878246 1.045302
0.9565469 1.0729862 0.99782544 1.0162971 0.99097645 1.012206 0.9990397 0.99487984
1.035493 0.99069566 0.98191345 0.9844899 1.001624 1.033073 0.98591 0.990193
0.98857766 1.0454823 0.9658204 0.9898447 0.97623575 1.0496075 0.9451657 1.0014881

mamba_layers.0.mamba.learned_average f4 [128, 16]
00000000: f3cd 0f3f b9b5 f83e ca2a fa3e 743f c83e
00000010: 3a56 f63e babb d13e 4496 ee3e 4bb2 da3e
00000020: 7da0 e63e df7c dd3e a26a 023f a45d f73e
00000030: bbbc fa3e 1941 dd3e dbf1 fe3e 8a70 f43e
00000040: 77d4 143f 0ba1 023f cfd6 083f f80b 0a3f
00000050: 216f 093f 7974 0a3f 2be1 f43e 964c 183f
00000060: 54c5 0d3f 850c 0b3f 2c7d 1b3f 1c0b 1a3f
00000070: 6b0d 083f 44d5 083f c868 1a3f 2095 0b3f
00000080: c776 063f a799 073f 94dd 0c3f 150e 0f3f
00000090: 61a1 133f c91e 0f3f 89ae 103f 69d3 143f
000000a0: cbd2 153f 2f6d 0c3f aab6 123f 06f6 143f
000000b0: 490c 143f 3e68 0e3f 261b 1e3f d2ea 163f
000000c0: d803 c93e 2204 f93e 6457 033f 546d f13e
000000d0: 97f5 dd3e a126 043f 5653 0c3f 3390 e63e
000000e0: 1dbf 043f 8251 fa3e 79bc db3e a362 133f
000000f0: 9a8e f03e 718f 1b3f 1e89 063f 5798 0f3f
00000100: b719 153f aeb0 ed3e 7e0a ed3e fa94 eb3e
00000110: 52c4 d33e e2bb df3e 23de e83e 272c ec3e
00000120: bee5 d73e 2dfe e23e 9bab f13e 280a d03e
00000130: d9b1 e93e 57c6 e43e 4db7 be3e 8b32 d53e
00000140: e3b5 023f b808 fe3e d8b3 103f 2146 ff3e
00000150: d42e 0e3f c227 0c3f 3703 c23e c2be 0d3f
00000160: 42ce 0c3f db12 0a3f c4cc 0c3f b3db 223f
00000170: 6dbe 133f d6d9 0b3f 2033 223f eef5 1f3f
00000180: 6cdd d83e b91e 113f 5c73 113f 2cd0 0e3f
00000190: 4614 133f 8683 0e3f 24e4 153f 9c31 113f
000001a0: d666 173f 36da 123f ad21 083f bd04 0d3f
000001b0: 1bc7 043f 4316 123f 92c2 033f c081 133f
000001c0: 6871 073f c28f fc3e a38f e53e b999 0a3f
000001d0: 1fd1 023f e136 fd3e 5aac 013f c22e 093f
000001e0: a2f7 f43e 76bf 003f 715b 093f c58d f93e
000001f0: 3112 163f 5bf2 e43e 7baf fd3e 58ee ea3e
00000200: f023 3a3e 37e7 0a3f bf58 fc3e 19bc 0e3f
00000210: 6fce 113f d625 1c3f 26a4 093f fdef 203f
00000220: 6559 203f c630 1a3f 7b8c 2a3f 9e7c 083f
00000230: c166 f83e 17fb 0d3f a5de 3d3f 27f5 293f
00000240: a78a c93e c7b4 fd3e 8e03 cc3e c189 e93e
00000250: d591 c93e ca2d e73e ad18 0a3f 076d e03e
00000260: d978 ec3e 39ce 013f fb78 b63e af11 fc3e
00000270: 801c ae3e 1c61 053f 6c66 be3e e8ea d03e
00000280: 602e 003f 299f f73e 89fd ff3e 950e f93e
00000290: e273 fd3e 1dca f03e 3428 ef3e 0080 f23e
000002a0: 3def f23e 126d f33e 47e9 f63e a9e1 e73e
000002b0: 9b1f f83e 5eab f43e 03d4 fa3e f99f f43e
000002c0: c7fa 3a3f b49f da3e 4280 ce3e e401 b43e
000002d0: 5777 883e 6616 823e 28b6 c93e 200c 4d3e
000002e0: d6f7 2a3e 895a 7f3e 2e46 9b3e 72cc 193e
000002f0: fac1 593e 3f69 8b3e 52d8 793d 7202 cc3d
00000300: 78aa 163f b5f3 ff3e 7c5a 043f 4df4 033f
00000310: 81ee f93e 5641 043f 67e8 ee3e 09c2 063f
00000320: f69c fe3e 5e9e 023f 2fa3 063f 846d 063f
00000330: 993c fd3e f113 073f 7e31 003f afd8 083f
00000340: dfef 0b3f 6e26 f43e cfb5 013f 1567 013f
00000350: 2d8b 083f f86f fb3e 70a7 f53e 4698 083f
00000360: 1891 fc3e 3ab9 f33e d4d5 143f 0036 fa3e
00000370: c4c2 123f cd3b f63e 28f2 093f a895 073f
00000380: 9bce 103f 8b0a 1d3f 7d9c 263f 3d68 213f
00000390: 1579 263f fa6d 243f d284 313f c912 1f3f
000003a0: 1fda 233f b290 1d3f d86e 233f ca2f 1e3f
000003b0: 4ef9 163f 8c00 293f e0a3 1a3f d062 253f
000003c0: 2471 f63e 6f06 073f 4c0e 013f b6a1 033f
000003d0: 0d40 ff3e 6142 0b3f 1a95 073f de76 013f
000003e0: 4a87 083f 0ed3 093f d784 043f a1c5 0a3f
000003f0: 405c e63e c98d 0b3f 7cce 043f 9ccc 023f
0.5617363 0.48576143 0.4886077 0.3911091 0.4811266 0.40963537 0.4659902 0.42714152
0.45044318 0.43259332 0.5094396 0.4831363 0.48972115 0.43213728 0.49793896 0.4774211
0.58136696 0.5102698 0.5345277 0.5392451 0.53685194 0.54083973 0.4782804 0.5949186
0.55379224 0.5431598 0.6073787 0.601732 0.53145474 0.5345042 0.60316133 0.5452442
0.5252499 0.5296883 0.550256 0.5588086 0.5766812 0.5590635 0.5651632 0.58135086
0.5852477 0.548541 0.57309973 0.581879 0.57831246 0.5562781 0.61760175 0.5895206
0.39260745 0.48635966 0.5130522 0.47153723 0.43351433 0.51621443 0.5481466 0.4503189
0.51854116 0.4889031 0.4291723 0.5757238 0.46983796 0.6076575 0.52552974 0.5609183
0.5824236 0.46423858 0.46297067 0.46012098 0.41360718 0.4369803 0.45481977 0.46127436
0.42167467 0.44334546 0.47201237 0.4063275 0.456435 0.4468257 0.37249222 0.41640124
0.5105879 0.49616027 0.5652442 0.49858192 0.55540204 0.54748166 0.37893078 0.553692
0.55002224 0.5393502 0.5499995 0.63616484 0.5771244 0.54629266 0.6335926 0.62484634
0.4235643 0.56687504 0.5681665 0.55786395 0.5745281 0.5566944 0.5855124 0.5671632
0.5914129 0.57364213 0.53176385 0.55085355 0.5186631 0.5706522 0.51468766 0.5761986
0.5290742 0.49328429 0.4483615 0.5414081 0.51100343 0.49455932 0.5065361 0.5358697
0.4784518 0.50292146 0.53655154 0.48740974 0.5862151 0.44716153 0.49547943 0.45884967
0.18177772 0.54259056 0.49286458 0.55755764 0.5695562 0.60995233 0.53766096 0.62866193
0.62636405 0.6023067 0.66620606 0.5331515 0.48515895 0.5546126 0.74167854 0.663897
0.39363596 0.49551985 0.39846462 0.4561291 0.39369074 0.45152122 0.539439 0.4383318
0.4618595 0.50705296 0.35639176 0.49232242 0.3400612 0.521013 0.37187517 0.4080422
0.5007076 0.48363617 0.4999812 0.48643938 0.49502474 0.470292 0.4671036 0.4736328
0.4744815 0.47544152 0.4822485 0.45289353 0.48461613 0.47786993 0.48989877 0.477783
0.73038906 0.4269997 0.40332228 0.35157692 0.2665355 0.25407714 0.39396787 0.20024157
0.16696104 0.2493688 0.3032698 0.15019396 0.21265402 0.27228734 0.060997315 0.09961404
0.58853865 0.4999062 0.5170057 0.5154465 0.48814777 0.51662195 0.46661684 0.52639824
0.49729127 0.510229 0.5259275 0.5251086 0.49460295 0.52764803 0.5007552 0.5345563
0.5466289 0.4768557 0.5066804 0.50547916 0.53337365 0.49108863 0.47979307 0.5335735
0.49329448 0.47602254 0.58138776 0.48869324 0.5732844 0.480925 0.53885126 0.5296273
0.56565255 0.6134421 0.6508253 0.6304968 0.65028507 0.6423031 0.6934329 0.6213804
0.640047 0.6154891 0.6384101 0.6179167 0.5897416 0.6601646 0.60406303 0.646039
0.48133194 0.5274419 0.5041244 0.51418626 0.49853554 0.5439816 0.52961886 0.50572
0.53331435 0.5383767 0.517652 0.5420781 0.44992256 0.5451322 0.5187757 0.5109346

mamba_layers.0.mamba.in_proj.weight f4 [256, 64]
00000000: d991 803c 2eb5 90bb 1882 f13d f161 07be
00000010: 2fc3 fabc 02b4 7b3d 071a 8fbd bff0 14bc
00000020: 2d91 f43d 4855 21bd 2354 5abc ba6e d3bb
00000030: 111a e7bd 22a0 053e a79e a4bd 2606 243d
00000040: 0e5b 243d c76a f3bc 65ca 36bd 96d4 4c3d
00000050: 646a 853b 14c5 c83d 984c 9fbc 4816 2fbb
00000060: e519 1ebd d300 873d 99b0 5f3d 220e aabd
00000070: bbde 1f3e 46f6 db3d a97e 8cbd d688 153d
00000080: 2f24 38be 6a01 573d 986f 7a3d 5fc2 e8bd
00000090: 10eb a2ba c4f9 e2bd 379a 04be f189 63bc
000000a0: 0a52 f1bc 9d73 05be 9d18 1a3d 576a 02bd
000000b0: d1fb 9d3d fa7f 603b a78c a5bd 2ef9 b23c
000000c0: fba1 4ebc f0ea 82bc 825d 1fbe 9978 a63c
000000d0: c975 f43d bc5e 133e b3ab 173d 0458 8c3d
000000e0: 3678 463d e4fe a5bd 3fcf 493d 9058 523d
000000f0: ea2c f13d 54d0 23be a180 b3bb 1aeb 05be
00000100: 4020 3bbd a301 1dbe 24e0 833d 2272 943c
00000110: 98b1 c73d 4e92 95bd a68f db3d 6b6a 4ebc
00000120: 62f6 8cbd 77fc 2a3e 7b7a 0bbe ec4e 4d3d
00000130: 5d44 ebbd 02e4 43be fa3a 423c dec9 d3bd
00000140: bada 06be 7bfc 833d 39b4 0d3d 4c3d 47be
00000150: 656a 40bc 1b35 27bd 1bff a23d 862c 0d3e
00000160: b9ca b73d 9268 963c c8f3 33bd 55fb 29bd
00000170: 1c66 bdbd 1c86 963d f02d 6ebd 7b1b ffbc
00000180: 417f 0b3d 6958 973c 4c7f e8bd 14d7 163d
00000190: 9d10 95bd d342 45bd ef0f a63c 2525 063e
000001a0: 7aa7 523d 7b6a c3bd 8454 1d3d 349f 533b
000001b0: 2492 b2bd d564 b43c 5dbb 50bc e0e6 8dbd
000001c0: 38ed b23d 09b9 c73d 8b05 863d 059a 5b3d
000001d0: 8672 e73d 0ecc 0cbd cea2 913d e132 1cbd
000001e0: 15c0 20bd f1e6 273d 58c6 ba3d 4f1e 6d3d
000001f0: aedd 1c3d ad13 003e 68aa e53c 244b 0ebe
00000200: ea03 82bd 3f63 a6bd d327 97bd 7ca2 cdbd
00000210: fc52 54bd 555a c63d 8f09 85bd bdd3 95bd
00000220: b975 d63d 85ea 153d 4ecb c73c 146f 07bc
00000230: debc b6bb 853d f1bd 16dd 43bd deb1 993d
00000240: 8ba9 963c 7578 d63d 9b08 5b3d 7b9d 37bd
00000250: f48a f3bd 14dc fb3d 9abe 2d3d 937e 2d3d
00000260: 2bcd d13d d241 11bd b2a4 07bc 5a38 02bd
00000270: fab3 dc3d f150 c13b 7038 6bbd 8936 03be
00000280: 3783 1c3d 5c8e f43d 2674 e9bd cd8c 42bd
00000290: 7018 063d 76e5 28bd 2775 d9bd f305 04bd
000002a0: 29d5 52bb 1c36 0fbd 0ea7 e43d 5a7e d73d
000002b0: 0d36 fa3d 9127 0cbd dc8d efbc a089 edbd
000002c0: a8a6 adbd 25cd e83d 31ae 9e3b 17a9 05be
000002d0: 9914 673d 23b0 03be 6d3d 123d c24f c03d
000002e0: 047f 4a3d ead0 0d3d b9b8 643d affb d93a
000002f0: 9bc1 813d cef8 71bc 2b7d f2bd 83c3 2b3d
00000300: 7e4b b3bd 7621 743d d561 d63c 9df9 0c3c
00000310: 48fe bcbd 9049 64bd 3fe8 27bd 32ac 67ba
00000320: feb6 353d 1cb1 0a3e 4f34 cb3d 7e35 a2bd
00000330: 7ee4 d9bc 8abf b7bd 094f 6bbd 92f7 663d
00000340: 89b4 78bd 6be3 62bc 5f6f 13bd 22cd 4cbd
00000350: 14c4 27bd a5a4 a0bc 7309 dbbc 9f1b d4bd
00000360: 3ea7 a73c 2fc2 57bc bf94 1fbb 4951 debd
00000370: 455d e33d dce8 123e 40d4 17be 2458 a5bd
00000380: d4a2 95bd 7cd7 85bd d957 7b3c 2a85 523d
00000390: 0231 3a3b c314 3fbd 82af c43b 3291 e73d
000003a0: c262 cd3d 6d92 babd a08f 23bd 7146 303d
000003b0: 171d 873d a6d3 a63d d762 94bd e2a5 5a3d
000003c0: d5ed 2bbc eaa2 933d fd60 6b3d 13df 083c
000003d0: b670 883d ec5e 6fbd f559 f4bc 26a6 d53d
000003e0: 69da e9bc c653 fbbb 9009 a83c ac83 dbbd
000003f0: c409 f73c 817d bd3d 9c2f 183c 253e 873d
0.015694546 -0.0044161296 0.117923915 -0.13220955 -0.030610649 0.061450966 -0.06987386 -0.0090906015
0.119417526 -0.03938797 -0.013325724 -0.0064524086 -0.11284269 0.13049367 -0.08038073 0.040044926
0.0401259 -0.029714001 -0.044626612 0.050007425 0.0040715206 0.09803215 -0.019445702 -0.0026716162
-0.038598914 0.06591954 0.054611776 -0.08303477 0.15612309 0.10740332 -0.06860096 0.03650745
-0.17982553 0.052491583 0.06114158 -0.11365198 -0.0012429673 -0.11082795 -0.12949453 -0.013887868
-0.029458065 -0.13032384 0.03762113 -0.031839695 0.07714046 0.0034255967 -0.08083468 0.021847334
-0.012611861 -0.015981168 -0.15563014 0.020321177 0.11936528 0.14391607 0.03702898 0.06852725
0.048454486 -0.08105257 0.04926991 0.05135399 0.11776145 -0.1599744 -0.0054779802 -0.13077965
-0.045685053 -0.15332656 0.06439236 0.018120829 0.0975067 -0.07303296 0.10720758 -0.012598614
-0.06882931 0.1669787 -0.13620941 0.050124094 -0.11487649 -0.19129947 0.011854881 -0.103412375
-0.13169375 0.06444641 0.0345957 -0.19456977 -0.011744116 -0.04082213 0.07958814 0.13786516
0.08974213 0.01836041 -0.04393366 -0.041499455 -0.092479914 0.07349798 -0.05814928 -0.031141033
0.034056906 0.018474774 -0.11352405 0.03682621 -0.07278559 -0.04815943 0.02027127 0.13100107
0.05142925 -0.09541794 0.03841068 0.0032290937 -0.0871928 0.022020737 -0.012739983 -0.069288015
0.08736652 0.097520895 0.06544026 0.05361368 0.113011405 -0.03437429 0.07111131 -0.03813446
-0.039245684 0.040991727 0.09119862 0.057890233 0.038297348 0.12507506 0.028035358 -0.13895851
-0.06348403 -0.081243984 -0.07380643 -0.10040757 -0.051836953 0.09685198 -0.06495964 -0.073157765
0.104716726 0.03660061 0.024388935 -0.008266229 -0.005576714 -0.11779312 -0.047818266 0.075046286
0.018391391 0.10472194 0.053475004 -0.04482792 -0.118917376 0.12297836 0.0424181 0.04235704
0.10244211 -0.03546316 -0.0082790125 -0.031792022 0.10776515 0.0058995415 -0.05742687 -0.12813772
0.038211074 0.119412154 -0.11399107 -0.04749756 0.03273815 -0.041234456 -0.10618048 -0.032232236
-0.003217051 -0.034963712 0.11164676 0.105221465 0.122173406 -0.03421742 -0.029242449 -0.115985155
-0.08479053 0.11367253 0.0048425426 -0.13052784 0.056416128 -0.1286016 0.03570311 0.093902126
0.049437538 0.034623064 0.055840228 0.0016630794 0.063357554 -0.014768792 -0.1184028 0.0419345
-0.08754633 0.059602223 0.026169697 0.008604434 -0.09228188 -0.055734217 -0.04099297 -0.000883761
0.044363968 0.13544124 0.099220864 -0.07920359 -0.026598211 -0.0897208 -0.05744842 0.056388445
-0.060719047 -0.013848166 -0.035994884 -0.050000317 -0.04095848 -0.019609759 -0.026737904 -0.10356831
0.02046549 -0.013168856 -0.0024350134 -0.10855348 0.11101774 0.14346641 -0.1482706 -0.08073452
-0.073064476 -0.06535241 0.015340769 0.051396526 0.0028410559 -0.04665066 0.0060023675 0.11306991
0.10028602 -0.0910996 -0.039931893 0.04303593 0.06597345 0.081458375 -0.07245415 0.053380854
-0.010493715 0.07208808 0.057465542 0.008353966 0.06662123 -0.058440134 -0.029828051 0.10432081
-0.028546529 -0.0076698987 0.020512372 -0.10718474 0.030156024 0.092524536 0.009288695 0.0660365

mamba_layers.0.mamba.conv1d.weight f4 [128, 1, 4]
00000000: c333 67be 6dff e2bb 71c4 c3be 3ab3 023d
00000010: 790a a53e 7960 463e 63e6 9cbe 8e98 d5bd
00000020: c6ff 36bd cb4e 383d df2a e53d 4513 b43e
00000030: 0994 9f3e 226a aebe 09d6 e1be c104 593c
00000040: 996f 2dbe a696 323e 2cdf 493e 0883 ffbe
00000050: 6bd4 ac3e 1a87 533e 2aeb 133f de48 f7bd
00000060: 319a 87bb 53cf 8b3e e118 913e 2f3a d43e
00000070: ef1b 803d 83d6 8abe 733d f5be e03a e43d
00000080: 51b8 783e 66fd 143f 7fcb ea3d 5711 5f3d
00000090: b784 60be ca32 943d 6fe6 26be b92c 943e
000000a0: 5808 dabe c1ef 5c3d 6cda cabb 0514 83be
000000b0: be66 d23c ff98 86bd b864 a9be 692e 5c3e
000000c0: 3dcc 03be 66ba 03be 1e5b ce3e 290a 9b3e
000000d0: a69e b33e 4f6f ee3e c607 dbbe 19dd f63e
000000e0: e82e ad3e ea89 1abf cab3 0a3e 77cd d93d
000000f0: 395d 6dbd 1516 e63e a0c7 47be 355b 60bd
00000100: efed 9bbd 928b 40be 47b3 f03d 84b5 85be
00000110: c1f2 093f d684 e7be cf1a f73e 23ad 8a3e
00000120: 570b 473e 550b d03e 03ac 863e 61d9 8f3d
00000130: 9a61 df3e 5803 dabe 35f5 55be 1cc4 6f3e
00000140: f480 1cbd 5210 dc3e adbc d23c 5331 933e
00000150: 84d4 d53d 663c b13e 8ea7 583e be42 b3be
00000160: 8b42 c53d a259 8fbe 6527 81be d573 7fbe
00000170: ba03 b83d 7947 babd 23ca 34be 0d48 a03e
00000180: ef72 eabd 9bf0 2fbe 153f 1f3e 696b 043d
00000190: 58f3 b43e b023 c33c 90fd 85be fe91 de3e
000001a0: 2450 bd3e 1927 b53e 5a3b d8bc 2640 b83e
000001b0: bd11 d83e 1487 2a3e f6b6 f0bd 3544 35bd
000001c0: a614 0f3e 9ea8 cebe 1392 883e 6133 673e
000001d0: a88c 2e3e 43e1 423d ff77 55bd 9285 973e
000001e0: 6607 e6be a7e9 ea3d de13 c5be a21f 383e
000001f0: c4ef 71be ecff 7fbe 00de d33e 5b9e 923e
00000200: b871 9d3e 2cf1 64be e0c3 03bf 7d7f ea3e
00000210: 6929 3bbe 6e72 d4b9 6286 b5bd 81d6 a93d
00000220: 06b0 e33e e4db 913d 3ae3 3c3e 01a8 9f3d
00000230: cd9c 28be 12c8 e6be aba3 c23d a15a c4bd
00000240: 5092 bdbe 661c 9d3e 8680 9bbc 13cc 2e3e
00000250: 081b 933d 5483 cebe e535 fe3e 2885 02bf
00000260: a86b b4be 25bf 28be 1f19 f8be a426 043f
00000270: 975b 133e 55b8 bfbb af88 a8be 9dc0 afbe
00000280: df0f dc3e 9cce 8c3e 382a 68be df86 c7be
00000290: 32b1 cebe 653e 9abe 3d91 62be 0c2f 2f3e
000002a0: eaac 6f3d 2869 b43e 5376 c5be 9cbd ca3e
000002b0: ba2e 4d3e 922b fe3d 0e25 9bbe 2087 983d
000002c0: 1f2d 2ebe 0f84 74be 011e 7d3e 1b11 37bd
000002d0: 2f94 c63e 0fc3 a53e bebe 18bb f85d 4d3d
000002e0: 67b6 8a3d c15f ed3d eb19 f93e ddd0 c7bd
000002f0: a721 523e 6488 cf3e 18ce e63e b330 1ebe
00000300: 29b0 0fbe 3524 44bd accd 423e 6c6f ec3e
00000310: 061a 953c 38a1 6a3d c7a2 003f 01bc 10bd
00000320: b251 f63e 5e1a 1a3b 1195 9bbe d8b1 bbbd
00000330: 7fb5 aebe dd1d e1be 68c5 07bf 07cd b63e
00000340: 299a 0ebe c12f e93e 98e5 b3bd 915a 0bbf
00000350: dad5 243c 5920 003f d7cc 48be 8120 cc3e
00000360: 3207 023e 99ad dabe f977 b7be f884 023f
00000370: c31c fdbe d648 04bf 32c5 1abf 4cf5 023f
00000380: 8d85 36be e049 1fbe d253 9cbe 1b43 d5be
00000390: 22ce bdbe cf05 db3d cf6e edbe b13d fd3e
000003a0: 1abe 153d 0a1e 883e c880 2d3e 86ec 24be
000003b0: 2a03 b6be cf05 c4be 4039 e43e 369b 023e
000003c0: 828d d53d 5516 6f3e fc37 91be 56b5 073f
000003d0: 3fd2 e5be c581 febe 3d0e 85be cc93 013e
000003e0: 2337 bc3d aa8d c6be 78e3 9abd 968e 5ebe
000003f0: 6323 c73e 267a 293e 7cdd 3c3e d2be 1bbe
-0.2257834 -0.006927422 -0.3823581 0.031909205 0.32234553 0.19372739 -0.3064452 -0.10429488
-0.04467752 0.044997018 0.11189818 0.3517095 0.3116763 -0.34065348 -0.44108608 0.013245762
-0.16937102 0.1744028 0.1971404 -0.49904656 0.33755812 0.20657006 0.57780707 -0.12074445
-0.004138254 0.27306613 0.28339294 0.4145064 0.06255328 -0.27116784 -0.47898445 0.11144042
0.24289061 0.58199155 0.11464595 0.054459896 -0.21925627 0.0723625 -0.16298841 0.2894037
-0.4258449 0.053939585 -0.0061905887 -0.2560121 0.025683757 -0.065721504 -0.33084655 0.21502079
-0.1287088 -0.12864074 0.40303892 0.3028119 0.35081977 0.46569297 -0.42779368 0.4821556
0.3382485 -0.6036669 0.13545147 0.106348924 -0.057950232 0.44938722 -0.19509745 -0.05477448
-0.076137416 -0.18803242 0.117529444 -0.26115048 0.5388604 -0.45218533 0.4826264 0.27085218
0.1943792 0.40633646 0.2630311 0.070238836 0.43629152 -0.42580676 -0.2089432 0.23414654
-0.038208917 0.429812 0.025724733 0.2874857 0.10440925 0.34616393 0.21157667 -0.35011858
0.09631833 -0.27998072 -0.25225368 -0.2494653 0.08985086 -0.090956636 -0.17655234 0.3130497
-0.11447703 -0.17181627 0.15551408 0.032328997 0.35341907 0.023820728 -0.26170015 0.43470758
0.36975205 0.35381392 -0.026395489 0.3598644 0.42201033 0.1665309 -0.11753647 -0.0442545
0.1397272 -0.4036302 0.26673946 0.22578193 0.17045844 0.047578108 -0.05211639 0.29594094
-0.4492752 0.11470347 -0.3849172 0.17980817 -0.2362662 -0.2499997 0.4138031 0.2863644
0.30750823 -0.22357625 -0.51470757 0.4580039 -0.18277515 -0.00040521048 -0.08863522 0.082928665
0.44470233 0.07122019 0.18446055 0.07795716 -0.16466065 -0.45074517 0.095038734 -0.095875986
-0.3702569 0.3068573 -0.018982183 0.17070036 0.0718289 -0.4033457 0.49650493 -0.5098443
-0.35238385 -0.16479166 -0.48456666 0.5162146 0.14390408 -0.0058508315 -0.3291678 -0.3432664
0.4298086 0.2750138 -0.22672355 -0.38970086 -0.40369564 -0.30125728 -0.22125717 0.1710779
0.058514513 0.35236478 -0.38566837 0.39597785 0.20037356 0.12410654 -0.30301708 0.07447648
-0.170094 -0.23878501 0.24718477 -0.044694047 0.3878493 0.3237538 -0.002330705 0.050138444
0.06773072 0.11590529 0.48652586 -0.097566344 0.2052065 0.40533745 0.45079112 -0.15448265
-0.14032044 -0.047886092 0.1902377 0.46178758 0.018200886 0.057282656 0.5024838 -0.035335544
0.48109204 0.0023514251 -0.30387166 -0.091647804 -0.34122846 -0.43968096 -0.53035593 0.35703298
-0.13925995 0.45544246 -0.08784026 -0.5443507 0.010060752 0.5004936 -0.1960939 0.3986855
0.12698057 -0.4271057 -0.3583372 0.50984144 -0.49436006 -0.5167364 -0.60457146 0.51155543
-0.17824383 -0.15555525 -0.305327 -0.4165276 -0.3707133 0.10694467 -0.46373603 0.4946113
0.036558248 0.26585418 0.16943657 -0.16105852 -0.3554929 -0.38285682 0.44574928 0.12754521
0.10427381 0.23348363 -0.28363025 0.5301107 -0.44886968 -0.4970838 -0.25987425 0.12654036
0.09190204 -0.38779956 -0.075629175 -0.2173408 0.38894185 0.16550502 0.18443865 -0.15209511

mamba_layers.0.mamba.conv1d.bias f4 [128]
00000000: 41e2 92be 3816 563e e06e d43e e999 e63e
00000010: 7ad6 343e 7591 b8be 67d5 2bbc 4e7b 343e
00000020: f3c5 14be 1bbb b73e ef73 833d 1dd9 5d3e
00000030: 905a 3b3b d137 1e3b aa19 d7be 2eb2 c13e
00000040: 7ce9 91be 6c46 23be d3f5 00bf 9610 1fbe
00000050: 3919 843e 8012 973e 189d 4bbc 7154 e53c
00000060: 6e02 193e 4cf9 b5be fdc2 c13e 0bc3 6dbe
00000070: 34d5 273d 2d7e c0bd 9d54 7a3e 9f1b f83b
00000080: cd11 aa3e 9a0c a13e d769 6ebe cd41 89bd
00000090: 428b 9d3e 88ef c73e ed89 2dbd 7a10 d1be
000000a0: da7d f23e 18ff 993e f213 abbe fda9 da3e
000000b0: b33b e0bd 7d74 edbe 32f1 ba3e 1fc2 093d
000000c0: 3e30 e5be ab51 acbe 009a ac3e 6dba 74be
000000d0: 930f f2bc 0280 d53e 0e8b 713e a60e 613d
000000e0: 2312 9fbe 7047 6fbe 27dc 8bbe ae5d 4d3d
000000f0: efed 57be a2ac 42bc 9840 d5be a4fc ec3e
00000100: 479b 4f3e 1baf 8cbe ba15 24be 0134 bcbe
00000110: 7a47 dc3e 809d 963c d4de c23e f0b1 683e
00000120: 5ecf 533e 2513 c63e 116d 7fbe a02a bcbe
00000130: 3a62 fa3e 99ca 5dbe cb1d 4bbe 958b 97be
00000140: fdfa e93e 7f77 b13e 40a7 f73e e68c 47be
00000150: b0fd 29bd 7647 373e 53f5 a0bd 7eb7 69bc
00000160: 3370 843e 84f9 2f3e a012 953e f29b bebe
00000170: 51c6 203e ce8d 883e 2d9f 44be 0a9f 8f3e
00000180: 3db6 d23e 0359 8f3d 70d3 5abd 7653 9abe
00000190: 1dc7 74be a285 be3e 184e bfbe daa3 e0bd
000001a0: 0328 a0be 9af2 aebc 3c7c 9b3e b831 82be
000001b0: 5e44 8fbe c8f3 a23e 2577 7cbe ffdc 063c
000001c0: e68b 803e 5c4d 8dbe 94ee 0abe 5c9c 7d3e
000001d0: bd6e 9c3e 37fa cb3e 6b24 333e 0850 9fbc
000001e0: 0071 10bd d0a5 11be 0135 703e 5b2e c7be
000001f0: 4dad a63e a6e6 c6bc 6236 bcbe a71a d63d
-0.28688243 0.20906913 0.4149084 0.450393 0.17659941 -0.36048475 -0.010487891 0.17625162
-0.14528637 0.35884938 0.06418597 0.21664853 0.0028587915 0.0024142156 -0.42011768 0.37831253
-0.28498447 -0.15944833 -0.503751 -0.15533671 0.25800493 0.29506302 -0.012427591 0.027994366
0.14942333 -0.3554176 0.37844077 -0.23218934 0.04097481 -0.09399066 0.2444634 0.007571652
0.33216706 0.31454927 -0.23282562 -0.06702004 0.30770308 0.39049935 -0.042367864 -0.40832883
0.47361642 0.30077434 -0.33413655 0.42707816 -0.10948887 -0.46377936 0.36512142 0.033632394
-0.44763368 -0.33656058 0.33711243 -0.23899241 -0.029548442 0.41699225 0.23588201 0.05494561
-0.31068525 -0.23367095 -0.273164 0.050138168 -0.21086858 -0.011881979 -0.41650844 0.462865
0.20274077 -0.27477345 -0.16023913 -0.36758426 0.43023282 0.018385649 0.3806063 0.22724128
0.20684573 0.3868648 -0.2494395 -0.3675127 0.48903066 -0.21659316 -0.19835584 -0.2959868
0.456993 0.3466148 0.4836979 -0.19487342 -0.0415017 0.17898354 -0.07859292 -0.014264939
0.2586685 0.17185026 0.29115772 -0.37228352 0.15700652 0.26670688 -0.19201346 0.28051025
0.41154662 0.069993995 -0.0534243 -0.301418 -0.2390408 0.3721133 -0.37364268 -0.10968752
-0.31280527 -0.021355916 0.3036822 -0.25428557 -0.27981848 0.31826615 -0.24654825 0.0082314005
0.25106734 -0.27598083 -0.13567573 0.24766678 0.30553237 0.39839336 0.17494361 -0.019447342
-0.035264015 -0.14223409 0.2345772 -0.38902554 0.32554093 -0.024279904 -0.3676024 0.10454302

mamba_layers.0.mamba.x_proj.weight f4 [36, 128]
00000000: 45f0 47bc 117b bc3d 4bd1 2d3d df8d c43d
00000010: ee56 8bbd 3a63 d0bd 88af 8cbd 7bc7 0bbe
00000020: 8bd4 103e 7a4d ad3c 5707 d23d 5660 a83d
00000030: 72e5 b2bc ab20 e1b9 147c 293d 771f 9e3d
00000040: 9b4e aabd 5208 cb3d 8cd3 20bd 15b8 9fbd
00000050: b6e8 08bd aa75 6abc 9dd0 9abd 66af aebd
00000060: fa55 b43d 0b3c 50bd 90fe ffbc 0b67 e33b
00000070: c7ef 9c3d 23a4 f8bd d305 c43c fdf2 7ebc
00000080: 5d8c ec3d a325 9c3d f2b5 5ebd 4079 f83c
00000090: 38b0 5cbd f48e ff3d 1c30 3e3d 4924 c0bc
000000a0: 01e4 38bd cfda d23d f648 a6bd acc5 80bd
000000b0: 6be2 dfbd be9f 88bd 7b11 38bd fc49 443c
000000c0: 190a 003e c54b 523c a66f aebd 2f34 02be
000000d0: 88ac be3c 9a5c 193d 5416 48bd 0846 dbbc
000000e0: afff 00bd 7313 893d 7326 dabd 4b8a 1f3d
000000f0: f865 e6bd 22bf f6bc 6eb8 b43c 4a3f 7a3d
00000100: 9130 4f3c dc08 b0bd 023e d8bc 595b a1bd
00000110: e973 4ebd 0b3a 5c3d 0c12 553d 6a02 903d
00000120: c101 e6bc 66d9 26bd 2a50 25bd 84c2 8cbd
00000130: 6529 49bc 511f 1e3d 1832 10bb 9bbf 743d
00000140: 19f0 bbbc 88a7 b13d 5592 c0bd 3064 0dbd
00000150: 386b 893d 7db4 24bd a37d 86bd b3bc 9ebc
00000160: 5118 75bd 9758 5dbc 6c15 803d 3a30 6d3d
00000170: 2808 6a3c bdf8 83bd 6972 1f3c 02b3 083d
00000180: 2f9b 61bd c23d d13b 0867 c53d 1191 7bbd
00000190: 1a95 96bb ceff fdbc d8b1 fd3c 256b acbd
000001a0: b409 21bd 26c3 1b3d 4095 1fbd 66f1 a53d
000001b0: 6f1f d53b 9aba 5fbd 56de db3a 3739 80bd
000001c0: 8c42 b93d 47ae d03c 5c02 7ebc 38b0 b7bd
000001d0: eef4 48bc bf53 573d c27c 89bc 34a3 fabc
000001e0: 2930 03be 7f38 9a3d 7dce 6f3d 3415 acbd
000001f0: 11d4 1fbd aee2 b5bd fa6c bbbd e84d afbd
00000200: f3bc 87bd 15bf 95bd d7c6 5cbd be11 a7ba
00000210: fa4c 1e3d db6a 76bd 2994 eebc cc12 b13d
00000220: 51c0 f9bd a75a 92b9 826a e7bd 1bb5 cd3d
00000230: 2ecc 99bd 4ba1 63bd a573 763d 3cea 3e3d
00000240: 3c0c 843d a095 5e3d abbd bb3d f983 03bd
00000250: 0475 193b cd25 693d bec6 543c 1e39 043d
00000260: 2704 ff3c 595d 5cbb cb21 c23d 299c 943c
00000270: 5343 783d 5ae2 223d d9c3 94bd edbb a73d
00000280: eb7a 2ebd beb2 59bd 68e5 073e da95 08bd
00000290: d28d 2f3d 2f26 12be 7c2b 0dbe a1f2 1bbd
000002a0: 925d 1cbc db4c 393c 819e 703d 9864 fdbc
000002b0: 100f 813d 8ba1 c6bc 8d3c 9e3c 9de2 90bb
000002c0: f725 8d3d f5f7 143b ca54 cfbc 47eb 9b3d
000002d0: a3cc b7bd efd0 ff3b 71f8 0abd 21e6 aa3c
000002e0: 13c7 cfbc 39e2 bdbd 49b1 8ebd bba6 913c
000002f0: 12cf e83d 744b 67bd 9dfc 5d3d 2731 1fbd
00000300: 6275 903c 3a9b aa3d bbd7 ab3d e121 023d
00000310: 2a76 c9bd 58d0 c13b f003 64bd bd19 653d
00000320: df79 693d dc9b 8c3c bdb3 6f3d b123 2b3d
00000330: 7480 c8bc cac4 ba3c d1d5 573d 42a8 8e3d
00000340: 4ce7 bcbd e63f 4bbd a189 413d 75f0 6dbd
00000350: e7e4 cabd 1ed8 80bc a0f2 70bd 3b4d cb3c
00000360: b287 673d 6ef2 823d 15d7 d3bd 5df6 b5bd
00000370: 2a24 073d 14fc 89bc 401f 053c b3c0 1cbc
00000380: 40ad e13d 1fdb e2bc fa5e c4bd 3fb4 923d
00000390: 6e0b 163d 2417 e5bc a681 8abb 00a3 80bd
000003a0: 7250 583d f044 ffbd cf67 1ebc 42ee fa3d
000003b0: a77d b6bd defe 81bd 0d04 503c 1cc0 843d
000003c0: c6e8 6abd 265e f8bc 9322 76bd e327 573c
000003d0: 5787 8e3b 6976 4e3d 6be7 32bd b304 a5bd
000003e0: 5fbc b9bc 8d89 da3b cdce b4bd fcad 9fbd
000003f0: e502 41bd fdf7 cf3d 4f2c ac3c 3ac0 ad3d
-0.012203281 0.092031606 0.042435925 0.09597372 -0.0680369 -0.10175176 -0.068694174 -0.13650315
0.14143579 0.021155108 0.10255306 0.082214996 -0.021837924 -0.00042939684 0.041378096 0.07720845
-0.08315774 0.09913696 -0.039264247 -0.07798783 -0.033425055 -0.01431028 -0.07559321 -0.08529548
0.08805461 -0.05083851 -0.031249315 0.006939774 0.076629214 -0.121406816 0.023928558 -0.015560863
0.1155021 0.07624366 -0.054372735 0.030331254 -0.053878993 0.12478438 0.0464326 -0.023454802
-0.045139316 0.10295641 -0.08119385 -0.06287703 -0.10931858 -0.066710934 -0.044938546 0.01198053
0.12503852 0.012835448 -0.08517389 -0.12715219 0.023275629 0.037441827 -0.04884942 -0.026766792
-0.03149384 0.06693163 -0.10651865 0.038950246 -0.11249918 -0.030120436 0.0220606 0.061095513
0.0126458565 -0.0859544 -0.026396755 -0.07878751 -0.05040351 0.05376629 0.052019164 0.070317104
-0.028077008 -0.04073467 -0.040359654 -0.068730384 -0.012277936 0.038604084 -0.0022002514 0.05975304
-0.022941636 0.08674532 -0.094029106 -0.034519374 0.067099035 -0.04021119 -0.06566932 -0.019377088
-0.059837643 -0.013509891 0.06254086 0.05790732 0.014284171 -0.064439274 0.009731867 0.03337384
-0.055079635 0.006385536 0.09638792 -0.061417643 -0.004595411 -0.031005766 0.030968592 -0.08418874
-0.039315894 0.038027905 -0.038960695 0.08102684 0.0065039913 -0.054621316 0.0016774635 -0.06260913
0.09045896 0.025473727 -0.015503492 -0.08969158 -0.012265427 0.0525701 -0.016783122 -0.0305954
-0.1281134 0.07530307 0.058546532 -0.08402482 -0.0390206 -0.08881126 -0.09151645 -0.08559781
-0.06627836 -0.07311837 -0.053900566 -0.0012746376 0.03864763 -0.0601605 -0.029123383 0.08646163
-0.121948846 -0.0002791483 -0.11299612 0.10044309 -0.07509647 -0.055573743 0.06016888 0.046610102
0.06447646 0.054341912 0.09167036 -0.03210828 0.0023415694 0.056920815 0.012986837 0.032281034
0.03112991 -0.0033624975 0.09479102 0.01814087 0.06061108 0.039766647 -0.072639175 0.08190141
-0.042597692 -0.053148977 0.13271105 -0.033346035 0.04285986 -0.14272378 -0.13786119 -0.038073186
-0.009543793 0.011309828 0.05874491 -0.030931756 0.06301701 -0.024246952 0.019315982 -0.0044215457
0.06892007 0.0022730802 -0.025308985 0.07613235 -0.08974578 0.0078068892 -0.03392834 0.020861687
-0.02536348 -0.09271664 -0.06967408 0.017779699 0.113676205 -0.056468442 0.05419599 -0.038865235
0.017634097 0.08330388 0.08390757 0.03177059 -0.09836991 0.005914729 -0.055667818 0.05593275
0.05700099 0.017164163 0.05852102 0.041782085 -0.024475314 0.022798914 0.052694146 0.069656864
-0.09223804 -0.049621485 0.047250394 -0.058090646 -0.09906941 -0.015728053 -0.058825135 0.0248171
0.056525894 0.06393896 -0.10343758 -0.08884881 0.032993473 -0.016843833 0.008125126 -0.009567427
0.11019373 -0.027692376 -0.09588428 0.071632855 0.036631994 -0.027965136 -0.004226881 -0.0628109
0.052811094 -0.12464321 -0.009668305 0.12252475 -0.08910685 -0.0634744 0.012696278 0.064819545
-0.057350896 -0.030318331 -0.060091566 0.013132068 0.00434963 0.050405893 -0.04367773 -0.08057537
-0.02267283 0.0066692294 -0.088285066 -0.07796857 -0.0471219 0.10154722 0.021017222 0.0848393
