expriments/ours/TPCDS/ours/3407/models/79.pt (torch, 422138 bytes, 39 tensors)

feature_proj.weight f4 [64, 53]
000000 8a 53 b4 3c 1b de 49 3e 29 3e 74 be 79 3a c6 3d
       0.02201249 0.19713633 -0.23851837 0.096791215
000010 f5 63 a5 bd 23 38 3e bd bc 3c 99 3d 53 48 10 bd
       -0.08075706 -0.046440255 0.07482287 -0.035225224
000020 3b 05 d2 3d 24 82 2c be fd fc 90 bc 17 34 94 bd
       0.10254904 -0.1684652 -0.01769876 -0.07236498
000030 98 cc b4 bd 07 5e e9 3d 06 ab 78 be a9 6c 33 3d
       -0.08828086 0.113948874 -0.2428399 0.0438048
000040 b0 eb 3b 3e 55 58 2f bc 0c a7 f9 3c f4 53 94 bd
       0.18351626 -0.010702212 0.030475162 -0.07242575
000050 bf c5 0f 3d e1 7b 45 bd 71 a9 6f bd 7a 94 09 3e
       0.035100695 -0.048213843 -0.0585112 0.13435546
000060 99 ca 1c 3b 02 fe d5 3d 87 fc 45 bd e1 88 3e 3c
       0.0023924469 0.10448839 -0.048336532 0.011629314
000070 af 48 85 bd ec be d5 bd 8a 49 bb bd 9e 6f d5 bc
       -0.06508004 -0.10436806 -0.09144886 -0.0260542
000080 ed a1 8b 3d d5 a4 a3 bd c8 68 3b 3d d5 04 9d bd
       0.06817994 -0.079904236 0.045754224 -0.07666937
000090 fe 33 0e be 85 46 23 3e 64 78 ba bd 33 ce 83 bd
       -0.13887021 0.1594487 -0.09104994 -0.06435814
0000a0 90 61 28 be 60 d5 f6 bd 79 35 da 3d 64 8a dd bb
       -0.16443467 -0.12052417 0.1065473 -0.006760882
0000b0 01 d4 95 bd c4 60 99 3d 9b ba 81 3d 97 98 ab bd
       -0.07315827 0.0748916 0.0633442 -0.083787136
0000c0 a9 85 dd 3c fc 8b 18 3d e8 74 a4 bd 08 54 84 3d
       0.027041273 0.037242875 -0.080301106 0.0646134
0000d0 0f ad 27 be e8 26 e8 3c c6 da e8 3d be 25 31 be
       -0.1637461 0.028338864 0.11369853 -0.17299554
0000e0 7c 1a 6b 3c 07 8d 0e 3d 08 37 d3 3d 06 e9 a0 3d
       0.014349576 0.034802463 0.10313231 0.07856946
0000f0 dc f9 2c 3e 80 e2 29 bc c9 29 f3 3e 40 64 e5 3c
       0.16892189 -0.010368943 0.47492817 0.028001904
000100 69 65 19 bd ec 8e fe bc d5 69 06 3e d7 5f 03 3c
       -0.037450228 -0.03107401 0.13126309 0.0080184555
000110 67 87 15 3e 5e 8c d7 3d d1 1e 86 3c 97 89 fd bc
       0.14602433 0.1052482 0.016372116 -0.030949397
000120 5c 2d f3 3d 5c 28 00 3e 84 40 b6 3d e0 26 e9 bd
       0.11873886 0.12515396 0.08899024 -0.11384368
000130 d2 ce 52 bc 26 a0 90 3c f9 12 60 bc f8 46 7d 3d
       -0.012866693 0.01765449 -0.013676398 0.06183526
000140 50 fd 4d 3d f8 b3 18 bd de f4 8d bd df 99 36 bd
       0.050290406 -0.037281007 -0.0693147 -0.044580337
000150 18 9c 20 3c 7f 06 11 be 02 f7 be 3d a1 47 03 be
       0.009802841 -0.14162634 0.09324457 -0.12820293
000160 d7 e8 d5 3d d0 90 1b be 8f 2a d3 3d 04 5f d1 bd
       0.10444801 -0.1519196 0.10310852 -0.10223201
000170 c6 a1 eb bd 16 90 7f bc 87 97 37 3d 71 17 f9 3b
       -0.11505465 -0.015598318 0.044822242 0.0076016714
000180 5d 42 10 bd 7e a9 c5 bd 0c 01 a9 bd aa d5 88 bd
       -0.03521954 -0.09651469 -0.08252153 -0.06681378
000190 90 d7 87 3d 5c ea 14 bc 44 c8 53 bd 1a cf 04 3b
       0.06632912 -0.009089079 -0.05170466 0.0020265044
0001a0 94 36 08 bc eb d5 d2 3c 98 3c c3 bd 1a 6d 08 be
       -0.008313794 0.02573677 -0.09533042 -0.13322869
0001b0 d7 a7 be 3c a0 a6 94 3d 6b 44 07 3e d5 2e 97 3d
       0.023273392 0.07258344 0.13209693 0.073819794
0001c0 49 bb dd 3d 23 ef 0d be f1 bc 88 bd 59 e3 ab 3c
       0.108267374 -0.13860755 -0.06676663 0.020982431
0001d0 cb b3 e7 3c dc f8 67 bd 31 c7 b0 bc 0f 0e ef 3d
       0.028283974 -0.056633815 -0.021579357 0.11672603
0001e0 f9 5e 79 bd 0a f1 02 be 0e ab 50 3d 85 6f f2 3c
       -0.06088159 -0.12787262 0.05094438 0.029594192
0001f0 d6 de 7b 3d 76 26 f9 3c 4c b3 9d bd cc 4e c5 bd
       0.06149181 0.030413847 -0.07700214 -0.0963417
000200 06 00 0e be e2 22 c8 bc 9e f9 41 bc 25 c8 82 bd
       -0.13867196 -0.024430696 -0.0118392985 -0.06385831
000210 f3 d5 6d 3d 73 b5 84 bd 8b d2 9f 3c 6f d2 c1 bd
       0.058065366 -0.06479921 0.019509574 -0.09463965
000220 d8 ce 12 bd 44 a3 5c 3d 80 fb 91 3d 91 62 56 bd
       -0.035841793 0.05386664 0.07128048 -0.052340094
000230 62 aa f3 3c 47 1c 45 bd 02 1a ea bd a7 8f 07 be
       0.02974433 -0.04812267 -0.11430742 -0.13238393
000240 3f f7 09 bc 89 f8 37 3e a7 43 c3 bd 55 b5 69 3d
       -0.0084207645 0.17965902 -0.09534388 0.057057697
000250 d7 67 0a 3e d0 41 d3 bd dd 4c 53 bb cc 5b 89 3d
       0.13516174 -0.10315287 -0.003224186 0.06706962
000260 36 00 7c 3c e1 ac 77 3d 43 9a 2e 3d b0 e1 5b bd
       0.01538091 0.060467605 0.042627584 -0.05368203
000270 40 ad 75 bd fb 60 a0 3d 02 79 db bd c8 cf ea bc
       -0.059979677 0.078309976 -0.1071644 -0.028663531
000280 2d 77 ee 3c 91 55 ed bd 8f 6f bb 3d 31 0a 08 3d
       0.029109562 -0.11588586 0.091521375 0.033212844
000290 9c e7 58 bd aa c6 a3 3d 93 f3 17 3e 1c 81 27 bd
       -0.052955255 0.079968765 0.1483901 -0.040894613
0002a0 00 20 b4 3e cf 80 ea 3c 24 dd 94 bd c1 c1 00 bd
       0.35180664 0.028625874 -0.07268742 -0.031434778
0002b0 4a d2 4d 3d 69 13 5c be 84 6f d4 bd a0 9b af 3d
       0.050249375 -0.2149178 -0.103728324 0.08574605
0002c0 84 3b 9b bd a3 48 67 bd 1e ed 52 bd f1 78 f5 3d
       -0.07579711 -0.056465756 -0.051495664 0.11985958
0002d0 9a 07 0f bd df b9 de bd 2b 4c d0 3d 95 9b 2f bd
       -0.03491936 -0.10875296 0.10170778 -0.042872984
0002e0 00 0b 04 be 16 c9 9a bd d2 8c b8 bc f0 c5 61 3c
       -0.12894821 -0.07557885 -0.022528086 0.013780102
0002f0 2b f3 90 bc 17 52 86 3d bb 96 10 3c 8f bd 18 bd
       -0.017694077 0.06558626 0.008824999 -0.037290152
000300 c6 8e ff 3c b9 0c c4 bd 3b e3 19 bd 3b fb bb 3d
       0.03119601 -0.09572739 -0.03757022 0.09178778
000310 b1 db 09 3d 8d 4a a1 3d 5c 6f 8b 3d ea 74 bb 3c
       0.03365678 0.078755476 0.068083495 0.022882897
000320 5f eb 98 3d 66 f0 7b bd 83 59 f3 3c 12 77 3f 3d
       0.074667685 -0.06150856 0.029705768 0.046744414
000330 01 6e 0a be 4d 93 bf bd 13 c9 23 3d f6 3f 6b 3d
       -0.13518526 -0.09354267 0.03998668 0.057434045
000340 0a e3 eb bd fc eb fd 3c 25 10 be bc 85 84 3d 3e
       -0.11517914 0.030996315 -0.023201058 0.18507583
000350 fa b1 11 be 05 b6 0a 3e d3 18 d2 3d 24 fb e1 bd
       -0.14228049 0.13545997 0.10258641 -0.110342294
000360 77 df f2 bd d0 f7 98 3c 60 1c 08 3d 5a da 50 be
       -0.11859029 0.018672854 0.033230186 -0.20395795
000370 9e c9 df 3c 33 48 26 3e 5e d8 ea 3c 02 f7 ed bd
       0.027317818 0.1623848 0.028667625 -0.116193786
000380 c2 5c bc bb 64 d0 03 3e 27 e4 25 be 28 37 59 3e
       -0.0057483623 0.12872463 -0.16200314 0.21212447
000390 ae a2 14 3e 51 81 d6 3d 9e 5c cc 3d 71 2a 0f be
       0.14515182 0.10473884 0.09978603 -0.13981034
0003a0 52 38 07 3e d1 16 f1 3d df a7 0d 3d 3a 95 2d 3e
       0.13205078 0.1177193 0.034583922 0.16951457
0003b0 c8 c3 38 3c 51 96 4d ba d8 91 c8 3d 91 39 6e bd
       0.011277147 -0.0007842528 0.097934425 -0.05816037
0003c0 58 12 50 b9 76 d2 b5 bd f6 ca d1 bd 23 75 f2 bd
       -0.0001984326 -0.08878033 -0.1024379 -0.11838748
0003d0 26 6f 7b bd 5a bb 7a bd 35 be 57 3c 3d 45 fb 3d
       -0.061385296 -0.06121383 0.0131679075 0.122690655
0003e0 51 cb 31 3e 8d 27 78 3d 49 9f a6 3d 36 7d 30 3d
       0.17362715 0.060584594 0.0813585 0.04308816
0003f0 54 3d 1b 3e 95 28 7d bd 40 9e db 3d 6e 2f 00 3e
       0.15160114 -0.06180628 0.10723543 0.12518093

feature_proj.bias f4 [64]
000000 b0 74 e0 3d 25 4c b8 bc 39 64 7b 3d f6 76 b2 3d
       0.109597564 -0.022497246 0.061374877 0.08714096
000010 13 9a 85 bc e5 66 be 3d 0f 1b 84 bd b1 3c 01 be
       -0.01630882 0.09296969 -0.064504735 -0.12620808
000020 3f c2 2c 3d 4d 4f db bd bb df 80 3d 96 ed 01 3e
       0.042177435 -0.10708485 0.06292673 0.12688288
000030 7d 35 d2 3d ea 5b cf bd f9 f3 95 3c d2 a8 c8 3b
       0.10264108 -0.10124953 0.018304812 0.0061236406
000040 d3 e5 0a bd ab c3 a7 bd aa 0a b4 bd 0c b4 cd 3d
       -0.033910584 -0.081916176 -0.087910965 0.10044107
000050 27 71 24 3d e6 10 49 bd fc 9e c4 bd 94 73 ae bc
       0.040146973 -0.04908838 -0.09600636 -0.021295346
000060 54 6d 11 3b 00 d8 bb 3b a4 e6 4a 3d 4f 2e 1c 3d
       0.0022190409 0.0057325363 0.049536362 0.0381301
000070 4c 45 8f bd 17 8a a5 bc 3d 1b 32 bd 4b 6a d0 3b
       -0.06995639 -0.020207448 -0.043483008 0.0063603274
000080 a2 25 e5 3d 24 6c 07 bd a7 d0 d3 3c 7d 1b db 3d
       0.111888185 -0.033062115 0.02585633 0.10698602
000090 f9 9d ae bd 42 3f 3c 3d c7 36 c4 3d f0 6a 71 bd
       -0.08526225 0.045958765 0.095807604 -0.058939874
0000a0 8b 22 6d 3d bd 20 9d 3d 9b 65 5d 3d e8 b2 42 bd
       0.05789427 0.0767226 0.054051977 -0.0475339
0000b0 74 47 c0 3d 07 d4 d0 3b 7f ee 84 3d 86 a6 b0 bd
       0.093886286 0.006372932 0.06490802 -0.08625512
0000c0 1c 7f 95 3c c6 63 00 be db 17 fa bd 40 cb b4 bd
       0.018249087 -0.1253806 -0.12211581 -0.08827829
0000d0 b8 d4 c1 bd c2 9f 00 3d 3a 19 04 bb 25 e3 0b 3d
       -0.09464401 0.031402357 -0.0020156638 0.03415217
0000e0 2b 41 8e bd 81 fd 1a 3d 77 84 9d 3d 96 f2 5c bc
       -0.069460236 0.037839416 0.07691281 -0.013485571
0000f0 76 10 db 3d d0 1e 8b bd 44 7f 87 3b c6 02 a9 bc
       0.10696499 -0.067929864 0.0041350443 -0.020631205

mamba_layers.0.norm1.weight f4 [64]
000000 33 6e 83 3f 40 1d 7f 3f 35 26 80 3f 0f 78 81 3f
       1.0268005 0.99654007 1.001166 1.0114764
000010 54 9b 84 3f a2 2e 83 3f 7f 46 83 3f 4d b2 80 3f
       1.0359902 1.0248606 1.0255889 1.0054413
000020 c9 1f 80 3f 90 4c 81 3f ae 8d 7f 3f a0 81 80 3f
       1.00097 1.010149 0.9982556 1.0039558
000030 74 5f 7f 3f 4d 6a 81 3f 61 f0 82 3f 29 95 7d 3f
       0.99755025 1.0110565 1.0229608 0.99055725
000040 8b b3 81 3f f4 03 80 3f ed 55 82 3f fe ec 82 3f
       1.0132917 1.0001206 1.0182472 1.0228574
000050 a2 6a 81 3f fe 36 81 3f 33 a9 7c 3f 31 3d 80 3f
       1.0110667 1.0094907 0.9869568 1.0018674
000060 38 38 84 3f 96 e6 80 3f d1 59 83 3f a3 16 81 3f
       1.0329657 1.0070369 1.0261785 1.0085033
000070 5b d5 83 3f 55 04 82 3f 8d a5 81 3f 60 1c 88 3f
       1.0299486 1.0157572 1.0128647 1.0633659
000080 77 51 7e 3f 40 71 7f 3f f4 01 83 3f df 54 83 3f
       0.99343055 0.9978218 1.0234971 1.0260276
000090 fb b2 7e 3f 24 e0 81 3f 92 8b 7c 3f 0b 8b 80 3f
       0.9949185 1.0146527 0.9865047 1.0042433
0000a0 a0 42 83 3f 19 49 83 3f 4b 24 7d 3f 98 4e 84 3f
       1.0254707 1.0256683 0.98883504 1.0336485
0000b0 c9 7e 84 3f 6d 58 81 3f cb 6f 7f 3f ed 3b 7f 3f
       1.0351192 1.010511 0.9977996 0.99700814
0000c0 00 d8 82 3f 16 97 83 3f 9b be 84 3f 6c 7d 80 3f
       1.0222168 1.0280483 1.0370668 1.0038276
0000d0 8d f0 80 3f be 0f 82 3f f3 80 80 3f c9 e2 82 3f
       1.007341 1.0161054 1.0039352 1.0225459
0000e0 fd 99 83 3f d0 ee 82 3f 0a a6 82 3f 61 e6 81 3f
       1.0281368 1.022913 1.0206921 1.0148431
0000f0 c2 76 81 3f e9 82 82 3f c9 de 82 3f 72 9c 82 3f
       1.0114367 1.0196201 1.0224239 1.0203993

mamba_layers.0.norm1.bias f4 [64]
000000 ae d0 45 bb 3e 7f 5d 3c 3d 88 be b8 8d 81 e7 ba
       -0.0030184197 0.013519106 -9.085282e-05 -0.001766251
000010 b7 84 cd 3b 05 c9 19 3c 6a 5a 81 ba 82 4e 25 bc
       0.0062719244 0.009386306 -0.0009868864 -0.0100895185
000020 74 14 49 bc b5 a2 8a 3a 7f 88 49 3c 7a d6 a0 bb
       -0.012272943 0.0010577055 0.01230061 -0.00490838
000030 47 98 8b bc 1b 80 a7 3a a5 e4 3e ba 4a 57 85 3b
       -0.017040385 0.0012779267 -0.00072819955 0.0040692436
000040 fb 71 05 3c 02 e0 2a 3c c6 46 25 3c 47 d4 09 bc
       0.008144851 0.010429384 0.0100876745 -0.008412427
000050 62 9e fd 3b 76 24 43 bb d2 61 0e 3d c0 1f 2f bc
       0.007739828 -0.002977637 0.034761257 -0.010688722
000060 7b 0c fd ba b1 3e e2 ba 0b 9e 26 3c ef 6f 9f 3c
       -0.0019306088 -0.0017261115 0.010169516 0.019462554
000070 35 57 f2 3b 0a ea 91 bc b3 24 7c bc c9 74 bb 3b
       0.00739565 -0.017811794 -0.015389609 0.005720709
000080 9c 12 3f bc 1d bb ba bb 72 f9 14 3c f5 1b 15 3b
       -0.011662152 -0.005698575 0.0090926755 0.002275226
000090 8c b8 0b 3c 29 9e 8b bc aa 4e fb ba 4e d5 78 bb
       0.008527886 -0.01704319 -0.0019173224 -0.0037968936
0000a0 8c c8 1b 3c 82 c7 0a 3c 91 ea 3a bc a6 76 2a bc
       0.009508263 0.008470418 -0.011408464 -0.010404265
0000b0 0a 60 55 3b 66 aa 45 bc c2 77 10 3c 1f d3 1e 3c
       0.0032558464 -0.012064552 0.008817615 0.00969389
0000c0 18 f1 69 bc 95 9a 45 3b f1 0c 77 bc 5c d0 40 3c
       -0.014278673 0.0030151953 -0.015078769 0.011768427
0000d0 ae ee 11 3c ae 43 f0 3b 15 60 c0 bc 99 0a a0 3c
       0.008907003 0.007332287 -0.023483315 0.019536303
0000e0 8e 49 13 3c 2f d7 bb bb 42 81 50 bc 17 6d f7 bb
       0.008989705 -0.005732439 -0.01272613 -0.0075508463
0000f0 7f c1 05 bc 43 7b b5 bb 49 02 f9 bb b9 10 2f 3c
       -0.008163809 -0.0055383756 -0.0075991494 0.010685139

mamba_layers.0.mamba.A_log f4 [128, 16]
000000 a9 19 10 bc 54 fd 36 3f 6c 25 8b 3f 7e 87 b2 3f
       -0.00879518 0.714803 1.0870795 1.3947599
000010 ee 49 cc 3f e3 19 e2 3f 1c f8 f8 3f 37 9b 05 40
       1.5960062 1.766415 1.9450717 2.0875986
000020 7a ab 0d 40 0f 8a 11 40 5b d0 19 40 1d 9f 1c 40
       2.213591 2.2740514 2.403342 2.4472115
000030 87 76 22 40 be 0d 28 40 30 a8 2e 40 76 9a 31 40
       2.5384843 2.6258388 2.7290154 2.7750525
000040 7f e1 da ba 53 a6 32 3f 0e b8 8b 3f 07 f4 b1 3f
       -0.0016699283 0.6978504 1.0915544 1.3902596
000050 b5 d7 cc 3f 31 2b e4 3f 77 bd f8 3f ab f9 04 40
       1.6003329 1.7825681 1.943282 2.0777385
000060 63 f7 0c 40 c6 5a 12 40 ac e2 19 40 10 09 1f 40
       2.2025993 2.2867904 2.40446 2.4849281
000070 af 53 23 40 83 47 29 40 29 b5 2d 40 2e c7 31 40
       2.5519826 2.6449897 2.7141821 2.777782
000080 92 42 08 3d e1 d0 1c 3f 3a c8 8d 3f 17 8e a8 3f
       0.03326661 0.61256224 1.1076729 1.3168362
000090 29 b7 ce 3f 26 4a e6 3f ac 4c f1 3f 4c fc 00 40
       1.6149646 1.7991378 1.8851523 2.015399
0000a0 32 39 09 40 22 40 16 40 67 93 17 40 bc 55 22 40
       2.144116 2.3476644 2.3683717 2.5364828
0000b0 cc e7 25 40 ed 5c 29 40 e2 6c 2a 40 0a fd 2f 40
       2.5922728 2.6462967 2.6628957 2.7498193
0000c0 a7 28 0b bd e3 00 20 3f 54 01 89 3f f3 e9 a4 3f
       -0.033974316 0.62501353 1.070353 1.2883896
0000d0 5a 90 c3 3f 1e fd e7 3f 3e 13 f4 3f f0 87 01 40
       1.5278428 1.812412 1.9068372 2.023922
0000e0 9e d1 09 40 65 25 14 40 26 79 1a 40 dc 7c 25 40
       2.153419 2.3147824 2.4136443 2.5857458
0000f0 54 13 25 40 64 2d 28 40 5c 1b 2b 40 b1 15 30 40
       2.5793047 2.6277704 2.673545 2.751324
000100 18 90 04 3c 9f 85 2d 3f 37 14 8c 3f fa 93 b0 3f
       0.008090995 0.67782015 1.0943669 1.3795159
000110 04 43 cc 3f 25 23 e2 3f 02 57 f9 3f fa 79 04 40
       1.5957952 1.7666975 1.9479678 2.0699449
000120 30 be 0c 40 82 ee 12 40 ff 64 1a 40 af a9 1e 40
       2.1991081 2.2958074 2.4124143 2.4791067
000130 63 5a 24 40 98 4c 27 40 ef a2 2e 40 ad d4 31 40
       2.5680168 2.61405 2.7286947 2.7786057
000140 03 fe b7 3c 2a c5 44 3f 9e c4 8e 3f c1 90 ba 3f
       0.02245999 0.7686335 1.1153753 1.4575425
000150 46 0a d0 3f 7b a0 ee 3f ee 1e 01 40 45 ac 09 40
       1.6253135 1.8642725 2.0175128 2.1511395
000160 bd 65 0f 40 e4 65 12 40 b2 67 22 40 a4 58 1b 40
       2.2405846 2.287469 2.537579 2.4272852
000170 43 0c 24 40 4e 8c 2c 40 ab 9a 32 40 2b 17 34 40
       2.5632484 2.6960635 2.7906902 2.813914
000180 7f 86 1b 38 b2 59 2f 3f 5e 99 8c 3f d2 52 b0 3f
       3.708014e-05 0.6849624 1.0984304 1.3775275
000190 10 b4 cd 3f 0f 61 e5 3f de f1 f7 3f ab c6 04 40
       1.6070576 1.7920245 1.9370687 2.0746257
0001a0 ac 63 0c 40 f9 58 13 40 30 00 19 40 8e ef 1d 40
       2.1935835 2.3023055 2.3906364 2.4677463
0001b0 6b d1 23 40 af 51 28 40 80 c9 2c 40 10 51 31 40
       2.5596569 2.6299856 2.6997986 2.7705727
0001c0 cc c8 84 3b d5 e1 34 3f cd cd 8d 3f eb 6b b6 3f
       0.004052257 0.7065709 1.107843 1.4251684
0001d0 f2 0f ce 3f 29 49 e3 3f 11 f7 fe 3f a2 41 07 40
       1.6098616 1.7756702 1.9919149 2.113381
0001e0 e8 ae 0e 40 12 b1 12 40 91 38 1d 40 08 b6 1c 40
       2.2294254 2.2920575 2.4565775 2.4486103
0001f0 21 43 24 40 87 d8 27 40 fb 63 30 40 e7 22 33 40
       2.5665972 2.6225908 2.7561023 2.7990053
000200 7e 79 c7 bb 05 06 40 3f 99 e4 8a 3f 90 c9 b8 3f
       -0.006087481 0.75009185 1.0851012 1.4436512
000210 df a5 ce 3f 56 89 e2 3f 30 5d 00 40 c5 ee 07 40
       1.614437 1.7698162 2.0056877 2.1239483
000220 2a 24 0f 40 f0 f4 10 40 31 0d 1d 40 58 8e 1d 40
       2.2365823 2.2649498 2.4539301 2.461813
000230 83 45 22 40 5d 28 26 40 4d c0 31 40 7a d9 32 40
       2.5354927 2.5962136 2.777362 2.7945237
000240 c9 c7 cf 3a 1f 27 30 3f 68 b4 8c 3f 1f 82 b0 3f
       0.0015852387 0.68809694 1.0992556 1.378971
000250 46 dc ce 3f 64 a9 e2 3f 17 14 f8 3f 60 a9 04 40
       1.6160972 1.7707944 1.9381131 2.0728378
000260 fc 63 0c 40 e2 81 13 40 72 92 18 40 83 74 1d 40
       2.1936026 2.3048024 2.3839383 2.4602363
000270 54 ea 23 40 2b ac 29 40 87 f5 2c 40 7b 86 31 40
       2.5611773 2.6511333 2.7024858 2.773833
000280 70 a8 83 ba 3a 21 2f 3f 24 a4 8a 3f d2 15 b0 3f
       -0.0010044705 0.68410075 1.0831342 1.3756659
000290 97 6e cb 3f 99 bd e3 3f ef bd f6 3f 79 6e 04 40
       1.5893124 1.7792236 1.9276713 2.0692427
0002a0 12 80 0c 40 8c be 12 40 8a fa 18 40 86 33 21 40
       2.1953168 2.29288 2.3902917 2.5187697
0002b0 3a 58 24 40 c8 bd 2c 40 73 35 2d 40 6d ba 31 40
       2.567885 2.6990833 2.7063873 2.7770035
0002c0 91 3c e8 3c df 78 28 3f c6 8f 8e 3f 5a de ad 3f
       0.028349193 0.65809435 1.1137626 1.3583481
0002d0 95 44 d0 3f f1 8c e8 3f ef d0 f3 3f 55 5f 03 40
       1.627093 1.8168012 1.9048136 2.0526936
0002e0 2f 68 0a 40 38 ad 15 40 40 36 16 40 b2 f6 1f 40
       2.1626089 2.3386974 2.3470612 2.499432
0002f0 c5 f4 25 40 66 bc 28 40 c8 90 2a 40 f0 d0 30 40
       2.5930645 2.636499 2.6650867 2.7627525
000300 38 74 e4 3c 41 54 25 3f e0 fa 8e 3f 2f 7f ab 3f
       0.027887449 0.64581686 1.1170311 1.3398188
000310 b4 07 cd 3f 64 9f e4 3f 99 bc f8 3f 0a 57 01 40
       1.6017976 1.7861142 1.9432555 2.0209374
000320 02 28 08 40 b6 b1 15 40 14 e9 19 40 a8 1f 1f 40
       2.127442 2.3389716 2.404851 2.4863071
000330 1b 23 23 40 fc 5f 24 40 a0 c6 2c 40 4c 8d 30 40
       2.5490177 2.5683584 2.699623 2.758624
000340 20 49 1f 3b 83 53 2a 3f 83 68 8d 3f e5 64 ad 3f
       0.002430506 0.6653368 1.104752 1.3546416
000350 0d 8c ce 3f 24 af e9 3f 06 64 f7 3f 64 03 05 40
       1.613649 1.8256574 1.93274 2.078332
000360 75 0a 0c 40 01 d7 13 40 68 44 18 40 48 b3 1f 40
       2.1881382 2.3099978 2.3791752 2.4953175
000370 fb 79 24 40 21 c8 29 40 4f c6 2b 40 64 6b 31 40
       2.569945 2.65284 2.6839788 2.7721796
000380 54 7d 81 bc 12 e2 26 3f e1 6f 87 3f fb 85 ad 3f
       -0.015806831 0.65188706 1.0581018 1.3556513
000390 77 14 ca 3f 3b 71 e2 3f 1f 6d f0 3f 36 de 01 40
       1.5787495 1.7690805 1.8783301 2.0291877
0003a0 79 b9 0d 40 99 83 11 40 eb 57 18 40 5c d0 21 40
       2.2144454 2.273657 2.380366 2.5283422
0003b0 71 b8 22 40 1e f3 26 40 57 98 2b 40 b3 6b 31 40
       2.5425074 2.6085887 2.681173 2.7721984
0003c0 64 33 16 bb 57 19 26 3f 6f 66 8d 3f a4 31 ac 3f
       -0.0022918815 0.64882416 1.1046885 1.3452649
0003d0 0b f4 ca 3f 1f 65 e3 3f 95 45 f6 3f 74 96 03 40
       1.5855726 1.7765235 1.9239985 2.056058
0003e0 c0 0c 0a 40 10 b5 13 40 1e 48 17 40 ed a0 21 40
       2.1570282 2.3079262 2.3637767 2.5254471
0003f0 e9 35 24 40 c8 fc 28 40 2c ac 2b 40 6d a6 31 40
       2.5657904 2.6404285 2.6823835 2.7757828

mamba_layers.0.mamba.D f4 [128]
000000 b3 e8 7e 3f d1 3d 82 3f 1d b0 7a 3f 7b bf 80 3f
       0.9957382 1.0175115 0.9792498 1.0058435
000010 6c 28 7f 3f 44 5d 85 3f 93 fb 7d 3f 72 50 82 3f
       0.99671054 1.0419087 0.99211997 1.01808
000020 b7 82 81 3f 88 79 86 3f 82 38 7f 3f 55 53 80 3f
       1.0118016 1.0505838 0.996956 1.0025431
000030 bd c0 81 3f 25 24 7e 3f d8 73 85 3f 59 7b 7f 3f
       1.0136944 0.992739 1.0425978 0.9979759
000040 9d 41 82 3f 30 49 7e 3f 0c 91 7e 3f 0d 10 84 3f
       1.0176274 0.99330425 0.99440074 1.0317398
000050 d9 78 81 3f 40 ff 7d 3f 90 de 7d 3f 72 7c 80 3f
       1.0115005 0.99217606 0.9916773 1.0037978
000060 81 93 7d 3f 87 d7 7d 3f a0 32 89 3f 2a 6f 81 3f
       0.990532 0.99156994 1.0718575 1.011205
000070 ef cf 7f 3f 63 99 81 3f 47 13 7d 3f e2 ea 7f 3f
       0.99926656 1.0124935 0.9885754 0.9996778
000080 34 5e 80 3f d4 7c 82 3f ec e9 7b 3f 1c bf 7c 3f
       1.0028749 1.0194345 0.9840381 0.9872911
000090 a2 f3 7f 3f 97 b2 80 3f d6 52 7f 3f 9b 27 7d 3f
       0.9998113 1.0054501 0.9973577 0.9888856
0000a0 7f eb 7f 3f ab a4 81 3f d0 de 7f 3f 5c 48 80 3f
       0.99968714 1.0128378 0.9994936 1.0022082
0000b0 a6 80 78 3f 53 ad 80 3f d0 18 7c 3f ab bc 7c 3f
       0.970713 1.0052894 0.9847536 0.98725384
0000c0 5c 9d 80 3f 20 bf 84 3f 0e b4 7a 3f ba 4a 7f 3f
       1.0048022 1.0370827 0.9793099 0.997234
0000d0 78 ab 7c 3f 36 41 7d 3f 20 52 81 3f 52 fe 85 3f
       0.9869914 0.9892763 1.0103188 1.0468237
0000e0 c5 ed 81 3f 02 7d 7d 3f 4b 0d 87 3f 78 5e 84 3f
       1.0150687 0.9901887 1.0550932 1.034133
0000f0 0a 4a 80 3f b5 e0 86 3f 92 79 7f 3f 25 e8 81 3f
       1.0022595 1.0537325 0.99794877 1.014897
000100 6f 70 7f 3f 1a 2b 7d 3f db 5f 7e 3f 95 52 7e 3f
       0.99780935 0.9889389 0.99365014 0.9934476
000110 85 bf 80 3f fa 24 81 3f 07 60 7d 3f 4e ab 83 3f
       1.0058447 1.0089409 0.9897465 1.0286653
000120 48 9a 80 3f fe bc 7f 3f 96 3e 7f 3f 87 dc 81 3f
       1.0047083 0.99897754 0.99704874 1.0145425
000130 7c a8 80 3f b2 dc 80 3f 28 54 7d 3f f9 07 83 3f
       1.0051417 1.0067351 0.9895654 1.0236808
000140 fb d6 81 3f b0 b6 8a 3f 8e 26 85 3f 36 46 83 3f
       1.0143732 1.0837002 1.0402391 1.0255802
000150 6a 70 80 3f aa c4 7e 3f ce b3 7b 3f d5 0b 84 3f
       1.0034306 0.99518836 0.98321235 1.0316111
000160 da c5 7c 3f f9 06 7d 3f 1a 54 80 3f c9 5b 80 3f
       0.987394 0.98838764 1.0025666 1.0028011
000170 87 e0 82 3f c9 a8 80 3f df f9 7c 3f 9e 2b 81 3f
       1.022477 1.0051509 0.98818773 1.0091436
000180 c5 4c 7b 3f 33 68 80 3f 78 cd 81 3f 94 72 7f 3f
       0.98164016 1.0031799 1.0140829 0.9978421
000190 41 8b 7d 3f 06 d1 7f 3f 52 8f 79 3f fb e3 7f 3f
       0.9904061 0.9992832 0.97484314 0.99957246
0001a0 ae 4f 81 3f 1d 9b 7d 3f d1 49 85 3f ed 9d 80 3f
       1.0102441 0.9906481 1.0413152 1.0048195
0001b0 ee b3 7f 3f c2 04 7a 3f 78 e5 80 3f 86 e4 7d 3f
       0.99883926 0.9766351 1.0070028 0.99176824
0001c0 02 b5 88 3f cb fc 80 3f 58 3a 80 3f 71 c5 7c 3f
       1.0680239 1.0077146 1.0017805 0.9873877
0001d0 fc c4 7e 3f a5 c8 7e 3f 9a 2c 80 3f d4 49 7d 3f
       0.99519324 0.9952491 1.0013611 0.9894078
0001e0 e0 bf 81 3f fe 19 81 3f fa ed 83 3f 8c 92 7f 3f
       1.0136681 1.0086057 1.0307 0.9983299
0001f0 c3 4f 82 3f 30 fa 80 3f d0 76 81 3f 71 fa 7e 3f
       1.0180591 1.0076351 1.0114384 0.99600893

mamba_layers.0.mamba.learned_average f4 [128, 16]
000000 8d c7 f8 3e 2f 08 fd 3e e0 18 f7 3e bc ae f8 3e
       0.48589745 0.49420306 0.48261166 0.48570812
000010 b3 ad f8 3e fb b9 0e 3f 17 02 e0 3e 80 94 f2 3e
       0.48570022 0.55752534 0.43751594 0.47378922
000020 33 00 fe 3e 8b ea f3 3e 7b b7 e7 3e 46 be 2e 3f
       0.49609527 0.4763988 0.45257172 0.68259084
000030 d8 a7 01 3f 19 83 0e 3f a9 5e f4 3e 60 4b 03 3f
       0.50646734 0.5566879 0.4772847 0.5128689
000040 d6 35 e8 3e 92 2e 08 3f 17 b0 f7 3e 90 53 06 3f
       0.45353574 0.5319606 0.48376533 0.52471256
000050 ae 31 f2 3e 22 0a f8 3e c3 c1 ff 3e 6e b0 04 3f
       0.47303528 0.4844523 0.49952516 0.5183171
000060 d9 37 05 3f 35 6f ef 3e 14 e1 02 3f ac 9d 12 3f
       0.5203834 0.46764532 0.5112469 0.5727184
000070 11 65 f3 3e 7c 13 09 3f 4e a8 04 3f c7 c7 01 3f
       0.47538045 0.53545356 0.5181931 0.5069546
000080 f3 83 0d 3f ef b6 df 3e 84 92 01 3f 08 8a e4 3e
       0.55279464 0.43694255 0.5061419 0.4463656
000090 aa 52 03 3f 8f e2 05 3f ce bb f6 3e 66 7a 07 3f
       0.5129801 0.52298826 0.4819016 0.5292114
0000a0 41 f3 f2 3e d4 56 08 3f a3 ec f1 3e 53 d2 02 3f
       0.47451213 0.5325749 0.47250852 0.5110218
0000b0 ec 17 04 3f c7 48 0f 3f 8f 4e 06 3f 0d 6b 01 3f
       0.51599 0.55970424 0.5246362 0.5055397
0000c0 6a 20 0b 3f b1 a7 8d 3e 84 e7 04 3f 19 ba 8f 3e
       0.54346335 0.27667 0.51915765 0.2807167
0000d0 9a c9 e1 3e f1 b9 cb 3e 71 0b d6 3e f2 e0 cc 3e
       0.44099122 0.397903 0.41805604 0.4001537
0000e0 c7 9d eb 3e 8a 19 01 3f de dc eb 3e 64 9a c8 3e
       0.46018812 0.50429595 0.46066946 0.3918029
0000f0 5b 82 d4 3e c6 90 f9 3e 50 54 02 3f 91 26 04 3f
       0.41505703 0.48743266 0.509099 0.5162135
000100 2d 19 ee 3e c1 79 07 3f f3 4d f6 3e 7b 9f 06 3f
       0.46503583 0.52920157 0.48106346 0.525871
000110 b4 3c f2 3e 61 23 f6 3e b9 85 fc 3e d1 c3 04 3f
       0.47311938 0.48073867 0.49320772 0.5186129
000120 33 ac 03 3f 77 7f f2 3e 24 a0 05 3f 8b a2 05 3f
       0.5143463 0.47362873 0.5219748 0.52201146
000130 57 b0 f5 3e 7f 33 11 3f 0a 6e 01 3f a5 d5 03 3f
       0.479861 0.567192 0.5055853 0.5149787
000140 e7 2e ee 3e a9 20 10 3f dc e6 f1 3e e1 83 12 3f
       0.4652016 0.56299835 0.47246444 0.5723248
000150 26 ed fb 3e c4 bf f2 3e 74 ab 05 3f 97 26 0e 3f
       0.49204367 0.4741193 0.5221474 0.55527633
000160 c4 73 0a 3f 81 02 ef 3e bc 8c ef 3e c8 56 e6 3e
       0.54082894 0.46681598 0.4678706 0.44988084
000170 7f 90 fa 3e ab 1b ec 3e 7a bf f5 3e 5d d7 04 3f
       0.48938367 0.4611486 0.47997648 0.5189112
000180 0d 8b 09 3f ec 73 bd 3e d6 55 f6 3e 2d b2 ac 3e
       0.537278 0.37002504 0.48112363 0.33729687
000190 a0 7c 06 3f fe 0b 24 3f 1d e6 ba 3e 3f 4f cf 3e
       0.5253391 0.640808 0.36503688 0.40490147
0001a0 22 54 f5 3e 3f 42 08 3f 3d 92 b8 3e 72 75 5f 3f
       0.4791575 0.53226084 0.3604907 0.8728858
0001b0 c4 b5 12 3f 2f 36 3b 3f 3c 66 cb 3e 5b ae d8 3e
       0.573086 0.7312955 0.39726436 0.42320523
0001c0 d8 fe 09 3f bd 58 eb 3e 09 8d 01 3f ca 92 f4 3e
       0.53904486 0.4596614 0.5060583 0.4776824
0001d0 20 8e 0b 3f 90 68 02 3f 16 1c 07 3f 1e 98 06 3f
       0.5451374 0.509408 0.5277723 0.5257586
0001e0 c9 9a 01 3f fc 09 03 3f ab 6f 1a 3f f1 8c 1a 3f
       0.5062681 0.5118711 0.6032664 0.6037131
0001f0 0c 21 09 3f de 0b 01 3f f3 3d 19 3f 42 5b 01 3f
       0.5356605 0.5040873 0.5986015 0.50529873
000200 45 ae 06 3f b1 70 02 3f 87 22 04 3f f2 1c 0e 3f
       0.52609664 0.50953203 0.51615185 0.5551292
000210 ea cd 0b 3f f6 8e f9 3e fe 42 13 3f 82 f2 12 3f
       0.54611075 0.48741883 0.57524097 0.5740129
000220 c7 39 03 3f 99 be 01 3f 05 31 16 3f 0b ec b0 3e
       0.51260036 0.50681454 0.5866855 0.34555086
000230 ab 5e fb 3e 3c 6c da 3e c7 16 0c 3f 11 47 0a 3f
       0.49095663 0.426607 0.54722255 0.5401469
000240 a9 cf e7 3e 91 7a 1b 3f 75 18 f3 3e cc 11 25 3f
       0.4527562 0.60733896 0.47479597 0.6448028
000250 15 86 12 3f c3 68 2d 3f cc 05 12 3f fb 13 08 3f
       0.5723584 0.6773798 0.57040095 0.5315549
000260 3f 98 11 3f ec 91 dc 3e ea 17 01 3f 8e 9d 0f 3f
       0.56872934 0.4308008 0.50427115 0.56099784
000270 ce a4 e0 3e 45 a8 ef 3e e6 f2 cf 3e db a0 fc 3e
       0.43875736 0.46808067 0.40615004 0.49341473
000280 d0 aa f5 3e 58 ed 02 3f 4a 9a f3 3e 18 1a fe 3e
       0.47981882 0.5114341 0.4757865 0.49629283
000290 d6 ba f5 3e 68 46 01 3f 18 55 e4 3e cf bf eb 3e
       0.47994107 0.50498056 0.4459617 0.46044776
0002a0 b0 bb 02 3f cb 30 ee 3e a2 a1 f9 3e 04 4f 15 3f
       0.5106764 0.465216 0.4875613 0.58323693
0002b0 35 1b f7 3e 4b 7c 07 3f 15 55 fd 3e e7 0f 01 3f
       0.48262945 0.5292403 0.49478975 0.5041489
0002c0 79 52 08 3f e2 3d f5 3e a7 98 02 3f ac a8 fa 3e
       0.53250843 0.47898775 0.5101418 0.4895681
0002d0 19 8c 07 3f 51 ad 0f 3f ac b2 e8 3e c3 f9 ef 3e
       0.5294815 0.56123835 0.45448816 0.4687024
0002e0 26 fe f8 3e 07 c0 04 3f 31 3e f5 3e 26 40 1c 3f
       0.486314 0.5185551 0.4789901 0.6103538
0002f0 c7 94 03 3f 9a e4 01 3f 05 a0 ed 3e d7 dc f8 3e
       0.5139889 0.50739443 0.46411148 0.48605987
000300 50 fc 13 3f 10 bf 02 3f cf 5e 05 3f 5f 2e 01 3f
       0.57806873 0.5107279 0.5209779 0.5046138
000310 f7 c1 05 3f 07 82 01 3f ca 69 06 3f bb 67 0b 3f
       0.5224909 0.5058903 0.5250517 0.54455155
000320 58 b4 07 3f f5 98 0b 3f 51 3b fd 3e db c7 ea 3e
       0.5300956 0.5453027 0.49459317 0.45855603
000330 87 e1 0e 3f e2 5b f1 3e cd 78 0b 3f 04 a9 f6 3e
       0.5581288 0.47140414 0.544812 0.48175824
000340 ff 66 0a 3f e8 77 e8 3e be 72 08 3f 43 22 ea 3e
       0.5406341 0.4540398 0.5330008 0.45729265
000350 be 7c 08 3f 44 7a 0a 3f 0f 40 ee 3e bc 24 e7 3e
       0.5331534 0.5409281 0.46533248 0.45145214
000360 a6 01 eb 3e de 6f 09 3f c2 2f e3 3e 0e 90 ef 3e
       0.45899695 0.5368632 0.44372374 0.46789593
000370 aa d6 07 3f 45 3c e0 3e 04 09 e2 3e d5 ba fc 3e
       0.53061926 0.43795982 0.44147503 0.49361292
000380 7b e8 f2 3e 0e b4 23 3f 95 c3 fb 3e 0e 90 27 3f
       0.47442994 0.63946617 0.49172655 0.65454185
000390 63 04 fa 3e 33 2b f9 3e 9e 78 22 3f 93 f0 22 3f
       0.48831472 0.4866577 0.634653 0.6364834
0003a0 19 af 17 3f c5 df d4 3e e0 28 1e 3f 1d 69 6c 3e
       0.5925155 0.41576973 0.6178112 0.23086973
0003b0 3c 1d cc 3e c2 c7 e2 3e 2f 8b 1b 3f f4 0e 07 3f
       0.39866054 0.44293028 0.6075925 0.5275719
0003c0 cb e6 0c 3f 7e 5f e2 3e 1e 65 04 3f c6 6f e7 3e
       0.5503966 0.4421348 0.5171679 0.45202464
0003d0 2e 7c 0b 3f 6b 82 04 3f cc b0 f8 3e d6 ef ec 3e
       0.5448636 0.517615 0.48572385 0.4627673
0003e0 cd 85 ed 3e 32 2c 09 3f 9a dd ef 3e 45 1d 03 3f
       0.46391144 0.5358306 0.46848756 0.51216537
0003f0 26 0f 0a 3f 95 b2 f0 3e c4 00 ea 3e ea 41 f7 3e
       0.53929365 0.47011247 0.4570371 0.48292476

mamba_layers.0.mamba.in_proj.weight f4 [256, 64]
000000 ad 2a 98 bd 7a e3 d9 3d 4b 2c 1f 3d 8e 9d b7 bd
       -0.07430015 0.10639091 0.0388606 -0.08965598
000010 4b ed 98 bd 76 5c 4a bd 3c 60 ce bd 64 73 8a 3c
       -0.07467135 -0.049404584 -0.10076949 0.016900726
000020 6a 6d a5 3d e2 b1 a8 bc d7 43 23 3d 1c 1d d1 3d
       0.0807751 -0.020592634 0.03985962 0.1021063
000030 08 da 3d 3d c7 d1 69 bc 55 16 d8 bd 13 5d c3 bd
       0.04635051 -0.014271206 -0.105511345 -0.09539237
000040 2b 72 b2 bd 13 45 af bd 39 53 d5 3d c2 75 69 3a
       -0.08713182 -0.08558097 0.10416264 0.0008905792
000050 f4 3f 50 3d 0c da 68 3d 35 b8 a8 3d 96 f9 09 3e
       0.05084224 0.05684857 0.0823826 0.13474116
000060 aa a9 b7 bd e5 c3 f3 3d 63 a3 01 3e 4e f6 67 bd
       -0.08967908 0.11902598 0.12659983 -0.05663138
000070 3a 6c cb 3c 74 98 ad 3d d3 9e 33 3d 88 30 87 bb
       0.02483188 0.08476344 0.04385264 -0.0041256584
000080 05 79 8b 3d a7 55 a7 3d 34 05 9b 3d 81 df f9 bd
       0.06810192 0.08170634 0.07569352 -0.12200833
000090 dd da 0a 3d ec 46 67 3c 9c cc 2b bd 4f e1 dc bb
       0.03390013 0.01411603 -0.041943178 -0.006740726
0000a0 fa 69 28 39 0f 32 e2 3d 65 19 ab bd 96 d4 46 3c
       0.00016061208 0.11044704 -0.08354453 0.012135645
0000b0 e8 e6 ab bc 11 61 2d bd b5 5d 19 bd bd 0f 4f bd
       -0.020984128 -0.042328898 -0.03744288 -0.05055212
0000c0 82 93 9b 3d 02 78 ec bd 94 e6 7e ba 50 8b 37 3d
       0.07596494 -0.11546327 -0.000972369 0.044810593
0000d0 a7 15 14 3d 9d 95 16 3c 2e a4 3f bc 58 8a d7 bd
       0.03615346 0.009190944 -0.011696858 -0.10524434
0000e0 e5 5a d0 3d d1 51 f0 bd be e9 1f bd da e5 ed 3c
       0.10173587 -0.11734355 -0.039041273 0.029040266
0000f0 3b f5 84 bd 1a e3 49 bc e1 c9 0e bd 29 91 a8 3d
       -0.064920865 -0.012322212 -0.034860495 0.08230812
000100 c5 75 6b 3d a6 15 f7 bc 3f 91 a3 bd 70 a4 a0 3d
       0.05748536 -0.03016169 -0.07986688 0.07843864
000110 82 bd 87 bd 45 92 f0 3d 3a 0d f0 bd 78 4a 95 3c
       -0.066279426 0.11746649 -0.11721273 0.018223986
000120 b8 2f ba 3c 20 82 6d bc 0f ca 8f bd 99 24 35 bc
       0.022727832 -0.014496356 -0.070209615 -0.011056089
000130 56 78 db bd c4 32 ab bd 1d b5 d7 3c 62 d6 33 bd
       -0.10716312 -0.08359292 0.026331479 -0.043905623
000140 cf 5f 40 bd 3b 52 aa bd 53 ba e6 3c a5 e6 83 bd
       -0.04696637 -0.083164655 0.028165018 -0.06440476
000150 45 f4 f5 3b 26 b8 84 3b 04 92 17 be bd 22 c2 bc
       0.007505926 0.0040502725 -0.14801794 -0.023698205
000160 62 4f 51 bc aa d0 2a bd f6 80 4e bc 29 e3 b6 bd
       -0.012775274 -0.041702904 -0.012603989 -0.08930046
000170 ce e8 0c be 72 cb 55 bd eb e9 b4 bd ec b2 7b bd
       -0.13760683 -0.052195974 -0.08833679 -0.06144993
000180 b7 53 bd 3c 59 cc bf bd 3e 25 78 3d 0b 13 b9 3b
       0.023111207 -0.09365148 0.060582392 0.005648022
000190 9c e4 ef bd aa 9c 87 bd 99 18 0a be 98 3b 46 3d
       -0.11713526 -0.06621678 -0.13485946 0.048396677
0001a0 38 03 2f 3d 64 f8 49 3d 82 f4 d3 3d a7 02 38 3d
       0.04272768 0.04930915 0.103493705 0.044924404
0001b0 85 15 87 bd e6 e7 a2 bd a3 81 15 3e 5e b3 0b be
       -0.065959014 -0.07954387 0.14600234 -0.13642642
0001c0 3d d2 5d 3d 58 13 ce 3d 77 df e2 bd 84 3e 04 3c
       0.054155577 0.10062283 -0.11077779 0.0080715455
0001d0 18 6f 31 3c 16 e3 b2 bd e5 52 b5 bc 3d c3 f0 3d
       0.0108297095 -0.087347195 -0.022134254 0.11755989
0001e0 10 51 09 3d 51 1e 05 3e fc 9e 98 3d 56 23 f8 3c
       0.033524573 0.12999846 0.07452199 0.030290287
0001f0 9e 2f 11 bd 31 d8 d9 bd ad 2e d2 bd 40 46 10 be
       -0.035445802 -0.10636938 -0.10262809 -0.14089298
000200 06 a4 98 3d b8 fb 0e bd 1c 36 b9 bd 92 51 45 bd
       0.0745316 -0.034908026 -0.09043524 -0.048173495
000210 90 97 8d 3d 74 98 02 bd d2 86 e8 3d 4a f8 e8 3d
       0.06913674 -0.031883672 0.1135384 0.113754824
000220 f7 77 ac bd 56 15 69 3b 88 c9 d2 3d 21 3d aa bd
       -0.08421319 0.0035565696 0.10292345 -0.08312441
000230 e3 4e ec 3c 23 35 22 3d bc 28 f0 bd 02 a2 c1 bd
       0.02884621 0.039601456 -0.117265195 -0.09454729
000240 c9 d1 de bd cd d4 41 3d fc d6 a5 3d 76 e0 b6 3b
       -0.10879857 0.047322083 0.08097646 0.005580957
000250 75 eb a3 3d 0f 09 7e bd 76 90 75 bd e2 77 6c 3c
       0.08003894 -0.062020358 -0.05995222 0.014432879
000260 e2 13 85 3d 1e 1b ba 3c d6 78 bd 3c fc 5b cf 3d
       0.06497933 0.022718009 0.023128908 0.101249665
000270 6c 9e 07 bc f5 5f 9f bb 26 3a 9f bd 10 82 3a bd
       -0.008277517 -0.004863734 -0.07774763 -0.045534194
000280 d8 7a ac bd a7 1e be 3b 16 6a 12 3e 64 4f 00 be
       -0.08421868 0.005801994 0.14298281 -0.12530285
000290 0b 69 ca bd 4f 97 ba bd 6e 59 c8 3d 15 1b b9 3d
       -0.098833166 -0.09110891 0.09782682 0.090383686
0002a0 5b c2 c5 3d cd 98 11 3a 2c 65 ee 3d 84 b5 8f 3d
       0.09656211 0.000555408 0.11640391 0.07017043
0002b0 f0 7a b9 bc 12 00 ff 3d 8d 14 67 3d 83 35 3b bd
       -0.022641629 0.12451185 0.056416083 -0.04570533
0002c0 1b 90 92 bd b1 e1 f5 3b d8 18 d1 bd 65 ec b6 3d
       -0.07156392 0.007503711 -0.10209817 0.089318074
0002d0 bd 87 b3 bd bf dd 20 3d b2 6c 92 3d 4c d2 15 be
       -0.087661244 0.039273974 0.07149638 -0.14631003
0002e0 a6 c0 d0 bd c7 24 bf bd ad 28 b9 bd 4e 21 a6 3d
       -0.10192995 -0.093331866 -0.090409614 0.08111821
0002f0 b4 bc 97 3d f5 12 90 3d 2c c7 d8 3d 94 74 d5 3d
       0.07409039 0.07034866 0.10584864 0.10422626
000300 15 f9 c9 3d 7c b7 85 bd 09 a0 36 3d 87 f8 cb 3d
       0.09861962 -0.065291375 0.044586215 0.09959512
000310 3c ff e5 3b 18 44 e4 bd f4 d4 61 bc 7b 7a 98 bd
       0.0070189517 -0.111458 -0.013783682 -0.07445236
000320 18 e5 78 bd e4 39 64 3d a7 66 f5 bd b4 9c 63 bd
       -0.060765356 0.05571927 -0.1198247 -0.055569366
000330 f4 3b 6b bd 33 75 df bd f8 82 8a 3d 79 bf 96 bd
       -0.057430223 -0.10911026 0.067632616 -0.07360739
000340 66 0a 64 bd c0 db 0a bd b1 7d 38 bd 59 82 5e 3d
       -0.05567398 -0.033900976 -0.045041744 0.054323528
000350 a8 37 d1 3c 56 78 90 bd 9c 55 06 3d cf ba 99 bd
       0.025539234 -0.07054202 0.032796487 -0.07506334
000360 e7 93 81 3d 78 ce f4 bd f8 b1 2d bd 64 05 3a 3b
       0.06327038 -0.11953443 -0.042406052 0.002838456
000370 5e 43 e5 bc dd ca 90 bb b2 1c 8a 3d 09 f3 3d 3d
       -0.027986225 -0.0044187144 0.067437544 0.046374355
000380 04 9d dd bd c0 b5 a8 3d 0c 3d 57 3d fe ca ad 3d
       -0.10820964 0.08237791 0.052548453 0.08485983
000390 be c6 a9 bd 2b 5f 29 bd 1a 8b 7b bd 1e f4 4d 3c
       -0.0828986 -0.041350525 -0.061411954 0.012570409
0003a0 6c e6 fe bd cc 23 52 bd 1a 68 e2 bc 53 56 89 3d
       -0.12446293 -0.05130367 -0.02763753 0.06705918
0003b0 45 de db 3c 6a 0e 9e 3d 05 1f 17 3d 46 63 06 3e
       0.026839385 0.07717593 0.036894817 0.13123807
0003c0 d3 7f 02 be e1 13 eb 3d fc 28 f7 bd 8e 89 a5 bd
       -0.12744074 0.11478401 -0.12068364 -0.08082877
0003d0 be c2 86 3d 13 66 d3 bd a9 86 46 3d 7a 20 04 bd
       0.06580113 -0.103222035 0.048468266 -0.032257535
0003e0 47 ca c9 bc fb 97 ce 3b bc 46 a3 bd a3 59 cf bc
       -0.024632586 0.0063047386 -0.07972476 -0.025311297
0003f0 58 26 bb bd ee 35 07 3d aa a4 8f 3d 78 c1 06 3e
       -0.09138173 0.033010416 0.07013829 0.1315974

mamba_layers.0.mamba.conv1d.weight f4 [128, 1, 4]
000000 ae fd c3 3e 7d 45 dc be ee fc 93 3e d7 1a 79 bc
       0.3827948 -0.43021765 0.28903908 -0.015204153
000010 26 13 06 bf a0 14 10 3d e5 44 c4 be a3 16 20 be
       -0.5237297 0.03517592 -0.38333812 -0.15633635
000020 3f 87 24 3e 7d d6 a4 3e f1 43 c0 3e d7 b3 42 be
       0.16067217 0.32194892 0.37551835 -0.19013916
000030 00 e2 95 be 69 77 0e be 89 41 a9 3e 1f 26 e2 bd
       -0.29273987 -0.13912739 0.33057812 -0.11042427
000040 27 c1 d8 be a0 6a 6c be dc 52 bf be 58 8b 95 3d
       -0.42334864 -0.23087549 -0.37367904 0.07301968
000050 a2 18 a6 be ba d8 e3 be ce c8 06 bf 75 7b 9d be
       -0.32440668 -0.44501287 -0.52650154 -0.30758253
000060 8a f8 29 3e 3c 29 d2 3e 6b 78 e3 3d f9 07 c7 3e
       0.16598716 0.41047084 0.11106952 0.3887327
000070 6c 44 f5 bd 12 fb d0 be 38 3f 79 be e2 4d ef 3e
       -0.11975941 -0.4081655 -0.24340522 0.46739107
000080 93 5d e1 be 5a 70 1a be d7 f4 f6 3c 5c 35 41 3e
       -0.44016704 -0.15081921 0.030146046 0.18868011
000090 24 46 c2 3e 85 48 0f bf 94 7e ea 3c d5 97 86 3e
       0.37944138 -0.5597003 0.02862481 0.26287714
0000a0 6d fd df 3e 76 6e 89 bd c0 ef 9c 3e c2 0d d4 be
       0.43748036 -0.06710522 0.30651665 -0.41416746
0000b0 95 e6 fb 3e ca ae 12 be 6c 21 07 be ef b2 98 be
       0.49199358 -0.14324489 -0.13196343 -0.29824015
0000c0 56 2a 1d be ad fb a6 be 19 7b d8 3b 8e 14 8e 3e
       -0.15348181 -0.32613888 0.0066064713 0.27750057
0000d0 6b 29 ac be 08 76 12 bd 8d a7 58 be 72 12 9d 3e
       -0.3362535 -0.035757095 -0.21157666 0.30678135
0000e0 22 72 a8 3e c7 c9 05 be d7 6d de be e8 a6 b5 bb
       0.32899576 -0.13065253 -0.43443176 -0.0055435784
0000f0 ad 87 c2 be 25 39 ea 3e 1a 12 e2 3e 67 24 10 be
       -0.37994137 0.45746723 0.44154435 -0.14076386
000100 d4 0d 2d be ca ac a6 3e e9 16 63 3e a6 99 eb 3e
       -0.16899806 0.32553703 0.22176708 0.46015662
000110 86 f5 b3 be d0 0a ad 3e f7 55 f7 3e cd d0 f4 3b
       -0.35148257 0.33797312 0.48307773 0.00747118
000120 87 e6 69 be 77 13 c7 be e1 09 83 3e 5f a8 86 3e
       -0.22841845 -0.38882038 0.25593475 0.26300332
000130 cf 49 5c be fc 11 d2 3c c4 11 d3 3e 22 aa c6 3e
       -0.2151253 0.025643341 0.41224492 0.38801676
000140 56 e7 39 3e 80 1d b6 3e ff fc 95 3e 0e 4c ca be
       0.18154654 0.35569382 0.29294583 -0.3951115
000150 0a b4 9f bc b7 22 43 be 41 a8 c6 bd b2 76 a4 bd
       -0.019495029 -0.19056211 -0.09700061 -0.08030452
000160 68 05 ef be 37 e1 71 3e 02 27 3d bc 8c 6d 4c bd
       -0.46683812 0.23621069 -0.011544945 -0.04990916
000170 cf fc 94 be 3b 70 56 bd 1a 80 0c be 91 2a a3 be
       -0.29099128 -0.052353125 -0.13720742 -0.31868413
000180 d5 6c e2 bd b6 13 9b 3e c0 bf 08 3e 36 50 91 be
       -0.11055914 0.30288476 0.13354397 -0.2838151
000190 97 bc c5 be ae 5e d2 be dc 50 09 be fc f1 e0 3e
       -0.38620445 -0.4108786 -0.13409752 0.4393462
0001a0 42 9a d3 be 1d 54 26 3e 4f 94 c2 be b7 5a f4 3e
       -0.41328627 0.16243024 -0.38003775 0.4772546
0001b0 3d ee 5d 3e a7 2f a7 be d9 03 2f be e7 6d 5e bd
       0.21672912 -0.32653543 -0.17091312 -0.05430403
0001c0 69 1e 47 3e d2 50 5b 3d 29 ba 55 3e 38 24 72 be
       0.19445194 0.053543873 0.20871796 -0.23646629
0001d0 59 82 1e bd 4e ca f5 3d 63 32 c4 3e c2 b5 84 3e
       -0.038698528 0.12001477 0.38319692 0.2591992
0001e0 52 2f 9b 3e 19 da 40 be e9 3d 30 be f1 f1 51 be
       0.3030954 -0.18833198 -0.17211117 -0.2050245
0001f0 e2 c2 19 3d fa cb d5 3e 59 46 0f 3e bd 1d 74 3e
       0.03753937 0.41757184 0.13991679 0.23839469
000200 84 78 39 be ba 4f 52 3b 84 7f e0 bc a9 b8 64 be
       -0.1811238 0.0032090978 -0.027404554 -0.22336067
000210 2d df 81 3e b6 d3 8e 3c 5b a5 fc bd fc 8a f5 3e
       0.25365582 0.017434936 -0.123362266 0.479576
000220 f2 74 14 bc 8c d2 69 3d 1a 52 20 3e 83 7d f0 3e
       -0.009061085 0.05708556 0.1565632 0.46970758
000230 6e 1f 90 3e 49 ac af 3e 30 b9 0d bf 76 f9 20 bd
       0.2814898 0.3431113 -0.553607 -0.039300404
000240 99 b6 8c 3e 64 55 e4 be a0 77 60 bb f9 05 97 bd
       0.2748306 -0.44596398 -0.003425099 -0.07374186
000250 1a c5 17 3b 9d ea 0e bd f4 d3 39 3e 99 2d 92 bd
       0.0023158253 -0.034891713 0.1814726 -0.07137603
000260 b5 5a 6d 3d 18 a8 9b be 6b 05 a2 bd 0c a8 ea 3e
       0.057947833 -0.30401683 -0.0791119 0.45831335
000270 b6 90 5d be a7 47 15 3e 4a a8 93 3e 80 67 ea 3d
       -0.21637234 0.14578114 0.28839332 0.11445522
000280 7b a6 85 3e a3 a5 64 3e bd 2e a6 bd 51 5d 2b 3e
       0.26103577 0.2232881 -0.08114383 0.16734816
000290 5c 46 99 3e 6a 55 91 be 79 95 eb bd c8 ca dc be
       0.29936492 -0.28385478 -0.11503119 -0.4312346
0002a0 a9 27 b2 be 11 73 13 3e 9f 13 02 3f 3d 6c 7e be
       -0.34795883 0.14399363 0.5081119 -0.24845977
0002b0 5a 2e b8 3e fd da 9a 3d 31 cc af 3e 63 99 a9 3e
       0.35972863 0.075613 0.34335473 0.33124837
0002c0 a9 a8 ec be 68 08 b3 3e 26 36 9b be 88 3d a6 3e
       -0.46222427 0.3496735 -0.3031475 0.3246882
0002d0 ee 97 50 3e 31 b0 9c be a9 34 dd be 91 8d a2 be
       0.20370457 -0.30603173 -0.4320424 -0.31748632
0002e0 88 65 a7 3e 73 93 e7 be a3 4f 9d bc 53 40 32 bd
       0.3269465 -0.45229682 -0.019203013 -0.043518376
0002f0 63 5d 6e 3e 94 12 6d 3d ab bf 77 3d 39 83 9c 3e
       0.23277812 0.057879046 0.060485523 0.30568865
000300 1e ce 59 be 02 f2 ea be 9f cd 4c 3e dc a7 f8 3e
       -0.21270034 -0.45887762 0.20000313 0.48565567
000310 d2 77 43 bd 57 e8 4a 3e 33 68 03 bf 6c 08 b5 3e
       -0.04772169 0.19815193 -0.5133087 0.35357988
000320 bb 72 ce 3e a7 df e2 be 73 67 40 3e 72 2e f3 bd
       0.40321907 -0.44311258 0.18789463 -0.11874093
000330 1f b3 66 3e 27 c6 be be 39 38 e5 bd 79 e2 98 bd
       0.22529267 -0.37260553 -0.11192364 -0.07465071
000340 63 c0 38 3d 9f 6d 87 3e 88 ed 62 3e 51 10 f3 3e
       0.04510535 0.26450822 0.22160923 0.47473386
000350 9d 8c 41 3d 52 34 27 3d bf f0 79 3d f5 43 86 3e
       0.04725324 0.04082138 0.06102061 0.26223722
000360 c4 e5 b6 bd 35 6b 35 bd 76 d9 c4 bc 72 7a e8 3d
       -0.08930543 -0.044291694 -0.024029475 0.113514796
000370 b2 7a 81 3e b5 aa 06 be 07 31 c0 be b9 52 18 3f
       0.25288922 -0.13151057 -0.37537405 0.59501225
000380 0f a8 53 3e 9a 7a ff 3e a0 09 a7 3e 13 99 0c 3e
       0.20669578 0.49898225 0.3262453 0.13730268
000390 cd ed 85 3e 80 a6 9c 3e 39 b1 05 3e 5a 89 de 3e
       0.2615799 0.3059578 0.13055886 0.43464166
0003a0 76 a1 ca 3d 80 58 6a be 8c 6c 06 bf 4c 10 d9 3e
       0.098940775 -0.22885323 -0.5250938 0.42395246
0003b0 5a b3 78 be 61 44 b6 be 93 96 f7 be f1 ee 18 3e
       -0.24287167 -0.35599044 -0.48357067 0.14934899
0003c0 48 6e 86 3e 73 22 2c be a8 8f a8 3e 0b 5b f4 3d
       0.26256013 -0.16810016 0.329221 0.119314276
0003d0 63 3c 3a be e7 9e 3f bd 3c c7 05 bf 38 32 10 3f
       -0.18187098 -0.0467824 -0.5225713 0.5632663
0003e0 83 35 43 3e 23 09 06 be 6d 7f 26 3e 5f 5c 42 3e
       0.19063382 -0.13089423 0.16259547 0.1898055
0003f0 e3 6b 5f 3e cb c9 8e be ff f8 58 be bf c8 96 bd
       0.218185 -0.2788833 -0.21188734 -0.07362508

mamba_layers.0.mamba.conv1d.bias f4 [128]
000000 46 33 94 be d6 16 8b 3e b1 92 7d 3e 69 06 75 bb
       -0.2894537 0.2716586 0.2476299 -0.0037387854
000010 bf cf 6d be 13 93 6b be 96 7f 1f be 15 71 ac be
       -0.2322378 -0.23005323 -0.15576014 -0.33680025
000020 68 e1 51 be 1e 5b 4a bd 44 5a 8a 3e 48 5d f6 3e
       -0.20496142 -0.049403302 0.27021992 0.48118043
000030 d7 c9 ad 3d 1c 68 b7 be 7b f1 9d bd 1c 1a 6c be
       0.084857635 -0.35821617 -0.07712074 -0.23056835
000040 62 17 da bb 79 ef f6 bd a4 f2 e2 3e cd 04 b7 bd
       -0.0066556195 -0.120573945 0.44325745 -0.089364626
000050 27 b2 9e be 34 6b a1 be 1b b7 b5 be 48 8b dd 3e
       -0.30995294 -0.31527102 -0.3549126 0.43270326
000060 8c 58 a2 3e 9f b1 e5 be 31 bd 60 be fb 19 9a be
       0.3170818 -0.44862077 -0.21947171 -0.30097947
000070 fb 0c ee 3e c3 25 f7 be 4c 59 ba 3e 48 63 b8 3e
       0.46494278 -0.48270997 0.36396253 0.36013246
000080 53 90 c0 3e f9 90 07 3c a5 5c 8b be 58 b2 e3 be
       0.3761011 0.00827431 -0.2721912 -0.44472003
000090 0e 34 18 be e4 cf fd 3e c3 48 b2 3e dd 62 d2 3e
       -0.14863607 0.4957267 0.34821138 0.41091052
0000a0 87 9f 64 3e b6 b7 83 3e 59 d7 98 3e 42 da 20 be
       0.2232648 0.25726098 0.29851797 -0.15708259
0000b0 bf c3 63 3e df 5d c5 3e 26 56 20 3e bc cf ed be
       0.2224264 0.3854818 0.15657863 -0.4644755
0000c0 11 7c e7 be 9b 66 f2 3d 8f c2 dc be 0a 15 d0 3e
       -0.45211843 0.11835977 -0.43117186 0.40641052
0000d0 6c 69 a1 3e 98 b6 90 be 47 2b eb be 93 f4 fa 3e
       0.31525743 -0.28264308 -0.45931455 0.4901472
0000e0 9f bb 64 be 34 dd 69 be 97 f2 fe bd 13 9f 39 bd
       -0.22337197 -0.22838289 -0.12448614 -0.04531772
0000f0 8e e0 0c 3d b4 f2 69 bd d3 1b a7 bd f7 7b 03 3e
       0.03439384 -0.057116225 -0.08159604 0.12840258
000100 0e 8f 88 3e 17 67 fa be c4 2d 85 be 5d 4c e9 3e
       0.26671642 -0.48906776 -0.2601148 0.45566073
000110 9a 01 81 be 94 b0 8b 3d a4 26 91 be af d6 d7 bd
       -0.25196534 0.06820789 -0.28349793 -0.105389945
000120 82 27 b4 3e d9 48 da 3e 30 52 e7 3d 0d 10 a7 be
       0.35186392 0.42633703 0.11294973 -0.32629433
000130 00 91 51 be 57 2c f7 3e 1a 37 a5 3e 00 0e cf 3c
       -0.2046547 0.48276016 0.32268602 0.02527523
000140 f0 86 d2 be 97 e7 21 3e 80 1a c1 be 09 74 95 3d
       -0.41118574 0.15811001 -0.3771553 0.072975226
000150 ed bb 4e 3e ac be 92 be 7d 1f 58 be 25 12 b8 3d
       0.20188875 -0.28661096 -0.21105762 0.08987836
000160 3a 65 74 be d7 9f b5 3e 98 60 f0 3d 52 b3 a6 bc
       -0.2386674 0.3547351 0.11737174 -0.020349178
000170 04 2d 93 be 50 51 ab be 05 6e c3 be 3a 9b 29 be
       -0.28745282 -0.33460474 -0.38169876 -0.1656312
000180 4b 7f d0 be 3d 01 58 3e ce 7d 82 be 29 29 3e be
       -0.40722117 0.21094222 -0.25486606 -0.18570389
000190 c2 81 98 3e ee fc 5a be 2e 41 8f 3e 8e 49 71 3e
       0.29786497 -0.21385548 0.27979416 0.23563215
0001a0 91 75 46 be 51 27 93 bd d3 96 6d 3e 0a a1 fc bd
       -0.19380786 -0.071852334 0.23202066 -0.12335403
0001b0 5f 7e c0 3d 26 eb c1 3e 0f 89 a3 be 12 96 3f be
       0.093991034 0.37874717 -0.31940505 -0.18709591
0001c0 dc b3 59 3e cb 1f a0 3d 0c b2 e0 3e 64 e8 91 bd
       0.21260017 0.07818564 0.4388584 -0.07124403
0001d0 03 ff 40 be 13 5b 9b be 0c 36 6f 3e ff d8 9d be
       -0.18847279 -0.30342922 0.23360461 -0.30829617
0001e0 d3 0d d3 3c db 27 e0 3e 8e 0d c2 3e d2 d6 56 be
       0.025763428 0.43780407 0.37900966 -0.20980385
0001f0 95 8e bc 3e 46 37 22 bd 5c 8f 6e 3e 21 68 90 be
       0.3682753 -0.039603494 0.23296875 -0.28204444
