expriments/ours/JOB/ours/3407/models/199.pt (torch, 418855 bytes, 39 tensors)

feature_proj.weight f4 [64, 40]
00000000: 38e2 65bd ad1c 87bd fec5 5abf 4465 79be
00000010: f460 bebd 77f5 5abd 3cdf d63d 0ed9 9ebe
00000020: 46f9 d63d f8fc 4fbd e760 d63e 1f6a 95be
00000030: 6424 553e 0fc7 b93e 48de 623f 6135 ea3c
00000040: 8ca7 a13e 2c9b 1c3f e98c 903e f21b 88be
00000050: dedf 2a3e 2269 b83d b635 78bd 9ff3 8c3e
00000060: d11a de3e b29c db3e 9c66 1a3d 1c83 c43c
00000070: 23db 68be e8ae 163e d9be c1be 61e2 52be
00000080: 0703 eebd d2b7 9abe 23f0 023e fb5e bebe
00000090: 65ac 10bf 6e03 4e3f 0f13 b2bd ad3e cb3e
000000a0: 182d 24bf b16f 65be e60b 2e3e 6d94 8ebe
000000b0: 1477 acbd 248d b03d 63f6 8c3d d625 edbe
000000c0: a172 97be 3698 2f3d 68a8 e43e 6f42 d63c
000000d0: c244 2c3d c7c7 5c3f 2838 2d3f 48f7 05be
000000e0: 6701 e83d 4326 f83e c1c0 bc3e e361 bcbe
000000f0: c6da 563e 5a27 dfbd a4ef 393f 9863 5c3e
00000100: 05d4 2fbe ec58 bfbe 0e1a d93e 851e 3f3e
00000110: 4ba5 0cbe e2c8 bf3e 6c47 923c f505 e93e
00000120: 5b81 ae3e 9d67 28be 5505 ddbd e9df b3be
00000130: b444 a3be ed06 5c3e 4fed 1d3b 159f cd3f
00000140: 8406 c0be 95ee 3fbe cc17 0abe d084 ed3e
00000150: 4219 173d 1b3f dcbd 71f3 f03d 5150 08bf
00000160: cc43 143f 1bc3 16be 025d 293f e2f6 04bf
00000170: c245 0cbf 1766 b43e 1f31 2d3f ec5c 0f3c
00000180: 5b6b a63d a59f 973e 27ef ed3f d3e1 b6be
00000190: 6451 d8be d92a 2abe 7a85 77bc a774 32be
000001a0: f46b 08be c772 663d beb0 533d e1cd e4be
000001b0: 6822 c13e f07d b4bc 66a8 033f e186 ac3e
000001c0: 8a7f c8be 145f 37bf 46a7 e3be 75a7 2dbf
000001d0: c136 013e f0d0 b0bd b2ee a1bc 6cc3 1440
000001e0: 892c c93e 79a4 443e 4ec6 e53e a005 77be
000001f0: 2ba5 af3d b086 b0bb 6f7d 4fbc c02d 603d
00000200: c499 42bf d866 e6bc 9aea dcbe 3272 3f3e
00000210: 7a3a ed3e 75a6 83bf 4d6d a3bc 0cf2 abbd
00000220: 65ca c53d f73d 383e 6043 663f c513 6abe
00000230: b06e 12bd f5d7 19bf 55c3 003e 47ee 02bf
00000240: 1b4a c6be 4418 2d3f 0bae d9be 0179 ae3e
00000250: 5b1c d03e a024 c9bd 33ae 4f3e 4e77 f0bd
00000260: e722 853e 6dbc 1d3f 7ca2 343f 3d99 b9bd
00000270: 30fe 8fbd a045 43be 7b9b 56bc 1571 00c0
00000280: 9a12 093f b602 93bd 3aa7 c13e 35d3 093f
00000290: 15ad 79bd 454e d53d a7c6 a83e e509 123e
000002a0: 98f3 15be 529e 1f3d 3b00 e9be 5792 a43d
000002b0: c21c 95bd 432d d3be de34 1bbf 82c7 c13d
000002c0: aa3a 953d 0d42 a6be 5ba9 6abf 95d1 df3e
000002d0: 28b1 81bd 13cd 15bf 3ccb c13e 9703 333e
000002e0: b0e7 a2be c352 18bf 97d7 183f ed31 febe
000002f0: 9c36 4dbe 65d6 f83e 2462 71be 1f61 6abd
00000300: b64c a83e d3c2 13be 1519 f1be 18a2 18bd
00000310: 808c 643e 7cc8 ea3e aac7 8c3d b58d 39bf
00000320: 8f15 4abe 52ec 92bc c478 613e cbf3 43be
00000330: 3558 1fbe 1485 dcbd d83c 513d e5e3 8a3e
00000340: 4c69 01bf 4dfa 5cbd 7836 983d a6c2 a73d
00000350: f2fc 04be 7a20 813f 5760 bc3e b249 1bbe
00000360: a3d2 acbe 9366 2e3c e6a6 2f3d 8dee 3ebf
00000370: 2b6b 9b3e 4231 00be 5afe ce3e 4e1e 2fbf
00000380: 1bb0 abbd 22a2 073f 2811 c13d 129e 013d
00000390: f567 c63e ba35 f63e 77cf df3e 9db8 9cbe
000003a0: 8e7d 293f df90 80bd 7222 d3be cbd3 a03e
000003b0: 5369 6dbe 116f c3be 3029 573d b89f 5c3e
000003c0: f579 803e dd8a cfbd 0311 cb3b 0bce 9e3e
000003d0: 2dd9 a2bd 994e 90bd 15c3 2d3e b398 2c3e
000003e0: bac3 bb3e ad5c 933d 2d9d 59bf 01ac 063f
000003f0: 81f2 a63d ff9c 1cbf 3d64 323e 668d 133e
-0.056123942 -0.06597266 -0.8545836 -0.24355036 -0.09295836 -0.05345675 0.10491797 -0.31024975
0.10496764 -0.05077836 0.41870806 -0.29182526 0.20814663 0.36284682 0.88620424 0.028589906
0.3157314 0.61174273 0.28232506 -0.2658382 0.16686961 0.090044275 -0.060598098 0.27529618
0.43379834 0.42892987 0.037695512 0.0239883 -0.22739844 0.14715159 -0.37840918 -0.20594169
-0.11621671 -0.3021837 0.12786917 -0.3718184 -0.56513053 0.80473983 -0.086950414 0.39696255
-0.6413131 -0.22405888 0.16996726 -0.27847615 -0.0842115 0.086206704 0.06882932 -0.4631793
-0.29579642 0.04286977 0.44659734 0.026154725 0.04205776 0.86242336 0.6766381 -0.13082612
0.113283925 0.4846669 0.3686581 -0.36793432 0.20981893 -0.108961776 0.7263129 0.21522367
-0.17170723 -0.3737253 0.4240269 0.18663986 -0.1373493 0.3745795 0.017856322 0.45512357
0.34083065 -0.16445775 -0.10792033 -0.35131767 -0.31888354 0.21487017 0.0024097746 1.6064173
-0.3750497 -0.18743356 -0.1348564 0.4639039 0.036889322 -0.10754224 0.11765183 -0.53247553
0.5791595 -0.14722864 0.66157544 -0.51939213 -0.5479394 0.35234138 0.6765308 0.008750182
0.08125945 0.29613987 1.8588609 -0.35719165 -0.42249596 -0.16617908 -0.015107507 -0.17427312
-0.13322431 0.056261804 0.051682226 -0.44688323 0.37721562 -0.022032708 0.5142883 0.33696654
-0.39159805 -0.7162945 -0.44463557 -0.67833644 0.12618543 -0.08633602 -0.01976714 2.3244276
0.3929179 0.19203366 0.44877857 -0.2412324 0.08576425 -0.0053871498 -0.012664183 0.05473113
-0.7601588 -0.028125212 -0.43147737 0.18695906 0.46333677 -1.0285174 -0.01994958 -0.08395776
0.09657744 0.17992388 0.89946556 -0.22859104 -0.03575009 -0.6009515 0.12574513 -0.5114483
-0.38728413 0.6761515 -0.42515597 0.34076694 0.40646634 -0.09821439 0.20281295 -0.117415056
0.2600319 0.6161564 0.7056043 -0.09062431 -0.07030904 -0.19069529 -0.013098593 -2.006902
0.5354401 -0.071782514 0.37822896 0.538379 -0.06095608 0.10415319 0.3296406 0.14261587
-0.14643705 0.038969345 -0.45507988 0.080357246 -0.07280876 -0.4124547 -0.60627544 0.09461881
0.0728658 -0.32472268 -0.91664666 0.43714586 -0.06332618 -0.58516043 0.37850368 0.17481838
-0.3181739 -0.59501284 0.59703964 -0.49647465 -0.20040363 0.4860107 -0.23572594 -0.05722153
0.32871026 -0.14429788 -0.4708945 -0.03726396 0.22319221 0.45856082 0.068740204 -0.7248185
-0.19734786 -0.017934952 0.22018725 -0.19135968 -0.15560992 -0.1076757 0.051083416 0.27126995
-0.50551295 -0.053949643 0.07432264 0.08191423 -0.12987116 1.0088036 0.3679225 -0.15164831
-0.33754453 0.010644573 0.042883776 -0.7458275 0.303552 -0.1251879 0.4042843 -0.68405616
-0.08383199 0.5298177 0.094271004 0.03164489 0.38751188 0.48087865 0.4371297 -0.306096
0.66207206 -0.06277632 -0.41237217 0.31411585 -0.23184709 -0.38170674 0.052529514 0.21545303
0.25093046 -0.10133908 0.0061970963 0.31016573 -0.07951579 -0.07046241 0.16968949 0.16855125
0.36672765 0.07195411 -0.85005456 0.5260621 0.08151723 -0.6117706 0.1742105 0.14409408

feature_proj.bias f4 [64]
00000000: 6873 77bb 7643 58bd 0227 89bd 1a01 e1bc
00000010: d346 6f3e 5e16 86bd 40b1 dcbc 8891 713e
00000020: 96cd 20be 3095 75bd 5c51 8d3d 4a65 08bd
00000030: b2e1 12be 6ab8 f73c ab3b adbd 26a5 9bbe
00000040: 8d77 293d 76e2 003e a077 723e ba7b a33e
00000050: 6754 65be c36d 21be 7539 05be 7a9d 03be
00000060: 80f6 18be fe2b e83e 8344 fabd fe32 6e3e
00000070: 5cf0 4ebe da15 a53b 96c8 7b3e b790 373e
00000080: 093e e7bd 6a38 4fbe bbfa 8f3d 5b5a cebd
00000090: 0321 373e 6922 91be 6d12 a23e 45f6 183f
000000a0: 39e0 be3b dc08 32bd f5d0 5d3e ca3f b1bd
000000b0: dd01 02bf 5566 273e 0517 a4bd 7d42 383f
000000c0: d291 80bf b349 2e3e 2a83 a8be 6070 223e
000000d0: 20c6 273e 58ef b4bd d3d9 6fbe bbd2 0b3d
000000e0: 666b 3e3d 7a5d f5bc c6e1 bebd e681 c7bd
000000f0: 3085 b0bd 4836 613a 6c52 5e3c 634b b13d
-0.0037757996 -0.05279871 -0.06696893 -0.027466346 0.23366861 -0.06547235 -0.026939988 0.23590672
-0.15703425 -0.05995673 0.06900284 -0.03329972 -0.14343908 0.030239303 -0.084586464 -0.30399436
0.041373778 0.12586388 0.23678446 0.31930333 -0.22395478 -0.15764527 -0.130102 -0.12853041
-0.14937782 0.45346063 -0.12220099 0.2326164 -0.20208877 0.0050380053 0.24588236 0.17926298
-0.11291129 -0.20236364 0.07030245 -0.10075828 0.17883687 -0.28346565 0.31654683 0.5975078
0.0058250693 -0.04346548 0.21661742 -0.08654745 -0.50784093 0.1634763 -0.08012203 0.71976453
-1.0044501 0.17020302 -0.3291257 0.1586318 0.16384172 -0.08834714 -0.23422937 0.034136515
0.046489142 -0.0299518 -0.093204066 -0.09741573 -0.086191535 0.00085911574 0.013569456 0.08656957

mamba_layers.0.norm1.weight f4 [64]
00000000: 8403 c53e da15 313f c5af 903f cd14 403f
00000010: e531 113f ba20 bd3e d706 7b3f f18d f33e
00000020: 3f36 163f 7c9f 603f 6c27 f23e ef19 193f
00000030: ad52 153f b141 243f 9866 1d3f f930 533f
00000040: bfd7 323f a3a4 6a3f f9c1 c43e 9781 053f
00000050: 08c8 be3e b36b 293f abf4 103f b4a1 493f
00000060: 2d09 3e3f 42eb c93e 1721 b13f 491d 4c3f
00000070: 087d 453f 4348 473f d440 1b3f 5141 1c3f
00000080: 4f49 d53e d321 313f fce5 7c3f c42f 5a3f
00000090: c273 7c3f 5424 3d3f 7dd1 093f 4a0b a23e
000000a0: 5a28 243f 449c 063f e70b 913f e090 0f3f
000000b0: e749 f73e eb32 3f3f 4f8c 373f 5c31 923e
000000c0: 6f4f a83e 33d9 493f 6836 cb3e d08d 933f
000000d0: e9b6 053f efde 313f 5492 0b3f bf61 0d3f
000000e0: 7e49 aa3e dbc8 233f 3715 323f 6bcb 483f
000000f0: 0f4b 493f e6d5 123f 6f44 d83e 5436 3a3f
0.38479245 0.6917397 1.1303641 0.7503174 0.5671676 0.3693903 0.9805731 0.4756923
0.5867652 0.87743354 0.47295702 0.59805197 0.5832928 0.6416274 0.6148467 0.824966
0.6986045 0.91657466 0.3842924 0.52150863 0.37261987 0.6617996 0.56623334 0.78762364
0.7423275 0.394373 1.3838223 0.79732186 0.7714391 0.7784464 0.60645795 0.61037165
0.41657493 0.69192237 0.9878843 0.85229135 0.9861413 0.7388356 0.5383528 0.31649238
0.6412407 0.5258219 1.1331757 0.56080437 0.4829857 0.7468707 0.7169847 0.28553283
0.32873103 0.78847045 0.39689946 1.1527653 0.52232224 0.69480795 0.54520154 0.55227274
0.33259195 0.63978356 0.6956362 0.7843539 0.78630155 0.57357633 0.4223971 0.7273915

mamba_layers.0.norm1.bias f4 [64]
00000000: 931b 7a3e 2c38 39bd 101e e83d 4f98 273e
00000010: 539b ccbe 3ceb 9bbd 36cd b33d 3c06 21be
00000020: a357 3fbe 97c8 323e a37e 90be 36f9 433e
00000030: 84c6 af3e 1b0e e83d 4369 21be 6a98 a43e
00000040: 838f 6abe ed61 9ebd c390 e5bd 263b c5be
00000050: 4b35 1fbe 1397 89be 97ce b9be daf4 953d
00000060: 10c7 c63c 48f2 debe 8edc a33b 6fb3 8f3c
00000070: 3c4e 4ebd 9b7e 113b 8e4b 4abc 0274 d23c
00000080: 9f7b 8a3e 6479 aabd 7485 d9bc cd80 363e
00000090: e3c7 b4bc 0600 8d3e 2917 853e 2989 36bf
000000a0: 096b 9abd 9284 de3e a676 7fbc 5a73 a03e
000000b0: c7b4 173f 8618 cdbb 8d64 67be 09f5 18bf
000000c0: fa75 423f 0147 73bd e4ab 443e da12 523d
000000d0: f92a 86be b559 bf3c b82e 93bd 06e4 a43e
000000e0: f5f2 c33d 410a 8fbe e9a3 d43e f527 f33d
000000f0: 170b 773d 449d 04be 99b1 913e 03c6 0abe
0.24424581 -0.045219585 0.11333859 0.16366695 -0.39962253 -0.07613227 0.08779375 -0.15725034
-0.18685775 0.17459331 -0.28221616 0.19138035 0.34331143 0.113308154 -0.1576281 0.32147533
-0.22906308 -0.077335216 -0.11209252 -0.3852169 -0.15547673 -0.26873073 -0.36290428 0.07322092
0.024264842 -0.4354422 0.0050006574 0.017541615 -0.05036758 0.0022200707 -0.012347115 0.025690082
0.2704744 -0.08323935 -0.026552893 0.17822571 -0.02206797 0.2753908 0.25994232 -0.7130304
-0.075399466 0.43460518 -0.015592253 0.31338006 0.5926022 -0.006259027 -0.22596951 -0.59748894
0.7596127 -0.059393886 0.19206196 0.05128751 -0.2620466 0.023358205 -0.07186645 0.32205218
0.09567825 -0.2793751 0.41531304 0.118728556 0.06031331 -0.12950617 0.2845581 -0.13552098

mamba_layers.0.mamba.A_log f4 [128, 16]
00000000: aeb6 013f 6545 d83f 43f5 c33f 7329 6b3f
00000010: 12cd 733f 30bf cc3f 0a2e 0f40 553e 0840
00000020: 1fb7 2040 b527 2340 dd27 1d40 367e f33f
00000030: ae33 3c40 2c52 4240 9f3a 3240 5543 3340
00000040: d103 953e 758d 8f3f faa2 b63f c70f 903f
00000050: aa74 893f a3a9 b53f ab3a 0940 3e89 0d40
00000060: 155c 1740 257c 1a40 1f60 1a40 8c94 1d40
00000070: 0430 2c40 81d2 3240 af68 3a40 0d10 2840
00000080: b7ce 10bf 4293 8e3f 4d84 a23f 1cf0 9b3e
00000090: 3137 a13f 9e86 e93f a81a a73f d866 e03f
000000a0: 0463 de3f 44cf fb3f 33da fb3f beb3 f23f
000000b0: 0ccd 1640 a3d7 1d40 ab7b 2240 382d 2040
000000c0: 5dbe 793d 5c08 263f 7f2e a53f 623a b73f
000000d0: 9ed9 c93f a6f8 9d3f 3757 1140 6ca9 1040
000000e0: 5c92 0440 d408 2140 9c22 2940 b67e 1f40
000000f0: 0497 4440 2dfe 3540 3bae 3040 117f 3140
00000100: d555 c23e d252 2e3f cec9 903f 244f b23f
00000110: 7607 af3f 580c e73f 6344 1d40 97bc 1240
00000120: 6879 fb3f 291f 1c40 792a 2740 42b5 1140
00000130: c5cd 3540 552c 2c40 3a03 3740 7a24 2540
00000140: 2787 b73e cbc5 913e dd1a 863f 1dd8 bc3f
00000150: 71b2 863f 8bef c13f 374e d43f 515f 0340
00000160: 972b 1340 6bb2 1c40 1eaf 0d40 2a87 3740
00000170: 6f9d 2b40 8aa1 1640 b6c4 1540 c428 5240
00000180: 0c63 013f 8e2f f33f 7d9d 1e40 0c2e 953f
00000190: 2910 903f ba01 e43f 6932 6140 a93a 2140
000001a0: c94e e93f 1c6a 3540 a04c 2140 cacd 3240
000001b0: f1e3 5740 dcc4 4140 ef80 3f40 1e2a 2c40
000001c0: 3dcd c4be 3fd8 243f 515e a03f 5643 c13f
000001d0: 7020 0540 559c 8f3f cda8 eb3f 7172 0740
000001e0: d0fb 1840 bfbb 1840 b5d1 1d40 9074 2940
000001f0: e7ce 1b40 4f0d 2d40 73d9 2140 0ada 4040
00000200: 62af c53e 4285 b83e 6be5 8f3f 6eb4 dd3f
00000210: 953f e23f 69ba a03f 887e 0640 fd9c 1640
00000220: 2952 0940 9ec0 0340 a800 0c40 5f4e 2d40
00000230: 0219 0740 7285 0040 b33e 3740 c7e8 1240
00000240: 3320 ecbc 8114 333f 2f26 883f 9c1e ac3f
00000250: 1c3e c33f 1f91 ea3f 1ce7 f93f 9699 0340
00000260: 2542 0b40 3c26 1340 a457 1840 a773 1c40
00000270: 7f75 2540 1519 2a40 92a9 3240 3500 2f40
00000280: 5725 54bc c5f9 4a3f 34de 9f3f 93a8 a53f
00000290: 8997 ca3f ac84 d33f 8800 0040 ea5e de3f
000002a0: bb15 1d40 ab86 f73f 0135 0640 fd98 1540
000002b0: e252 0d40 1429 1b40 764a 1640 f00b 2b40
000002c0: e6a1 4a3d 0711 703f 2149 9c3f eeaa b53f
000002d0: f2df cf3f ccfb ed3f b23b fc3f 7548 1540
000002e0: 5d5d 1340 e5df 1640 4745 3240 481a 2840
000002f0: 7cdc 3240 242a 3040 16da 4440 d1bf 3e40
00000300: 0425 3f3e 6a53 dd3e d92a 723f 0703 ab3f
00000310: 7bd7 a13f b977 db3f e94c e43f a30a 1640
00000320: 2175 e03f 2421 1340 25a5 2c40 5b00 1340
00000330: 66b7 1340 cf2b 2b40 a94e 3d40 15fb 0c40
00000340: 92a9 67be 8309 dc3e 5d14 703f f8a8 563f
00000350: fb13 8a3f 160e 0240 56e2 bc3f 78f1 dc3f
00000360: 3e56 0240 3bd0 0940 9ba1 1040 87f6 2040
00000370: 009a 2640 cbb2 1d40 8953 2040 ae46 2d40
00000380: 5938 f5be ab88 093f 4a06 8d3f 197a 993f
00000390: 07e8 ef3f 482e ee3f db51 1440 3688 e53f
000003a0: fa1a 1040 1170 0d40 92e9 1e40 a7fb 0e40
000003b0: 02f6 2040 af85 2940 8e09 2a40 382f 3040
000003c0: ab44 013f 3f18 9e3f 5a57 d43f 2e72 7b3f
000003d0: fb3e c73f 88a7 0a40 1ea3 0240 f727 1140
000003e0: e422 1740 f26a 2440 2eb8 1c40 21a1 1340
000003f0: 2733 2440 7725 3740 e735 2840 8ec1 2040
0.5066937 1.6896178 1.5309223 0.9186012 0.9523479 1.5995846 2.237185 2.1288044
2.5111768 2.5492985 2.455558 1.9022892 2.9406543 3.0362654 2.784828 2.8009846
0.29104474 1.1215044 1.4268486 1.1254815 1.0738728 1.4192394 2.1442058 2.2115016
2.3649952 2.4138272 2.4121168 2.4621916 2.6904306 2.7940981 2.9126394 2.6259797
-0.5656542 1.113869 1.2696625 0.30456626 1.2594968 1.8244207 1.305501 1.7531385
1.7373967 1.9672627 1.9675964 1.8961103 2.356265 2.4662864 2.538798 2.50276
0.06097256 0.64856505 1.2904814 1.4314692 1.5769536 1.2341506 2.2709482 2.2603407
2.071433 2.5161638 2.6427374 2.4921088 3.0717173 2.8436387 2.7606342 2.7733805
0.3795611 0.68095124 1.1311586 1.3930402 1.3674152 1.8050642 2.457299 2.2927606
1.9646425 2.4394019 2.6119673 2.276688 2.8406842 2.6902058 2.859572 2.5803514
0.358453 0.28471217 1.0476948 1.4753453 1.0523206 1.5151228 1.6586369 2.0526927
2.2995355 2.4483898 2.2138133 2.8676248 2.681484 2.3536096 2.3401313 3.2837381
0.5054176 1.8998888 2.4783623 1.1654677 1.1254932 1.7813027 3.5187018 2.5192053
1.8227168 2.8346014 2.5203018 2.7938104 3.3732874 3.0276403 2.9922445 2.6900706
-0.38437834 0.64392465 1.2528783 1.5098674 2.0801048 1.1219584 1.8410889 2.11636
2.3903694 2.386459 2.4659245 2.6477394 2.4345033 2.7039373 2.528897 3.013308
0.3861037 0.36039168 1.1241888 1.7320688 1.7675654 1.2556888 2.1014729 2.3533318
2.1456397 2.0586314 2.18754 2.7079084 2.1109014 2.0081449 2.8632019 2.2954576
-0.028823948 0.6995316 1.0636653 1.3446841 1.5253329 1.8325537 1.9523654 2.0562491
2.1759121 2.2992086 2.3803492 2.4445589 2.5852964 2.657781 2.7915998 2.7343876
-0.012948356 0.7928737 1.2489686 1.294207 1.5827495 1.6524863 2.0000324 1.7372715
2.4544513 1.9337972 2.096985 2.3374627 2.2081838 2.4243822 2.3482947 2.6726036
0.049470805 0.9377598 1.2209817 1.4192789 1.6240218 1.8592467 1.9705718 2.3325474
2.3025734 2.3574154 2.7854784 2.626604 2.7947073 2.752572 3.075811 2.9804575
0.18666464 0.43227702 0.9459663 1.3360299 1.2643884 1.7145911 1.7835971 2.3443992
1.7535745 2.2988977 2.6975796 2.2968967 2.3080688 2.6745489 2.957926 2.2028248
-0.2262328 0.42976007 0.9378107 0.83851576 1.0787348 2.0321097 1.4756572 1.726119
2.0365138 2.1533344 2.2598636 2.5150468 2.6031494 2.4640377 2.5050986 2.707439
-0.47894552 0.53724164 1.1017544 1.1990386 1.8742684 1.8607874 2.317496 1.7932193
2.2516465 2.209965 2.483006 2.2341096 2.5150151 2.6487844 2.6568332 2.752882
0.50495404 1.2351149 1.6589158 0.982211 1.5566095 2.1664753 2.041206 2.2680643
2.3615046 2.5690274 2.4487414 2.3067095 2.565622 2.8616617 2.62829 2.5118136

mamba_layers.0.mamba.D f4 [128]
00000000: a2b8 863f b8e6 343f 3ba0 633f f474 8a3f
00000010: bda7 a43e 75dc 773f 8e1c 853f 9b22 1f3f
00000020: 1acb a73f 8d04 093e 6caf 813f 5685 6c3e
00000030: db36 833f 936b 4e3f 2e28 0c3f 032d 6b3f
00000040: 7161 683f 28b9 9a3f a5c1 683f 723c 473f
00000050: e003 a83f 22f6 ae3f 553a 853f a7fc 513f
00000060: 3919 9c3f f6c9 7f3f 119d 443f e88e 893f
00000070: 3475 553e 8bb7 7f3f 52cb d63e 1df0 6b3f
00000080: aefa 7e3f c8fe 593f 62f3 aa3f f07a 733f
00000090: 79ca 803f aa3d 973f cd9e 273f 29e5 253f
000000a0: 2ec0 663f 7665 b63d 9806 463f 7aa2 8a3f
000000b0: 95be 5fbc 62fe 853f 7096 863f 3562 133d
000000c0: 44e9 893f 66cf 803f 1b5d 343f 5784 b13f
000000d0: fcba 3b3e 9be8 883f a278 233f 5dc2 c33e
000000e0: 5a45 6b3f 19f9 443f 13e1 8e3f 2b5e 293f
000000f0: d3b0 fc3e 7e11 9b3f 36ea 2e3f 5cab b13e
00000100: 1287 453f b530 863f 1f3e 373f e75d 633f
00000110: 0b71 e53e b2ba 5b3f 8f5b a43f 1c77 583f
00000120: 9783 9f3f 5459 a43f 7ac9 033f 13d5 ad3f
00000130: 524c 8c3f 2a42 663f 4bbe 2c3f 65c7 653f
00000140: a6f3 7c3f f566 943f 797c 393f e850 783f
00000150: 4ae2 2b3f bd42 4a3f bd0f 903f 8eb8 ab3f
00000160: c0f8 2d3f 88a3 2a3f c8eb 363f 1811 943f
00000170: b2da 993f aaf3 623f 6c56 223f e47c 573f
00000180: 5fbb 6b3f 6342 583f 8058 733f f880 9a3f
00000190: b0cf 763f 314a 953f be60 133f 9917 723f
000001a0: 6f9d 8d3f 23f9 3e3f 7f82 c53e 2c60 913f
000001b0: 0017 d63e f574 3d3f 01dc 7d3f 22d3 693f
000001c0: 8e48 7e3f d6cf a93f fa32 813e 17f6 703f
000001d0: 2fe7 c03e ddc8 a83f 0533 063f ca5a 603f
000001e0: eb52 833f e27d 663f 8490 383f 4547 d53f
000001f0: 92cd 843f 7f29 763f f233 203f c94b d33f
1.0525095 0.7066455 0.8891637 1.0816941 0.32159224 0.96820766 1.0399339 0.6216218
1.3108857 0.13380642 1.013166 0.23097739 1.0251116 0.80632895 0.5474881 0.9186556
0.90773684 1.2087755 0.9092048 0.7782661 1.3126183 1.3668864 1.0408427 0.8202614
1.2195197 0.9991754 0.76802164 1.0746737 0.2084549 0.9988944 0.41951996 0.9216326
0.99601257 0.8515439 1.3355525 0.9510946 1.006179 1.1815693 0.65476686 0.64802796
0.9013699 0.08906071 0.7735381 1.0830834 -0.013656278 1.0468256 1.051466 0.03598233
1.0774312 1.0063293 0.7045457 1.3868512 0.18333048 1.0695986 0.63855946 0.38234225
0.919027 0.7694259 1.1162437 0.66159314 0.49353656 1.2114713 0.6832613 0.3470105
0.77159226 1.0483614 0.71579164 0.8881516 0.44812807 0.8583175 1.2840441 0.84556746
1.2462033 1.2839761 0.51479304 1.358065 1.0960791 0.8994471 0.67477864 0.89757377
0.9880928 1.159392 0.72455555 0.96998453 0.67142165 0.79008085 1.1254803 1.3415697
0.6795769 0.6665578 0.71453524 1.1567717 1.2019866 0.8865305 0.6341312 0.8417494
0.9208278 0.844763 0.95056915 1.2070608 0.96410656 1.1663266 0.5756949 0.9456726
1.106367 0.745989 0.38576123 1.1357474 0.41814423 0.7400659 0.99163824 0.9133779
0.9932946 1.3266551 0.25234205 0.94125503 0.3767638 1.3186299 0.524216 0.87638533
1.025968 0.9003583 0.72095513 1.6662375 1.0375235 0.9615707 0.6257926 1.6507503

mamba_layers.0.mamba.learned_average f4 [128, 16]
00000000: 872d 593f 63f4 133f 3282 2b3f 17d8 683f
00000010: bae4 e9be 95b5 ac3f d551 fa3e 2483 4f3f
00000020: c57b 0f3f 4bd7 ea3e 89d6 1d3f 8e68 553e
00000030: 0b32 263f 3e8a 123e d999 3e3f 99b7 c53d
00000040: c9c9 753f 6715 483f 9b15 463f f406 adbe
00000050: 6037 53bf 77b1 5e3d cd94 833f 67fb 133f
00000060: ea08 833e c1fe 2b3f 48ec fd3e e882 0b3f
00000070: bfb0 0f3f 599b 173f 44fa 023f 8819 373f
00000080: 1cfe 653f b747 603f e871 503f 3964 653d
00000090: 9900 d2be 616c d53e f47c 6d3f 78b1 7e3f
000000a0: 680d 0f3f c939 3d3f 13cd 713f 6f5a 203f
000000b0: 5067 843f 08f1 0c3f 1883 593f 401a f33e
000000c0: ed1c 9f3f 457b 943f d246 633f 8f33 273e
000000d0: 1d1d e23e 39a5 1b3f 46a1 5e3f a180 743f
000000e0: 09c6 303f 926a 2d3f 940d 803f e970 ff3e
000000f0: 95fb 623f 39c6 273f 8724 7e3f f43e 3c3f
00000100: 6e4f 153f cd85 f43e 5e9d 103f eb60 273f
00000110: 490c 1c3f 0af6 6c3f 2bb3 333f 4cfe 193f
00000120: e2d8 853f b701 073f ce40 233f 7ea0 613f
00000130: 573f f03e 8226 283f dd4e 293f c678 7b3f
00000140: 53e3 593f 0d6c de3e 49f0 233f e495 143f
00000150: 9f1b 87be cfeb d13f ae5d fe3e a8e4 913f
00000160: bbb0 d73e 0332 613f 5926 9c3f e14d 8b3f
00000170: f3b5 6d3f 59cf 543f 0b1b bd3f d923 993e
00000180: d43c 11be 94e5 493f db47 9e3e dd8d 1a3f
00000190: 8ace 1fbf bf1c 933d 67b2 f73e e060 17bd
000001a0: ab73 873f 4464 f73e 4493 4ebd 756f 3e3f
000001b0: 27ac 763f 992d 8e3d 8d6e 023e 727e ee3e
000001c0: 843b 3ebe 095a 0f3f 9db2 023f ed07 843e
000001d0: 094e 4f3e a95b 81bd 389a f63e 26b1 ad3e
000001e0: 49ab 273e a194 103f 105e 953e fb6b d53e
000001f0: 9345 df3e ffe1 e43e 3b58 d23e e15d d03e
00000200: eddc d73e e482 a93f 3d91 833f 2f04 bd3e
00000210: 56e2 a23e 7b8c 1b3f 7bad 62bc 006d 853e
00000220: d4b2 183f a27c f3bd f480 12be d3c6 423f
00000230: 8947 01bf 8984 07bf 3e67 743e 4a12 7f3f
00000240: f419 013f 7dd7 023f 94a8 163f b9a9 2a3f
00000250: 40a5 1c3f 2a7a 023f 0ec8 5f3f a314 063f
00000260: 810f f53e b4c0 fd3e ab3f de3e 54ea 093f
00000270: 91de 313f 330d 1a3f 91dd 053f 8647 fa3e
00000280: e01a a73e 2849 313f f2ca 1f3f 0e18 553e
00000290: 2631 973e 907f 8d3e d844 403f e274 c13e
000002a0: b7f3 023f 58b1 ea3e 5f0b a73e 114b 283f
000002b0: 2ec7 063f 4ffd 303f 49d0 c33e 7558 553f
000002c0: 9652 3d3f 658a 903e 02b6 693e 8c90 363f
000002d0: 190f aa3d 6751 f73e 5486 ec3e 8ee3 fb3e
000002e0: d50d 063f 69a7 493e e929 f63e 054b a03e
000002f0: 5741 053e bf1c 953e 2c6f 893e 4378 8b3e
00000300: a584 b03e 74be a53e c26e b73e 9bbc 873f
00000310: 3fd7 453f 96ae 653f fe43 073f 3226 f73e
00000320: 20e6 eb3e cd33 ee3e 65be fb3e 66d2 993e
00000330: 5899 023f 2d3b 103f 618e ef3e 9307 d23e
00000340: 3a89 8d3f 0168 813f ea88 6f3f d284 0c3f
00000350: 8b71 843e 278d 723f b72a 9f3f 6b39 413f
00000360: f274 223f 36b9 ce3e 39bd 153f 7f89 1f3f
00000370: 4db0 243f 081c 613f a27c 0e3f dbed 4c3f
00000380: a94f 03bf d053 61be 8d10 75bd 846c 06bf
00000390: 2bd1 91bd 6a08 e63e fd5a cc3e 23c0 abbe
000003a0: 1bb1 4d3f 8efc 623f 6e66 4c3f 488c b63f
000003b0: 2609 c23e 3b65 cd3e eb93 92bd ac75 903e
000003c0: 2d92 163f ee40 dc3e f5bf b53e 7b65 2e3f
000003d0: 4a42 093f f0b6 2c3f 7b49 373f 4a94 893e
000003e0: 5864 173e d3a8 a03e 7f14 ab3d 8cf4 8d3e
000003f0: 01d7 c73e af59 2d3d eb55 623e 42f2 b33e
0.84835094 0.5779478 0.6699554 0.90954727 -0.45682317 1.3492914 0.48890558 0.8105948
0.5604823 0.4586738 0.6165548 0.20840666 0.6492011 0.14310548 0.744535 0.09654159
0.96011025 0.7815766 0.7737672 -0.33794367 -0.8250637 0.054368462 1.0279785 0.57805485
0.25592738 0.671856 0.4959433 0.5449662 0.5612907 0.59221417 0.51163125 0.7152333
0.89840865 0.8760943 0.8142381 0.056003783 -0.4101608 0.4168425 0.9276879 0.99489546
0.5587983 0.739163 0.94453543 0.6263799 1.0344028 0.55055285 0.8496566 0.47480965
1.2430702 1.1600119 0.8877994 0.16328262 0.44162837 0.60798985 0.86964834 0.9550877
0.6905218 0.6774074 1.0004144 0.4989083 0.88665134 0.6553684 0.99274486 0.7353356
0.58324325 0.47758332 0.56490123 0.6538226 0.60956246 0.92562926 0.70195264 0.6015365
1.0456812 0.5273699 0.6377076 0.88135517 0.46923324 0.6568376 0.6613596 0.9823116
0.85112494 0.4344181 0.6403852 0.58041215 -0.2638826 1.6400088 0.49680847 1.1397905
0.42127022 0.87966937 1.2199203 1.0883142 0.9285576 0.8312889 1.4773878 0.29910162
-0.1418336 0.78865933 0.30914196 0.60372716 -0.6242453 0.07183217 0.48378298 -0.03695762
1.0582174 0.48318684 -0.050433412 0.7438882 0.96356434 0.06942291 0.12737484 0.46580845
-0.18577391 0.5599676 0.5105379 0.25787297 0.20244612 -0.06316311 0.48164535 0.33924216
0.16373934 0.5647679 0.29173326 0.41683945 0.43607768 0.4470367 0.4108294 0.40696624
0.4216074 1.324307 1.0278698 0.36917254 0.31813306 0.6076123 -0.013835306 0.26059723
0.5964787 -0.11889006 -0.14307004 0.7608463 -0.5049978 -0.5293661 0.23867509 0.9963728
0.50430226 0.5111006 0.5885098 0.66665226 0.6118965 0.5096766 0.87414634 0.5237524
0.4786339 0.49561083 0.4340795 0.5387318 0.69480234 0.6017639 0.5229121 0.48882693
0.32637691 0.6925225 0.62419045 0.20809957 0.29529685 0.27636385 0.7510505 0.37784487
0.5115313 0.45838428 0.32625863 0.6573954 0.52647674 0.6913652 0.38244846 0.833381
0.7395414 0.28230587 0.22823337 0.7131431 0.08303661 0.48304293 0.46196234 0.49197048
0.52364856 0.19692768 0.4807885 0.31307235 0.13013206 0.29123494 0.2684263 0.2724019
0.344762 0.32371867 0.3582669 1.0604433 0.77281564 0.8971952 0.5283812 0.48271328
0.4607401 0.46523896 0.49168697 0.30043334 0.51015234 0.56340295 0.46788314 0.41021404
1.1057503 1.0109864 0.9356829 0.5489017 0.25867876 0.9474663 1.243491 0.7547824
0.63459694 0.4037568 0.58491856 0.6231918 0.64331514 0.879334 0.55658925 0.8005044
-0.51293427 -0.22004628 -0.059830237 -0.5250933 -0.07119974 0.44928294 0.3991317 -0.33545026
0.80348366 0.8866662 0.79843795 1.426156 0.37897605 0.40116295 -0.07157119 0.28214777
0.58816797 0.43018287 0.35498014 0.68123597 0.53616774 0.6746664 0.715965 0.26870948
0.14784372 0.31378803 0.08353519 0.27725637 0.39031222 0.042321857 0.22103088 0.35145766

mamba_layers.0.mamba.in_proj.weight f4 [256, 64]
00000000: e8bf a23d 2b59 97bd e973 5e3e f46f 63bc
00000010: ab36 51be 0cba 9a3e 3c5f c73e 7689 f8bd
00000020: a06c ccbd 5882 983e d5ea 823e 4cd3 ac3c
00000030: 177a 24be 5dc7 4dbe 2e08 113e 29f4 1f3e
00000040: bff2 893e bddc 8dbe 6aa7 8dbe cf69 4d3e
00000050: 5414 73be 0d25 83be ad55 6a3e 1944 1b3d
00000060: 04a0 883e 3fc8 223e dc68 fa3e bcaf ca3d
00000070: 22dc c1bc d471 53bd 1fcd 30be a43b 5b3e
00000080: 6276 9dbd 8c26 a7be 0d7d 91bc d3cb b7bc
00000090: 1b0c adbe 9591 a03e 0887 18be 0360 13bd
000000a0: 4e70 8a3d 2321 8dbb c934 083d 8080 7bbd
000000b0: b38d 90be 32dc d43e 8d6b 893c b205 96bd
000000c0: cc3c 853b 9398 063e 6bef 5bbe ee0d 163d
000000d0: 7f7d b6be eae6 70be dbca c03d cd8f b9bd
000000e0: c082 4cbe eea6 b5bc 60ae 093e e124 003e
000000f0: 28fc 3a3e d63f 80be d8f0 c9bc ccc9 8bbe
00000100: 4f67 d0bd 17a5 7dbe 2e78 b4be 171b e23b
00000110: 9aaf 7b3d 0712 89be dc18 903e ac80 a93d
00000120: 8527 02be 71f7 9ebc 3367 0d3d 51ac 9cbd
00000130: 7421 e43c dbf1 663c c051 0bbe 6a14 05bc
00000140: 3af0 1e3e e8ed 933e 63c8 cfbd a556 d4be
00000150: 827f 0dbe a103 8b3c 2666 b9bd 5808 30be
00000160: 523b d8bd f532 81be 3e79 833e 0331 6fbe
00000170: f5e7 6a3e bff6 f8bd fb35 0e3e 32d0 9dbc
00000180: ca3f 093c 4f60 55bd 48c4 2f3c d2e8 8fbb
00000190: fadf a23e 9a15 2fbd 14a2 9c3e c453 6cbc
000001a0: 6803 26bf 5076 073e d3fd d43e 8846 ea3d
000001b0: c940 313d 9605 1bbe 6d3f 913e 7e1d 463c
000001c0: 6ec1 853d 2346 c13e de4b 1abe c891 093e
000001d0: 9041 05be f22c a6be 58f6 463e f50d 5abd
000001e0: f09f 4cbd dc43 99be 32c6 433e 78cd aebd
000001f0: 655a adbd 60e9 603e ff83 c13e e355 39be
00000200: e720 9dbd 581c 1cbe 0049 83bd 7148 d63e
00000210: 0d08 81be 4ea4 a83d ac23 0b3e c461 553e
00000220: 6cac 623e 8198 923d 75f6 4a3e a64d 313e
00000230: e43f c6be 6609 ab3e 94d7 b03d 22b5 b43d
00000240: 6e1a 3dbd e721 edbe 1d64 84bd f90f 483a
00000250: e5e0 80be 0a3d f83b 2be3 7d3d b31c 803e
00000260: aae5 e8bd c628 b73d 5603 473e 3cea 053e
00000270: 763b bf3d 9a79 c9be 2e9b a6be 38a1 7abd
00000280: f295 ad3d fb60 82be a358 fe3d 4ac8 383e
00000290: 254d e83d a9e2 553e 28d5 653e 2fe9 de3d
000002a0: 17a0 c13d 6efc 46bd 5ac5 35be e93d 08bd
000002b0: 611b a0bd 01ec b5be fccd a9bc d96d 1fbd
000002c0: 44af d73d 3d7e e53e 40ff b63d 07d6 073d
000002d0: 0bfb 5fbe a60e 10bf b866 a3be 9877 57be
000002e0: 891a 27bd 7825 c8bd 6afc a73e 9ec9 6a3d
000002f0: 5408 303e f625 003d 33e5 c13d e710 f93d
00000300: 0d5c ccbd 89a5 47be fca5 3f3d 20c0 cc3d
00000310: 2294 42bd 07e9 b93d 2849 89be 0e56 0cbe
00000320: e8fd 203e 5d6f 193e 9ab9 48bc dab4 d0bd
00000330: 110c 16bd 801c 273d 5606 abbe 52e2 1e3e
00000340: 8e6f 9f3c 3841 073e 5c8b 92be f410 a0bc
00000350: 1c1a 5e3e 9cf5 77be 38a4 163e 6227 9e3d
00000360: 88a4 683e 88b6 45be 94af adbe 215d b73c
00000370: 2901 993e c2d6 e73d 04f7 1cbd 159c afbe
00000380: 5c8a ed3d 931b 783d a9c3 6d3e 6900 8a3e
00000390: e14e 613e f604 053d 3644 f0bd 632f 703d
000003a0: fb86 8abe 24d1 99ba 2cbd 3d3e 77c0 853b
000003b0: f4fc b63e 971d 3fbe cdce 8bbe 7e11 2e3d
000003c0: 71da 923e 5095 4b3d bb2b 633e 4424 0bbc
000003d0: 8a23 6b3e 1564 c33e ab8b 5f3e 6af1 c63c
000003e0: 28f5 613e 7048 93bd 356a d0bd 2e05 aebd
000003f0: 27f9 3b3e 3d92 22be 5805 3abd 5222 04bd
0.079467595 -0.07390054 0.21723904 -0.013881672 -0.2043101 0.30220068 0.38939846 -0.121355936
-0.09981656 0.29786944 0.25569788 0.021096848 -0.16062199 -0.20095582 0.14163277 0.15620483
0.26943013 -0.27707472 -0.2766679 0.20059894 -0.23738223 -0.25614205 0.22884245 0.03790674
0.26684582 0.158967 0.48908126 0.098968 -0.023664538 -0.051622227 -0.17265747 0.2140947
-0.07688595 -0.32646596 -0.017759824 -0.022436058 -0.33798298 0.3136107 -0.1489526 -0.035980236
0.06759702 -0.0043069287 0.033253465 -0.061401844 -0.28233108 0.41574246 0.016774917 -0.07325305
0.0040660854 0.1314414 -0.2147805 0.036634378 -0.3564262 -0.23525587 0.094136916 -0.09060631
-0.19971752 -0.022174325 0.13445425 0.12514068 0.18260252 -0.25048703 -0.024650976 -0.27302396
-0.101759546 -0.24770008 -0.3524794 0.006900202 0.061446764 -0.26771566 0.28143966 0.08276495
-0.12710388 -0.019405099 0.034522247 -0.07650054 0.027847983 0.014095749 -0.13605404 -0.008122543
0.15521327 0.28892446 -0.101456426 -0.41472355 -0.13818172 0.016969504 -0.090526864 -0.17190683
-0.105581895 -0.2523419 0.25678438 -0.2335854 0.22940047 -0.12156438 0.1388778 -0.019264314
0.008377025 -0.0520938 0.010727949 -0.004391768 0.31811506 -0.04274521 0.30592406 -0.014424268
-0.6484895 0.13228726 0.41599903 0.11439234 0.043274675 -0.1513885 0.28368703 0.012091992
0.065310344 0.37748823 -0.15068004 0.13434517 -0.13013291 -0.32456166 0.1942991 -0.053235967
-0.049957216 -0.29934585 0.19118574 -0.08535284 -0.08464507 0.21964025 0.37796018 -0.1809917
-0.07672291 -0.15245187 -0.06410408 0.41852143 -0.25201455 0.08234464 0.13587826 0.20838076
0.22136086 0.07157994 0.19820578 0.17314777 -0.3872062 0.33405608 0.08634868 0.08823611
-0.046167783 -0.46314928 -0.064644076 0.00076317746 -0.2517158 0.007575636 0.061984222 0.25021896
-0.1137193 0.08943324 0.19434866 0.13077635 0.09337513 -0.39350587 -0.32540268 -0.061188906
0.084758654 -0.25464615 0.1241925 0.18045154 0.11342839 0.20887245 0.22444594 0.1088432
0.09454363 -0.04858058 -0.17751065 -0.033262167 -0.07817722 -0.3553162 -0.020728104 -0.03892312
0.10531476 0.44822875 0.08935404 0.033163097 -0.21873109 -0.5627235 -0.31914306 -0.21041715
-0.04079679 -0.097727716 0.32809764 0.057321183 0.17190677 0.031286202 0.094675444 0.12161427
-0.09978495 -0.1949674 0.046789154 0.099975824 -0.04750455 0.090776496 -0.26813626 -0.13704702
0.15721858 0.14983888 -0.012251282 -0.10190745 -0.0366326 0.040798664 -0.3340327 0.15516022
0.019462373 0.13208473 -0.28621948 -0.019539334 0.21689647 -0.24214786 0.14711082 0.077223554
0.22719014 -0.19307911 -0.33923018 0.022383275 0.29883698 0.11320259 -0.03832151 -0.3429877
0.115986556 0.06057317 0.2321917 0.26953438 0.22002746 0.032475434 -0.1173176 0.05863894
-0.27056107 -0.0011735302 0.18529195 0.0040817815 0.35739863 -0.18663631 -0.27306214 0.04249715
0.28682283 0.049702942 0.2218465 -0.008492533 0.22962776 0.38162294 0.21830623 0.024285037
0.22066176 -0.07191551 -0.101765074 -0.08497082 0.18356763 -0.15876098 -0.045415252 -0.032259293

mamba_layers.0.mamba.conv1d.weight f4 [128, 1, 4]
00000000: 3320 bfbc 6f1b dd3e f09c d93e ed62 d03d
00000010: f80b cabd 83ce 1abf bd9e 59be 8217 c83e
00000020: 9d83 b93d d1d1 53be 2c85 c23e 9566 ac3d
00000030: 55eb 8ebd 3a48 323e 6306 8a3e 4c36 2c3d
00000040: 0ec4 433c bae9 07bd bddf 48bd 92e6 3abd
00000050: 646c cdbc 847c 53be 74f4 6ebf 8a2c 173f
00000060: 5355 0c3f cf1e ed3e 0a75 eabe 77d2 13bf
00000070: 121c 5ebe 68c3 46be 2877 cb3e 60f7 853d
00000080: d855 a03e a25a 3cbe 64d4 53bf d4cd ce3e
00000090: d959 88bd 78af 0ebe 5dc3 ac3d 7f5a 8bbd
000000a0: 8187 873e f179 f9be 4b57 09bf 09ff 7e3e
000000b0: 1cab 7bbd 6e59 75be 93b6 ba3d 890c b6bd
000000c0: 230a aabd 0327 9cbd b9fb d1be 35fc 8abe
000000d0: a689 a83d 0fed 943e d46c 66be b5b1 06be
000000e0: 3c17 d8bd 1514 94bd d0f7 60be 6cae b2bd
000000f0: aa7f aebe 07d3 a73e 21dc 003f 6457 1ebd
00000100: 2d0f dc3d ba36 cd3e 1076 cabd 6c2e 17be
00000110: 5ed0 c63e 464d c43e af50 fabe c2b1 ca3e
00000120: bcd5 b73e 503f ebbe d1b9 71be 76bd 9ebe
00000130: b3a2 333d 5759 a5bd 08a3 d03a 5299 d4bd
00000140: 78cb 1bbd 9f26 fe3e 5802 493e 7b8b 263e
00000150: 3e7d 48be b014 123f 6e3b e63e ae49 283f
00000160: bf87 f03d 72b9 23be 0101 25bf 93af e23e
00000170: 2eae 2cbd bf77 203e f04f a2be 935a 013e
00000180: d439 8a3e 22f5 f6be 823b 31bf fbed 95bd
00000190: df5f 47bb a6de 5a3d 17ac 9e3e 5eac 033e
000001a0: aa58 b83d deab bbbe 5779 bbbe 5ba2 fd3e
000001b0: 7338 22be 0636 273f 232c 49be ad7a 5fbe
000001c0: 9298 54bd 8d71 6c3b 9add d2bc 5cd1 01bd
000001d0: 23b9 7bbd 13e7 103f 1734 473e e860 bbbd
000001e0: b7f8 85bc 3d44 4fbc 32a7 e03c 08a8 473d
000001f0: 8359 d83d ca30 153f 91c6 2f3e cd2f c3be
00000200: 7c6c ddbe 0bf8 f0be 90b5 713e ca3c 2f3f
00000210: c148 28be 2e53 68be c17d 3ebd f48a 58be
00000220: cc88 9d3e 289c 6dbe 400c 413e c4a9 0ebf
00000230: 7241 2f3d 3ab7 2bbe 1fe7 303e 7f0d 683f
00000240: 8a09 af3e fe8c 62be 8485 c8bd 20f6 34be
00000250: 8762 bdbe 7f0a 12bf d8cf d23e 6c3f a33e
00000260: a568 34be 903b 2ebe ee7d b9bd c5ec 173e
00000270: b743 ce3d c4d9 fd3d 1145 8f3e 369a 3f3c
00000280: 416d 153e 53a4 bc3a 64a0 e6bd 49ac c4be
00000290: 225c 343d 9c95 a1bb e44a 943d 4ae1 253c
000002a0: ef5e 7abe f6a6 1d3c 0976 4a3d 6929 8c3e
000002b0: c4ea 3abe 91ae d2be e853 d23e 06c7 61bd
000002c0: 6698 813c 5fdf 7abd cd49 e83d 0150 c2bc
000002d0: 64e6 39be 5afd 1bbf c2a2 6a3e b761 ca3d
000002e0: 298e 983d 15b4 173f 0ce4 e4be 118a 9e3d
000002f0: fd73 9cbd 7b4b 49be 5758 823d b52b 70bd
00000300: 1fab 223e 0301 39bf e854 e9be 66c8 063c
00000310: 9fa3 5d3e 52ef a03e f27c 0abf b75a eebe
00000320: 5f01 f73d 36ff 903d c4bb 30be 42b6 e23d
00000330: 4390 683b 4926 03bf 8668 283f 69cf 70bc
00000340: 5b3f 833b 9bbe 633d 6cb5 623d f398 4dbd
00000350: 5346 673d 6370 183f 0ea5 fdbe 2a0b 993e
00000360: 9425 a43e 530f 663e 002d 9d3e 5ded b5be
00000370: 23df 8bbd 6502 8d3e 6607 f5bd 3911 1b3d
00000380: 6568 923d 128e 89be 79d9 a8be 2865 a0bc
00000390: 13d8 4cbe 44d7 b5be 4cf0 e1bc 42e1 76bc
000003a0: 7ecf 13bd 2657 0abf e1ff 06be 11e7 4bbe
000003b0: ae84 953c 553e 813e 29d6 6c3d 2228 423e
000003c0: 9bb4 b5bd f762 04bc c9e2 2e3d 6c06 96bd
000003d0: 4bcd 173e 3972 a4bd b563 1e3f 84fb 0abf
000003e0: 2b66 b53d 0495 7a3d 3591 a6bd 3ed8 943b
000003f0: 09cd a7bb a297 c2bc 5571 17bd 7306 9ebd
-0.023330783 0.43184993 0.42502546 0.101751186 -0.09865564 -0.6047136 -0.2125196 0.39080435
0.09058306 -0.20685507 0.37992227 0.084180035 -0.0697848 0.17410365 0.26957998 0.04204397
0.011948599 -0.033181883 -0.0490415 -0.045630045 -0.025076099 -0.20652968 -0.93341756 0.59052336
0.54817694 0.46312568 -0.4579242 -0.5774302 -0.21690395 -0.19410479 0.39739347 0.06541324
0.31315494 -0.18393949 -0.8274596 0.4039141 -0.06657762 -0.13934124 0.084357 -0.0680437
0.2647057 -0.48725846 -0.53648823 0.24901976 -0.06144248 -0.23959896 0.091168545 -0.0888911
-0.08302715 -0.076246284 -0.41012362 -0.27145544 0.08229379 0.2908711 -0.22502452 -0.13153727
-0.105513066 -0.07230393 -0.21969533 -0.087246746 -0.34081775 0.3277819 0.5033589 -0.03865756
0.10745082 0.40080816 -0.098858 -0.14763802 0.38830847 0.38340205 -0.48889682 0.39588743
0.35905254 -0.4594674 -0.2360604 -0.31003922 0.043856334 -0.08073681 0.0015917728 -0.10380806
-0.03803584 0.4963884 0.196298 0.16264145 -0.19579026 0.57062817 0.44967216 0.65737426
0.117446415 -0.1598871 -0.64454657 0.44274577 -0.0421583 0.1567068 -0.31701612 0.12632208
0.26997244 -0.48233896 -0.69231427 -0.07320782 -0.0030422134 0.05343499 0.3099067 0.12858722
0.09001286 -0.36654562 -0.36616012 0.4953793 -0.15841846 0.6531681 -0.19645743 -0.21824141
-0.051903315 0.0036078424 -0.025740433 -0.0316938 -0.061455857 0.5660259 0.19453464 -0.09149343
-0.016353948 -0.012650547 0.027423475 0.04874423 0.10563948 0.5827757 0.17165591 -0.38122407
-0.4324683 -0.47064242 0.23604417 0.6845213 -0.16434003 -0.2268798 -0.046506647 -0.21146756
0.3076843 -0.232041 0.18852329 -0.5572779 0.042787023 -0.16769114 0.17275666 0.90645593
0.34186965 -0.22124097 -0.09791091 -0.17672014 -0.36989233 -0.57047266 0.41174197 0.31884325
-0.17618044 -0.17014909 -0.09057222 0.14836414 0.10071509 0.12395051 0.2798238 0.011694482
0.14592458 0.0014392234 -0.11261061 -0.38412693 0.044033177 -0.004931165 0.07240847 0.010124514
-0.24450277 0.009622326 0.049428973 0.27375343 -0.18253618 -0.4114881 0.4107964 -0.055121444
0.01581974 -0.06124818 0.113422014 -0.02371979 -0.18154293 -0.6093346 0.2291365 0.09881919
0.0744899 0.5925916 -0.44705236 0.07741178 -0.076393105 -0.196577 0.06364506 -0.058635432
0.1588559 -0.7226717 -0.4557259 0.00822649 0.21644448 0.31432587 -0.540969 -0.46553585
0.120608084 0.070799276 -0.17259127 0.11069919 0.0035486377 -0.51230294 0.6578449 -0.014697888
0.0040053553 0.055601697 0.0553488 -0.050194692 0.05646355 0.5954649 -0.4953999 0.2989133
0.3205992 0.22466783 0.30698395 -0.35532656 -0.06829669 0.2754089 -0.11964302 0.03785822
0.07148818 -0.26866204 -0.32978418 -0.019579485 -0.20004301 -0.35515797 -0.027580403 -0.015068354
-0.03608655 -0.5403923 -0.13183548 -0.19912364 0.018251743 0.25242868 0.057821427 0.18960622
-0.088723384 -0.008080236 0.042696748 -0.073254436 0.14824407 -0.08029599 0.6187089 -0.5429003
0.088573776 0.06117727 -0.08133165 0.0045423796 -0.0051208776 -0.023753945 -0.036973316 -0.07716074

mamba_layers.0.mamba.conv1d.bias f4 [128]
00000000: f6ba 093d e8d7 04be c273 253e adcc 90bd
00000010: 3abd c03b 0d63 d2be f8fa 8fbe dda7 a5be
00000020: 9fff c1be 2cd7 a4bc 7513 1dbf e76b 933d
00000030: 3dd7 213e 78ee ba3d 3b69 58be f1ce 0dbe
00000040: f920 5dbe 8164 c6be 0177 6a3e 8c72 f63c
00000050: e4e5 16bd b064 a5bd 04ba 2dbe 4207 e43d
00000060: 9684 533e b0d5 2f3e a994 8f3c deaf 1abf
00000070: cf97 233d c330 bd3d 0acf 223d 80f4 42be
00000080: 2572 30be 55ec b53d 166e 12bf cab2 8a3e
00000090: 16dd 04bd 0a88 c53e d711 0cbe 710b 443c
000000a0: 3e65 2d3e 2708 423c db02 173e 85fb 07bd
000000b0: 1610 343d cf3b c6bd a568 adbd 1766 5b39
000000c0: e962 b6be 34c0 79be a4a2 243d 94eb 72bd
000000d0: ee77 3dbd d07a 733e 178f b4bc fd69 92be
000000e0: 2dc8 93be 4fa7 23be 18b0 16bc 7143 b1bd
000000f0: 6a1b 163d 0dec 04bf f7aa c73c 79be f1bd
00000100: 6121 0e3e 9c37 49be d282 b73e ec09 583e
00000110: 5764 ccbe be62 cdbe 4916 613e 11a5 8fbd
00000120: aaf0 a9be 6b6b 56bd fdf2 0abe 27a0 28bb
00000130: 5973 343e 82e4 943e c1de 0b3e 5ab2 e4be
00000140: 1e82 ba3e 8ffd 75bc c182 89bd 7b35 ec3d
00000150: 935a 1dbf f067 d83c fc5c 72bd 95ab 6ebe
00000160: 3596 303e 04c4 24be 3cb2 57bd 1a3f 7fbd
00000170: 6daa 99be e866 86be 30c4 393e e450 e3be
00000180: 03c6 c8bd 53a7 72bd f366 5fbd bbd3 12bd
00000190: 26b4 a9be 40aa bc3e e077 c83c 1c7b 83be
000001a0: cf15 48be 79ae b0be c5a7 d3be 7c07 e1bb
000001b0: f3d5 22be 40c2 413d 93d6 19be ba80 2d3d
000001c0: 49cd a33d a9fb 75be 075b dc3a 69c0 d83d
000001d0: 09d1 4abd 5bab 80be e718 2dbe a2f7 c1be
000001e0: 8d73 c03d 8635 0dbe 6340 edbd 9192 0dbe
000001f0: 6ec3 eabe 125a e83d 38f9 87bc 9170 2d3e
0.033625565 -0.12972987 0.1615744 -0.07070289 0.0058819326 -0.41091195 -0.2812116 -0.32354632
-0.37890336 -0.020122133 -0.61357814 0.07198315 0.15804763 0.091275156 -0.21133892 -0.13848473
-0.2159461 -0.38748553 0.22896959 0.030083917 -0.036840335 -0.08075845 -0.1696549 0.11134197
0.20656046 0.17171359 0.017526941 -0.604246 0.039939698 0.09237816 0.03974823 -0.19038582
-0.17231043 0.088829674 -0.5719923 0.2708953 -0.032437406 0.38580352 -0.1367868 0.0119656185
0.16933152 0.011842764 0.14747183 -0.033198852 0.043960653 -0.09679376 -0.08467225 0.00020923499
-0.35622337 -0.24389726 0.04019417 -0.059306696 -0.046256952 0.23777318 -0.022040887 -0.28596488
-0.2886366 -0.15981792 -0.009197257 -0.086554416 0.036647238 -0.51922685 0.024373515 -0.11803908
0.1387992 -0.1965012 0.35841995 0.21097535 -0.39920303 -0.40114397 0.21981157 -0.07013906
-0.33191425 -0.052348536 -0.13569255 -0.0025730224 0.17622127 0.29080588 0.13659193 -0.4466732
0.36427397 -0.015014066 -0.067143925 0.11533638 -0.6146633 0.026416749 -0.059170708 -0.23307641
0.172448 -0.16090399 -0.052660212 -0.062316038 -0.30012837 -0.26250386 0.18141246 -0.44397652
-0.09803393 -0.059241604 -0.05454154 -0.035846453 -0.33145255 0.3684864 0.024471223 -0.25679862
-0.1953957 -0.34508112 -0.41338935 -0.0068673473 -0.15901928 0.04730439 -0.1502326 0.04235909
0.079981394 -0.24021782 0.0016811796 0.10583574 -0.049515758 -0.25130734 -0.1690403 -0.3788424
0.093970396 -0.13789949 -0.115845464 -0.13825442 -0.45852226 0.113453045 -0.016598329 0.16937472

mamba_layers.0.mamba.x_proj.weight f4 [36, 128]
00000000: a946 93bd e4c3 b43d 6b2d 39be 0947 f13d
00000010: 3031 ddbb a2d3 b93e 4447 553e 96c6 853d
00000020: 7644 a93d 96d4 363c 0861 c6be 5713 3abe
00000030: a871 553d c08f 28bb 3bb0 aa3d 8038 72be
00000040: c58d 1dbe 61d9 523b bea5 97bd 01ff 71bc
00000050: 1569 013d e971 803b d287 81bd b2dc 14bc
00000060: 4f8f c9bc ebcd 48bd 7308 893b a4f0 633e
00000070: 6af6 6d3d 5e5d aa3d 3a8b df3c ec87 653d
00000080: 3886 b1be 7744 4cbe bbd3 b73e 564a 3dbe
00000090: 45d5 373e c62b 883d 2d10 4e3e c825 323e
000000a0: 84cf ca3d 74b0 b3bc 9cb5 33bd 48e4 1a3e
000000b0: a348 683b b2fa 533c 809b 0c3e 0d2b fcbc
000000c0: ef23 88be 5650 9bbd 09d2 0dbe a7cc 81bd
000000d0: 0b61 8dbd fa62 733d 6591 52be 79f9 9abd
000000e0: 61fa ca3d 8cbc f2bd 4f24 c23c fa0b 94bd
000000f0: 659c 98bc 1dba 8b3d 6a1c 16bd 2b7a b5bd
00000100: b1ce 543e dfe1 473b 7bc0 7cbe 945d 29bd
00000110: 474f 6c3d 316b 213e c040 d13e 80f5 823e
00000120: 4fa5 f73d a50c 033e a441 143e b50e c33d
00000130: b499 6ebe f4e1 96bd 3622 983e a940 5c3e
00000140: 0d8e 91be 46da 383e 9f61 38be bc0e 5fbe
00000150: 8986 453c b915 0dbd 2bee 873e 16af 113d
00000160: 07c6 963e f7ad 1d3d b782 94bd 5a48 833d
00000170: 6adf 9fbd a60a b0bd fb49 a43e 8463 073d
00000180: 8c90 47bd 015f a13e b5d7 b2bd 5639 693e
00000190: e534 b03e fffc fd3a e3d1 ac3d 12a0 aabc
000001a0: 828d 31be d9fc 2ebd 8504 d63c 459a 2fbe
000001b0: a0c7 c53d f08c 16bd 4586 2e3e 9098 443d
000001c0: 86ef 71be 2c38 f13d 535c 6f3d e717 a43d
000001d0: dc94 b73b 0dcb 7bbb 63e0 c6bb 9235 643e
000001e0: 27ab c6bc 5174 c83d 7c72 af3e 2bcb 0c3e
000001f0: 48c4 063e bef4 fd3c 0663 f7bd ec70 c9bc
00000200: 7665 45bd 4e23 4cbc 1810 5bbd 1a19 a33d
00000210: 0fcc 09bc 72f4 0e3d c824 bf3e d40d 34be
00000220: 159b 64bc 7a58 0a3d 8560 883c 056b 523d
00000230: 7ac7 a93b 7310 e1bc 3155 8d3d 1fa7 823e
00000240: bc8a ab3d 3f36 be3e 4f6c 39be 00b1 ba3d
00000250: eece 79bd 276e e8bc e940 42bd a58a 06bd
00000260: 2cde 3f3d 653d 1ebd afaa 9cbd 63e8 d4be
00000270: 9eb9 71bd 05a7 6d3e 3acf 4bbd 6c63 3b3e
00000280: b595 c5be 4a1d 1dbe 88a1 fc3d 1974 a13e
00000290: 4a47 94be 7b3e debd 8753 1abd 0cbb 9e3d
000002a0: 13bc b3bd d882 e2b9 1f14 ba3d 1aab 12bd
000002b0: ed72 14bd 23bc a4bc 6fd0 51bc b753 e0bd
000002c0: 7770 653c 1af0 06bd c9d9 f1bc 6894 18be
000002d0: 67c7 3cbd 9bdf bebd 1fde 18be cba6 273d
000002e0: df90 e93a 7d13 b03d 7a38 923b 8f0f 21be
000002f0: 9b29 003e 548e 4cbd 268d 97bd a86c 9bbd
00000300: 2c81 6cbe 9689 a23d 5655 373e d368 0d3d
00000310: 9e21 90bd 96b9 9a3d 7053 85be d1f9 273b
00000320: 0e24 99bc 8466 06be 8995 a63d f1b6 9c3c
00000330: 56f5 873e 2e5b 83ba 8e47 42be 8ad8 f03d
00000340: 9d9f 00bd 3af2 76be 866e a03d b2a7 e33d
00000350: dc75 233e c271 8e3d 8b95 093c 0dc8 1dbe
00000360: 7137 273e 7ed0 19be e9eb 303c 0a01 b73e
00000370: 7383 c3bd d6d2 f03d e31b f23d 3cd5 733e
00000380: 9a94 80bd 649d 173e e9a4 a23d ef80 173e
00000390: 2e34 a23e 1dcb 7bbe 408d f13c 514b 443e
000003a0: e12d ebbd e573 483d 771a 5b3e 570c 083e
000003b0: 318c 873d 6233 0a3e 8d2b 443d 6f93 d63d
000003c0: fc58 81be 0127 02be abab ea3c 8c47 6fbd
000003d0: 7853 c23c 8e50 273c e36b fd3d 79f3 893d
000003e0: 8df7 b9bd c566 b7bd f225 1b3e d154 de3e
000003f0: 9032 08bd 4916 6bbd f37b b83d 5f42 b33d
-0.07191212 0.08826426 -0.18083732 0.11781127 -0.0067502484 0.36294276 0.20827967 0.06532018
0.08265011 0.011159083 -0.38745904 -0.1817144 0.052110344 -0.0025720447 0.083343945 -0.23654366
-0.15386112 0.0032173025 -0.0740466 -0.01477027 0.031594355 0.003919829 -0.06324734 -0.009085821
-0.024604468 -0.049024504 0.0041819154 0.22259766 0.058096327 0.0831859 0.027288068 0.05603783
-0.34672713 -0.19947992 0.35903725 -0.18485388 0.1795245 0.06648974 0.20123358 0.17397225
0.09902862 -0.021934725 -0.043874368 0.15126145 0.0035443685 0.012938188 0.13731194 -0.030782247
-0.26589915 -0.07583682 -0.13849653 -0.063378625 -0.06903275 0.059420563 -0.20563276 -0.075671144
0.09911037 -0.11852369 0.023698954 -0.07228847 -0.018629262 0.06822608 -0.03664819 -0.08861192
0.20781972 0.003049962 -0.246828 -0.04134901 0.057692792 0.15763547 0.40869713 0.25577927
0.12092077 0.12797792 0.14478165 0.095242895 -0.2330082 -0.07367316 0.297136 0.21509041
-0.2842869 0.18052015 -0.1800599 -0.21782964 0.012056001 -0.034444544 0.26548895 0.035567366
0.29447958 0.038495984 -0.072514944 0.06410284 -0.07806285 -0.08595781 0.32087693 0.03305389
-0.048721835 0.31517795 -0.08732549 0.22775778 0.34415355 0.0019377767 0.0843847 -0.02082828
-0.17339137 -0.042721603 0.026125202 -0.17148693 0.09657216 -0.036755502 0.17043407 0.047997057
-0.23626527 0.11778292 0.058437657 0.080123715 0.005602462 -0.0038420588 -0.0060692295 0.2228606
-0.024251534 0.097878106 0.34267032 0.13749377 0.13160813 0.031000491 -0.12079434 -0.024589978
-0.048192464 -0.012459589 -0.053482145 0.07963772 -0.008410468 0.03490109 0.3733275 -0.175834
-0.01395299 0.033775784 0.016647587 0.051371593 0.00518125 -0.027473664 0.069010146 0.25518128
0.08376071 0.3715076 -0.18107723 0.09115791 -0.06098836 -0.028372837 -0.047425184 -0.032847065
0.04684274 -0.03863277 -0.07649743 -0.41583547 -0.05901491 0.23208244 -0.049758174 0.18299645
-0.3859078 -0.15343204 0.12335497 0.31533888 -0.2896064 -0.10851761 -0.037677314 0.0775052
-0.08776107 -0.00043203565 0.09085869 -0.035807706 -0.036242414 -0.020109242 -0.012806042 -0.10953467
0.0140038645 -0.032943822 -0.029522793 -0.14900362 -0.046088602 -0.09319993 -0.14928482 0.04093055
0.0017819664 0.08597467 0.004462299 -0.15728591 0.12515871 -0.049940422 -0.07399969 -0.07589084
-0.2309615 0.07936399 0.17903647 0.034523796 -0.07037662 0.07554929 -0.2604022 0.002563108
-0.01869395 -0.13125044 0.0813399 0.019130202 0.26554364 -0.001002168 -0.18972608 0.117600515
-0.03140222 -0.2411584 0.07833581 0.1111597 0.15962929 0.06955291 0.00839747 -0.15408345
0.16329743 -0.1502094 0.010798433 0.3574298 -0.09546556 0.11758964 0.11821725 0.23811811
-0.062783435 0.14806134 0.0794161 0.14795278 0.31680435 -0.245892 0.029486299 0.19169356
-0.1148336 0.04893865 0.21396814 0.13285957 0.06618536 0.13496163 0.047893096 0.104773395
-0.25263202 -0.12710191 0.02864631 -0.05841784 0.023721442 0.010212077 0.123740934 0.06735892
-0.0908042 -0.089551486 0.15151194 0.43424085 -0.033251345 -0.0573943 0.090080164 0.08752894
