models/lero_on_imdb_JOB_Lero.pth (torch, 623220 bytes, 9 tensors)

tree_conv.0.weights.weight f4 [256, 38, 3]
00000000: a154 193d 6d4e 1a3d b1b5 82bd 8320 4e3d
00000010: 8f8a 61bd 8036 42bd b9a9 adba a7f4 81bb
00000020: 1fe2 b93c f09b 4f3d c5c1 11bd f990 06be
00000030: b1d9 89bd adb0 333d 1f2e 47bd afbb 8a3c
00000040: b7c5 7d3d c01d efbb a430 913c f41e 48bd
00000050: 1094 063d 6aff dc3c 26dd 49bd d62e 70bc
00000060: 4cd0 583c 8f3f 0a3e 8d2c dc3c 2f17 e4bc
00000070: 331b a5bd f76d ccbd e985 9ebd 447d 9fbc
00000080: cf23 5c3d e2bd 2abd 3690 4b3d ad51 0a3d
00000090: 047b bbbd a575 8a3d 44ff bbbc 1afa cabd
000000a0: 19b0 5bbd 594d a8bd dbc8 943d 690e 97bb
000000b0: af51 4cbd 80ca acbc 0402 24bc a637 81bd
000000c0: 7611 103d 1dfc 293d 1115 fe3d c01e c13d
000000d0: 4082 c43c 7fab adbc 436e 573d 7321 04be
000000e0: 626c 893d 95fe 543c e94c a33d b3f6 b13c
000000f0: e163 9e3b 9bc5 2ebd c7a3 973c 92b8 50bc
00000100: 38d7 b2bc c17d a3bd 9a1e 0b3e cd22 493d
00000110: 5d40 3f3d 3c9f d83d 536c 53ba 3463 173d
00000120: 11fe 323d d6df 423c db6d cb3d 55b5 27be
00000130: 1dd4 08bd cae4 4cbc aa1e a8bb 7183 e73c
00000140: ac60 6bbd 25cb 28be a37c 20be 7cc7 2a3c
00000150: 2170 39bc 6455 5abe fc7e 663e 1262 0bbe
00000160: 0a5a 643d f58b f1bd 9c5d 213e 8234 873a
00000170: 97ad cdbd 2787 8c3c ebe5 233d 905e 29bc
00000180: e926 7fbd 6b23 d7bd eb14 47bd 9b4e 0fbe
00000190: bf41 833c 94c2 f7bd 8b92 96bc 30ff 9a3c
000001a0: e251 b0bd 498f 353d caf0 f73c 6281 1dbe
000001b0: f2c0 a0bb b178 db3c df70 843d fc89 2d3d
000001c0: d92d b93c 2298 b2bd 86e5 b2bd b4f6 eebd
000001d0: a6f8 5b3c 0e04 8cbd a949 77bc d3a1 9a3d
000001e0: 9e0b 6e3c 978a 083d 246f 763c fa55 873c
000001f0: ea67 e13b fc1b a6bc e8a2 59bc c436 7c39
00000200: 6979 73bd 6c7a 88bc 920a 05bc 3b58 67bd
00000210: 7afe 803d 843f b5bd 258e d03c a736 47bd
00000220: b4b0 36bd 19ab a43e 463d 363d 731c 98bd
00000230: bfd0 733b 1c57 88bd 1899 9c3d 893b dcbd
00000240: ab86 91bb d2b0 be3d 549d 4dbd 3c18 603d
00000250: 780b 153e db1a 233d 3335 ceb7 cba1 5f3d
00000260: 3c38 9b3d c099 933c d0cc c43d d4ec 15bd
00000270: 2a07 f1bc 873a 9e3d b76a 5ebd a1a7 12be
00000280: eac7 7ebc 0747 26be 1deb 96ba 3e3f c13c
00000290: 3ad4 28be 058c f03d ba3e 813d 0150 643d
000002a0: bc99 6cbd ccc3 a93d 640a dcbc 52b5 96bd
000002b0: dad5 1b3d 3f3a a9bd 2af9 d93d cbf3 e33d
000002c0: 026d e4bd c729 d6bd 3449 c83c 4e55 1c3d
000002d0: df33 1cbd ae08 1abe b979 34bd 055a bcbd
000002e0: d734 5dbd 91d6 7ebd 3224 ed3d 7c4e 8bbd
000002f0: ee98 a6bc ad47 eb3d 36e1 2c3d 71a9 c93c
00000300: cac0 e23c 6e05 14be bd7f 67bd 1551 b23d
00000310: ad8c e93d bdef 83bb 3fb1 653d ee13 503d
00000320: 1f90 203d 9a7d 75bd c93d 453c c61d 323d
00000330: 41dc 2bbe de27 2cbe 4f59 5f3c 47fe 0cba
00000340: 45a8 a3bd 58d6 723b 507a 18bc 7dca d63c
00000350: 1f09 04bd 014d ee3d 7e19 e23d 3416 b2bd
00000360: 277e b9bd 98b3 933c 9d6e d93a a1e6 a4bd
00000370: 1022 e1bc d75e cdbd 0f2a 873c 3d30 46bd
00000380: 6539 afbb 87e5 e13d 089a 6b3d 504f 293a
00000390: 3935 9c3d 1037 193d b32c af3d c541 e8bd
000003a0: 570e b83d e64e 7e3d 25df c6bc 4b58 953d
000003b0: 0434 6ebd 7a53 38bd 3e6b c43d 78f7 de3c
000003c0: 011b 973b 58d6 8dbd 9e01 23bd b6df 0dbd
000003d0: 13ed 40bd d0f5 2abd 6e1a 133c d453 ab3d
000003e0: fb9e 793d f6a1 533d e66f 853d e3ba 2e3e
000003f0: 3819 113e 8b1d a13c 000d 883c 41f5 913d
0.037434224 0.03767245 -0.06382311 0.050323974 -0.05506378 -0.047415257 -0.0013249434 -0.0039659324
0.02269083 0.050685823 -0.035585184 -0.1314124 -0.067309745 0.043869663 -0.04862797 0.016935198
0.061956134 -0.0072972476 0.017723389 -0.048857644 0.032856047 0.02697726 -0.04928317 -0.014659604
0.013233256 0.13500808 0.026876712 -0.027843086 -0.080618285 -0.09981912 -0.07740385 -0.019468911
0.053745087 -0.041684993 0.049698077 0.0337693 -0.09154323 0.0676072 -0.022948869 -0.09910984
-0.053634737 -0.08217878 0.07264873 -0.004609872 -0.049882587 -0.021092653 -0.010010246 -0.06309442
0.035172902 0.0415002 0.12406362 0.09429693 0.02398789 -0.02119994 0.05259539 -0.12903385
0.067101255 0.01300015 0.07973654 0.02172408 0.004833684 -0.04266892 0.018510712 -0.0127393175
-0.02183114 -0.0798297 0.13585892 0.049105454 0.04669224 0.105772465 -0.0008065153 0.03695984
0.043699328 0.011894187 0.09933063 -0.16377766 -0.033405412 -0.012505719 -0.0051306086 0.028260918
-0.05746524 -0.16483743 -0.15672545 0.010423537 -0.0113182375 -0.21321636 0.22509378 -0.1361163
0.05574993 -0.11794273 0.15758365 0.0010315331 -0.10042875 0.01715429 0.04001419 -0.010337487
-0.062292967 -0.10504802 -0.048603933 -0.1399483 0.016022561 -0.1209766 -0.018380424 0.018920511
-0.08609368 0.0443261 0.030266184 -0.15381387 -0.0049058134 0.026790949 0.06466841 0.04236792
0.02260487 -0.08720423 -0.08735184 -0.11668149 0.013425982 -0.06836711 -0.015093246 0.07550397
0.014529137 0.033335295 0.015041146 0.016520489 0.0068788426 -0.020277016 -0.013283469 0.00024052995
-0.059441958 -0.016659938 -0.008120196 -0.056480628 0.062985376 -0.08850005 0.025458405 -0.048636105
-0.04460211 0.32161787 0.04449203 -0.07427301 0.003720328 -0.0665724 0.07646388 -0.10753543
-0.0044411025 0.093110695 -0.050198868 0.05471061 0.14555156 0.039820533 -2.4581886e-05 0.054597657
0.07579085 0.01801765 0.096093774 -0.03660281 -0.029422361 0.07726007 -0.05430099 -0.14321758
-0.015550593 -0.16238032 -0.0011514161 0.023589727 -0.16487208 0.117454566 0.06310792 0.05574036
-0.0577638 0.082892984 -0.026860423 -0.07358803 0.03804574 -0.08263063 0.106432274 0.11130484
-0.11153604 -0.10457187 0.024448968 0.03816729 -0.038135406 -0.15042374 -0.044061396 -0.09196857
-0.05400547 -0.062216345 0.11579169 -0.06802079 -0.020336594 0.114882804 0.042206965 0.024616929
0.02767982 -0.14455196 -0.056518305 0.087068714 0.11403785 -0.0040263818 0.05607724 0.050800256
0.039199945 -0.059934236 0.0120386565 0.043485425 -0.16783239 -0.16812083 0.013632133 -0.00053784664
-0.07991079 0.0037054028 -0.009306505 0.0262196 -0.03223526 0.11635781 0.110400185 -0.08695641
-0.09057265 0.018029973 0.0016588751 -0.080518015 -0.027482063 -0.10027855 0.016499547 -0.048385847
-0.005347418 0.11030107 0.057519943 0.0006458657 0.07627339 0.037406027 0.085534476 -0.113406695
0.0898711 0.062086962 -0.024276325 0.07292231 -0.058155075 -0.045001484 0.09590767 0.027217612
0.0046113734 -0.069256485 -0.039796464 -0.034637176 -0.04710109 -0.04173833 0.008978469 0.08365598
0.06094263 0.05166813 0.065154836 0.17063479 0.14169776 0.019667407 0.016607761 0.071268566

tree_conv.0.weights.bias f4 [256]
00000000: 8184 58bc 64bd 44bd 820b e7bc 5c98 88bd
00000010: 3c63 9cbd b91d 303b deed 0bbd 32ee 5dbd
00000020: 2820 8a3d c62d 353d 6e9f 47bd 6c2d a43d
00000030: a306 8a3c 5370 adbd 8e31 d83a 2efc 743d
00000040: b986 3cbd 80cc 813d ea12 a33d 8b38 973d
00000050: a645 97bc e840 34bb abbe a33c c2e1 7a3d
00000060: 6b24 8f3d f145 4abc f663 62bd 5ef7 0dbd
00000070: f02e 64bd 7cad 003e c3e0 a13a 5cc1 aebc
00000080: e675 3e3b 016f 28bd 1db1 d4bb 1a5f c83d
00000090: f52f dfbc cc3c 4f3d 4cb2 8c3d 525a 18bc
000000a0: 6f44 8a3c 54b2 31bd 29f2 d93d 96d0 cb3d
000000b0: 90ad d63d 4fac 013b a222 9dbd 8eba e03c
000000c0: cc9a 383c 4761 983d 96a5 a0bc 01a2 f93d
000000d0: ab87 f7bc 22bb 91bd 6e1c c3bd 37b1 94bd
000000e0: 92fa 463c 6f1d 04bd 68fd 9e3d 9ac2 cb3c
000000f0: 9e06 c0bd e8fb d63c d0be d83d f0f0 66bd
00000100: 690d b0bd 1447 4fbd 479b 6cbd c1e0 6d3d
00000110: 4fd2 8bbd cb42 433d e968 32bd 51b7 503a
00000120: 4ff9 2b3d e0ba 063c 7261 183d 1de8 fbbc
00000130: dca8 493d 9bbd 10bc ab1d 58bd 5d72 b23d
00000140: 8d6c 01be 1ec7 cdbc db71 f23d f81b 0d3d
00000150: a215 b13d eed0 8d3d 4749 23bd 0adc f23d
00000160: e985 4a3d 5b93 9abd 2855 30bc 767e 2c3d
00000170: 53ec 63bd fc7e 663b 477f 1b3d 302e a93d
00000180: 18ad efbc 9e4d f639 60e6 39bd 9b7f 7cbd
00000190: e73d 62bd bd85 39bc bf10 58bc cfac f43d
000001a0: 9996 853c 78e8 8ebc 1089 8b3c 959a 3cbd
000001b0: f309 173d 5f5e 91bc 4a77 78bc 35c5 393c
000001c0: 3015 2d3d 4832 c5bd 4459 ab3d 5210 66bd
000001d0: 101d bb3b d33a 1dbc 708b c1bc 80b0 43bd
000001e0: 6dce bbbc 85ec f2bd bb2b 933d 4b19 a53d
000001f0: 8145 1c3d 6c27 74bd 5b13 cd3d b051 593d
00000200: f7a1 d93d c2e0 5fbc 11b5 8dbd dea8 023e
00000210: 1694 803c 1642 123e 6002 b73c 13ef d53d
00000220: 51ec 25bd e89d c53d 985e 7abd 661f 2ebd
00000230: b128 463d 0d42 edbc 553b c13c 2262 9abd
00000240: 7bf9 803d 1c8b b63c 4856 7abd 4c31 db3d
00000250: 3f59 8a3d 1a47 19bd 0062 633d 19f3 923d
00000260: 1f10 d13a 7e78 c3bd 417e 423d 3db8 983c
00000270: ff42 5a3d 9ade 62bd bd97 cf3d 713f 733b
00000280: 4cad 913d 8bad 3d3d 4ae8 813d 3418 6dbd
00000290: f443 2c3d ffb7 c3bd 6486 583d 4d03 1d3c
000002a0: 31b0 2f3c b213 0bbd 2235 d83c ca12 e13d
000002b0: 455e 79bd ba31 193d 42c4 9c3b 0bc9 393c
000002c0: 9041 e83d 21d9 f33c a7d4 023d eee0 30bd
000002d0: babf 2ebd eede d3bd 4f17 313d 4ee9 033e
000002e0: a415 a73c b96a 59bc 2604 9bbc 86bb a4bc
000002f0: 233a 0f3d 2f1e cdbd 5c43 d03d 4c20 343d
00000300: 1510 0d3d 484a 303d df0e 9abc 62e8 6abd
00000310: 720c 833d 15e2 2abd a2ab be3d 9dcc 5b3c
00000320: 64a3 fd3c a2d7 96bd 3973 3b3d 4fa1 7ebd
00000330: 00db 8cbd 20e0 90bd 4bde 8b3d 2db0 793d
00000340: da86 57bd d2f4 4f3d f8cc c03d ec18 92bc
00000350: 0ff1 863d afdd bd3d f4ed 783d 67ce f0bc
00000360: 6043 73bd 19f7 e73d 34eb a93d a8e7 9f3d
00000370: d109 2cbd 3bd9 e0bc 1cf8 84bc 7d6d 22bd
00000380: 5688 e2bb b493 6d3c 509f 8ebd 9f8e 1ebd
00000390: 943e 5ebd 0e0b b03b fbba 123e 137d f9bb
000003a0: 0531 6a3d 3993 eabc 7d56 01bd 6e8b 81bd
000003b0: f987 f43d 0fec b4bd 83b5 d03d 221b 803c
000003c0: c9b2 113d ed7e ba3d 2a7c 22bd 4fc1 033e
000003d0: b0ea 95bb 898a 26bc e3cb a83d 2486 873d
000003e0: 2ac5 fd3c 9691 5bbd ec39 be3c ebe6 173d
000003f0: b8c8 c33d eb52 45bb fe66 59bd b03c 833c
-0.013215185 -0.04803218 -0.02820373 -0.06669685 -0.07636115 0.0026873185 -0.034162395 -0.05418224
0.067444146 0.044233106 -0.04873603 0.08016476 0.016848868 -0.0846869 0.0016494261 0.05981081
-0.04602692 0.063378334 0.07962592 0.073838316 -0.018465828 -0.0027504507 0.019988379 0.061250456
0.06989368 -0.012345777 -0.05527111 -0.034659736 -0.055708826 0.12566179 0.0012350309 -0.021332435
0.0029061972 -0.041121487 -0.00649084 0.09783764 -0.027244547 0.05059509 0.06869945 -0.009298878
0.016878335 -0.043382958 0.106418915 0.09951894 0.10482323 0.0019786542 -0.07672621 0.027432706
0.011267375 0.07440429 -0.019610208 0.12189103 -0.030216059 -0.07115771 -0.09526907 -0.072603635
0.012144702 -0.032254633 0.07763177 0.024873067 -0.09376262 0.026243165 0.105832696 -0.05638212
-0.08596308 -0.050604895 -0.05776527 0.05807567 -0.068272226 0.04767112 -0.04355708 0.00079618866
0.041985806 0.008223265 0.037202306 -0.030750329 0.049233302 -0.008834268 -0.05276267 0.08713219
-0.12639065 -0.02511936 0.118381225 0.0344505 0.08646704 0.06924616 -0.039864805 0.11858375
0.049444113 -0.07547637 -0.01076249 0.04211279 -0.0556453 0.0035170903 0.037963178 0.08260763
-0.029257342 0.00046978606 -0.04538572 -0.06164513 -0.055234816 -0.01132339 -0.013187586 0.11947023
0.016307162 -0.017444834 0.01703313 -0.04604586 0.036874723 -0.017745195 -0.0151651595 0.011338522
0.042256534 -0.09628731 0.083666354 -0.056167908 0.0057102516 -0.009596544 -0.02362606 -0.047775745
-0.02292558 -0.11861519 0.07186075 0.08061465 0.03815222 -0.059607908 0.100134574 0.05305642
0.106265955 -0.013664426 -0.06919301 0.1275973 0.015695613 0.14283022 0.02234 0.104459904
-0.040508572 0.09649259 -0.061125368 -0.042510413 0.04837865 -0.02896216 0.023587862 -0.075382486
0.062975846 0.02228313 -0.06111744 0.10702762 0.067553036 -0.037421323 0.055513382 0.071752734
0.0015950239 -0.095444664 0.047483686 0.01864254 0.05328655 -0.05538807 0.10136364 0.0037116671
0.07113132 0.04630808 0.06343134 -0.05788441 0.042056993 -0.09556579 0.05286254 0.0095833065
0.01072316 -0.03395433 0.026392523 0.10989912 -0.060880918 0.03740094 0.004784138 0.011339436
0.1134063 0.029766621 0.031941082 -0.04318326 -0.042663313 -0.10345255 0.04323512 0.12881967
0.020396061 -0.013270074 -0.018922877 -0.02010895 0.034967553 -0.10015523 0.10169098 0.043976113
0.034439165 0.04303959 -0.01880592 -0.057350524 0.06398858 -0.041719515 0.0931008 0.013415483
0.0309617 -0.073653474 0.04576418 -0.062165555 -0.068777084 -0.070739985 0.068295084 0.06095903
-0.05261884 0.05077059 0.09414095 -0.01783415 0.06588947 0.092707984 0.060773805 -0.029395295
-0.059390426 0.11326427 0.082968146 0.07807857 -0.04200155 -0.027447334 -0.016231589 -0.039655197
-0.006913225 0.014500547 -0.0696398 -0.038710233 -0.054258898 0.0053724116 0.1432914 -0.007613787
0.057175655 -0.028634654 -0.031576622 -0.06325422 0.11939997 -0.08834087 0.101908706 0.015637938
0.035570893 0.091062404 -0.039669193 0.1286671 -0.004575096 -0.010164865 0.08242013 0.06617382
0.030977804 -0.05360564 0.023220979 0.037085455 0.095597684 -0.0030109237 -0.053076737 0.016020149

tree_conv.3.weights.weight f4 [128, 256, 3]
00000000: 82ec a83c 783e 203d 22a3 a83c c04d fe3c
00000010: 879c d3bc 6aad 8bbc 9565 e8bc 5bcc d73b
00000020: 947a 2a3d ce33 143b 6e82 eb3b 5f43 4f3d
00000030: 527d f4bb d4fc 1d3d 5bbd 91bc f2c2 20bb
00000040: 792a 33bc 05ea 333d 071a 553c 586a 66bc
00000050: b353 8c3c 0312 73bc 117b ab3c 7e98 37bd
00000060: 0d5f 83bd 58d9 f0bb 9521 7b3d 8125 a7bc
00000070: ae2b 3bbd 3b7a 423c d814 42bd 7d15 b63c
00000080: a32e 803c bf53 063d 55f0 593d 8760 a1bb
00000090: b074 62bd 8ebd 023c 05f6 9bbb cbfa cabc
000000a0: 789c 893c 6c36 e13c 0ff0 53bb cdb8 2e3d
000000b0: f058 2a3d 2e50 d83b 7cf7 23bd 3917 e4bc
000000c0: cc66 113c ef69 95bc 79fc 8f3c 1695 e8bc
000000d0: f179 fabc a917 383c fb7f 9fbc bf5d c53c
000000e0: 8913 91bc 37cf 643d b6ce aabb dd3b 18bc
000000f0: 56d4 793d 49bb 9c3b 2423 213d c6be d2b9
00000100: acc4 88bc 5281 83bb 733b ff3b db7e 463d
00000110: b085 b43c 00f2 cdbc 4d16 12bd 0096 21bd
00000120: e4fe 003d 304b f83c 09e2 ed3c 0e08 ecbc
00000130: 4289 0cbd a841 d0ba 3829 e3bb ff85 e8bc
00000140: f0a8 39bc fbe0 23bd 635b 893b f440 34bc
00000150: 3771 47bc 70c6 543a 23f7 c3ba da9a c7bc
00000160: e5e5 afbc c737 0abb 00a2 84bb cdc2 00bd
00000170: 77b0 72b9 21f2 863b 627c 3ebc 45e6 1e3d
00000180: 56b7 edbc 86ce 203c 8491 ab3b 64c5 973c
00000190: ca7f 1abc 4abd 1e3d ed2d fbbc b297 f53a
000001a0: a28a b2bb a334 01bc efab 7ebc ad6c fabc
000001b0: 9446 043d 37ca 983b 16df 95bc 7120 2dbd
000001c0: 201f 84bb d690 9e3c 8000 ed3c ea6d 083d
000001d0: dc6a d5bc c72e 043d 4b78 82bc 840f cd3c
000001e0: dd3e 983c 2da6 0dbd d00e 55bc 063d c2bb
000001f0: c5e7 083d 11fa c73c cb99 35ba 8c9e bebc
00000200: 06cb 663c 5487 02bd 619e d83b b0e3 083d
00000210: 31e3 dcbc 8271 45bd c954 ec3c a6ce b93c
00000220: 77b9 a1bc 8703 4b3b ee21 dd3c b28f 41bb
00000230: 1041 cbbc 7117 02bd 1f99 73bd 76b5 3dbc
00000240: 7a1f 82bc a7d2 1b3d 1443 9f3d 4ff3 043d
00000250: 3dc7 8d3b e0a0 ea3b ada1 e03c 012e 6abc
00000260: 05d9 163d 7418 dbbb 040b 3dbd dcb6 d7bb
00000270: fdba b8bc 1c7e 14bb 7632 033c 5757 6abc
00000280: d88e 183d d5a1 94bc 5cf1 0c3c c080 123d
00000290: 28b9 033e c591 f23a 147f 333d 2463 d83c
000002a0: b175 113d c4fc 93bc e0fb 2bbd 71e1 2b3c
000002b0: 0bd0 fa3b 1367 bbbc 6c98 12bd 7bbf c63c
000002c0: 11df 723c 270b 1bbb f741 663d c8cf 74bd
000002d0: 0bc4 06ba 20d6 053d 1c4a 19bd a5d3 aabc
000002e0: 3114 b03c 9282 93bc b2af c73c 1c69 87bb
000002f0: 52f3 963d dfd6 69ba 14e9 e43c f38e 893c
00000300: ab05 a4bc 6cf6 373c db4d c4bc db82 c03c
00000310: 7819 7dbc c3ef ecbb 7c39 caba 43f8 1f3d
00000320: fceb d33c eea8 953c 713c 95bb 34ec 10bd
00000330: c3b3 4bbc 5f28 493c bcc0 fa3c eb2b 01bd
00000340: 0700 fcbc d42e 113d 41e7 213d e7c7 d9bc
00000350: 48f2 0a3d de62 4c3b f145 4bbc c7e5 63bb
00000360: 485f 9dbc 9bf3 adbc 8771 a6bc fc75 cc3c
00000370: 0f2e 7dba a582 39bd 3cb1 35bd fdc6 e6bc
00000380: b240 d2bc 2f68 8b3d fe39 fc3d c8f6 9d3d
00000390: e051 1abc ec2a 64bb 6fc9 29bd e350 18bd
000003a0: 377d 753c 9e55 9abc f4ce 8abc 11f1 6cbd
000003b0: 2689 7f3d 3b91 0dbc 4f73 bebc 5957 0a3d
000003c0: 56e0 083d f7ae fbbc 36ca a43c 906d ecbc
000003d0: 9003 d73b 6761 413c dc60 42bc 1265 753c
000003e0: 981b 883d 257b f13a 8300 0fbd 9145 103b
000003f0: d90a f1bc 1cbe 52bc bc76 59bd 8a83 2c3c
0.020620588 0.039122075 0.0205856 0.031042933 -0.025831474 -0.017050464 -0.02836875 0.0065856404
0.041620806 0.0022613886 0.0071871793 0.05060136 -0.0074612284 0.038571194 -0.017790487 -0.002453026
-0.010935419 0.04392435 0.013006694 -0.01406344 0.017129755 -0.014835837 0.020932706 -0.044823162
-0.06414614 -0.007350128 0.061311323 -0.020403625 -0.045695953 0.011869962 -0.04738316 0.022227043
0.015647238 0.03279471 0.053207714 -0.004924837 -0.055287063 0.007979764 -0.0047595524 -0.02477779
0.016798243 0.02749177 -0.003233913 0.04265671 0.041588724 0.006601355 -0.04003094 -0.027843105
0.008874606 -0.01823899 0.017576443 -0.028391402 -0.030575724 0.01123611 -0.019470206 0.024092553
-0.01770951 0.055861678 -0.00521263 -0.009291616 0.060993515 0.0047830683 0.039340153 -0.0004019646
-0.016695343 -0.004013219 0.0077890693 0.048460823 0.022036403 -0.025139809 -0.0356658 -0.03944969
0.031493083 0.03030929 0.029038446 -0.028812435 -0.034310587 -0.0015888708 -0.006932404 -0.028384207
-0.011331782 -0.04000948 0.0041918023 -0.011001814 -0.012172989 0.00081167277 -0.0014950972 -0.024365831
-0.021471927 -0.0021090375 -0.004047632 -0.031435777 -0.00023144657 0.0041182195 -0.011626335 0.03879382
-0.029018085 0.009814864 0.0052358527 0.01852674 -0.009429881 0.03875474 -0.030661548 0.0018737225
-0.005448655 -0.007886085 -0.015543922 -0.030569399 0.03229387 0.0046627778 -0.018294852 -0.042267267
-0.0040320307 0.019356173 0.028930902 0.033307947 -0.026051931 0.032271173 -0.0159265 0.025031812
0.018584663 -0.034582306 -0.01300402 -0.0059276847 0.033424158 0.024411233 -0.0006927519 -0.02326896
0.0140864905 -0.03186734 0.006610677 0.033420265 -0.026963802 -0.048203953 0.028849022 0.022681545
-0.019741757 0.0030977444 0.026993718 -0.0029535112 -0.024811298 -0.031760637 -0.0594722 -0.011578908
-0.01588415 0.03804269 0.07776466 0.0324586 0.0043267296 0.007160291 0.027420843 -0.014293195
0.03682806 -0.0066862646 -0.046153083 -0.006583078 -0.0225501 -0.0022658175 0.008007636 -0.01430305
0.0372456 -0.018143574 0.008602466 0.035767317 0.128636 0.0018506577 0.043822363 0.026414461
0.03551263 -0.018064864 -0.041988254 0.010490761 0.007654195 -0.022876298 -0.035789892 0.024261227
0.014823691 -0.002365777 0.056215253 -0.05976847 -0.0005140907 0.03267491 -0.03742419 -0.020852873
0.021494003 -0.018006597 0.02437577 -0.004132403 0.073706284 -0.0008920263 0.027943172 0.016791796
-0.020022234 0.011228185 -0.023962906 0.023499897 -0.015447967 -0.0072307303 -0.0015428509 0.03905512
0.025869362 0.018269029 -0.0045543243 -0.03538151 -0.012432995 0.012277692 0.030609481 -0.031536024
-0.030761732 0.03544505 0.03952718 -0.026584579 0.033922464 0.003118686 -0.012406812 -0.003477441
-0.019210473 -0.021234324 -0.020317806 0.024958603 -0.00096580473 -0.045290608 -0.044358477 -0.028171057
-0.025665615 0.06806981 0.12315749 0.077130854 -0.009418935 -0.0034815622 -0.041451868 -0.037186515
0.014983467 -0.018839654 -0.016944386 -0.057847086 0.062386654 -0.008640583 -0.023248343 0.033774707
0.03341707 -0.030723078 0.020115953 -0.028860837 0.006561704 0.011803008 -0.011863913 0.01497771
0.06645888 0.0018423541 -0.034912597 0.002201412 -0.029424118 -0.012862708 -0.05309175 0.010529408

tree_conv.3.weights.bias f4 [128]
00000000: ad73 443c 761f 74bc bbb5 4fbd 19de 913c
00000010: a0ed 1a3d 15d7 b43b 72e7 5ebc 4971 16bd
00000020: 3050 c03c 2c31 6e3d 8655 04bd 8a9e 9a3c
00000030: 7909 1d3d bd34 4ebd bc8a 163d 5548 28bd
00000040: 11e3 373d b8bf f43c b5d8 90bd ff33 833d
00000050: c0cb 15bb 127d 2abc 0c9d 613b 010b 5ebd
00000060: 7a71 443d 6936 03bc 6a6c 11bd c1e9 34bd
00000070: 7295 17bc bd2e 2e3c fc90 933d d5ef 2b3d
00000080: fe22 12bd cdb6 553d ab58 e23c 5dc5 86bc
00000090: 6ef9 0abd bf76 21bd 7fac 59bc 7d7f 0b3d
000000a0: df9d 1dbd 900c f13c d662 7ebd c9f0 923d
000000b0: e041 b9bb 38d5 e3bb 1902 093d 31fe 623d
000000c0: 90e2 5b3d df4f 7abd ca1c 6a3c 9d41 94bd
000000d0: aa9b 903d 6ef4 e1bc 0c01 993d 9802 933c
000000e0: 9add 14bd b9f5 f1bc 2bea b9bb 8cbb 8c3c
000000f0: 07f9 26bd 5400 28bd 6b14 f9bb 4677 3f3d
00000100: c101 a83d 7b21 a13c 000c acbc ba90 92bc
00000110: a9a5 6bbc 71de 8b3c 98e6 903b 3484 2ebc
00000120: d542 183d c4eb 123b 06b1 1e3c a44f ba3c
00000130: 2d43 273b 6495 9b3d c565 013c 4a8b 48bd
00000140: e784 13bd 4940 00bc 9a5a 17bd a163 283d
00000150: 2e6f 13bd b06d aa39 3a07 633a d37f 873d
00000160: 7225 ec3c fbde 77bd a7ca 303c af24 103c
00000170: 5f0a 9c3c 5da2 293d 4b99 58bc 824b a63c
00000180: ebff e43b ad97 573d 1a1e 543d 3def 32bd
00000190: d4db 1dbc ddc5 263d 447b 813d 75a9 613c
000001a0: 007f dfbb a840 cf3c 5039 c6bc a14e 313d
000001b0: 01c9 62bd 2edf 0bba b448 2fbd 979c 413c
000001c0: 1e45 a3bc d5e7 c3bb f4bb 803c b4ee 27bd
000001d0: 3925 473d 43ff 203c ad25 343d 0aae 703d
000001e0: 546d cf3c 3f7e bd3d 139d b8bc 92bd 6dbc
000001f0: 5a27 dabc 9aef bf3c f623 dcbc 4a75 e5bc
0.01199047 -0.014900079 -0.05071042 0.0178061 0.037824273 0.005518804 -0.013604986 -0.03672913
0.023475736 0.058152363 -0.032308124 0.018874425 0.038339112 -0.050343264 0.0367534 -0.041084606
0.04489428 0.029876575 -0.070725836 0.06406402 -0.002285704 -0.010405796 0.0034425883 -0.054209713
0.047959782 -0.008008578 -0.035503782 -0.044168238 -0.009251939 0.01063126 0.07205388 0.04197677
-0.035677902 0.052176286 0.02763017 -0.016451532 -0.03392928 -0.039419886 -0.013285755 0.03405713
-0.038480636 0.029424936 -0.062105976 0.071748324 -0.005653605 -0.006952908 0.033449266 0.055418197
0.053682864 -0.061111327 0.01428909 -0.07239077 0.070609406 -0.027582373 0.07470903 0.017945573
-0.03634415 -0.029536115 -0.005673667 0.017179273 -0.040764835 -0.041015938 -0.007601311 0.046744607
0.082034595 0.019669285 -0.021001816 -0.017891277 -0.014382758 0.017073842 0.00442202 -0.010651637
0.03717311 0.002241836 0.00968576 0.022743054 0.0025522218 0.075968534 0.007897799 -0.04896096
-0.036015417 -0.007827827 -0.03695164 0.04111064 -0.0359947 0.0003250665 0.00086604396 0.066161774
0.028826449 -0.060515385 0.010790504 0.008797809 0.019047914 0.041414607 -0.013220142 0.020299677
0.0069885156 0.052634884 0.05178652 -0.043685187 -0.009634931 0.04071604 0.06322339 0.013773312
-0.0068205595 0.025299385 -0.02419725 0.043287877 -0.055367474 -0.00053356856 -0.042793944 0.011817119
-0.019930419 -0.0059785643 0.015714623 -0.04099913 0.048619483 0.009826484 0.043981243 0.058759727
0.025320686 0.09252595 -0.022535836 -0.014510529 -0.026630092 0.02342968 -0.026872616 -0.02801003

tree_conv.6.weights.weight f4 [64, 128, 3]
00000000: 3ae1 b13c 74d0 0abd a769 493d 60b0 15bd
00000010: 9d47 3cbd 901c 86bd 2f38 2cbd 97fd 4abc
00000020: 7e48 31bd 8a08 9cbc 1ce8 783c 2c2b 323c
00000030: 9d04 133d 55df cfbc 0d36 04bd 8928 133d
00000040: 010e 003d 0577 01bd 3ea5 763c 0d8c 883c
00000050: 7003 183d fe78 cb3c d3db 7d3c c6bf 9e3b
00000060: aec8 423d ff57 1abd e8ac 85bb e349 13bd
00000070: 2374 a6bc 7a29 90bc 63d1 44bd 95ce 113d
00000080: 50b9 8e3d 6972 07bb 38cb 873b 1644 53bc
00000090: a898 c93b b3d5 df3c 7e24 0abd 6900 89bc
000000a0: 6da9 16bd df0b 7fbc 424c 24bd 5f23 2dbd
000000b0: 705e d1bc bc59 c3bc 976a 03bd ef0e 23bd
000000c0: b748 5ebc becf ebbb d823 4ebb 0a18 b73c
000000d0: ad57 56bb 23b7 eebc e11a 13bb d753 793d
000000e0: 9848 e5bc 57b3 49bc 71da 1d3a f856 fabc
000000f0: 7cf6 57bd 577f 6f3c f23f a7bc 2f21 a5bc
00000100: 3a6d f13c 839c 963c 68f5 fd3c e75e ed3c
00000110: 469a 853c c2ae 3d3d 870f 7d3d 06c2 1b3c
00000120: 91a3 47bc a266 e13a ebeb 413c 809c 383d
00000130: 0aa2 8cbd 803d 84bb f08a 463d c8e3 2b3d
00000140: f4bd 5fbc b11b 0d3d d9d3 7c3d 0ecd 693d
00000150: 1924 1e3d 2687 0a3d 0bcb 2d3d 018f 9d3d
00000160: cc3d 1c3c 0421 88bd 57c3 24bb 2a50 74bd
00000170: 172a 8cbc f964 6bbd b1f4 b33a 5427 d5bc
00000180: a4b0 10bd 78ea c3ba 605a e03c 3d01 85bd
00000190: d923 4d3d 2d7c ae3c 506b 253d 84e0 85bb
000001a0: a2f0 fbbc 9677 3e3d 7819 38bd 02c8 1b3d
000001b0: b150 4ebc ab39 40bd 3a17 3d3c d513 363c
000001c0: be0b 56bc 33c9 083d 35e3 35bd 7fc2 34bc
000001d0: 879c 283d dc79 cfbc 5c5f 9f3c a7d4 5c3c
000001e0: c42f 2dbb 1a68 2a3d 44ad 313d 8832 8f3c
000001f0: 2c9f 35bc 8fdb a4bd a69e b2bb 6352 eb3c
00000200: c64e 00bd 2093 de3c f3d1 6ebc 9921 b13c
00000210: f456 86bc be1d 263d e07c 8d3c 1b84 3bbc
00000220: e28b c7bc 9edc c4bc 16f1 12bc 9ae9 203d
00000230: 37da 62bc f365 0cbd d96c 22bc cc6b 99bc
00000240: 986e aa3c 314d b9bc c23d 31bc 9894 23bd
00000250: ba91 7ebd f7ad 5cbd e199 f33c 8624 ec3c
00000260: d7a3 823c b1a5 08bd e9ee 413d bf62 a63a
00000270: ee58 e23c 03df a13d 7625 a2bc 8c7d 1e3c
00000280: a66f d23c a22b c63c de24 a63b 36d0 72bd
00000290: fd91 803d 11a1 ad3c bcab 7fbc 768e db3c
000002a0: 2340 c7bc 4549 07bc dc60 903c 4d95 16bd
000002b0: 8cd3 873d adca 453c 888d 1a3d b94a a13c
000002c0: f64d 1fbd eecf 1c3d 0fb7 553c a4f2 263d
000002d0: ccd7 34bd 5094 c33d 35a3 ad3c ee2e 093d
000002e0: 3284 953c d94a 0f3d 6cf7 493c e4a6 9fbc
000002f0: 8096 44bc bc4c 463c b9e6 0a3d ffe7 72bd
00000300: 6a08 e0bb 2552 1bbd 0d07 413c 027c 86bc
00000310: ed69 b4bb bc6d 173d 1661 3cbc 8bc3 cdbc
00000320: 2a4b a4bb 9cce 1ebd b7a0 b4ba feea 40bd
00000330: 4b47 52bd dbc2 d4bb 5d9c 223a 445c 833d
00000340: b43f 533d acd4 b7bb cb03 723d b544 35bd
00000350: c10b 0bbd a757 8bbc b1f0 84bd dc4c 723d
00000360: 55e4 c33c e2db a8bc 5f1e 643d 1f18 ec3c
00000370: ed19 24bd 800b 48bd fc69 df3c e658 11bd
00000380: 3318 5fbd 58a2 14bd 9b9d 8a3d 8ce3 3a3c
00000390: 0d76 40bd e351 5bbd cf6c a33b 2d63 d03b
000003a0: 2ab8 aabc 58bc b03c f354 213d f1db f5bc
000003b0: 1dad 0d3c e3ae 803d 525e 83bb ece8 823d
000003c0: dd96 3bbd d94f 473c 7890 2a3d 8955 82bd
000003d0: 8739 9838 71d8 353d 7e2c fc3c fe08 a3bc
000003e0: b9d3 89bc 5fb5 b4bc 06b0 f53c feff 553d
000003f0: b819 833d d46c 0b3d 3f67 c83c 982a c23c
0.021713842 -0.033890203 0.049173024 -0.036545157 -0.045966733 -0.065484166 -0.04204577 -0.012389562
-0.043282025 -0.01904704 0.015192058 0.010874551 0.03589307 -0.025375048 -0.03227811 0.03592733
0.031263355 -0.031607646 0.015054045 0.016668344 0.037112653 0.024837967 0.015494305 0.0048446385
0.047554664 -0.037681576 -0.00407945 -0.035959136 -0.02031905 -0.017597903 -0.04805125 0.035597403
0.06968939 -0.002066756 0.0041440986 -0.012894651 0.0061522312 0.02732358 -0.033726208 -0.016723828
-0.03678267 -0.015566795 -0.040111788 -0.04227006 -0.025557727 -0.0238465 -0.032084074 -0.039809164
-0.013567141 -0.0071963957 -0.003145447 0.02235033 -0.0032706067 -0.02914006 -0.002244644 0.06087097
-0.027988717 -0.012310824 0.0006021625 -0.030559048 -0.0527253 0.0146177625 -0.020416234 -0.020157425
0.029471029 0.018385177 0.031000808 0.028975917 0.016308915 0.04630924 0.061782386 0.009506708
-0.012184993 0.0017196725 0.011836032 0.045071125 -0.06866844 -0.0040356517 0.048472345 0.041965276
-0.013656128 0.034450237 0.06172547 0.05708032 0.038608644 0.033820294 0.042429965 0.076932915
0.009536218 -0.06646922 -0.0025140846 -0.059646763 -0.017109914 -0.057469342 0.001372954 -0.02601973
-0.035324708 -0.0014947196 0.027386844 -0.06494377 0.050083015 0.021299446 0.040385544 -0.0040856022
-0.030754391 0.046500765 -0.044946164 0.03803254 -0.0125924805 -0.046929996 0.011541182 0.011113127
-0.013064323 0.033395004 -0.044406135 -0.0110327 0.0411649 -0.025326662 0.01945465 0.013478435
-0.0026426176 0.041603185 0.04337813 0.01748015 -0.011085313 -0.0804969 -0.0054510413 0.028725808
-0.031325124 0.027169764 -0.014576423 0.021622466 -0.016398884 0.040555708 0.01727146 -0.011445071
-0.024358694 -0.02403098 -0.008968612 0.03928528 -0.013845972 -0.034276914 -0.009913647 -0.01872816
0.020804688 -0.022619816 -0.010817947 -0.039936632 -0.062150694 -0.053876843 0.029736461 0.02882601
0.015947266 -0.03336114 0.047346983 0.0012694224 0.027630296 0.07903864 -0.019793253 0.009673487
0.025688004 0.024190728 0.005070313 -0.059280597 0.06277845 0.021194967 -0.0156049095 0.02680133
-0.024322575 -0.008257215 0.017624311 -0.036763478 0.06632146 0.012072247 0.03773263 0.01968895
-0.03889271 0.038284235 0.013044133 0.040758744 -0.044151112 0.09549773 0.021195987 0.03349202
0.018251512 0.03498349 0.012327056 -0.01948876 -0.011998773 0.012103256 0.03391144 -0.05930328
-0.0068369405 -0.037920136 0.011781466 -0.016416553 -0.0055057914 0.036969885 -0.0114977565 -0.025117656
-0.005013843 -0.038771257 -0.0013780807 -0.047099106 -0.05133752 -0.006492955 0.00062031095 0.06414083
0.051574424 -0.0056100693 0.05908565 -0.044254977 -0.033946756 -0.01700957 -0.06491221 0.05915533
0.023912588 -0.02061266 0.055693027 0.028820096 -0.040063787 -0.048839092 0.027272217 -0.03548517
-0.054466438 -0.036287636 0.06768342 0.01140679 -0.046987582 -0.05354489 0.004987336 0.006359479
-0.02083977 0.021574184 0.039387655 -0.030012103 0.00864723 0.06283357 -0.0040090466 0.063920826
-0.04579817 0.012165033 0.041641682 -0.06363971 7.25864e-05 0.044395868 0.030782934 -0.019901749
-0.01682459 -0.02205914 0.029991161 0.052246086 0.0640139 0.034039333 0.024463294 0.02370195

tree_conv.6.weights.bias f4 [64]
00000000: 959b 03bc 3fd6 4ebd b0f9 81bc 3dd6 3fbc
00000010: d053 fd3c 360f 633d 5c34 ad3a 41d6 aa3d
00000020: 9d3a a63c 8d9b 82bc 9a92 56bd ac27 853d
00000030: c201 1a3b bcd4 a9bc 308d 7cbc c0c4 ae3a
00000040: a7b3 953a f36f cbbd 28c6 893d 4e1d d4bc
00000050: d5e4 9d3d 3907 15bc a469 9dbd e5de 2abd
00000060: ab8f b4bb 0831 8ebc 7688 86bc eea9 83bc
00000070: 6a8e 223d 20d9 8ebb 3a7a 58bd 942e d6bb
00000080: 8a8f 61bd 2ba7 3a3d 0015 ad3b 5ec1 1e3d
00000090: f5f5 17bd c733 8bbc a3a0 22bd 77c1 e0bc
000000a0: 92f0 4c3d 0104 af3c c092 debc 4a2c df3b
000000b0: 2228 89bd 0915 f0bc 768f e3bc 6b4e 0fbc
000000c0: dd36 21bd ccfd 51bc e379 923c f4bf 873c
000000d0: 1ad0 533d b897 c03c 5039 8a3d 2b77 cabc
000000e0: 32d4 36bd b916 9d3b 30e0 8b3c 82b1 843d
000000f0: 5305 063d e262 35bc f202 4abc 24cf 153d
-0.008032699 -0.05049729 -0.01586613 -0.011708793 0.030923754 0.05543443 0.0013214457 0.08341647
0.02029162 -0.015943313 -0.052385904 0.065017074 0.0023499583 -0.020731322 -0.015414521 0.0013333783
0.0011421338 -0.09933462 0.067272484 -0.02589288 0.07709662 -0.00909596 -0.07686165 -0.041716475
-0.0055102906 -0.017357364 -0.016422492 -0.01607224 0.039686598 -0.0043593794 -0.05285094 -0.0065363143
-0.05506853 0.04556958 0.0052820444 0.038758628 -0.037099797 -0.016992463 -0.039703976 -0.027436001
0.050034113 0.021364214 -0.027169585 0.0068106996 -0.06697108 -0.029306905 -0.027778368 -0.008746724
-0.039358962 -0.012816858 0.017880386 0.016571023 0.051712133 0.023509845 0.06749213 -0.024715027
-0.04463596 0.0047939685 0.017074674 0.064791694 0.03271992 -0.011070939 -0.012329804 0.036574498

tree_conv.9.weight f4 [32, 64]
00000000: 14fc 04bc 2388 043e 98f8 ee3c ce8f 2abd
00000010: e31b aa3d 9eef eb3c be3a dd3d 5b91 13bd
00000020: 5a89 d43d 2833 04bd 8801 cbbd 3fa1 fabd
00000030: bda1 b3bb d164 9f3d 0732 4abd e72b a53d
00000040: 5566 3e3d ff1e c03c 0334 dcbd 80a3 26bd
00000050: 94e6 25bb a2ce 80bd 1ecc f83d 91be e23d
00000060: 3fa0 96bc 189f 363d 38e6 07bd 6799 3f3d
00000070: 00c8 8cbd b3fa df3c ff93 f2bc 73b0 63bd
00000080: 64fa 143d c33d 89b8 36dc 593c d3a4 83bd
00000090: eca0 e13d bb46 a1bb e665 b8bd 08e7 f6bd
000000a0: 4a60 aabd 88a9 ccbd e12b aabd 0e20 f13c
000000b0: 5671 9dbd d222 b53d 4fd1 c2bd d844 12bc
000000c0: 8f0c bbbd 5ada 03bd a346 f53d fd88 5d3a
000000d0: 291b a8bd 31bc d73d a5e2 ff3c 6502 a93d
000000e0: 12a1 b23c 2600 c9bc c7f6 43bd aca3 18bd
000000f0: 59f3 853d 9d77 12bd 67f6 86bd 0627 6bbd
00000100: 33a4 923d 54e8 8abd 1986 87bd 5f8e 0e3d
00000110: c5b5 fdbd fc3e 54bd d5ca bcbd 1832 88bd
00000120: 6862 f93d 078c 883d 9b9e e4bd d158 a03c
00000130: c8b1 703c e5b2 a03d 44d6 99bd db2f 703c
00000140: 3150 e5bc b782 bcbb 868c 003d cdc5 f8bd
00000150: dab9 48bd ebc1 08bd 21c9 b4bc 0ef9 fe3d
00000160: 9d97 233c fb78 38bd f98a eb3d ec79 b43d
00000170: f2ea 003d dce7 043c 46ad be3d cf21 86bd
00000180: 8144 79bd aefb 003d a3fc 403c 7b05 e4bc
00000190: 2831 ddbd 94c2 8abd 9d81 af3d 44da ab3d
000001a0: c035 ce3d aa5a ef3d c05f f9bd 266d fa3c
000001b0: 000e 563c 9f0d da3c 03b6 323d 1724 bfbd
000001c0: aaeb d13d a084 73bd 0f93 adbd 1a04 e7bd
000001d0: 7c0f 47bd 2751 6a3d b20b a3ba 59a9 f5bd
000001e0: 5f5d 203c d098 84bd 15cc b6bd 6914 6a3d
000001f0: 642e cbbd c3d7 bdbc f464 aebd 1bf6 91bd
00000200: 7801 e5bd cfce 44bc 6a52 38bc 1099 f8bc
00000210: d25e 14be abb2 a1bc 131f 8fbc 801e 64bd
00000220: 405c c2bc a298 c13d 090a 4bbe b2bd b9bd
00000230: 9cba 813d b0d2 bb3d 9ee7 acbd 5e5a 46be
00000240: 0642 87bd b4ef 983d ede5 93bb 7327 3b3e
00000250: 81f1 013e b431 293c 66a1 28be 37ff a5bb
00000260: feb0 9d3c 17dc 033e ba2b 593e 34a5 bc3d
00000270: 8f11 1e3e 7bc6 b9bd 970e 06be 1d82 293e
00000280: 78d8 93bd 1f36 833d 5d18 6e3d 4ee3 0ebe
00000290: ecc6 ec3d 01bf 313e 06e8 c9bd eef1 0ebe
000002a0: 8595 5b3e 84b8 8cbd bfe0 1c3e ce95 6fbd
000002b0: bbba c8bd 2afa dcbd 7d6e 1e3e 15d7 ca3b
000002c0: 7620 b43d ee8e 3abc 59d5 0fbe 5043 d5bd
000002d0: c994 533e 9304 ba3c 3b2a edbd 3e29 0b3e
000002e0: 8619 d0bd ec83 8c3b 45a3 053e 9ae1 ad3b
000002f0: 655d 313e 2468 e93d 14c8 07bd bd49 dd3d
00000300: 25a1 a93d 6f95 483d dc62 4cbc a734 22be
00000310: 359a 27bc 3829 3d3d 630b e73b 3587 9e3d
00000320: d340 acbd f8ad c8bb c5a6 bab9 9140 f23d
00000330: 2873 c33c 5d72 0bbe 2e2b d53d c70d 283e
00000340: 9527 92bd f214 593d 874d 923c 3fb4 9bbd
00000350: ad37 23be 2f82 8a3d 3808 ddbc bc47 52bc
00000360: c634 aa3c eec5 4f3d e804 58bd 19b7 c93b
00000370: 77c4 36bd 6cc5 003e 2f53 8c3b e95b 15be
00000380: 8c00 453d 036d adbd ab60 eebb 2db0 82bd
00000390: 0747 36bd 9b15 0e3c cfb4 033e 4ac8 313e
000003a0: 90f7 b33c 3796 b6bd a5f8 6c3d 0e90 5e3d
000003b0: 3186 c63c 5fe7 9ebc d2ee 29bc a683 79bc
000003c0: 2ca7 03be a9fa 20be 19d0 d53d bfd9 bb3d
000003d0: 8175 56be 3a95 0a3d 2b28 fe3c a4c1 09be
000003e0: a7db 56bd d45a 1bbc a33f cbbd 152a c0bd
000003f0: 4763 573b 2230 12be 13ae 3bbd bd7e 0abe
-0.008116741 0.12942557 0.029171273 -0.04164105 0.083061 0.028800782 0.1080222 -0.036027294
0.1037776 -0.03227535 -0.099124014 -0.122377865 -0.005481927 0.07782901 -0.049364116 0.08065014
0.04648431 0.02345228 -0.10752108 -0.04068327 -0.0025314437 -0.06289412 0.12148307 0.11071504
-0.018386958 0.044585317 -0.033178538 0.046777155 -0.068740845 0.027341222 -0.029611586 -0.055588197
0.036371604 -6.544173e-05 0.013297131 -0.06427922 0.110170215 -0.004921762 -0.090038106 -0.120557845
-0.08319147 -0.09993273 -0.083091505 0.02943423 -0.07687633 0.08844532 -0.09512579 -0.008927546
-0.09133255 -0.03219066 0.119763635 0.0008450894 -0.082083054 0.105339415 0.031236002 0.0825241
0.02180532 -0.024536204 -0.047842767 -0.037265465 0.065405555 -0.035758603 -0.06589966 -0.057410263
0.07160225 -0.06782594 -0.06617374 0.034803744 -0.123881854 -0.05181788 -0.09218375 -0.066501796
0.12176973 0.06667333 -0.11163064 0.019573601 0.014690824 0.078466214 -0.07511571 0.014659847
-0.02799234 -0.005752887 0.031384014 -0.121471025 -0.049005367 -0.03338806 -0.022068562 0.12449847
0.009984878 -0.04503725 0.11501116 0.08812317 0.03147406 0.00811192 0.09310393 -0.06549417
-0.060856346 0.03149002 0.011778983 -0.027834645 -0.108003914 -0.06775394 0.08569644 0.0839124
0.10068846 0.11687215 -0.12176466 0.030569624 0.013064861 0.026617823 0.04363061 -0.093330555
0.102500275 -0.059452653 -0.08475315 -0.11280079 -0.04859875 0.0572063 -0.0012439399 -0.11995191
0.009787886 -0.06474459 -0.08925644 0.05714837 -0.09920958 -0.023174172 -0.08515349 -0.07127019
-0.11181921 -0.012012198 -0.011250118 -0.030346423 -0.14489296 -0.019738516 -0.017470872 -0.05569315
-0.023725629 0.094529405 -0.19828047 -0.09069385 0.06334421 0.09171045 -0.08442615 -0.1937041
-0.0660439 0.07467595 -0.0045134933 0.18276767 0.12689783 0.010326792 -0.16467819 -0.0050658244
0.019249436 0.12876926 0.21208087 0.092111975 0.15436386 -0.0907106 -0.13091503 0.1655354
-0.072190225 0.06406807 0.058128703 -0.13953897 0.11561379 0.17358018 -0.09858708 -0.13959476
0.21443756 -0.06871131 0.15320109 -0.058492474 -0.09801241 -0.107899025 0.15471835 0.0061901906
0.08795254 -0.011386616 -0.1404623 -0.104132295 0.20662226 0.02270726 -0.115803204 0.13589951
-0.10161118 0.0042881873 0.13050564 0.005306435 0.17320783 0.113968164 -0.033149794 0.1080508
0.08282689 0.048970636 -0.012474742 -0.15840398 -0.010229637 0.046181887 0.007050918 0.077406324
-0.08410802 -0.0061242543 -0.00035600938 0.11828721 0.023858622 -0.13617845 0.104086265 0.16411506
-0.07136456 0.05299849 0.017859234 -0.076027386 -0.15939207 0.06763112 -0.026981458 -0.012834486
0.020777117 0.05072587 -0.052739054 0.00615586 -0.044620957 0.1257531 0.004282377 -0.14585842
0.048096225 -0.08468058 -0.0072747073 -0.06381259 -0.04450133 0.008672143 0.12861942 0.1736156
0.021968633 -0.0891537 0.057854313 0.0543366 0.02423391 -0.019397436 -0.010371881 -0.015229141
-0.1285674 -0.1572062 0.10440082 0.09172391 -0.20943262 0.03383372 0.031025013 -0.13452774
-0.05245557 -0.009482104 -0.09924247 -0.093830265 0.003286557 -0.14276174 -0.045820307 -0.1352491

tree_conv.9.bias f4 [32]
00000000: 3c36 993c 3f1a 54bd 14e7 e6bc 6a98 083d
00000010: cd7b 5c3c d62e c2bc b548 903d fc66 313e
00000020: a9f8 82bd c295 f33c aab0 733e 2516 ca3c
00000030: 2319 eebd f577 cbbc bc8d 203d 840f ee3d
00000040: 2798 203e 24b4 2e3e 7ca6 273e 707f 333d
00000050: 5375 0c3d f2c5 403d 5907 ca3d 0666 f23d
00000060: e00b 603e 5ad6 0f3e 0719 11bc 9e74 e4bd
00000070: 5a1b d83d 4521 bd3d 86ea 8fbc 854e a73d
0.018702619 -0.051782843 -0.028186359 0.03334848 0.013457251 -0.023703974 0.07045118 0.17324442
-0.063950844 0.029734496 0.2379786 0.024668762 -0.11625888 -0.024837473 0.03919767 0.11624053
0.15683042 0.17060906 0.16372102 0.043822706 0.034291577 0.047063775 0.09864683 0.11835866
0.2187953 0.14046612 -0.008856065 -0.111550555 0.10552092 0.09234861 -0.017567884 0.08169273

tree_conv.11.weight f4 [1, 32]
00000000: afa0 813d 3da4 b13d 7d6c 9a3e 7680 9bbe
00000010: 9964 113f 9a8b c2be f38d f63e 82c9 793e
00000020: 79e6 f6be 33c0 5f3d 7fa7 b53e 83ff e73e
00000030: ef2c 3bbe ffcf 88bd 0ffa 25be 4dc5 34be
00000040: c7f3 b93e 9d44 cf3e 7b7a e13e 0e7d c93e
00000050: 8b50 c23e 7a2f 5d3e 517a 97be 7f5b 9ebe
00000060: 67f0 ac3e ad26 5d3e 1d11 7a3e c659 6e3e
00000070: de6c b03e c487 41be 9e9d a73e 3524 8fbe
0.06329476 0.08673904 0.30160895 -0.30371445 0.56794125 -0.37997133 0.48155174 0.24393275
-0.48222712 0.054626655 0.35479352 0.45312127 -0.1827886 -0.06680297 -0.16208671 -0.1765339
0.363188 0.40482035 0.44038758 0.39353222 0.37952074 0.21600142 -0.29585508 -0.3092918
0.33777162 0.21596785 0.2442059 0.23276433 0.3445806 -0.18899447 0.3273744 -0.2795731
