models/lero_on_imdb_JOB_Bao.pth (torch, 623086 bytes, 9 tensors)

tree_conv.0.weights.weight f4 [256, 38, 3]
000000 3b 6a 47 3d ff 66 7b bc f3 31 9c bd 92 95 b2 3d
       0.048685294 -0.01534438 -0.076267146 0.087199345
000010 8f 8a 61 bd 66 c6 55 bd 7b eb 0f 3d a7 f4 81 bb
       -0.05506378 -0.05219116 0.03513668 -0.0039659324
000020 1f ee 8f 3d 3e ca 78 bd 50 93 8d 3c 67 3b 5d bd
       0.0702784 -0.06073975 0.017282158 -0.05401173
000030 4f e9 2f bd 98 38 ad 3d 1f 2e 47 bd af bb 8a 3c
       -0.04294711 0.0845806 -0.04862797 0.016935198
000040 b7 c5 7d 3d c0 1d ef bb a4 30 91 3c f4 1e 48 bd
       0.061956134 -0.0072972476 0.017723389 -0.048857644
000050 10 94 06 3d aa cc a1 3b eb c4 a3 bd 6a 80 03 3e
       0.032856047 0.004937728 -0.079965435 0.12841955
000060 c3 9c 15 3c 39 18 57 3d a6 e9 4e bc 32 00 8a bd
       0.009131613 0.052513335 -0.012628948 -0.067383185
000070 d8 bb a6 bd d9 14 3c bd 78 6e 9d bd 5b 48 45 3d
       -0.08141297 -0.04591832 -0.07687086 0.048164707
000080 11 7a be 3c f2 df b5 bd 3c e6 93 3d 07 cb 9e bc
       0.023251565 -0.08880605 0.07221648 -0.01938392
000090 ae 42 c5 bd 66 1c 87 3d 9e 95 8d bd 41 af 03 3c
       -0.09631859 0.065972134 -0.06913303 0.008037389
0000a0 69 b8 c4 bd 59 4d a8 bd 5c c0 c3 3d 6a 95 85 bb
       -0.09605486 -0.08217878 0.09558174 -0.0040766494
0000b0 af 51 4c bd 68 16 d9 3d 46 74 65 3d 9b 99 d7 bc
       -0.049882587 0.10599977 0.05601909 -0.026318362
0000c0 a6 cc 48 bc 7b 62 a7 3d e4 66 01 be b3 8a 70 3c
       -0.012255823 0.081730805 -0.12636906 0.014681506
0000d0 73 79 8c bd 0d b5 72 3c 1f 64 dc bc 85 02 3b be
       -0.06859102 0.014813674 -0.02690321 -0.1826268
0000e0 47 c7 c1 bb 29 65 c2 3c 0d 04 90 3d a5 5b 1d 3d
       -0.0059136483 0.023729878 0.070320226 0.038417477
0000f0 57 7f 93 3d 44 b1 1d 3d db e1 d7 3b 7b 77 9f 3d
       0.072020225 0.03849913 0.0065882034 0.07786461
000100 b8 31 0d 3b bc 3b 32 bd 6c ef b8 3d 1d 95 25 3d
       0.0021544527 -0.043514 0.09030041 0.04042541
000110 4f 40 d4 3b 43 74 aa 3d fe eb 37 3b b8 33 1e 3b
       0.0064773927 0.083229564 0.0028064246 0.0024139713
000120 95 c5 df 3d af 50 0f 3e 93 96 ca 3c 30 7e 8c bd
       0.10926358 0.13995622 0.024730003 -0.06860006
000130 d0 d0 fa 3b 37 b6 fa 3c d1 8f 5d bd 46 ee 8c 3d
       0.007654287 0.030604465 -0.054092232 0.068813846
000140 26 a9 fd bd 40 89 de bd 48 28 bd bd 28 f7 05 bd
       -0.12385778 -0.10866022 -0.09236199 -0.03270641
000150 e1 c4 b0 3d 47 1c 8a bc 05 0c db 3d b9 a0 ae bd
       0.08631302 -0.016859187 0.10695652 -0.08526749
000160 62 68 9f 3d 07 9c b3 bd ea 26 82 3d c8 5c c9 bd
       0.07783581 -0.08769994 0.063550785 -0.0983215
000170 05 39 03 bd fa 55 2c bd 97 55 92 3d 28 b4 1c bd
       -0.0320368 -0.04207418 0.07145231 -0.038257748
000180 55 63 ae bd 5d 5b f9 bd e9 0c 89 bd 2a c7 ba bd
       -0.0851504 -0.12175629 -0.066919155 -0.09120019
000190 3e 6d 14 3d 17 1a f2 bd ba ca 72 bd 00 12 b7 bd
       0.036236994 -0.118213825 -0.059275366 -0.0893898
0001a0 bf 2a bf bb 10 25 d9 3a 4e ff 6b bd fe d4 80 bd
       -0.005833953 0.0016566832 -0.057616524 -0.06290625
0001b0 54 00 b6 bb 53 17 78 3c 93 31 21 3d f3 33 f7 3d
       -0.0055542383 0.01514228 0.03935392 0.120704554
0001c0 59 ce 98 3d 45 c3 cd 3b 97 29 f3 bd 4b e1 1e be
       0.07461233 0.0062793815 -0.11873167 -0.1551563
0001d0 f4 5a a1 3d 29 1b cf bd a9 49 77 bc 57 21 0f 3e
       0.07878676 -0.10112602 -0.015093246 0.13977562
0001e0 17 7c e7 bb 97 8a 08 3d d8 2c 87 3c 1f ae 8e 3d
       -0.007064353 0.033335295 0.016500875 0.06966805
0001f0 64 c5 50 3c 1d 49 51 bd 02 8d 3f 3d 5e c9 b9 bd
       0.012742374 -0.051095117 0.046765335 -0.09071611
000200 69 79 73 bd 6c 7a 88 bc 92 0a 05 bc 3b 58 67 bd
       -0.059441958 -0.016659938 -0.008120196 -0.056480628
000210 7a fe 80 3d 84 3f b5 bd 25 8e d0 3c f3 75 0a be
       0.062985376 -0.08850005 0.025458405 -0.13521557
000220 73 77 f8 bd 89 82 f1 3d a8 e1 02 3e 1a 6d b7 3b
       -0.12132158 0.11792476 0.12781394 0.0055977227
000230 a1 f3 c3 3c 47 a9 18 be 77 80 8a 3d 6a c9 f4 bd
       0.023919882 -0.14908324 0.06762784 -0.11952479
000240 db 2e 4e 3d df 9f 8a 3d c5 8b 18 bd 80 0e 22 3b
       0.050337654 0.06768774 -0.03724267 0.002472788
000250 69 c2 d1 3d 96 40 26 3e ce 93 83 3d 6b 54 52 3d
       0.10242159 0.16235575 0.06424676 0.05135004
000260 f6 a6 0a 3d 4c 71 9e bb dc 53 42 3e d4 ec 15 bd
       0.033850633 -0.0048352834 0.18977302 -0.03660281
000270 15 46 54 bd 60 35 07 3e b7 6a 5e bd 55 a5 42 be
       -0.051824648 0.13203955 -0.05430099 -0.19008382
000280 e9 e4 1f 3e a7 91 21 bd 0c 2d 8c bc b5 5a a1 3c
       0.15614666 -0.039445546 -0.017111324 0.019696573
000290 19 f6 10 bd ce 41 2a 3c 5f e7 94 bd 84 2b 96 bb
       -0.035390947 0.010391666 -0.07270693 -0.004582824
0002a0 5d 94 7d 3a 91 2c 8c 3b ca 02 4b bd fc e9 5e bc
       0.0009673292 0.0042777737 -0.049563207 -0.013605591
0002b0 46 a5 26 3d 22 e8 c9 bc ec 90 6a 3d fa 21 ad 3d
       0.04068496 -0.024646822 0.057267115 0.08453746
0002c0 e3 a2 02 bd cb fc 92 bd f5 08 84 bd ae 3a df 3b
       -0.031893622 -0.07177123 -0.06447021 0.006812415
0002d0 82 ae 3a bc 8d d9 b4 bd ac df a4 3d 17 ba 91 bd
       -0.011394145 -0.08830557 0.080504745 -0.07115572
0002e0 73 9e 0b bd 19 52 af bd 52 2c d0 3d 50 48 68 3b
       -0.034086656 -0.08560581 0.101647034 0.0035443492
0002f0 39 7a ec bc b2 74 de 39 d3 a6 a0 bc 9d 7d b1 bc
       -0.028866874 0.00042430084 -0.019610798 -0.021666342
000300 51 82 94 3d 71 31 25 be 2b 0a c1 bd 15 77 58 3d
       0.072514184 -0.16132142 -0.094257675 0.05284794
000310 2c fe 82 3d cc ee fb 3d 59 3a b8 3d c2 00 84 3d
       0.06396136 0.12301406 0.08995504 0.06445457
000320 0e cc 78 3c 81 88 a8 bc e2 83 47 3d 00 e4 a5 3c
       0.015185369 -0.020572903 0.048709758 0.02025032
000330 bc fd 68 be 02 7e 4c be e0 69 a6 bd c5 61 42 3b
       -0.22753042 -0.19969943 -0.08125663 0.0029660326
000340 8a a0 d4 bd ff 59 3a bd a9 92 bf 3c f0 5d 97 3c
       -0.10382183 -0.045495983 0.023385363 0.01847741
000350 a3 03 4e bc 85 80 20 3e 0f e3 31 3d 35 5e c8 bd
       -0.012574109 0.15674026 0.04342943 -0.097835936
000360 19 59 64 bd fc 0a a0 ba 20 1d 42 3d 2a da 50 be
       -0.055749033 -0.0012210305 0.047391057 -0.20395723
000370 7c f5 b8 bd 8d 35 17 be 56 8f 1f 3c 43 82 a6 bd
       -0.090311974 -0.14766522 0.009738764 -0.08130314
000380 84 e0 f5 bc 81 7d 1f 3e 03 81 06 3e d6 d9 3c bd
       -0.030014284 0.1557522 0.13135152 -0.046106182
000390 66 ae 18 3e 4e 64 47 3e f6 c2 e1 3d 82 b4 8c bd
       0.14910278 0.19471857 0.11023514 -0.06870367
0003a0 57 0e b8 3d 69 e7 bd 3d ea bd 12 be 4b 58 95 3d
       0.0898711 0.092726536 -0.14330259 0.07292231
0003b0 44 9a ed bd 2f 26 c5 bd c3 2b b0 3c 97 73 b3 3b
       -0.116016895 -0.096264236 0.021505242 0.005476426
0003c0 e1 66 1e bd 1e 65 30 bd 9e 01 23 bd b6 df 0d bd
       -0.03867233 -0.043065183 -0.039796464 -0.034637176
0003d0 13 ed 40 bd d0 f5 2a bd 6e 1a 13 3c d4 53 ab 3d
       -0.04710109 -0.04173833 0.008978469 0.08365598
0003e0 fb 9e 79 3d d1 a2 29 bb e5 59 f7 3d e6 28 23 3d
       0.06094263 -0.00258844 0.12077693 0.039833926
0003f0 79 6a ef 3d 79 25 0e be aa 4c 98 3d a9 53 2a 3d
       0.1169023 -0.13881482 0.074364975 0.04158369

tree_conv.0.weights.bias f4 [256]
000000 1a ae f2 bc 9e ce 09 bd 85 77 d2 bc fe 9d a6 bc
       -0.029624034 -0.03364431 -0.025691757 -0.020339008
000010 8b 5f bb bd 89 27 ae bc 13 ab 2f bd ad 50 c4 bd
       -0.09149083 -0.021259086 -0.04288776 -0.095857
000020 9e 35 56 3d 3d 7f b6 3d 86 93 7e bd 50 b8 af 3d
       0.052297227 0.089109875 -0.062152408 0.08580077
000030 80 93 a3 bb 5e 61 a3 bd 3b 78 05 bb 76 90 a6 3d
       -0.0049919486 -0.07977556 -0.0020365852 0.081330225
000040 98 2c 56 bd 10 69 d2 3d 17 94 ef 3d ae 96 a5 3c
       -0.05228862 0.10273945 0.11698168 0.020213451
000050 cc 4c 49 bd 15 d9 07 bd 1a ee 74 3d 5a dd 2d 3d
       -0.049145505 -0.03316601 0.059797384 0.042447425
000060 50 64 72 3d 18 a9 e3 3b fb c5 78 bd a6 c3 6c bd
       0.059177697 0.006947648 -0.060735684 -0.057803772
000070 51 63 5d bd 1c 6d b7 3d 0d bc 94 3c 42 5f 2f bd
       -0.054049794 0.08956358 0.018156076 -0.042815454
000080 ad 27 3d bd 69 19 51 bd 7c 0e 45 bd 4d 5a a9 3d
       -0.046180416 -0.051049624 -0.048109517 0.08269177
000090 59 10 06 bd c4 49 88 3d 8b b1 53 3d 7a 4c 43 bd
       -0.032730434 0.06654695 0.05168299 -0.047680356
0000a0 10 f2 90 bc d9 25 45 bd 0a 05 b0 3d 7b 2f 8a 3d
       -0.01769355 -0.048131797 0.08594711 0.067473374
0000b0 da 93 9a 3d 01 cc 2d bd 57 b4 9e bd d2 ae 7a 3c
       0.07547732 -0.04243088 -0.07749241 0.0153004695
0000c0 b0 7d bd bb 71 99 a5 3c 91 a4 1f bd 83 1c ae 3d
       -0.0057828054 0.020214768 -0.038975302 0.08501532
0000d0 4f 8d 50 bd f5 0f 52 bd da a7 c1 bd f7 3f ae bd
       -0.050916012 -0.05128475 -0.09455843 -0.08508294
0000e0 e5 5d 1c bc 8c 02 92 3c e5 2a b2 3d c0 1b 9a 3c
       -0.009543871 0.01782348 0.08699588 0.01881206
0000f0 1d cb a7 bd 13 ab 7d 3d c0 ee d6 3d 22 65 ab bd
       -0.08193038 0.061930727 0.10494757 -0.08368899
000100 7e 02 26 bd dd ca 99 bd b9 e4 2b bd 0c 1f 29 3d
       -0.04052972 -0.07509396 -0.041966174 0.041289374
000110 35 16 89 bd ac ca 0b 3d 7e 45 92 bc f7 29 cf 3c
       -0.06693689 0.03412883 -0.017855402 0.025288565
000120 62 26 cd 3c e3 60 87 3c 44 3b 20 3d 2a 77 a1 bc
       0.025042716 0.016525691 0.03911902 -0.019710142
000130 83 23 35 3d 7d 19 4c 3c 85 ba 12 bd e8 9d 99 3d
       0.04422332 0.012457249 -0.03582241 0.07500821
000140 57 6b e5 bd 43 66 b2 bc 4e bb b3 3d ec 08 3b 3c
       -0.11202114 -0.021777278 0.0877596 0.011415701
000150 04 15 0c 3d 3a 85 84 3d f6 54 17 bd fc f5 d7 3d
       0.03419973 0.064707235 -0.03694626 0.10544965
000160 b8 3a 1c 3d e8 3a 41 bd 0c 67 d7 bc 41 a1 49 3d
       0.038141936 -0.047175318 -0.026294254 0.04922605
000170 3a ce 93 bd cd 46 85 bd fa bd 2a 3d 65 cd 57 3d
       -0.07217069 -0.06507645 0.041685082 0.052686114
000180 2b bf 38 bd 4c 17 04 3c f7 7a 15 bd 14 11 ae bd
       -0.045104187 0.008062195 -0.03649422 -0.08499351
000190 da 1a cc bd 9a 48 17 ba cf 2d 67 bb 45 8f 96 3d
       -0.09966059 -0.00057710113 -0.0035275107 0.07351545
0001a0 0a 8a ce 3c 6d fe fe bc 52 35 43 bc 0c f8 04 bd
       0.025212307 -0.031127179 -0.011914568 -0.03246312
0001b0 e7 09 95 3d f4 ff 2a bd 64 c5 8c bd 22 a3 70 3b
       0.07277279 -0.041748002 -0.06873587 0.0036718328
0001c0 14 50 85 3c 10 71 89 bd ea 1a d9 3d 95 9e 85 bd
       0.016273536 -0.06711018 0.106008366 -0.06524388
0001d0 77 e9 5e 3a 83 6c 84 bd 4f 9c 0a 3b ee e5 68 bd
       0.0008503417 -0.064660095 0.0021150296 -0.056859903
0001e0 43 46 19 bd 57 5a d2 bd 32 2a cb 3d 33 e0 7f 3d
       -0.037420522 -0.10271137 0.099201575 0.062469672
0001f0 61 dd e9 3c 09 6b d3 bd a7 20 95 3d 1d 9e bb 3c
       0.028547945 -0.1032315 0.072816186 0.022902543
000200 24 0d c4 3d a0 fa 8d 3c bf dc c1 bd f3 af e4 3d
       0.09572819 0.017331421 -0.09465932 0.11166372
000210 93 3f 47 3c 1e 63 0c 3e dd 96 ee bb bb 19 d7 3d
       0.012161153 0.13709685 -0.007281168 0.105029546
000220 47 87 4e bd 27 36 5c 3d b4 14 70 bd 07 b5 7f bd
       -0.05042198 0.05376258 -0.058613494 -0.0624285
000230 b7 56 77 3d 2d 81 e8 bc a5 58 44 3d 69 af 30 bd
       0.060385432 -0.028381908 0.0479361 -0.043136034
000240 14 15 83 3d 2c 87 77 3d ee 6a f0 3b 4e bf 4d 3d
       0.06400505 0.060431644 0.0073369658 0.05023127
000250 42 f5 9a 3d e7 91 6c bd 57 65 76 3d ca 68 98 3d
       0.075663105 -0.05775633 0.06015524 0.07441862
000260 02 9c e4 3b 1f 03 ad bd 58 f7 a4 3c 6f 69 05 bc
       0.0069766054 -0.08447861 0.020137474 -0.008142813
000270 56 fb c9 3c 85 5a 60 bd e0 06 e8 3d a7 ca 4b bc
       0.02465598 -0.054773826 0.11329436 -0.012438453
000280 40 5e 3a 3d 85 58 bf 3c bb 0d 11 3d 25 84 67 bd
       0.04550004 0.02335764 0.035413485 -0.056522507
000290 45 f7 0d 3d c3 a6 e9 bd 09 4b 86 3d 99 ce be 3a
       0.034659643 -0.114087604 0.065572806 0.001455742
0002a0 cb be a8 3c ab 09 da bc 50 e6 e5 3c b4 ca 87 3d
       0.02059879 -0.026615938 0.028063923 0.066304594
0002b0 7f fa 8b bd 26 52 1b 3d 72 a5 98 bc 27 2c 8f bc
       -0.06834888 0.03792014 -0.018633578 -0.017477108
0002c0 9f 1f 6e 3d a9 b4 cd 3c 92 7c b1 3c 22 b4 98 bd
       0.058135625 0.02511056 0.021665845 -0.074562326
0002d0 7f 46 f2 bc 46 b6 65 bd dc c7 a2 3c d7 33 dc 3d
       -0.02957463 -0.056082033 0.019870691 0.10752075
0002e0 4f c8 24 bd 17 51 45 bd 07 66 b3 bc ca b5 50 bd
       -0.04023009 -0.048173036 -0.021899236 -0.050954618
0002f0 db 47 8a 3c b0 af ba bd ef c0 b0 3d 26 da ab 3d
       0.016879966 -0.09115541 0.08630549 0.08391218
000300 de df 41 3d ba a6 25 3d 4d 6c 21 bd cf 0a e4 bd
       0.047332637 0.040442206 -0.039409924 -0.11134874
000310 c7 54 3e 3d c7 03 a5 bd 06 12 f1 3d 9a d9 48 3c
       0.04646757 -0.08057361 0.11771016 0.0122589115
000320 ca 99 15 3d 2f 7e 9d bd 1e f7 00 3d 21 14 31 bd
       0.036523618 -0.07690083 0.03148567 -0.043232087
000330 b4 f4 69 bd d1 2c 80 bd b3 8c 10 3d cb dc 61 3d
       -0.057118133 -0.06258548 0.03529043 0.055142205
000340 0e b7 90 bd 17 10 2b 3d fc 97 d9 3d a2 fe 00 bd
       -0.07066165 0.04176339 0.10624692 -0.031492837
000350 99 ca 94 3d 32 f9 94 3d c4 c5 7b 3d 11 2a d4 3c
       0.07265205 0.07274093 0.0614679 0.025898965
000360 ff aa 72 bd 37 13 72 3d 50 12 4f 3d 37 12 a2 3c
       -0.059245106 0.059100356 0.050554574 0.019784076
000370 37 5b 20 bd 98 15 70 bd 0b 7d fc bc 5b fe 8e bd
       -0.03914949 -0.058614343 -0.030821344 -0.06982108
000380 76 65 08 bd 0e 50 c4 bc 4c e5 a0 bd 16 f0 7e bd
       -0.033299886 -0.023963954 -0.07856235 -0.062240683
000390 46 10 91 bd 27 18 e7 3c 9d 56 ff 3d fb 97 5d bc
       -0.07083182 0.028209759 0.12467692 -0.0135250045
0003a0 77 1f 66 3d aa 36 3a bd 39 5f 94 bb b3 bc 8d bd
       0.05618235 -0.045462288 -0.004527953 -0.06920757
0003b0 24 9c 95 3d 1e c6 53 bd 31 18 ad 3d 00 1c e0 bc
       0.07305172 -0.05170261 0.0845188 -0.027357101
0003c0 5f 06 23 3c 38 ef c5 3d 23 ec 45 bd 68 d4 c4 3d
       0.009950249 0.09664768 -0.0483209 0.09610826
0003d0 bc 66 4b bd fa 87 34 bc ad 85 6f 3d 4a ab 9f 3d
       -0.049658522 -0.011018747 0.058477093 0.07796343
0003e0 b3 e3 a5 3c 8a 2a 91 bd 18 b0 5a bc 13 3e 96 3c
       0.020250177 -0.07088192 -0.013347648 0.018340146
0003f0 4c df cb 3d 01 05 16 bd 34 4d 24 bd 7c 8a 03 bc
       0.099547 -0.036625866 -0.04011269 -0.008028623

tree_conv.3.weights.weight f4 [128, 256, 3]
000000 80 c8 b0 3c d3 e7 f2 3c 75 80 d7 3c 29 cb 8a 3c
       0.02157998 0.029651558 0.02630637 0.016942577
000010 77 2d 67 3b cc 82 2d bd 95 fb bf bc 8d 04 d9 bc
       0.0035274902 -0.042361066 -0.023435393 -0.026491428
000020 82 14 d8 3c ae ca 34 bb 4d ac 38 bc 55 15 5e 3c
       0.026376966 -0.0027586627 -0.011271548 0.013554891
000030 2f b3 10 bb f1 16 17 3d 12 0e 9d bc be 78 c3 3a
       -0.0022079458 0.036887113 -0.019171748 0.0014913303
000040 2e b4 11 bc d0 55 37 3d 80 f6 ce 3c f3 63 25 bd
       -0.008893056 0.04475957 0.025264025 -0.040378522
000050 de e6 e8 3c c3 b1 60 bc f1 0d 04 3d a5 4c 7c bc
       0.028430399 -0.013714257 0.032239858 -0.015399133
000060 55 ec 9b 3c 00 01 b0 3b 15 6e 09 3d 5d 94 b2 bd
       0.01903359 0.005371213 0.033552248 -0.08719704
000070 c1 67 82 bd a4 7b 53 bd 15 bc a3 bd 3b c3 4b bc
       -0.06367446 -0.051631585 -0.07994858 -0.012436683
000080 4c fb 1a 3d 58 22 4e 3d fd 65 2a 3d 31 d5 6c bd
       0.03783731 0.05032572 0.04160117 -0.057820503
000090 b8 0e 0f bd 9f b0 49 3c 1d be 0f bc b0 1e ae bc
       -0.034926146 0.012310176 -0.008773354 -0.021254867
0000a0 c1 29 66 3c dc 78 d0 3c 92 0c ac bb 47 fc 2b 3d
       0.014048041 0.025448255 -0.005250522 0.041988637
0000b0 84 0c 1b 3d 20 c2 9a bc 03 b1 cc bc 41 4e 02 bd
       0.037853733 -0.018891394 -0.02498675 -0.03181291
0000c0 03 a8 d7 3b fa e5 17 bd e6 cc 25 3e 83 a9 23 bd
       0.006581308 -0.037084557 0.16191444 -0.03995658
0000d0 c9 75 27 bd dc 05 8f 3c b1 9d 4d bd a2 76 ac ba
       -0.040883813 0.017458849 -0.050199214 -0.0013157914
0000e0 c4 f6 30 bd ee 18 79 bd 61 48 1c 3d c6 b5 a1 3c
       -0.043204084 -0.06081479 0.038154963 0.019739997
0000f0 0e eb 86 3d ca de 6f bd 2c 23 60 bc 8b 9f 52 3c
       0.06587802 -0.058562078 -0.013680261 0.012855421
000100 e4 e2 2e 3c e0 9a 0b 3d 27 c0 5e bc 7d c4 95 bc
       0.010674212 0.034083247 -0.013595617 -0.01828217
000110 81 c6 6c 3c c9 69 85 bc 4c 5c 7b bc 44 40 b4 bc
       0.014451624 -0.016285794 -0.0153418295 -0.0220033
000120 e7 74 08 3d 46 86 02 3d c4 ba cd 3c 70 5e d2 bc
       0.03331461 0.031866334 0.02511347 -0.025679797
000130 18 a9 49 bd e7 f3 ce bb 70 3a ec 3b 5c 0f 86 bd
       -0.049233526 -0.0063156965 0.0072091147 -0.06545898
000140 2c 51 34 bc 49 3b 28 bd 16 7a 84 3c 85 10 55 bc
       -0.011005681 -0.041072164 0.016171496 -0.013004427
000150 c6 87 2f bc 21 15 b5 3a 57 d8 91 3a 64 a2 2c 3c
       -0.010713523 0.0013815501 0.0011127096 0.010536764
000160 f2 40 0b bd dd c0 22 bd 9e 5f b4 3c 97 62 d7 3d
       -0.033997484 -0.03973471 0.02201825 0.105168514
000170 47 8e b6 3c 92 eb 4e 3d 8f 6f 31 bd 41 6f e6 3c
       0.02228464 0.050517626 -0.04331928 0.028129222
000180 f8 83 04 bc 7f b4 9c 3c 1d 5a 64 3c 00 24 57 3b
       -0.008088104 0.019129036 0.0139375 0.0032827854
000190 47 21 a5 bc d3 aa 2b bc ea 75 43 bc 70 d1 33 bc
       -0.02015747 -0.010477739 -0.011929968 -0.010975227
0001a0 39 e6 09 bd 70 70 57 ba b4 35 1a bc 19 80 a7 bc
       -0.033666823 -0.00082183536 -0.009412218 -0.020446824
0001b0 f0 82 08 3d 86 30 08 bd 55 17 a6 3d fe af 43 bd
       0.033327997 -0.0332494 0.08109919 -0.04777526
0001c0 d2 7d de bb cc b4 fa 38 36 ab f9 3c a4 f6 c0 3c
       -0.0067899013 0.00011954605 0.030477148 0.023555107
0001d0 f5 31 64 bc c9 67 95 3c 45 ba f5 3a 1d 69 e2 3c
       -0.013927926 0.018237965 0.0018747529 0.027638013
0001e0 6b 48 0a 3d 00 68 a7 bc 17 a5 2d bc 68 70 cf bb
       0.03376047 -0.020435333 -0.0105984425 -0.0063305385
0001f0 1c a9 02 3d 8b 94 c7 3c 7f a3 cb 3c 9a 31 07 bc
       0.031899557 0.024362823 0.024858234 -0.008251572
000200 bf 40 02 3d 24 cc 93 bd b0 e3 c3 3c 1b 12 e9 bc
       0.031800028 -0.07216671 0.02391228 -0.028451016
000210 c3 22 08 bd 8d f2 c3 bb 61 fc 8a 3d f4 f0 b5 bb
       -0.033236276 -0.005979842 0.06786419 -0.0055524055
000220 e1 f8 e4 bc 0d f2 06 bd 72 dc 62 3c 45 0f 89 3b
       -0.027950706 -0.03294568 0.013846504 0.0041827285
000230 dd d5 c8 bc 64 48 29 bd b2 fb 58 3b f6 a6 c1 3d
       -0.02451604 -0.041328803 0.0033109006 0.094556734
000240 d9 bf 26 bd 76 73 c2 3c b7 30 a0 3d 7e 7f f9 3c
       -0.040710304 0.023736697 0.078217916 0.0304563
000250 ae be bf 3b 6e 9a 7a 3c 94 e4 0f 3d cf cb eb bc
       0.005851588 0.015295608 0.0351301 -0.028783707
000260 84 db ae 3d 0f 36 67 3c 7c 15 44 bd 08 2a 17 bc
       0.08537963 0.01411201 -0.04787205 -0.00922633
000270 57 37 ac bc 71 e5 d7 3b 8e 26 1b 3d 35 68 52 bc
       -0.021022482 0.006588631 0.037878565 -0.012842228
000280 45 c6 aa 3c 96 1c 1e bc 38 94 8c 3d 89 bf 05 3c
       0.020846495 -0.00965037 0.06864208 0.008163341
000290 04 38 90 3d ae 5e da 3a 49 fa 6c 3c 55 c5 53 3c
       0.07041934 0.0016660297 0.0144639695 0.012925466
0002a0 d6 35 ca 3c a8 23 95 bc d3 7d 20 3c ff 10 73 bb
       0.024683874 -0.018205479 0.009795624 -0.0037088988
0002b0 d0 c7 a3 3c 28 92 de bc c4 9d da bc 09 de 54 bb
       0.019992739 -0.027169302 -0.026686557 -0.0032480976
0002c0 63 2c 6d bb f0 49 6c bc a4 df ef 3c 90 27 b5 bb
       -0.0036189787 -0.014421925 0.029281445 -0.005528398
0002d0 7a aa 2f bc 8a d2 0e 3d ef df 2d bd c5 6b 8e bc
       -0.010721797 0.034868754 -0.042449888 -0.017385373
0002e0 f4 fb 16 bc d2 63 71 bd df 09 e8 bc 3e 71 05 bd
       -0.009215344 -0.058933087 -0.02832502 -0.0325787
0002f0 9f 8b 21 3d 3a 33 66 3b 86 53 05 3d 0b 66 9e 3c
       0.039439794 0.0035125748 0.032550357 0.019335767
000300 c3 3d 48 bc cb 59 06 bc 84 11 1b bd 0a a9 fb 3c
       -0.012221756 -0.008200119 -0.0378585 0.030720253
000310 8a 3d 50 3c d4 ab f3 ba 57 e0 4c 3c 14 8a 89 3c
       0.012709985 -0.0018590637 0.012504659 0.016789474
000320 6c 40 00 3d 29 98 87 bc a5 13 62 3b bd 45 25 3c
       0.031311437 -0.016552048 0.0034496572 0.010087428
000330 a8 fc 2d bb 7b 22 67 3c 22 b8 b1 3c 1e 7b 81 bc
       -0.00265483 0.014107342 0.021694247 -0.015805777
000340 ed 9f 30 bc c5 2d be bb a7 34 c3 bb f3 18 20 bd
       -0.010780317 -0.005803796 -0.0059572044 -0.039086293
000350 ad 93 52 3d 84 e3 b2 bb 52 4f a9 ba 49 0d 71 bc
       0.051410366 -0.005459251 -0.0012917316 -0.01471264
000360 d1 0c 27 bd 63 fa 4e bc c2 d2 ed b9 a6 4e 04 3d
       -0.040783707 -0.012632939 -0.0004536119 0.032301567
000370 37 4b ac bb e4 9d 87 bc f4 22 85 bd ef bd c0 bd
       -0.0052579897 -0.01655478 -0.065008074 -0.09411227
000380 3a 56 56 bd 4d 0d ce bd 4e a4 ea 3b b0 33 16 bd
       -0.052328326 -0.10061131 0.0071607 -0.036670387
000390 d0 51 34 3b 80 9e e8 ba b2 1b 68 bd 09 02 65 bd
       0.0027514584 -0.0017747432 -0.056667037 -0.055910144
0003a0 0e 9e 59 3d a6 7e b6 bc aa aa 0a 3d c2 e8 22 bd
       0.05312925 -0.022277188 0.033854164 -0.039772756
0003b0 11 b8 cb bc c0 4a 23 bd 36 0b 1e bc 6b e1 f3 3c
       -0.024868043 -0.03986621 -0.009646228 0.029770574
0003c0 0b d6 18 bd a3 2b 8d bd 56 f9 78 3c 1c 15 05 bc
       -0.037313502 -0.06893089 0.015196165 -0.008122709
0003d0 bc ff d6 3c 74 30 cb 3c 5b db 33 bc 84 ae b4 bb
       0.02624499 0.024803378 -0.010977591 -0.005513968
0003e0 77 bf 3f 3d 99 b8 a3 3c 9f 88 37 bd 23 4a 03 bd
       0.046813454 0.019985484 -0.044808026 -0.032053124
0003f0 2c 5a 5a bd 24 99 0f 39 54 1a 97 bc b1 37 c1 3b
       -0.05330865 0.00013694592 -0.018445171 0.0058965315

tree_conv.3.weights.bias f4 [128]
000000 28 50 9f 3b 64 b2 5a bc e5 f6 35 bb 93 0a 92 bc
       0.0048618503 -0.013348196 -0.0027765569 -0.017827308
000010 30 dd 8a 3c 25 27 8b 3c 6b bd e6 bc 18 d8 a2 3b
       0.016951174 0.016986439 -0.028166493 0.004969608
000020 2a f8 06 3d 96 1e a1 3c 53 90 3f bc 89 73 9e 3c
       0.03295151 0.019667905 -0.011692124 0.0193422
000030 ec 30 9c 3c 34 06 7f bc f1 18 2c 3d 50 42 27 bd
       0.019066297 -0.015565444 0.042015973 -0.040834725
000040 c9 c0 3d 3d 76 67 42 3d 18 e9 99 ba 31 c6 99 3c
       0.046326432 0.04746195 -0.0011742441 0.018771263
000050 3c d2 1b 3c 8c 60 c5 bb a2 31 4f 3c 2a df f9 bc
       0.009510573 -0.006023472 0.012646111 -0.03050192
000060 11 77 78 3d 81 06 26 bd b5 a4 97 3c 5b 83 0a bd
       0.060660426 -0.040533546 0.018511156 -0.033816677
000070 72 ea 8d 3c bc c1 6a bc c6 05 53 3d 83 19 8a 3c
       0.017323706 -0.014328416 0.051519178 0.016857868
000080 5f b6 2f ba 29 71 34 3d e1 4b 93 3c 96 8e 80 bc
       -0.00067028956 0.04405323 0.017980518 -0.01569299
000090 83 18 94 bc 07 af 35 bd 6f 44 0f 3d b1 7f 25 3d
       -0.018078094 -0.044356372 0.034977373 0.04040498
0000a0 e7 87 81 3b 42 b4 e6 3a 62 ef 23 bd 53 28 98 3b
       0.0039529684 0.0017601328 -0.040023215 0.004643479
0000b0 d6 93 08 3d cb d4 98 bc 66 76 3e 3d 5c ca 4d 3d
       0.033344112 -0.018656155 0.046499632 0.050241813
0000c0 e2 d5 18 3d fa 19 ef bc 2e b4 2b 3c 38 1e e9 bc
       0.03731335 -0.029187191 0.01047997 -0.028456792
0000d0 a4 6d 2a 3d 62 07 4b bc ae 12 0b 3d 1b 52 3b 3c
       0.041608468 -0.012391897 0.03395336 0.01143315
0000e0 69 58 bc bc 8d 36 35 bd e2 6b 62 bc 50 14 a4 3c
       -0.022991376 -0.044241477 -0.013819667 0.020029217
0000f0 c9 6f a3 bc 1e db 05 bd 3e 31 2d 3c cf 47 0e 3c
       -0.019950764 -0.03267967 0.010570822 0.008684113
000100 6a e0 4a 3d 89 99 24 3d 01 42 da bc 54 23 ad 3c
       0.049530424 0.040185485 -0.026642801 0.02113501
000110 00 72 02 3b c5 da 08 3d 82 4c 27 3c 13 dc a1 3c
       0.0019904375 0.03341176 0.010211112 0.01975826
000120 5c 81 1f bb cb bb 5b bb ee 8d 9d 3c ff 25 dd 3b
       -0.0024338579 -0.0033528681 0.019232716 0.0067489143
000130 45 78 b3 bc d0 37 47 3d e5 fa e1 ba b7 7e 0d bd
       -0.021907935 0.04863721 -0.001724091 -0.034544673
000140 b6 42 ee bb cc 06 66 bc 15 1a ac 3b 2e c2 22 3d
       -0.007271136 -0.014039706 0.0052521327 0.039735965
000150 8f a7 1d bd 51 86 ab bc 6a a5 f1 bc 54 a9 64 3d
       -0.038489874 -0.02093807 -0.02949782 0.055825546
000160 49 52 1b 3d c0 ff 32 bd ad 17 48 3d 2f a5 20 bc
       0.03792027 -0.043700933 0.048850704 -0.009805008
000170 6f d9 78 3c f0 11 ff 3c 15 b6 6d bc 9b 0f 28 3b
       0.015188559 0.031136483 -0.014508744 0.0025644067
000180 26 74 00 3d 93 3b d3 3c c9 29 ff 3c c4 91 d6 bc
       0.031360768 0.025785243 0.031147854 -0.026192553
000190 15 11 af 3b 8e a5 3c 3d d5 6b 2f 3d 08 15 c2 3c
       0.0053426125 0.046056323 0.042827446 0.02369167
0001a0 ca af 17 3d 70 1b 02 3d f0 ab 59 bc 5f c4 c1 3c
       0.03703288 0.031764448 -0.013285622 0.023653207
0001b0 f8 87 05 bd 81 6d b3 3c f1 ef 0a bd 57 33 c8 bb
       -0.032600373 0.021902801 -0.033920232 -0.006109636
0001c0 a0 52 e1 bc 9d be f4 bc e4 df 49 3b 9d 25 4f bc
       -0.027505219 -0.029876048 0.0030803615 -0.012643245
0001d0 4e 96 1b 3d d2 ef b3 bc 7e fb 0a 3d ee 9f b4 3c
       0.03798514 -0.021964941 0.033931248 0.022048917
0001e0 6d b4 b3 3b 04 36 3f 3d 71 ee ca bc c9 ed 6d bc
       0.005484155 0.046682373 -0.0247719 -0.014522024
0001f0 9a 79 1e bc 40 51 5e 3c f5 b4 cb bc db 21 0e bd
       -0.009672547 0.013569176 -0.02486656 -0.034700256

tree_conv.6.weights.weight f4 [64, 128, 3]
000000 69 09 ad 3c 79 c6 20 3b ed 39 35 3d e3 ae b9 bc
       0.021122651 0.0024532361 0.044244695 -0.0226664
000010 08 74 c1 bc 20 44 42 bd fd e7 75 3a ea 44 f8 bc
       -0.023614898 -0.04742825 0.0009380577 -0.030306298
000020 ea 10 af bd c4 81 58 bb 23 2d 5b 3c d2 ac c1 3c
       -0.08548148 -0.003303633 0.013377461 0.023641977
000030 f4 cc fb 3c 27 a2 1d bd a5 9d 70 bd 5c 14 9e bc
       0.030737378 -0.03848472 -0.05874409 -0.019296817
000040 cf aa 3e 3d dd 72 23 bd c4 26 6d bb 94 1b fb 3c
       0.046549615 -0.039904464 -0.0036186436 0.030652799
000050 11 50 d1 3c 64 d6 d1 3c 58 c6 3c 3c 76 92 49 3d
       0.025550874 0.025614925 0.011521898 0.04921194
000060 93 3c 64 39 e1 57 e2 bc b2 6f af 3c 8f 28 19 bd
       0.0002176634 -0.027629795 0.021415565 -0.037392195
000070 34 40 a7 3b 87 4b 92 bc 3f e8 87 bd 5d 08 b1 3c
       0.005104089 -0.01785828 -0.06636094 0.021610433
000080 8e 32 83 3d 2f 64 4e 3c 27 79 29 3d 29 2f 32 bd
       0.06406127 0.012597128 0.041375306 -0.043502007
000090 32 74 ae 3c 6b 47 32 3d e7 74 b8 bc 19 ce 10 bd
       0.02129564 0.04352514 -0.02251668 -0.0353528
0000a0 56 d9 10 bd f0 b3 84 3b 7f ca ea bc ea 37 fe ba
       -0.035363518 0.0040497705 -0.02866101 -0.0019395326
0000b0 a4 68 86 bc af ae 04 bd e7 d2 f7 bc bb 09 13 3c
       -0.016407318 -0.032393154 -0.030251933 0.008974488
0000c0 5f 3b c0 3c ca 51 c1 bc 31 53 19 3c ec ea c2 3c
       0.02346581 -0.02359857 0.009358213 0.02379366
0000d0 c8 07 8e bc 02 45 04 bd f9 48 3b 3b f8 cf 2b 3d
       -0.017337695 -0.032292373 0.002857743 0.04194638
0000e0 aa 4c 6b bd f7 89 16 bd fd 3b bc ba 03 e8 5b bd
       -0.05744616 -0.036752667 -0.001436114 -0.05368806
0000f0 ad 7b 1b bd 92 7d a6 3c 13 10 3b 3c 14 de 78 bc
       -0.037959743 0.020323548 0.011417407 -0.015189666
000100 b3 51 80 3d 04 bd e2 3c 83 1b 1a 3c 05 83 81 3a
       0.06265583 0.02767802 0.009405973 0.0009880966
000110 44 7a 1e 3d 0e 5e 86 3d e6 8a 76 3c 5e 31 31 3d
       0.03869082 0.06560908 0.015047764 0.04325997
000120 39 80 91 bc 21 15 58 bc 6f ab 2b bd e3 e2 15 3d
       -0.017761337 -0.013188631 -0.04191154 0.03659333
000130 cc 8b 01 bd 9d 33 32 bc 9e c7 6d 3d 9e b4 7e 3c
       -0.03162746 -0.010876563 0.058051698 0.015545992
000140 35 b3 e8 3c 18 14 53 3d ba 3f 2b 3d 47 4f 36 3d
       0.028405765 0.051532835 0.04180882 0.0445092
000150 e6 5b 0b 3d e4 25 8e 3b 42 69 58 3d d9 bf 1c 3d
       0.034023188 0.004338013 0.052834757 0.038268898
000160 cf 45 ca 3c e2 fc b5 bc af 6c ce 3b 16 ff f7 3a
       0.02469149 -0.02221531 0.006299577 0.0018920626
000170 17 77 80 3c db 75 48 bd ce 01 da ba 7c 0f 2e 3d
       0.015681786 -0.04894052 -0.0016632618 0.042495236
000180 43 9d 75 bd 39 43 b4 bc f7 88 90 bb 23 f8 0d bd
       -0.05996443 -0.02200471 -0.0044108587 -0.03466047
000190 47 05 07 3d 3c 1c 59 3d 48 43 42 3d 89 36 3b bc
       0.032964017 0.053005442 0.047427446 -0.011426576
0001a0 6c c2 1f bd 6c 85 e5 3c cc d6 2d bd ae f7 57 3c
       -0.039003775 0.028017722 -0.042441174 0.01318161
0001b0 a5 f7 d7 bc 9a 80 98 bc 05 bd 33 bc 0c fe 9b bc
       -0.026363203 -0.01861601 -0.010970359 -0.019042037
0001c0 e6 29 11 bd 46 e5 14 3d 1c 72 f0 bb 33 23 b1 bd
       -0.035440348 0.036351465 -0.0073378216 -0.08649292
0001d0 20 ec ea 3c cd ca 2e ba d7 15 d2 3c 2f 44 18 3c
       0.028677046 -0.0006667793 0.02564518 0.0092936
0001e0 8c 28 b8 bb 30 c3 48 3c bb 3f 49 3d 96 c4 ab 3c
       -0.005620068 0.012253568 0.049133044 0.020967763
0001f0 03 97 05 bd c6 23 6e bc d1 49 ae 3c b4 3f 5a 3d
       -0.03261472 -0.014534896 0.021275433 0.05328341
000200 f8 57 cf bc 57 76 b2 3c 1c 0f 11 bc cf 65 ac 3c
       -0.025310501 0.021784944 -0.0088537 0.02104464
000210 9b d5 05 bd 6c d8 ad 3d 57 60 3d bc db 36 e6 3b
       -0.032674413 0.08488545 -0.011558614 0.0070255823
000220 5e 1c 15 bd 37 d6 e4 3c af 9d 0a 3c 64 bd a8 bc
       -0.036404006 0.027934177 0.008460446 -0.020598121
000230 91 89 b4 3c df ae 12 bd cd 82 84 bc a2 c5 49 bd
       0.022038253 -0.0358113 -0.016175652 -0.049260743
000240 6d 12 bf bc e1 ba 78 bc cc 3f b3 bc 2c d6 57 bc
       -0.023324216 -0.015181274 -0.021881007 -0.013173621
000250 cb 2a b5 bc 4d 5b 3c bd e5 06 11 3d b0 08 8c 3c
       -0.022115132 -0.04598551 0.035406966 0.017093986
000260 2e e0 8e bd 10 61 a9 bc 35 f3 c6 3c af 0b 6f 3c
       -0.06976353 -0.020676166 0.024285892 0.014590188
000270 b1 bf ee 3c 0d 93 88 bc 63 c2 88 3c 4f 5e b0 3c
       0.02914414 -0.016671682 0.016694253 0.021529345
000280 9e 99 50 3d d4 47 e5 3c 92 32 67 bc 50 42 35 bd
       0.05092775 0.027988352 -0.014111178 -0.044252694
000290 91 72 b0 3d 2f 79 6f bb 33 c4 6f bd ee 7a 44 3c
       0.08615602 -0.0036540737 -0.05853672 0.011992199
0002a0 8a c8 97 bc db dd 8c bc 1f 43 03 bc 97 84 81 bc
       -0.018528242 -0.017195633 -0.008011608 -0.015810294
0002b0 39 29 00 3d 9c fb a0 3c ba ec ff 3c d5 b5 f2 bb
       0.031289313 0.019651227 0.03124081 -0.00740693
0002c0 88 29 5c bd ee 49 04 3d 9c cb d8 bb b9 6d 2f 3d
       -0.053750545 0.032297067 -0.006616069 0.04282925
0002d0 de 79 c3 bb 6b 99 36 3d 33 12 fb 3b 23 f2 de bc
       -0.0059654554 0.044579905 0.0076620816 -0.02721507
0002e0 09 f9 45 3d 92 ac db 3c ad e5 21 bd 60 e9 49 bd
       0.0483332 0.026815686 -0.039525677 -0.04929483
0002f0 70 9f 9f bc e1 80 d8 3c 44 89 36 3d c8 53 bf bb
       -0.019485205 0.026428642 0.0445645 -0.005838845
000300 57 a7 41 bc 28 76 0c bd ed ff 3d ba 32 42 d4 3a
       -0.011819682 -0.03429237 -0.0007247914 0.0016194044
000310 85 42 b7 bb d5 20 77 3d e4 9d 41 bc 09 f4 e7 bc
       -0.0055926465 0.060334045 -0.011817429 -0.028314607
000320 be c1 16 ba 05 46 2f bd 57 97 8b bc 19 20 89 bd
       -0.0005750916 -0.042791385 -0.017039938 -0.06695575
000330 7e a3 41 bd b2 a2 08 3d 3c 76 ac bc 07 09 0e 3d
       -0.04727506 0.033358283 -0.021052472 0.034676578
000340 f4 96 54 3d c9 3e 2d 3b 6c 61 3c 3d 24 04 0b bd
       0.051901773 0.0026435128 0.045991346 -0.033939496
000350 28 9a 52 bd 3f 1d cb bc 78 8a 70 bd c4 bd 22 3d
       -0.051416546 -0.024794219 -0.058725804 0.039731756
000360 2b 3a c1 3c 6d 28 56 bd fb 6f fe 3c 82 f9 6c 3c
       0.023587307 -0.052284647 0.031059256 0.014463784
000370 22 ed 40 bd eb 08 96 bc bc 37 b5 bb 2c 33 6c bc
       -0.047101147 -0.0183148 -0.0055303257 -0.014416497
000380 39 19 a1 bd 4f df 99 3a ce bf 06 3d 05 6f 8e bc
       -0.07866139 0.0011739525 0.032897763 -0.017386923
000390 48 43 84 bc d4 8a 04 bd 21 b7 25 3d e0 fb 93 3c
       -0.016145363 -0.03235896 0.04045785 0.01806444
0003a0 2d e2 20 3d e7 bc b1 3a b3 36 0a 3d 51 ae 9b bc
       0.039278198 0.0013560326 0.03374357 -0.019004019
0003b0 20 9c 1f 3b ce e3 91 3c b6 38 ed 3b cb 3d 84 3c
       0.0024354532 0.017808821 0.0072394265 0.016142746
0003c0 53 52 1d bc bd 1e 31 bd 35 ef 05 3d 15 fb 88 bd
       -0.009602147 -0.043242205 0.03269883 -0.06688515
0003d0 e5 c0 e8 bc f5 cf 07 3d db 66 6f 3d ce a0 ab bc
       -0.028412292 0.033157308 0.0584477 -0.020950701
0003e0 ff 60 7d bc 30 05 19 bc e0 3f 0b 3a f6 43 7c 3d
       -0.01546502 -0.009339616 0.00053119473 0.06158825
0003f0 49 a0 91 3d 26 db 9e 3d 39 b9 fb 3c 55 95 96 3b
       0.0711065 0.07756643 0.03072797 0.0045954385

tree_conv.6.weights.bias f4 [64]
000000 91 e7 8c bd 2a cf 32 bd 16 36 6e 3c 9a 09 b4 bb
       -0.06880105 -0.0436546 0.014539262 -0.0054943087
000010 b2 ee 03 3d 8b ae ac bc 3c 06 bf bc 31 d9 11 3d
       0.03221006 -0.021079322 -0.023318402 0.03560752
000020 75 bd 47 bc 51 c9 3c 3b d1 c0 1f bd 9f db 9d 3c
       -0.012191166 0.0028806517 -0.039002243 0.019269763
000030 08 f0 da 3c 7d e7 4b bd 4c 09 11 bd 80 c8 50 3d
       0.026725784 -0.04978131 -0.035409257 0.05097246
000040 ae d3 ba bc 5e 78 07 bd 41 ed f9 3c 81 0a 54 bd
       -0.022806015 -0.033073775 0.03050864 -0.05176783
000050 40 34 72 3d 53 18 04 bd 13 e3 19 bc d8 ba 45 bd
       0.05913186 -0.03224976 -0.009392518 -0.04827389
000060 1d 8d b6 bb 51 5c 55 bd 25 95 1e 3d ce 88 25 bc
       -0.005571021 -0.052089993 0.038716454 -0.010103418
000070 8b 45 28 3d 67 47 15 bc 1e 49 85 bc 00 9f 62 bb
       0.041081946 -0.009111262 -0.016270217 -0.0034579635
000080 6b 55 d1 bc dc 44 2c 3d d3 4f 25 ba 5d d4 67 3d
       -0.025553426 0.042057857 -0.0006306145 0.05659901
000090 6f 88 f4 3a 70 24 b2 bc 66 d7 d3 bc fd a5 15 bc
       0.0018656383 -0.02174589 -0.025859546 -0.009133813
0000a0 45 2a 03 bc d1 69 0f 3d ac 25 e9 bc f1 93 f7 ba
       -0.008005683 0.035013024 -0.028460346 -0.0018888694
0000b0 59 ee 9e bc d2 85 c9 3b c0 4e 20 bb bf 0c 99 3a
       -0.019400762 0.006149986 -0.0024461 0.0011676772
0000c0 64 2b 91 bb a8 3b 15 ba 32 75 8f bc c0 b5 81 3d
       -0.0044302214 -0.00056927884 -0.017511938 0.06333494
0000d0 ab d4 f6 bb 7e ed f7 3a 87 d0 27 3d 87 bf c9 3b
       -0.007532676 0.0018915383 0.04097035 0.006156865
0000e0 96 7f a9 ba 9b d6 cd 3c 8d 01 7e 3c 6e 24 e7 3c
       -0.00129317 0.025126746 0.015503299 0.028215613
0000f0 55 a1 01 3d 98 5d 2b bb 4d 68 2b 3b b3 31 10 3b
       0.031648 -0.0026148316 0.0026154697 0.002200228

tree_conv.9.weight f4 [32, 64]
000000 a9 46 86 3c 00 2e df 3d 24 b0 c6 3d f9 8a cb bc
       0.016391115 0.10897446 0.09701565 -0.02484654
000010 5e 69 7e 3d 1a af 32 3c d6 23 a1 3d 9f 88 89 bd
       0.062112205 0.010906005 0.07868163 -0.067155115
000020 21 ef da 3d ee c9 a1 bc 2f 3e 8f bd 85 37 ac bd
       0.106901415 -0.019749608 -0.069942825 -0.08409027
000030 4b bb aa 3a 94 03 99 3d 9d 75 ce bb c3 b6 ba 3d
       0.0013025788 0.074713856 -0.0063006417 0.0911689
000040 3f ee 74 3d 3e 21 ae 3b e8 d1 f2 bd d7 5c 39 bb
       0.05979752 0.0053140214 -0.11856443 -0.0028284097
000050 3e f5 aa ba 5b 47 9c bd 1c 09 b8 3d fe 3d d3 3d
       -0.0013043059 -0.076307975 0.089861125 0.103145584
000060 d4 d7 55 bd 93 7e a4 3d e8 c9 1a bd c6 75 64 3d
       -0.052207783 0.080319546 -0.03779021 0.05577638
000070 cd 5e ac bd 50 b7 55 3c b6 5d 59 bc 6a 67 25 3b
       -0.08416519 0.013044193 -0.013266971 0.0025238642
000080 3d 66 0a 3d 4f 73 06 bc 7e 7b 0b bb 46 8e 86 bd
       0.03378891 -0.008206203 -0.0021283324 -0.06570105
000090 9f db 06 3e 94 b0 02 3b 89 a1 d7 bd d7 6c a5 bd
       0.13169716 0.0019941675 -0.10528857 -0.080774
0000a0 b3 0e 64 bd 07 7a 9d bd 46 16 70 bd 1a dd d5 3c
       -0.05567808 -0.076892905 -0.05861499 0.026106406
0000b0 31 f6 56 bd 81 8b e3 3d 88 f4 13 be df e1 fc bc
       -0.05248088 0.11110593 -0.1444875 -0.030869422
0000c0 4f 3d ef bd 07 54 8f bd 70 a2 ff 3d 6c 82 8b 3b
       -0.116816156 -0.06998449 0.12482154 0.004257491
0000d0 b9 a0 e5 bd a2 4a f5 3d 39 27 84 3d 62 b6 c3 3d
       -0.11212296 0.11977126 0.06452794 0.09556271
0000e0 4f a9 3f bc 7e 88 d7 bc 92 66 b7 bd 4f 17 bd bd
       -0.011698081 -0.026310202 -0.089551106 -0.092329614
0000f0 dd 2d bd 3d 48 68 7c bd 8f 41 65 bd 53 96 bc bd
       0.09237263 -0.061622888 -0.055970725 -0.092083596
000100 81 1f 7e 3d 82 69 ba bd 08 bb 99 bb a4 9b 21 3e
       0.062041763 -0.09102155 -0.0046914853 0.15782028
000110 0c 0a 17 be df e7 c7 bb 8f bd cd bd e3 cc 4b bd
       -0.14749926 -0.0061006392 -0.10045921 -0.049755942
000120 42 61 47 3e 9a 71 02 3e 2f 00 05 be ac 3e 90 3d
       0.19470695 0.12738648 -0.12988351 0.07043204
000130 ba 7e 55 3b a6 0e 12 3e d8 46 49 bd fa dd cf ba
       0.0032576756 0.142634 -0.049139827 -0.0015859001
000140 ce 76 b2 bd 73 71 f3 3d 46 36 12 3c df 7b 1f be
       -0.087140664 0.11886873 0.008924073 -0.15574597
000150 09 6b 3a 3d e3 42 53 bd 94 f1 9c bc 34 b9 4e 3e
       0.045512233 -0.05157746 -0.019158162 0.20187837
000160 6c a4 84 3d 21 72 ad bc fd 46 45 3e c7 66 19 3e
       0.064766735 -0.021172585 0.19265361 0.14980613
000170 11 b3 eb 3d ca a8 e1 bc 33 c9 84 3d 9b 6a 07 bb
       0.115087636 -0.027546305 0.06483688 -0.0020662907
000180 21 06 80 3b 87 80 df 3d 01 ad fe 3c 7b 5e a5 ba
       0.0039069806 0.109131865 0.031088354 -0.0012616658
000190 e2 26 c7 bd 40 49 23 3b c5 a3 8f 3d 49 88 ee 3d
       -0.09724213 0.0024915487 0.070136584 0.11647088
0001a0 28 2c 41 3e bd 88 74 3e 1c 79 1b be 29 09 e6 3d
       0.188645 0.23880287 -0.15182918 0.11232216
0001b0 a2 97 fa 3d 6f e8 fc 3c 04 af 11 3e c1 8f 46 bd
       0.12235953 0.030872552 0.1422692 -0.04847694
0001c0 8d df 1c 3e 4f 79 dc 3b 59 9f 0a be ee ca 29 be
       0.15319653 0.0067283283 -0.13537349 -0.16581318
0001d0 06 83 db 3c 52 52 8d 3d 86 58 21 bd 96 2a 08 be
       0.026795875 0.06900467 -0.039391063 -0.13297495
0001e0 4a d2 02 bc f3 c5 d1 bd 2d 0c d8 bd 06 dc 2c 3e
       -0.007984707 -0.10242834 -0.10549197 0.16880807
0001f0 05 5f bc bd 44 bb 54 3d 9a ce b5 bd 31 8e b8 3c
       -0.09197811 0.051936403 -0.08877297 0.02252874
000200 73 bf 5e bd 7d 22 db 3c 21 f4 24 bd 89 c6 31 3c
       -0.0543818 0.026749844 -0.040271882 0.010850557
000210 b7 24 20 be 01 c0 f2 3d 97 0d 2a 3d 0c 97 f5 3c
       -0.15639006 0.11853028 0.041516867 0.029979251
000220 97 e9 91 bc e6 9c b4 3d 05 6a ef bd 9d 85 7b 3c
       -0.01781158 0.088189885 -0.116901435 0.01535168
000230 a4 22 ae 3d 6c 06 a4 3d 35 64 30 bd 5e c8 36 be
       0.08502701 0.080090374 -0.043064315 -0.17849872
000240 88 ff 0c bd 6b 77 f7 3d cf b6 2b 3b 3b 69 7c 3d
       -0.03442338 0.12083324 0.0026201492 0.061623793
000250 69 99 eb 3d dc b3 65 3c 80 56 19 be 75 60 a4 bc
       0.1150387 0.014019933 -0.14974403 -0.020065526
000260 b9 06 be 3d 7d 82 50 3d 91 88 4f 3e 39 85 d1 3d
       0.09278626 0.050905693 0.2026694 0.10230488
000270 91 01 63 3e 7f 46 b7 bd cd 52 15 be 21 e5 fd 3d
       0.22168566 -0.08948993 -0.14582367 0.123972185
000280 97 b6 60 39 8f 00 85 3d dc a4 c6 3d f4 41 03 be
       0.00021430325 0.06494247 0.09699413 -0.12818128
000290 c0 bb 78 3d 7d d8 2d 3e f6 23 bb bd 2f ee 32 bd
       0.060725927 0.16977115 -0.091377184 -0.04368418
0002a0 77 e3 36 3e 71 59 4a 3d 05 0f 8b 3d d8 c2 ff bc
       0.17860208 0.049401704 0.06789974 -0.031220838
0002b0 a1 d1 0f 3d 23 b2 32 bd 76 b2 25 3e c4 94 25 bd
       0.035112027 -0.043626916 0.16181359 -0.040425077
0002c0 dd 5c d1 3d 1f 70 52 3c 95 67 16 be 53 49 ea bd
       0.102227904 0.012844115 -0.14687951 -0.11439767
0002d0 58 b9 46 3e d8 79 52 3d 8e 30 e6 bd 41 00 46 3d
       0.1940664 0.05138573 -0.1123973 0.048340086
0002e0 cd 01 eb bd 9f 26 ea bd 54 75 87 3d 87 a3 ae 3d
       -0.11474953 -0.11433148 0.066141754 0.08527284
0002f0 94 b9 66 3d cc f1 ea 3d 35 73 ba bd 32 00 21 3e
       0.056329325 0.114719 -0.09104005 0.15722731
000300 2d 11 59 3d d2 cb 79 3d c9 d3 66 3d b9 85 16 be
       0.052994896 0.060985394 0.056354318 -0.14699449
000310 1e 9f 4f 3d 12 70 fe bc 13 e6 0b bc 5a 4b 71 3d
       0.050688855 -0.031059299 -0.008538741 0.05890975
000320 73 b4 99 bb 88 38 81 3c c2 82 37 bd 08 4b 85 3d
       -0.0046907007 0.015774027 -0.044802435 0.06508452
000330 71 3b 15 3d 64 7f b5 bd 47 11 0b 3e 88 b1 4c 3e
       0.03643364 -0.088621885 0.1358081 0.19989598
000340 21 5b a9 bc 3e fe 25 3d 38 bc 0e 3d d5 bf 06 3d
       -0.020673336 0.040525667 0.03484747 0.03289779
000350 c1 a1 cc bd 45 2f b6 3d eb b8 04 3b 4c de 4b 3d
       -0.099917896 0.08895735 0.0020251821 0.049772546
000360 d0 7f 4e 3b 4e 59 32 3e d2 bc 06 bd 49 ad ea 3c
       0.0031509288 0.1741688 -0.032894917 0.028647082
000370 ab cb 92 bd e0 6a 3a 3e f0 74 9c 3d 98 a6 39 bd
       -0.07167753 0.18204832 0.076394916 -0.04532489
000380 0b 63 0b 3d 7e 22 71 bd 67 ff 1a bc e7 ae ba bc
       0.03403 -0.058870785 -0.009460307 -0.022788478
000390 7b 73 3e 3d 6c c2 20 3d 94 3c 34 3e 5c 73 15 3e
       0.04649685 0.039247915 0.17601234 0.14594787
0003a0 1a 84 d7 3d c0 50 07 be da 3a 06 3e 2b 17 cd 3d
       0.10523243 -0.13214397 0.13108388 0.100141846
0003b0 71 e1 a2 bd 22 ec 53 bb 21 0a 66 3c 82 24 d5 3c
       -0.07953156 -0.003233679 0.014040501 0.026018385
0003c0 aa 97 d4 bd ac 82 1b be 37 ec 25 3e a0 b1 24 3e
       -0.1038049 -0.15186566 0.1620339 0.16083384
0003d0 bc 6e 35 be d1 7e be 3d 78 67 b4 3d 08 7a 46 bd
       -0.17718023 0.09301532 0.088087976 -0.04845622
0003e0 de 1a 34 3c d8 6f fe 3d b0 9b eb bc 82 8c 0c be
       0.010992734 0.12423676 -0.028760761 -0.13725474
0003f0 d1 4f 1e 3e e3 2d f5 bd e4 4a 59 3c 52 45 16 be
       0.15460135 -0.11971643 0.013262484 -0.14674881

tree_conv.9.bias f4 [32]
000000 66 9a 3a 3c 4e d8 e5 3b f2 e2 03 bd 68 bd ac 3d
       0.0113893505 0.007014311 -0.032198854 0.08434564
000010 45 26 92 bd 06 af 34 3d e0 b5 3c 3d 63 c2 08 3e
       -0.071362056 0.044112228 0.046071887 0.13355403
000020 a4 23 0b be fa 42 9f 3d 83 d7 8b 3e 90 8a 82 bc
       -0.13587815 0.07776447 0.2731286 -0.015935212
000030 10 24 2a bd 93 c6 b0 3c 41 76 b2 3d 1b b0 f9 3d
       -0.041538298 0.021579063 0.087139614 0.121917926
000040 27 7a ee 3d 65 9f d7 3d f8 25 4d 3d b8 f9 a2 3d
       0.116443925 0.10528449 0.050085038 0.07957786
000050 87 37 3f bd 2c 39 65 3d c3 ed 7a 3d 4e 30 a8 3e
       -0.046683814 0.055962726 0.061261903 0.32849354
000060 d1 b6 ce 3d b1 b6 c2 3d 20 ab 6b bd cb 1b e1 bd
       0.10093463 0.09507502 -0.057536244 -0.10991629
000070 92 d9 34 3d 36 a5 07 3e e8 ff 72 bc 0d 03 b2 3d
       0.044152804 0.13246617 -0.014831521 0.08691988

tree_conv.11.weight f4 [1, 32]
000000 8c c7 8c bd a7 ab d6 3e ba 0a 74 3e 40 ed cc be
       -0.06873998 0.41927835 0.23832217 -0.40024757
000010 35 46 01 3f 67 2b be be 19 7d f4 3e fe 3d 0c 3e
       0.5049775 -0.37142488 0.47751692 0.13695523
000020 11 c0 4d 3c 88 d2 74 3e 8c cf 3f 3e e2 80 be 3e
       0.012557999 0.23908436 0.18731517 0.37207705
000030 48 99 ae be b2 d8 73 be 17 64 72 be c9 30 39 be
       -0.3410132 -0.23813131 -0.23670994 -0.18085016
000040 98 95 30 3e da 8e af 3e ca 38 bc 3e 47 32 ac 3e
       0.17244565 0.34288675 0.36762077 0.3363211
000050 ab 8f 18 3e 41 d9 9a be b9 37 48 bd b2 24 a0 be
       0.14898555 -0.30243877 -0.048881266 -0.31277996
000060 53 46 76 3d db fd 83 3e 2e ea 3d 3e 5b 05 5d 3e
       0.06012566 0.25779614 0.18546364 0.21584074
000070 e8 3b 62 3e 92 8a b0 be 27 06 91 3e 7f cc 4c be
       0.22093165 -0.3448072 0.28325006 -0.19999884
