models/lero_on_tpch_10_TPCH_Lero.pth (torch, 583368 bytes, 9 tensors)

tree_conv.0.weights.weight f4 [256, 25, 3]
0.056444436 0.05501737 -0.07400589 0.08404404 -0.06788719 -0.045447383 0.016057566 -0.0048895297
0.054180656 -0.03708327 0.010790973 -0.07719541 -0.08406664 0.093329884 -0.059952583 0.020879114
0.07638465 -0.008996651 0.021850862 -0.060235746 0.040507656 -0.03536498 -0.04533714 0.06964155
-0.026263822 0.0453205 -0.018337615 -0.036223903 -0.06267501 -0.053703997 -0.06538926 -0.0025346186
0.06500247 -0.06568948 0.041395497 -0.064450935 -0.09985163 0.10983583 -0.0747256 -0.037369654
-0.11085029 -0.1013168 0.09111679 0.024357352 -0.061499383 0.084553316 0.06977463 -0.07836316
0.0034574235 0.025554188 0.03233121 0.0831688 -0.04267836 0.059827983 0.054586306 -0.09519192
0.0041382536 0.012711186 0.08634764 0.04397533 0.07625826 -0.004119284 0.10641505 0.030847106
-0.05375289 -0.026636055 0.092767894 0.033742845 0.018469427 0.0857831 0.007840238 -0.032095555
0.080844484 0.094833516 0.074567094 -0.09559101 -0.02042927 0.048428465 0.013262389 0.08836033
-0.10699509 -0.095167555 -0.087645784 -0.026108522 0.02694015 -0.07853775 0.07838462 -0.11189604
0.09175346 -0.107520595 0.07848279 -0.07795266 -0.06925934 -0.0016266498 0.037679132 0.006390229
-0.033404738 -0.08510831 -0.06937046 -0.045333706 0.07098347 -0.08923084 -0.0522117 -0.06294586
-0.017723296 0.020518752 -0.052120287 -0.09118074 0.021866363 0.05840791 0.111045256 0.059285186
0.07420092 -0.062769 -0.10620837 -0.10319042 0.023757095 -0.033144537 -0.009660292 0.09040775
0.011662868 0.034460366 0.037356224 0.019796709 0.06317229 -0.020019786 -0.0707014 -0.10056523
-0.06704019 -0.023860835 -0.022421585 -0.061938044 0.07339639 -0.10911333 0.027362287 -0.05687383
-0.012220881 0.09823886 0.07857701 -0.02682292 0.010789937 -0.04708345 -0.007989708 -0.09509388
-0.0076135155 0.11240137 -0.06587353 0.043063436 0.10754867 -0.100901276 0.010584274 0.07112465
0.028174972 0.05962259 0.09773056 -0.029494608 -0.06302557 0.09525261 -0.09321982 -0.060482856
0.07509294 -0.027782658 0.04677365 0.038434017 -0.044516027 0.07606274 0.07074449 -0.01365249
-0.027971886 0.028459186 -0.03916238 -0.0019390289 0.062455647 -0.030386643 0.09700135 0.082125545
-0.048124667 -0.07544471 -0.048472337 0.091761656 0.0042981952 -0.09811793 0.11463737 -0.038495854
-0.04917347 -0.09942258 0.07177304 -0.008610079 -0.022694236 0.057031218 -0.009625413 -0.04831573
0.014417425 -0.062125873 -0.031582832 0.07995661 0.05596297 0.123187 0.099745706 0.06970185
0.04056976 -0.011721229 0.06308569 0.065166235 -0.1020098 -0.06603201 0.032315247 0.03566403
-0.09401293 -0.026788685 -0.011748815 0.05607273 -0.03969653 0.08455868 0.08877404 -0.12578624
-0.07053527 0.037543137 -0.0038954415 -0.0747514 -0.0014436534 -0.048063695 0.0071355454 -0.08452184
0.016069584 0.08380345 0.03950831 -0.03548073 0.07756922 0.0880471 0.082698666 -0.11269226
0.11080053 0.06682699 -0.007923179 0.089904666 -0.0545161 -0.059155155 0.07819283 -0.016892135
-0.033032876 -0.082474396 -0.049064375 -0.042703576 -0.058070123 -0.05145847 0.0042690244 0.09479428
0.07513512 0.039919265 0.062187325 0.04417035 0.15058835 -0.056795225 0.095046416 0.13071616
00000000: 4832 673d e559 613d 6690 97bd 481f ac3d
00000010: 7008 8bbd 0927 3abd 288b 833c 5938 a0bb
00000020: 89ec 5d3d a0e4 17bd 9fcc 303c a118 9ebd
00000030: 212b acbd bd23 bf3d d790 75bd ad0a ab3c
00000040: 8e6f 9c3d b066 13bc 9400 b33c c2b9 76bd
00000050: 5beb 253d dfda 10bd 70b3 39bd 3ba0 8e3d
00000060: 3a27 d7bc fda1 393d c438 96bc 845f 14bd
00000070: c15b 80bd b9f8 5bbd ceea 85bd d81b 26bb
00000080: 0420 853d 3588 86bd 538e 293d dafe 83bd
00000090: 037f ccbd 9cf1 e03d bc09 99bd ec10 19bd
000000a0: 7a05 e3bd 2f7f cfbd 719b ba3d 1289 c73c
000000b0: c7e6 7bbd 4a2a ad3d 00e6 8e3d dd7c a0bd
000000c0: f195 623b 0457 d13c bb6d 043d 6754 aa3d
000000d0: 81cf 2ebd 300e 753d e495 5f3d fbf3 c2bd
000000e0: 309a 873b 9442 503c 08d7 b03d 7a1f 343d
000000f0: 4a2d 9c3d 0ffb 86bb 22f0 d93d 12b3 fc3c
00000100: fe2b 5cbd db33 dabc 18fd bd3d f035 0a3d
00000110: 324d 973c 0daf af3d 5774 003c a176 03bd
00000120: cb91 a53d 1338 c23d a2b6 983d 38c5 c3bd
00000130: 495b a7bc ed5c 463d 7e4a 593c 43f6 b43d
00000140: 3e20 dbbd 35e7 c2bd a27f b3bd 8ae1 d5bc
00000150: 97b1 dc3c 66d8 a0bd 1e88 a03d c029 e5bd
00000160: 3de9 bb3d c233 dcbd 96bb a03d a5a5 9fbd
00000170: d7d7 8dbd 4f35 d5ba 6f55 1a3d 2065 d13b
00000180: 68d3 08bd 444d aebd 1a12 8ebd d6af 39bd
00000190: c85f 913d a9be b6bd efdb 55bd c2e9 80bd
000001a0: 7230 91bc f116 a83c 157c 55bd f8bc babd
000001b0: 1621 b33c 223d 6f3d b26b e33d 06d5 723d
000001c0: a7f6 973d 098d 80bd c683 d9bd 8055 d3bd
000001d0: 3d9e c23c 91c2 07bd 3446 1ebc b327 b93d
000001e0: 9d15 3f3c 5026 0d3d d702 193d b52c a23c
000001f0: 7960 813d 8900 a4bc e5cb 90bd 25f5 cdbd
00000200: 5e4c 89bd cc77 c3bc 79ad b7bc bfb2 7dbd
00000210: d950 963d cf76 dfbd e026 e03c 88f4 68bd
00000220: 173a 48bc 7531 c93d fcec a03d bebb dbbc
00000230: 47c8 303c 93da 40bd 44e7 02bc 95c0 c2bd
00000240: cc7a f9bb b132 e63d b4e8 86bd 4963 303d
00000250: 7a42 dc3d 54a5 cebd aa69 2d3c cda9 913d
00000260: 33cf e63c d136 743d f626 c83d ad9e f1bc
00000270: 8d13 81bd cd13 c33d 08ea bebd dfbc 77bd
00000280: 54ca 993d 7598 e3bc ba95 3f3d fd6c 1d3d
00000290: 7056 36bd c8c6 9b3d 7de2 903d b2ae 5fbc
000002a0: 4c25 e5bc 3d23 e93c bb68 20bd 0327 feba
000002b0: 7ed1 7f3d 69ed f8bc a5a8 c63d 7031 a83d
000002c0: 5f1e 45bd c282 9abd ee8a 46bd 89ed bb3d
000002d0: e0d7 8c3b 0ef2 c8bd ffc6 ea3d d4ad 1dbd
000002e0: 1f6a 49bd 119e cbbd befd 923d 4a11 0dbc
000002f0: 43e9 b9bc 9199 693d e9b3 1dbc b7e6 45bd
00000300: 1037 6c3c b377 7ebd 005d 01bd 4bc0 a33d
00000310: 6d39 653d 7749 fc3d 7a47 cc3d d8bf 8e3d
00000320: 7a2c 263d 660a 40bc 1233 813d e075 853d
00000330: 84ea d0bd ca3b 87bd fe5c 043d 7214 123d
00000340: da89 c0bd f273 dbbc 1a7e 40bc 85ac 653d
00000350: d498 22bd 1a2d ad3d 2acf b53d 1cce 00be
00000360: cc74 90bd d5c6 193d aa4a 7fbb 4317 99bd
00000370: f838 bdba 70de 44bd 4bd1 e93b c919 adbd
00000380: 5ca4 833c 25a1 ab3d 77d3 213d 3e54 11bd
00000390: 9cdc 9e3d 0a52 b43d eb5d a93d 33cb e6bd
000003a0: 63eb e23d 97dc 883d 39d0 01bc f01f b83d
000003b0: 464c 5fbd ad4c 72bd 9023 a03d 6061 8abc
000003c0: 7b4d 07bd 56e8 a8bd baf7 48bd f2e9 2ebd
000003d0: f0da 6dbd 1ec6 52bd 2ce3 8b3b 8123 c23d
000003e0: 71e0 993d 6282 233d 23b8 7e3d f8eb 343d
000003f0: d533 1a3e 1ca2 68bd b2a7 c23d 75da 053e

tree_conv.0.weights.bias f4 [256]
0.030072594 -0.07345805 -0.034257032 -0.05699156 -0.061414864 0.10758813 -0.10279436 -0.051709358
0.08560715 0.06056442 -0.032133058 0.051283468 0.015608267 -0.11223709 0.04801057 0.08092454
0.03660519 0.035951696 0.053306594 0.018951181 0.0047842115 0.06724795 -0.0712152 0.06688342
0.084032804 0.0146766035 0.07559682 -0.06784084 -0.051444244 0.0732432 -0.10906156 0.060643177
0.071163155 -0.011183445 0.00051492325 -0.0044576335 -0.0132907005 -0.080897756 -0.021569805 -0.004152765
-0.06969557 -0.048219662 -0.028403515 -0.011492558 0.03701276 0.042255037 -0.0073015117 0.044581115
-0.005183129 -0.030654555 0.07399859 -0.032064535 0.090278596 -0.034147304 0.098049805 -0.0863048
0.055872533 0.011115037 0.03222757 -0.051323686 -0.021607047 -0.048098244 -0.09750838 -0.06970212
-0.08072775 0.0512033 0.07196126 0.0051676757 0.06045838 0.07525251 0.0032448063 -0.017588366
-0.057813518 0.011238464 0.043693654 -0.0382011 -0.043337535 -0.11020978 0.063003816 0.070216335
-0.09731023 -0.065159865 -0.030561939 -0.01630623 0.0023337717 -0.026003884 -0.024696996 0.12111433
-0.06866404 0.06708076 -0.05211785 0.090538286 -0.066170886 -0.091025904 0.10079291 -0.07621829
0.10921425 -0.04835133 -0.005523607 -0.09414059 0.019939564 0.017695827 -0.067219034 0.064125724
0.090388894 0.036827978 -0.09001021 0.019718183 0.014907596 0.12135196 0.067 -0.079290055
0.019094748 0.028531725 -0.038213786 0.06080953 -0.09610609 -0.08023197 -0.062303364 -0.082626216
0.053934034 0.043669865 -0.08635617 0.066307686 0.10239503 -0.11481685 0.06760074 -0.09754822
0.117778644 0.0915459 0.022998793 0.048946153 -0.01693652 0.10764865 0.050238553 -0.024153788
-0.07878911 -0.08680344 -0.044447463 -0.06419852 0.0835822 -0.077022135 -0.102415666 0.0005645902
0.11120177 0.040792286 0.043011606 -0.015079019 -0.08503394 -0.0028522578 -0.023714727 0.033121254
0.016580036 0.021226546 0.1090954 0.045070115 0.0028132442 -0.03393943 -0.09042703 0.025491504
-0.07173708 0.087146886 0.104858086 -0.06482938 -0.051613536 0.02096298 0.09834674 -0.084522605
-0.09733485 0.050714415 0.037643157 0.069819406 -0.014657334 -0.10649447 -0.08841023 -0.0077243303
0.07995614 0.061531864 -0.089128025 0.10339325 -0.101851635 0.07407926 -0.015321261 0.012016321
-0.038173255 -0.003687434 -0.048616372 0.05393637 -0.09016943 -0.091386914 -0.041393 -0.06311284
0.09883393 0.026499186 0.096625276 0.056087393 0.06455894 -0.07410002 -0.0010545601 0.055826105
0.08354628 0.09407059 0.03000929 0.06295511 -0.061608892 -0.08811906 0.013504076 -0.027278647
0.028956398 0.0012007409 -0.120658256 -0.04856143 -0.048049428 0.10069082 0.048843313 0.06753818
-0.04785849 0.04931925 -0.0023325395 -0.0647242 -0.06027081 -0.06756615 -0.016778562 0.05455604
0.04807556 -0.10024534 -0.06357741 0.030577179 -0.03624463 -0.0922867 0.0007467423 0.07732739
0.07955182 0.023554683 0.046910893 0.11389262 0.06217439 -0.07421127 0.08532137 0.042330064
-0.093980685 -0.0028271833 0.0663102 -0.10823902 -0.07970661 0.06732552 -0.031922743 -0.024241874
-0.00060687255 0.057562638 -0.08993239 0.026625272 -0.06702892 0.039101247 -0.082184575 0.059340324
00000000: cd5a f63c 2d71 96bd 1a51 0cbd fb6f 69bd
00000010: 278e 7bbd 2a57 dc3d d985 d2bd 31cd 53bd
00000020: cd52 af3d 6612 783d f49d 03bd 9d0e 523d
00000030: d1b9 7f3c 8fdc e5bd bba6 443d c4bb a53d
00000040: 53ef 153d 1642 133d 0458 5a3d 823f 9b3c
00000050: e0c4 9c3b 4bb9 893d 46d9 91bd 2dfa 883d
00000060: 6419 ac3d 2376 703c 81d2 9a3d 23f0 8abd
00000070: 33b7 52bd 8800 963d ab5b dfbd fb64 783d
00000080: fdbd 913d c53a 37bc eafb 063a 5711 92bb
00000090: 3dc1 59bc b9ad a5bd 29b3 b0bc eb13 88bb
000000a0: 8dbc 8ebd fb81 45bd 7dae e8bc 484b 3cbc
000000b0: b19a 173d 9e13 2d3d 8541 efbb b09a 363d
000000c0: 3dd7 a9bb 431f fbbc 938c 973d 1a56 03bd
000000d0: fce3 b83d 0bde 0bbd 56ce c83d 92c0 b0bd
000000e0: 99da 643d d81b 363c 0e01 043d c938 52bd
000000f0: 4301 b1bc aa02 45bd 79b2 c7bd fcbf 8ebd
00000100: 9754 a5bd 8dba 513d 6d60 933d 9b55 a93b
00000110: 35a3 773d fd1d 9a3d d1a6 543b 7a15 90bc
00000120: decd 6cbd 8921 383c 1ef8 323d c278 1cbd
00000130: b382 31bd aab5 e1bd 2508 813d 95cd 8f3d
00000140: 964a c7bd 8972 85bd 085d fabc a594 85bc
00000150: 31f2 183b 1906 d5bc 5b51 cabc ca0a f83d
00000160: bb9f 8cbd a361 893d 8779 55bd 236c b93d
00000170: 9a84 87bd ca6b babd 836c ce3d 5618 9cbd
00000180: b9ab df3d 0b0c 46bd 60ff b4bb c8cc c0bd
00000190: 4c58 a33c d7f6 903c 22aa 89bd 5954 833d
000001a0: d01d b93d efd8 163d 4657 b8bd 0788 a13c
000001b0: fd3e 743c 6087 f83d 4c37 893d d362 a2bd
000001c0: 976c 9c3c 5dbb e93c 0f86 1cbd 6a13 793d
000001d0: 45d3 c4bd a950 a4bd d031 7fbd ef37 a9bd
000001e0: efe9 5c3d 2cdf 323d 81db b0bd 53cc 873d
000001f0: 7cb4 d13d 1925 ebbd 4272 8a3d 5cc7 c7bd
00000200: ee35 f13d 6b7c bb3d f767 bc3c c37b 483d
00000210: 75be 8abc e576 dc3d f1c6 4d3d 2ade c5bc
00000220: 2f5c a1bd 00c6 b1bd 8b0e 36bd 837a 83bd
00000230: 252d ab3d c8bd 9dbd 4ebf d1bd 0201 143a
00000240: c1bd e33d d015 273d f02c 303d fd0d 77bc
00000250: 4626 aebd f2ec 3abb 6345 c2bc 27aa 073d
00000260: dbd2 873c 4be3 ad3c 696d df3d 719b 383d
00000270: 685e 383b 1204 0bbd cf31 b9bd 8fd3 d03c
00000280: e4ea 92bd 117a b23d d6bf d63d 44c5 84bd
00000290: b768 53bd 8eba ab3c 046a c93d 301a adbd
000002a0: 7e57 c7bd ebb9 4f3d b62f 1a3d 7afd 8e3d
000002b0: 5125 70bc c619 dabd 6c10 b5bd 611c fdbb
000002c0: 0bc0 a33d d608 7c3d c188 b6bd d7bf d33d
000002d0: 9797 d0bd deb6 973d 0706 7bbc 1ae0 443c
000002e0: 8f5b 1cbd e0a8 71bb f621 47bd 62ec 5c3d
000002f0: c0aa b8bd 1029 bbbd b58b 29bd 4e41 81bd
00000300: 7269 ca3d d214 d93c 79e3 c53d e5bb 653d
00000310: 7a37 843d c0c1 97bd 2a39 8aba eaa9 643d
00000320: 501a ab3d 15a8 c03d 0bd6 f53c 9cee 803d
00000330: 9b59 7cbd c477 b4bd 3340 5d3c 7877 dfbc
00000340: f835 ed3c 2e62 9d3a ad1b f7bd 5ae8 46bd
00000350: 7acf 44bd fd36 ce3d ed0f 483d 7551 8a3d
00000360: 4407 44bd fb02 4a3d 85dd 18bb 1f8e 84bd
00000370: 86de 76bd 1f60 8abd 3273 89bc 2776 5f3d
00000380: e1ea 443d 6e4d cdbd e034 82bd fe7c fa3c
00000390: 4075 14bd cf00 bdbd 07c1 433a d35d 9e3d
000003a0: 11ec a23d c0f5 c03c a325 403d 8940 e93d
000003b0: 93aa 7e3d 14fc 97bd f8bc ae3d 4a62 2d3d
000003c0: f278 c0bd 4448 39bb a4cd 873d 6bac ddbd
000003d0: 383d a3bd f6e1 893d 6cc1 02bd e596 c6bc
000003e0: 8716 1fba cdc6 6b3d 792e b8bd 3e1d da3c
000003f0: 7546 89bd a128 203d 6350 a8bd d70e 733d

tree_conv.3.weights.weight f4 [128, 256, 3]
-0.014400965 -0.020700468 0.011180579 -0.023561668 0.020629864 0.0201106 -0.018478742 -0.021392971
0.00229236 -0.0048729335 0.027300654 -0.013917506 -0.02377631 0.0011220181 -0.027658632 -0.012710935
-0.032615792 0.0058567845 -0.015410182 0.0049050804 0.0032607103 -0.017551083 -0.0017217353 -0.027983403
-0.03647264 -0.026299803 -0.0045517115 0.02033879 -0.016627274 -0.017502537 -0.020620337 0.007491918
-0.0036374235 0.011226841 -0.03046566 -0.018517591 0.028135275 -0.02719892 0.0024700472 -0.033304773
0.031524938 0.0042518196 -0.0011285013 -0.002879576 0.018610073 -0.017781757 7.1518225e-05 -0.022763554
-0.022610316 -0.025205737 0.033366933 0.008231418 0.008166965 -0.023284173 0.026753094 -0.0068121995
0.030813923 0.025168747 -0.018639276 -0.012256495 0.007035992 -0.02105046 0.0048102946 -0.018555509
0.0007845452 -0.020933202 0.016384818 0.011793754 -0.011624073 -0.034681357 -0.0077118096 -0.003780571
-0.026159141 -0.011157005 -0.033168033 0.027240682 0.028887814 0.010300297 -0.033037495 -0.01798686
-0.025305204 -0.03230107 0.024925107 0.012284859 0.009524908 -0.01975021 -0.017388888 0.035469167
0.03955209 0.03569076 0.0118100345 -0.026599435 0.025996063 0.014450795 0.037919458 0.0008178494
-0.019739104 0.0027360069 -0.031350084 0.021179672 0.013999753 0.030213462 -0.0073625995 0.01312141
0.034344994 0.02686772 0.019818274 0.010499307 0.026721358 -0.023879908 -0.016506936 -0.021634405
-0.018086692 -0.01592661 0.024611847 -0.0012280602 -0.026435148 0.03500659 -0.008690301 -0.031864893
-0.031426247 0.0014583968 0.009747126 -0.03280981 0.031347033 -0.0295278 0.030598672 -0.025827656
0.017480176 -0.0136421025 0.036395133 0.017865244 -0.021819463 -0.024597976 0.0027679203 -0.022073817
-0.020325324 -0.0035445993 -0.007810015 0.011653445 0.0055166017 0.024712251 0.020885795 -0.025648532
0.030706879 -0.00888187 0.020819886 0.012041459 -0.033047106 0.018615063 0.006328543 -0.024383467
0.017389935 -0.00708227 -0.020681353 -0.018782645 -0.019520978 -0.024646895 0.017432872 -0.03401952
-0.015448556 -0.007861665 -0.009747547 -7.598381e-05 -0.019965319 0.024901867 0.027737202 -0.005119176
0.008680294 -0.011581784 -0.029905375 0.021079235 0.0048580132 0.01491585 -0.0073859175 0.019952107
0.02161072 -0.010795031 0.036370415 -0.00380083 0.016911807 -0.009902368 -0.010872881 -0.011843294
0.029157763 -0.025772521 0.011279148 -0.012456784 -0.028293433 0.019784492 0.0052850964 0.0028219968
0.034494158 0.015667938 -0.020654552 -0.017985908 0.007369054 0.012274335 0.031333547 0.014799571
-0.006266068 0.0051158424 -0.0021606935 -0.009479546 -0.024173599 -0.010589287 -0.005568816 0.001983417
-0.024763616 -0.022998225 -0.016884344 -0.012727944 -0.01469636 -0.004709565 -0.03149248 0.0031095343
0.028006222 0.013783421 0.0047243233 0.0007573194 -0.010425556 -0.010695298 0.016113264 -0.0010012421
-0.0046290457 0.03317736 0.006107755 -0.02192298 0.010420484 0.00962612 0.021280251 -0.023890354
-0.010783563 -7.872171e-05 -0.013044295 0.0109592425 0.0025048654 0.0028686344 0.028368853 -0.019655796
-0.008713682 0.022005633 0.001120494 0.009017283 -0.025443844 -0.0279806 0.022489036 0.025644504
-0.00083880895 -0.030761473 0.0010101476 0.009697686 0.00070983416 0.034025606 0.006018398 0.00664386
00000000: 06f2 6bbc 0794 a9bc bf2e 373c 6604 c1bc
00000010: f6ff a83c fcbe a43c bb60 97bc 5040 afbc
00000020: 6b3b 163b 21ad 9fbb 9fa5 df3c 4006 64bc
00000030: 89c6 c2bc ae10 933a 5b94 e2bc 8741 50bc
00000040: 2398 05bd 45ea bf3b fd7a 7cbc ccba a03b
00000050: a4b1 553b 4ac7 8fbc daab e1ba 733d e5bc
00000060: 5664 15bd af72 d7bc 8626 95bb 899d a63c
00000070: ec35 88bc 7b61 8fbc fbeb a8bc c37e f53b
00000080: d761 6ebb c9f0 373c 1f93 f9bc 34b2 97bc
00000090: f37b e63c 45d0 debc 84e0 213b 966a 08bd
000000a0: 4b20 013d d952 8b3b 38ea 93ba 45b7 3cbb
000000b0: 2774 983c 0cab 91bc 0efc 9538 a27a babc
000000c0: 4539 b9bc 437c cebc c4ab 083d 12dd 063c
000000d0: bcce 053c 73be bebc 4e29 db3c df38 dfbb
000000e0: 7b6d fc3c b02e ce3c 65b1 98bc 77cf 48bc
000000f0: 2e8e e63b 0472 acbc ad9f 9d3b b901 98bc
00000100: f0a9 4d3a 1b7c abbc 7439 863c 973a 413c
00000110: e572 3ebc 0a0e 0ebd 59b3 fcbb 75c3 77bb
00000120: b24b d6bc dfcb 36bc 34db 07bd da27 df3c
00000130: 23a6 ec3c 94c2 283c 5352 07bd 2e59 93bc
00000140: dc4c cfbc 204e 04bd bd2f cc3c 6f46 493c
00000150: 5c0e 1c3c 31cb a1bc 2473 8ebc 1e48 113d
00000160: 5f01 223d 7930 123d e07e 413c 0fe7 d9bc
00000170: b2f5 d43c 07c3 6c3c 6f51 1b3d f264 563a
00000180: e7b3 a1bc 944e 333b f268 00bd fe80 ad3c
00000190: 385f 653c 3982 f73c f641 f1bb 2ffb 563c
000001a0: 56ad 0c3d b119 dc3c ef59 a23c 4905 2c3c
000001b0: c0e6 da3c cc9f c3bc 8e39 87bc a33a b1bc
000001c0: 8b2a 94bc 8678 82bc c99e c93c ddf6 a0ba
000001d0: 868e d8bc 1263 0f3d c461 0ebc c384 02bd
000001e0: cfb8 00bd ad27 bf3a 69b2 1f3c 9463 06bd
000001f0: bf65 003d 49e4 f1bc 11aa fa3c 8594 d3bc
00000200: 9632 8f3c 2083 5fbc 1013 153d 225a 923c
00000210: bbbe b2bc b281 c9bc ff65 353b 26d4 b4bc
00000220: 4b81 a6bc 824c 68bb 28eb ffbb 17ee 3e3c
00000230: 9cc4 b43b 5971 ca3c b018 ab3c df1c d2bc
00000240: fe8c fb3c 4385 11bc 778e aa3c 8a49 453c
00000250: 675c 07bd 9e7e 983c ab5f cf3b d6bf c7bc
00000260: 5675 8e3c 6312 e8bb f16b a9bc 10de 99bc
00000270: 75ea 9fbc 49e8 c9bc 62cf 8e3c 0d58 0bbd
00000280: f11b 7dbc 37ce 00bc 2db4 1fbc 7f59 9fb8
00000290: 4f8e a3bc 00ff cb3c 2139 e33c c3be a7bb
000002a0: cb37 0e3c 86c1 3dbc 1efc f4bc 5cae ac3c
000002b0: f82f 9f3b 9c61 743c 9105 f2bb 9a72 a33c
000002c0: f708 b13c a4dd 30bc 25f9 143d 5917 79bb
000002d0: a18a 8a3c 8b3d 22bc 2b24 32bc 600a 42bc
000002e0: 43dc ee3c e520 d3bc 2dcc 383c 8a17 4cbc
000002f0: a1c7 e7bc 1613 a23c 9a2e ad3b 40f1 383b
00000300: bf49 0d3d 0c5a 803c bc33 a9bc 2f57 93bc
00000310: 1b78 f13b 4b1a 493c 9b57 003d e679 723c
00000320: 9753 cdbb cca2 a73b 6c9a 0dbb 1950 1bbc
00000330: b607 c6bc b07e 2dbc 9d7a b6bb 37fc 013b
00000340: 11dd cabc c666 bcbc 0951 8abc de88 50bc
00000350: 00c9 70bc b252 9abb 42fe 00bd 54c9 4b3b
00000360: 4e6d e53c dcd3 613c 7fce 9a3b d886 463a
00000370: f4cf 2abc 553b 2fbc f7ff 833c 1c3c 83ba
00000380: 40af 97bb fce4 073d 9023 c83b d297 b3bc
00000390: adba 2a3c e0b6 1d3c ec53 ae3c b4b5 c3bc
000003a0: 8bad 30bc 6517 a5b8 bdb7 55bc 658e 333c
000003b0: ab28 243b b3ff 3b3b cc65 e83c 3105 a1bc
000003c0: d5c3 0ebc 2845 b43c 8add 923a 3abd 133c
000003d0: 9c6f d0bc 9237 e5bc ed3a b83c 6c14 d23c
000003e0: 84e3 5bba 7cff fbbc ee66 843a 0be3 1e3c
000003f0: 2a14 3a3a 6f5e 0b3d fb35 c53b bdb4 d93b

tree_conv.3.weights.bias f4 [128]
-0.0051525603 0.02727121 -0.008155229 0.022062836 0.01766127 -0.018074146 -0.02066588 0.020457573
-0.0125865545 0.036350347 0.0062724208 -0.029477822 0.01867491 -0.008216649 0.038051434 -0.0044334596
0.02311126 -0.0075679636 -0.013159381 -0.0038592974 0.010942288 0.028289642 -0.011054647 0.026886683
-0.020446664 -0.008080948 0.007413794 0.030611055 -0.0018080736 0.0022942997 -0.025091818 0.03307675
0.035185024 0.030289935 -0.015544284 0.013339399 0.032290757 0.009319168 0.011207475 -0.034117784
-0.0010414163 0.032159846 -0.013125479 -0.020149795 0.019024456 -0.0286368 -0.031075533 -0.018001666
-0.035877258 0.0014545288 -0.022964284 -0.03425224 0.029806461 0.015450453 -0.017672617 -0.012063815
0.009032693 0.013861139 -0.032076832 0.029526068 0.024066137 -0.016975045 0.0067781676 -0.0035195914
-0.005371381 -0.015849235 0.024866115 0.022036081 -0.024150275 -0.00988259 -0.032097295 -0.0299149
0.015536066 0.017172424 -0.0096852435 -0.0035518042 -0.027903672 -0.02029623 -0.0051332163 -0.0027001754
0.001114286 0.014332308 0.011841744 -0.009313149 0.014560279 -0.008559071 -0.011758697 0.020834351
0.04181902 -0.030230634 0.026761578 0.01172909 0.010324003 -0.010916928 -0.023825344 0.029390443
0.015027946 0.013121495 0.032483786 -0.0018637152 -0.022889785 0.003163651 -0.019797577 0.033666905
0.0040430757 -0.0037597176 0.029407345 0.004067276 -0.030160392 -0.029839808 -0.0030151214 0.012271253
-0.043353934 0.020751497 0.034254983 -0.014657263 -0.0062108072 0.016378025 0.007537892 0.017193357
0.0153714 -0.016685091 0.0045288918 -0.013629697 0.027735753 0.029353948 -0.004408467 -0.032907803
00000000: cfd6 a8bb df67 df3c 829d 05bc 1fbd b43c
00000010: 5eae 903c 3b10 94bc 7e4b a9bc a496 a73c
00000020: d637 4ebc 1ae4 143d e188 cd3b 797b f1bc
00000030: 20fc 983c 209f 06bc d2db 1b3d 8e46 91bb
00000040: d353 bd3c aefc f7bb 729a 57bc 44ec 7cbb
00000050: 4847 333c aebf e73c 8d1e 35bc 7641 dc3c
00000060: c37f a7bc f465 04bc 69ef f23b 09c4 fa3c
00000070: e2fc ecba f65b 163b 5b8d cdbc 7c7b 073d
00000080: 2c1e 103d 9922 f83c 74ad 7ebc 7f8d 5a3c
00000090: 5043 043d 6caf 183c 8f9f 373c 17bf 0bbd
000000a0: 2280 88ba 0bba 033d 400c 57bc 2f11 a5bc
000000b0: 2dd9 9b3c b997 eabc 1e92 febc 3b78 93bc
000000c0: 08f4 12bd e3a5 be3a 981f bcbc 144c 0cbd
000000d0: ae2c f43c e623 7d3c 2ac6 90bc 4fa7 45bc
000000e0: dcfd 133c d519 633c ff62 03bd a7e0 f13c
000000f0: 5926 c53c 400f 8bbc 641b de3b f2a8 66bb
00000100: 6902 b0bb 41d6 81bc 06b4 cb3c 0385 b43c
00000110: ccd6 c5bc 96ea 21bc 7478 03bd 1810 f5bc
00000120: fc8a 7e3c 2fad 8c3c dbae 1ebc 63c5 68bb
00000130: 3e96 e4bc 4844 a6bc 8a34 a8bb 6df5 30bb
00000140: 3c0d 923a 0fd2 6a3c e003 423c 2e96 18bc
00000150: 3d8e 6e3c 593b 0cbc 8da7 40bc cdac aa3c
00000160: 6c4a 2b3d 3ca6 f7bc 193b db3c 5e2b 403c
00000170: 0226 293c eadc 32bc 5e2d c3bc 3ac4 f03c
00000180: c637 763c 8afb 563c b80d 053d e847 f4ba
00000190: 5c83 bbbc 4255 4f3b 872e a2bc 4fe6 093d
000001a0: c77b 843b 9865 76bb ace7 f03c c946 853b
000001b0: ed12 f7bc 9d72 f4bc 5899 45bb 5e0d 493c
000001c0: e593 31bd 0bff a93c f44e 0c3d 0425 70bc
000001d0: 0784 cbbb 352b 863c 6c00 f73b 15d9 8c3c
000001e0: 53d8 7b3c 2caf 88bc 1967 943b 184f 5fbc
000001f0: 1736 e33c b177 f03c e774 90bb 55ca 06bd

tree_conv.6.weights.weight f4 [64, 128, 3]
0.007265806 0.035597913 0.041568603 0.017484332 -0.0006985781 0.011913545 0.01468986 0.019631863
-0.029182889 0.00085163757 -0.048616625 -0.030830607 -0.032974467 -0.028334634 -0.014658333 0.04577262
-0.03553142 -0.01098322 0.03963326 -0.0068686996 0.0044967257 0.03600923 0.014967845 0.050198823
-0.019513534 0.022259513 0.035890438 0.046220634 -0.0004566273 -0.019541837 0.0307273 -0.00745084
0.008488094 -0.04769087 0.04411583 0.016810372 -0.023829978 -0.012156766 -0.03902738 0.049449034
-0.015640633 0.050586417 0.021565659 0.053338442 0.011584497 -0.0009191121 -0.049460705 -0.022555508
-0.033649582 -0.008122521 -0.020692604 -0.040192194 0.019126557 0.006111771 -0.011111802 0.016499586
-0.014363298 0.021539642 -0.0135690095 0.024587052 0.023340678 -0.030084888 0.024248222 -0.027685791
-0.022115713 0.015711425 0.037489343 -0.051970202 0.026794614 -0.035584364 -0.007188149 0.03924811
-0.04774897 0.05062219 0.033149596 -0.017103495 -0.04694317 -0.019316228 0.0055166474 0.00868995
0.00454772 -0.02429598 -0.012677129 0.04287601 0.016011067 -0.008862479 0.053941112 0.038691577
0.03222268 0.0057803397 -0.044034217 0.041338958 -0.025765168 0.0170042 -0.03196061 -0.0030944168
-0.0071909023 0.029749472 0.022283139 -0.030113613 0.028572105 -0.007704355 -0.045975495 0.0071850778
-0.028523214 -0.040704004 -0.0067576086 -0.028323313 -0.008129915 0.0104259355 -0.026016848 0.004726827
0.014323258 -0.019526027 0.023182927 0.012356619 -0.009916679 0.0244922 0.010066621 -0.0052943155
-0.030387465 -0.028664697 0.025493355 -0.009257094 0.017595831 0.030220482 0.015862782 -0.032102272
-0.041979183 0.03165192 0.054916117 -0.019229572 0.0040717763 -0.0027766903 -0.0035505157 0.003366048
0.028527407 0.0048469566 -0.038087413 0.025661245 -0.022443248 -0.018266598 -0.013994137 0.03676807
-0.025361255 -0.028348949 0.028162308 0.029239431 0.051743213 0.026560295 -0.011993331 0.0022137256
-0.02214749 0.034928247 -0.02628943 -0.011394823 0.015561439 0.017827537 -0.005936065 0.01849377
-0.001903767 -0.012864664 0.038449846 0.02687754 0.030897234 0.028928524 0.043346655 -0.030241765
0.02018594 0.027602594 0.03819368 -0.0067459824 -0.027909648 0.043666534 -0.015083668 -0.045324408
0.008456439 -0.041789286 0.015461357 -0.021977417 0.03764679 0.041712485 0.002951436 -0.0037969854
0.017593464 -0.0010477118 0.043185856 0.023767961 -0.0009774041 -0.012328215 0.060016055 0.0027335894
0.02551161 -0.0070310095 -0.003801902 0.04540754 -0.03621221 -0.036053225 -0.0044214907 -0.021893304
-0.015094125 -0.040778857 -0.016447341 -0.021289708 0.050383415 -0.011789227 -0.033926968 -0.010122374
-0.049009774 0.004158001 -0.021412993 0.043792754 0.011090372 0.006758589 0.009794862 -0.04456431
-0.040180147 -0.044269387 -0.026419045 0.006141348 0.044606548 0.038627155 -0.053538453 0.039334085
0.044433456 -0.0037109177 0.002340364 -0.013283382 -0.02069311 -0.046739217 -0.02556044 0.012816871
-0.009330646 0.02359573 -0.0409892 0.007550729 -0.045587674 -0.028504204 0.043464147 -0.016110983
0.014679573 0.017769517 -0.017210243 0.009758882 0.041748285 -0.029100873 -0.030658979 0.02191483
0.029999482 0.02219281 0.053385064 -0.0187771 -0.007941253 -0.038135543 0.011651636 0.056185786
00000000: 0016 ee3b 1ecf 113d d743 2a3d 4d3b 8f3c
00000010: c820 37ba 0831 433c bdad 703c 00d3 a03c
00000020: f410 efbc 6e40 5f3a 3a22 47bd 7890 fcbc
00000030: 3c10 07bd 091e e8bc 8129 70bc 127c 3b3d
00000040: 6589 11bd f7f2 33bc 7c56 223d d412 e1bb
00000050: 4559 933b 6a7e 133d b13b 753c 489d 4d3d
00000060: d9da 9fbc 9559 b63c da01 133d d951 3d3d
00000070: 7b67 efb9 3416 a0bc d2b7 fb3c 2d26 f4bb
00000080: a611 0b3c 8057 43bd cdb2 343d e8b5 893c
00000090: 1637 c3bc 2c2d 47bc 2ddb 1fbd 128b 4a3d
000000a0: c920 80bc b433 4f3d 77aa b03c 6979 5a3d
000000b0: e7cc 3d3c 92f0 70ba 4f97 4abd 54c6 b8bc
000000c0: 25d4 09bd 5314 05bc 8983 a9bc 92a0 24bd
000000d0: 4caf 9c3c 4045 c83b 470e 36bc 242a 873c
000000e0: 0a54 6bbc e773 b03c 8d50 5ebc c96a c93c
000000f0: f334 bf3c 9574 f6bc 35a4 c63c 50cd e2bc
00000100: 032c b5bc 3fb5 803c 6d8e 193d b5de 54bd
00000110: 6180 db3c e9c0 11bd 908a ebbb a0c2 203d
00000120: 6d94 43bd 3759 4f3d dfc7 073d a11c 8cbc
00000130: 7b47 40bd 113d 9ebc fec4 b43b 4b60 0e3c
00000140: 0a05 953b 5d08 c7bc bcb3 4fbc c19e 2f3d
00000150: a429 833c ee33 11bc 5bf1 5c3d 0f7b 1e3d
00000160: eefb 033d 0169 bd3b 395d 34bd 0a53 293d
00000170: 7911 d3bc 644c 8b3c 21e9 02bd b3cb 4abb
00000180: a9a1 ebbb 2ab5 f33c 218b b63c d3b0 f6bc
00000190: 0c10 ea3c d074 fcbb cd50 3cbd cd70 eb3b
000001a0: 84a9 e9bc 3eb9 26bd ee6e ddbb 4b06 e8bc
000001b0: 5633 05bc 8bd1 2a3c 4921 d5bc 80e3 9a3b
000001c0: 19ac 6a3c 0cf5 9fbc 1fea bd3c 6b73 4a3c
000001d0: 9179 22bc dea3 c83c 78ee 243c f07b adbb
000001e0: 22ef f8bc 3ad2 eabc 71d7 d03c 11ab 17bc
000001f0: 2225 903c f290 f73c aaf2 813c ac7d 03bd
00000200: 5df2 2bbd 72a5 013d b9ef 603d 5687 9dbc
00000210: 896c 853b 22f9 35bb c5af 68bb ea98 5c3b
00000220: 4fb2 e93c 38d3 9e3b 8c01 1cbd 8837 d23c
00000230: e7da b7bc d5a3 95bc aa47 65bc 1e9a 163d
00000240: 68c2 cfbc 0e3c e8bc a4b4 e63c 8887 ef3c
00000250: b1f0 533d fa94 d93c ad7f 44bc 2714 113b
00000260: a76e b5bc ec10 0f3d ee5c d7bc 5ab1 3abc
00000270: 68f5 7e3c 0e0b 923c 5383 c2bb 3f80 973c
00000280: d287 f9ba 50c6 52bc 967d 1d3d 492e dc3c
00000290: 321c fd3c 83fb ec3c 438c 313d 94bd f7bc
000002a0: fc5c a53c d61e e23c fa70 1c3d 670d ddbb
000002b0: c6a2 e4bc aedb 323d 7d21 77bc 16a6 39bd
000002c0: e08c 0a3c 3e2b 2bbd a251 7d3c fc09 b4bc
000002d0: 8533 1a3d b6da 2a3d e16c 413b d8d6 78bb
000002e0: 2b20 903c 6053 89ba a7e3 303d 07b5 c23c
000002f0: 3d1c 80ba 48fc 49bc 65d3 753d 0526 333b
00000300: b9fd d03c 6264 e6bb 5529 79bb 42fd 393d
00000310: 4153 14bd 8cac 13bd 27e2 90bb 9659 b3bc
00000320: 594d 77bc bb07 27bd 93bc 86bc c167 aebc
00000330: d75e 4e3d 9a27 41bc 01f7 0abd 50d8 25bc
00000340: 79be 48bd d73f 883b 4d6a afbc 0860 333d
00000350: 64b4 353c 2777 dd3b a17a 203c 1189 36bd
00000360: f093 24bd d153 35bd c16c d8bc 5c3d c93b
00000370: 5bb5 363d 8237 1e3d 234b 5bbd c71c 213d
00000380: dbff 353d de32 73bb cb60 193b 8ba2 59bc
00000390: 9984 a9bc 9f71 3fbd 2164 d1bc dafd 513c
000003a0: 91df 18bc d54b c13c 4be4 27bd 1b6c f73b
000003b0: 24ba 3abd a681 e9bc 7607 323d 2efb 83bc
000003c0: 9782 703c 6191 913c 7ffc 8cbc b8e3 1f3c
000003d0: 4000 2b3d f464 eebc 8a28 fbbc bb86 b33c
000003e0: 79c1 f53c b2cd b53c 4caa 5a3d 6fd2 99bc
000003f0: 071c 02bc 0434 1cbd 81e6 3e3c 1123 663d

tree_conv.6.weights.bias f4 [64]
0.021209108 -0.009970228 0.034043495 -0.032898065 -0.0328358 -0.04071954 0.0032143202 0.026564695
-0.047545582 0.0028485763 0.011990494 -0.015661377 -0.014075166 0.0037158402 -0.0021025324 0.021459775
-0.0035643287 0.037237387 -0.034000244 0.00959291 -0.019697292 -0.04712644 -0.02647251 0.022113971
0.0208437 -0.029732341 -0.025918216 -0.016628705 -0.005864993 0.00983638 0.0262812 0.02894847
-0.023692638 0.0038400625 -0.00994755 0.041148722 -0.00022362798 -0.038549185 -0.03060101 -0.037472416
-0.009619592 -0.038629346 0.013577217 0.037679896 0.014295416 -0.0063610664 0.017637517 0.02542039
0.015903652 -0.003819138 -0.033235226 -0.014645331 -0.0014679778 0.0050760745 0.021529505 -0.009887298
0.027957384 -0.015194558 0.01936259 -0.033792723 0.007458707 -0.014747865 0.027089814 0.028007073
00000000: b9be ad3c 2b5a 23bc 3171 0b3d 1fc0 06bd
00000010: d57e 06bd 88c9 26bd 58a7 523b 349e d93c
00000020: 28bf 42bd 2eaf 3a3b c773 443c 4a4c 80bc
00000030: 869b 66bc 7485 733b a4ca 09bb 69cc af3c
00000040: 8397 69bb 3b86 183d d743 0bbd 952b 1d3c
00000050: 375c a1bc a707 41bd e1dc d8bc 5c28 b53c
00000060: 68c0 aa3c 3d91 f3bc 7052 d4bc ec38 88bc
00000070: 212f c0bb c528 213c ac4b d73c 5725 ed3c
00000080: 1017 c2bc 8fa9 7b3b 0cfb 22bc 908b 283d
00000090: ae7d 6ab9 c0e5 1dbd f8ae fabc ad7c 19bd
000000a0: 7e9b 1dbc ce39 1ebd fa72 5e3c 3c56 1a3d
000000b0: 5237 6a3c 7e70 d0bb 8e7c 903c 6c3e d03c
000000c0: 6048 823c 814a 7abb a921 08bd f8f2 6fbc
000000d0: 2969 c0ba 3355 a63b a55e b03c 55fe 21bc
000000e0: e206 e53c 98f2 78bc 4b9e 9e3c 3d6a 0abd
000000f0: 2b68 f43b 07a1 71bc 75eb dd3c 176f e53c

tree_conv.9.weight f4 [32, 64]
-0.071507625 0.10595494 0.05408269 0.029278051 -0.014306698 0.10819158 -0.06825385 -0.05320144
0.001903164 -0.06416978 -0.12110215 0.060364835 0.05895004 -0.020288356 0.018114932 -0.12881103
-0.02361884 0.061950088 0.04140525 0.016023418 -0.088429324 0.056032225 0.01360864 0.09580887
-0.041092 -0.08293103 0.06339773 0.0537401 -0.111232676 -0.07630113 0.10826243 0.032018427
-0.064876676 -0.09606571 0.08893815 0.0085950885 -0.0071187434 -0.10847413 0.04530758 -0.1131854
-0.033784475 -0.080111854 -0.04080788 -0.12720238 -0.121343605 -0.042567365 0.06962477 0.04680563
-0.04946531 0.10903867 -0.10670768 0.01916569 0.044773486 0.041769 0.10105132 0.09423189
-0.053682506 -0.0027239986 -0.024282645 -0.13291208 -0.06878678 0.11286626 -0.12054694 -0.070294715
-0.030916888 0.07122649 -0.012923953 -0.0074896887 0.10044842 0.10068002 -0.09944663 0.003558353
-0.0029107912 -0.08021324 -0.11007075 -0.026294291 0.114245094 0.08085267 0.1407852 0.07766871
-0.022927534 -0.07651416 0.06992095 -0.018743938 0.11576599 -0.011943006 -0.104082584 0.10388191
0.090492144 0.09108781 0.025130888 -0.04859345 -0.09544227 -0.07162934 -0.055262964 0.016534558
0.059006475 -0.13343373 0.12473633 -0.08044386 0.080404006 0.075211495 0.03027189 0.010697879
0.039976824 0.044825494 -0.0669369 -0.06392005 0.113026425 -0.1365815 -0.0428237 -0.00890373
0.0015886388 0.13153897 -0.019202393 0.017514277 0.04061371 0.096092544 0.051208925 -0.09546886
-0.11548511 0.072996415 0.12060923 -0.020726463 -0.021962386 -0.053174827 -0.004912126 -0.005242978
0.10105944 -0.10100083 0.0036470452 -0.09208742 -0.05206777 0.063060634 -0.0114221005 -0.050654046
0.008896002 -0.07192157 0.072845384 0.029652232 -0.026683059 -0.08039148 0.07925755 -0.07594146
0.04770856 0.02590133 -0.015155643 -0.10432052 0.09808051 0.04511503 0.11454649 0.04428828
-0.0539305 -0.06969376 -0.086824745 0.047812186 -0.039292317 0.03234199 -0.09625182 0.06223378
0.0030365363 0.096601866 0.08410575 -0.04204979 -0.036482163 0.03002653 -0.013998835 -0.07203446
-0.034047846 0.14483736 -0.07838815 -0.065525405 0.09525526 0.14213935 0.06628644 -0.081562065
-0.023766298 0.04395853 -0.104993805 0.025173858 0.06817766 0.014539457 0.05000152 0.15073778
0.12359372 0.07091345 -0.04154247 0.122877926 -0.05526022 0.0015901426 -0.03805107 0.085028075
0.0954641 0.056623198 0.032321367 -0.017074348 0.1273152 0.08880693 -0.056915086 0.010268064
-0.048655335 0.013791193 0.10385081 -0.13192572 -0.054694753 0.017918216 0.07528416 0.09561272
0.064634435 0.1173118 -0.059168816 0.008970195 -0.10789663 0.11892296 0.12796037 0.06329497
-0.097983934 0.07495442 -0.031497788 -0.08762131 -0.10052266 0.015957465 0.09317656 0.0827088
0.09964547 0.0624395 -0.01097147 -0.048014365 -0.11565694 0.10390901 -0.059772644 -0.055463575
-0.08000186 0.123478204 0.14857148 0.0052887886 0.066555545 0.05928772 -0.09542001 -0.057853047
0.052394032 -0.024696533 -0.10781543 -0.00901669 0.038225655 0.12571111 0.08143649 0.14626645
0.092487484 -0.034810636 -0.052554555 -0.07754565 -0.029700955 -0.123235986 -0.008754205 -0.060961563
00000000: 9772 92bd e7fe d83d d085 5d3d 86d8 ef3c
00000010: a466 6abc 8c93 dd3d adc8 8bbd c1e9 59bd
00000020: 9673 f93a 726b 83bd 6704 f8bd 1e41 773d
00000030: 9975 713d c433 a6bc c465 943c 0ae7 03be
00000040: 4c7c c1bc 60bf 7d3d 8d98 293d 8b43 833c
00000050: 6f1a b5bd 0c82 653d c6f6 5e3c 7137 c43d
00000060: 1650 28bd bed7 a9bd abd6 813d 941e 5c3d
00000070: f5cd e3bd c443 9cbd b1b8 dd3d c125 033d
00000080: 10de 84bd 19be c4bd 3425 b63d 6ad2 0c3c
00000090: 5944 e9bb af27 debd 7194 393d bfcd e7bd
000000a0: 9761 0abd af11 a4bd 2a26 27bd 5741 02be
000000b0: ff82 f8bd 1e5b 2ebd 6e97 8e3d 43b7 3f3d
000000c0: 239c 4abd ab4f df3d 8e89 dabd 5d01 9d3c
000000d0: 6764 373d f915 2b3d fff3 ce3d a6fc c03d
000000e0: 30e2 5bbd 1d85 32bb 66ec c6bc 1b1a 08be
000000f0: 15e0 8cbd 6d26 e73d 50e1 f6bd adf6 8fbd
00000100: 6a45 fdbc 32df 913d fdbe 53bc 106c f5bb
00000110: e7b7 cd3d 5431 ce3d adaa cbbd 4233 693b
00000120: f9c2 3ebb d746 a4bd c66c e1bd 2067 d7bc
00000130: 55f9 e93d 1696 a53d ff29 103e c610 9f3d
00000140: 86d2 bbbc 75b3 9cbd b732 8f3d e38c 99bc
00000150: b816 ed3d 99ac 43bc 4029 d5bd 0ac0 d43d
00000160: f253 b93d 3f8c ba3d 4bdf cd3c ed09 47bd
00000170: 3d77 c3bd 67b2 92bd 6b5b 62bd 7b73 873c
00000180: c6b0 713d daa2 08be c375 ff3d c0bf a4bd
00000190: dbaa a43d 7c08 9a3d c1fc f73c 2846 2f3c
000001a0: bdbe 233d f09a 373d 3716 89bd 84e8 82bd
000001b0: 667a e73d 05dc 0bbe e767 2fbd f3e0 11bc
000001c0: df39 d03a 27b2 063e 564e 9dbc 1a7a 8f3c
000001d0: 905a 263d 2bcc c43d 73c0 513d 2d85 c3bd
000001e0: 7583 ecbd 257f 953d f901 f73d 8bca a9bc
000001f0: 76ea b3bc d9cd 59bd e6f5 a0bb 4acd abbb
00000200: 40f8 ce3d 86d9 cebd 4403 6f3b 5498 bcbd
00000210: 0445 55bd ef25 813d c323 3bbc 9e7a 4fbd
00000220: 89c0 113c 9e4b 93bd f62f 953d 3de9 f23c
00000230: 6e96 dabc 4aa4 a4bd c851 a23d 3287 9bbd
00000240: 0d6a 433d 072f d43c 604f 78bc ffa5 d5bd
00000250: 6fde c83d 8aca 383d 5a97 ea3d a167 353d
00000260: 3ae6 5cbd 9abb 8ebd 2cd1 b1bd b6d6 433d
00000270: fbf0 20bd 0979 043d ad1f c5bd d9e8 7e3d
00000280: a000 473b 33d7 c53d a33f ac3d 673c 2cbd
00000290: 526e 15bd 33fa f53c 5f5b 65bc ce86 93bd
000002a0: c175 0bbd 3f50 143e f789 a0bd 2f32 86bd
000002b0: 3115 c33d fa8c 113e 2fc1 873d 030a a7bd
000002c0: 8ab1 c2bc dc0d 343d fe06 d7bd 6839 ce3c
000002d0: bba0 8b3d e736 6e3c 65ce 4c3d 015b 1a3e
000002e0: b41e fd3d 123b 913d 7028 2abd 6ca7 fb3d
000002f0: 8a58 62bd 556c d03a 70db 1bbd 3323 ae3d
00000300: af82 c33d baed 673d 6963 043d 81df 8bbc
00000310: ea5e 023e 68e0 b53d cb1f 69bd 623b 283c
00000320: d14a 47bd 75f4 613c bcaf d43d 8917 07be
00000330: 9b07 60bd 39c9 923c 952e 9a3d 9ad0 c33d
00000340: 0f5f 843d 2b41 f03d 005b 72bd baf7 123c
00000350: e9f8 dcbd e18d f33d 0b08 033e cba0 813d
00000360: cdab c8bd b481 993d d303 01bd cd72 b3bd
00000370: d3de cdbd 3bb9 823c 5ad3 be3d 3b63 a93d
00000380: ed12 cc3d 90c0 7f3d aec1 33bc b6aa 44bd
00000390: 8cdd ecbd 3fce d43d 29d4 74bd c62d 63bd
000003a0: 04d8 a3bd 24e2 fc3d 1f23 183e 934d ad3b
000003b0: 464e 883d aed7 723d 916b c3bd 51f7 6cbd
000003c0: 209b 563d 6250 cabc 56ce dcbd bdba 13bc
000003d0: 8192 1c3d 6aba 003e 2dc8 a63d dfc6 153e
000003e0: 146a bd3d 9995 0ebd 7243 57bd 41d0 9ebd
000003f0: 6b4f f3bc 2663 fcbd cc6d 0fbc d5b2 79bd

tree_conv.9.bias f4 [32]
-0.12339843 -0.030555312 0.07410632 -0.05964577 -0.019593513 0.02210357 0.11989857 -0.09407355
-0.03218004 0.0027840948 -0.0036724783 0.04234483 -0.038134843 -0.090445004 0.11482517 -0.005214585
0.007984014 0.08703419 -0.05556259 0.07534728 0.07322018 0.04532139 -0.10169731 0.020223426
0.12660563 0.1418229 0.12938571 0.1407538 0.08122022 -0.06599838 0.11327814 -0.11784487
00000000: 51b8 fcbd 224f fabc 0ec5 973d 1f4f 74bd
00000010: 9382 a0bc 8c12 b53c 628d f53d a2a9 c0bd
00000020: 38cf 03bd 5c75 363b f6ad 70bb c671 2d3d
00000030: 4833 1cbd 3b3b b9bd 7529 eb3d 1cdf aabb
00000040: 62cf 023c fb3e b23d 9995 63bd ad4f 9a3d
00000050: 76f4 953d eca2 393d ae46 d0bd 99ab a53c
00000060: e8a4 013e 063a 113e b07d 043e c421 103e
00000070: c956 a63d 292a 87bd 5ffe e73d a758 f1bd

tree_conv.11.weight f4 [1, 32]
0.06692839 -0.07541862 0.07774715 0.21989511 0.09984783 0.038525842 0.07065795 -0.0854859
-0.20942244 -0.091850705 -0.10219058 0.08610907 -0.1642271 0.062186033 0.0942801 -0.05215115
-0.16230634 0.1518251 -0.1246834 0.18708286 -0.0309794 0.20999134 0.02727037 0.082389764
-0.16674106 -0.03483663 0.18730892 -0.03906747 -0.026624614 0.13387427 0.15158893 0.18115139
00000000: c011 893d 1475 9abd e639 9f3d 2f2c 613e
00000010: 057d cc3d 46cd 1d3d 1eb5 903d 3b13 afbd
00000020: d672 56be 391c bcbd 4b49 d1bd f459 b03d
00000030: 262b 28be c8b6 7e3d ed15 c13d 729c 55bd
00000040: a233 26be 0a78 1b3e 035a ffbd a692 3f3e
00000050: 83c8 fdbc f807 573e 1c66 df3c f7bb a83d
00000060: 2bbe 2abe dbb0 0ebd e9cd 3f3e 3605 20bd
00000070: dd1b dabc 5616 093e 213a 1b3e c07f 393e
