models/lero_on_stats_STATS_JOP.pth (torch, 583256 bytes, 9 tensors)

tree_conv.0.weights.weight f4 [256, 25, 3]
0.080332845 -0.035019897 -0.11619625 0.049536277 -0.06788719 -0.03817614 0.037629887 -0.0048895297
0.10603856 -0.10769823 0.052409764 -0.15869206 -0.0916388 0.08122485 -0.059952583 0.020879114
0.07638465 -0.008996651 0.021850862 -0.060235746 0.040507656 -0.011050995 -0.06372378 0.06964155
-0.00078122213 0.11359035 0.021226868 -0.11583554 -0.0934387 -0.14245483 -0.09542988 -0.024002884
0.066261396 -0.104326025 0.038958337 -0.064450935 -0.09258119 0.11245143 -0.0747256 -0.023652976
-0.14493121 -0.1013168 0.08956736 -0.005683432 -0.061499383 0.056142803 0.048801623 -0.07399967
0.0065527866 0.0090383515 0.054863837 0.093664624 -0.04899067 0.10258503 0.06267693 -0.10018173
0.030853909 0.025027836 0.093951054 0.04817635 0.07501166 -0.010200028 0.11007965 0.022017784
-0.063804425 -0.03832572 0.099829614 0.029878493 0.010290953 0.022605017 -0.00822487 -0.024202725
0.16804254 0.14980479 0.13913774 -0.15369977 -0.047601663 0.031388275 -0.01141734 0.08836033
-0.080232635 -0.108672775 -0.087645784 0.00035615958 0.073679246 -0.096184075 0.01503708 -0.105312526
0.08094205 -0.107520595 0.07848279 -0.07795266 -0.06925934 -0.0016266498 0.037679132 0.006390229
-0.040338777 -0.06394766 -0.06937046 -0.055045027 0.076312326 -0.12537055 -0.03336988 -0.05965655
0.020655777 0.0115708625 -0.044529352 -0.10332432 0.053109284 0.060741484 0.111045256 0.08604769
0.058412403 -0.062769 -0.12767975 -0.13550605 0.023757095 -0.052301485 -0.018608203 0.09040775
0.0027662176 0.018596442 0.04952523 0.02195498 0.04006324 0.03607387 -0.07644707 -0.099741355
-0.07030547 -0.02778507 -0.014436911 -0.07550878 0.07281214 -0.11164562 0.04146764 -0.07648545
-0.049927164 0.13061522 0.05129123 -0.05994879 0.019544067 -0.029989146 0.030654827 -0.122892074
-0.0071052327 0.07710594 -0.042694945 0.10318932 0.16150957 -0.072298385 0.0027501557 0.052326605
0.05986762 0.0769959 0.09773056 -0.036725715 -0.026700152 0.09525261 -0.027571255 -0.008622178
0.07782077 -0.10762212 0.045473106 0.045101237 -0.044516027 0.07606274 0.07074449 -0.01365249
-0.027971886 0.028459186 -0.03916238 -8.045292e-05 0.05678959 -0.030386643 0.09280825 0.14829417
-0.04104213 -0.021146849 -0.07441659 0.17708625 -0.014047645 -0.10887042 0.09925292 -0.03182697
-0.07366238 -0.09942258 0.064542145 0.01455192 -0.022694236 0.060923137 0.0024290183 -0.04831573
0.026224447 -0.08047177 -0.031582832 0.08594077 0.07628842 0.097901314 0.09883244 0.10203394
0.04717164 -0.03308182 0.024584718 0.068218075 -0.10127529 -0.09542043 0.07997613 0.045607645
-0.08491228 -0.022429356 -0.022691771 0.056515917 -0.09478786 0.14363083 0.15296264 -0.13493362
-0.19286296 -0.04383281 -0.14449108 -0.03938128 0.0006020588 -0.05168782 0.049356095 -0.049074925
0.02009025 0.11760273 0.103628606 -0.06898512 0.051568232 0.0880471 0.10517882 -0.1558072
0.11080053 0.11840445 0.03500015 0.068618834 -0.10751233 -0.0744741 0.055043034 -0.016892135
-0.033032876 -0.082474396 -0.049064375 -0.042703576 -0.058070123 -0.05145847 0.00502103 0.12745845
0.07513512 0.06631414 0.07851442 0.084852226 0.097404435 -0.07106451 0.062027466 0.105231434
00000000: 8c85 a43d 0671 0fbd 4df8 edbd 8de6 4a3d
00000010: 7008 8bbd 965e 1cbd cc21 1a3d 5938 a0bb
00000020: bf2a d93d e490 dcbd 9fab 563d 2c80 22be
00000030: 20ad bbbd 3759 a63d d790 75bd ad0a ab3c
00000040: 8e6f 9c3d b066 13bc 9400 b33c c2b9 76bd
00000050: 5beb 253d 3c0f 35bc 9d81 82bd 3ba0 8e3d
00000060: eeca 4cba 0fa2 e83d f8e3 ad3c 2f3b edbd
00000070: ca5c bfbd aedf 11be be70 c3bd b2a1 c4bc
00000080: 0eb4 873d e2a8 d5bd c792 1f3d dafe 83bd
00000090: 359b bdbd ef4c e63d bc09 99bd e3c3 c1bc
000000a0: d968 14be 2f7f cfbd 186f b73d 153c babb
000000b0: c7e6 7bbd fff5 653d 36e4 473d 248d 97bd
000000c0: c2b8 d63b 9815 143c e7b8 603d 3dd3 bf3d
000000d0: 71aa 48bd 1a18 d23d c35c 803d 142c cdbd
000000e0: 56c1 fc3c 2d07 cd3c 6969 c03d 9054 453d
000000f0: b79f 993d 051e 27bc 7171 e13d a45e b43c
00000100: e5ab 82bd 6efb 1cbd 7873 cc3d bec3 f43c
00000110: 639b 283c 282e b93c 9bc1 06bc cb44 c6bc
00000120: 5813 2c3e 6d66 193e 207a 0e3e 7963 1dbe
00000130: f6f9 42bd fe90 003d cb0f 3bbc 43f6 b43d
00000140: 0251 a4bd d58f debd a27f b3bd eeba ba39
00000150: 25e5 963d 28fc c4bd 165e 763c 18ae d7bd
00000160: f2c4 a53d c233 dcbd 96bb a03d a5a5 9fbd
00000170: d7d7 8dbd 4f35 d5ba 6f55 1a3d 2065 d13b
00000180: 463a 25bd fef6 82bd 1a12 8ebd e576 61bd
00000190: a349 9c3d 2361 00be dbae 08bd 6d5a 74bd
000001a0: 4e36 a93c b793 3d3c 6964 36bd b39b d3bd
000001b0: 1f89 593d 10cc 783d b26b e33d c539 b03d
000001c0: d841 6f3d 098d 80bd 7bbe 02be 19c2 0abe
000001d0: 3d9e c23c 153a 56bd 3b70 98bc b327 b93d
000001e0: 6e49 353b 9157 983c f8da 4a3d eeda b33c
000001f0: 5a19 243d 32c2 133d 4890 9cbd 3245 ccbd
00000200: 50fc 8fbd 849d e3bc cb88 6cbc 59a4 9abd
00000210: 881e 953d 75a6 e4bd f9d9 293d 67a4 9cbd
00000220: 6d80 4cbd ffbf 053e c116 523d dd8c 75bd
00000230: e11a a03c ccab f5bc d51f fb3c d7ae fbbd
00000240: 03d3 e8bb b8e9 9d3d e5e0 2ebd ec54 d33d
00000250: c462 253e 2d11 94bd f53b 343b 6c54 563d
00000260: c037 753d 07b0 9d3d f626 c83d b46d 16bd
00000270: 47ba dabc cd13 c33d 1ddd e1bc 0944 0dbc
00000280: 7f60 9f3d fc68 dcbd 0242 3a3d 13bc 383d
00000290: 7056 36bd c8c6 9b3d 7de2 903d b2ae 5fbc
000002a0: 4c25 e5bc 3d23 e93c bb68 20bd d5b8 a8b8
000002b0: 339c 683d 69ed f8bc 4012 be3d 6dda 173e
000002c0: cb1b 28bd 283c adbc ba67 98bd 1956 353e
000002d0: 1828 66bc 74f7 debd 1d45 cb3d ff5c 02bd
000002e0: 4ddc 96bd 119e cbbd ac2e 843d 2d6b 6e3c
000002f0: 43e9 b9bc 8a8a 793d 2a30 1f3b b7e6 45bd
00000300: a7d4 d63c 62ce a4bd 005d 01bd b701 b03d
00000310: 1a3d 9c3d 7c80 c83d aa68 ca3d 2cf7 d03d
00000320: 0d37 413d cd80 07bd e465 c93c ebb5 8b3d
00000330: 6b69 cfbd c96b c3bd 86ca a33d 15cf 3a3d
00000340: 7de6 adbd c5bd b7bc 18e4 b9bc 3c7d 673d
00000350: 2320 c2bd f613 133e 3da2 1c3e 0a2c 0abe
00000360: de7d 45be 088a 33bd 78f5 13be 444e 21bd
00000370: 7bd3 1d3a 9cb6 53bd 9e29 4a3d ca02 49bd
00000380: 4f94 a43c b3d9 f03d 3c3b d43d 1248 8dbd
00000390: 3639 533d 0a52 b43d fe67 d73d ec8b 1fbe
000003a0: 63eb e23d 087e f23d 515c 0f3d 0888 8c3d
000003b0: 6d2f dcbd e085 98bd ce74 613d 6061 8abc
000003c0: 7b4d 07bd 56e8 a8bd baf7 48bd f2e9 2ebd
000003d0: f0da 6dbd 1ec6 52bd 7487 a43b 7884 023e
000003e0: 71e0 993d b5cf 873d 2bcc a03d 01c7 ad3d
000003f0: fa7b c73d 458a 91bd 8310 7e3d 9483 d73d

tree_conv.0.weights.bias f4 [256]
0.014838647 -0.06589243 -0.0149620045 -0.05222389 -0.03503356 0.111854985 -0.09202646 -0.04707557
0.076619156 0.06081817 -0.023497237 0.060686607 0.03522046 -0.094077654 0.036153294 0.08705573
0.027606513 0.037390713 0.031367138 0.0062235356 0.019217296 0.06360305 0.007845221 0.043017883
0.07689946 -6.169847e-05 0.08016832 -0.044214442 -0.074202225 0.09564164 -0.10312158 0.049397178
0.056268618 -0.019813918 -0.020975353 -0.025978526 -0.009523397 -0.08584577 -0.020317556 -0.0045533353
-0.043219954 -0.008073468 -0.009394944 -0.002070968 0.019158047 0.037565824 -0.013781565 0.030174034
0.012037468 -0.005682769 0.056306556 -0.014579138 0.08586809 -0.026799558 0.08275322 -0.074196644
0.09310785 0.023636505 0.055131406 -0.043117754 -0.010192717 -0.02572759 -0.06169701 -0.04311363
-0.06465547 0.09173111 0.09947518 0.028455675 0.09001477 0.08002572 0.008593756 -0.0054322397
-0.05810061 0.014883095 0.02910482 -0.0466735 -0.015421021 -0.09559264 0.05235028 0.06513124
-0.077530265 0.0066818953 -0.009963219 -0.036611695 0.018924816 -0.011468958 -0.017887425 0.11769946
-0.03924869 0.070304714 -0.038156554 0.11654781 -0.05937724 -0.11473294 0.10096662 -0.08326814
0.105266884 -0.042840578 0.004906572 -0.10559218 0.017238762 0.010240594 -0.038124084 0.07586303
0.08930144 0.04316842 -0.09676624 0.008280865 0.0008911006 0.10065843 0.0699034 -0.012392518
0.048855193 0.05865676 -0.037324652 0.034211107 -0.06653271 -0.03083285 -0.041720398 -0.0988731
0.03739266 0.07458175 -0.074800275 0.085114904 0.082832865 -0.12092608 0.095207974 -0.0829178
0.09619757 0.07891736 0.023710782 0.07015291 -0.027008418 0.11199761 0.062224377 -0.003680968
-0.059487168 -0.07338174 -0.043293763 -0.06546317 0.054586776 -0.041687235 -0.08561079 0.026092721
0.12614255 0.045551218 0.0098631205 -0.010254554 -0.05708598 -0.0030174127 -0.0094566895 0.06785264
0.04276405 0.037094057 0.11008013 0.066443846 0.01747956 -0.011422577 -0.06792153 0.036023438
-0.05982941 0.08138186 0.10597509 -0.050086558 -0.046769623 -0.0018260425 0.08876852 -0.07495392
-0.062871136 0.057659898 0.06090797 0.07930187 -0.012509163 -0.12805125 -0.060457155 0.0069519407
0.07780013 0.068663254 -0.07509433 0.08515171 -0.08282323 0.096851274 0.012345289 0.04598859
-0.047111288 -0.0038483543 0.0024421124 0.054602206 -0.056366447 -0.09985886 -0.030587487 -0.07675756
0.10993582 0.028763913 0.09506704 0.053871404 0.07186696 -0.069095954 -0.013750581 0.07710582
0.08161258 0.091501065 0.030420838 0.092265375 -0.028756563 -0.06475665 0.028030075 -0.054720018
0.06410951 0.01068003 -0.11620779 -0.034692023 -0.023460882 0.08376312 0.04666572 0.06517078
-0.0111267585 0.04763137 -0.019900162 0.007156763 -0.069832675 -0.056004126 0.00972759 0.08227284
0.030694678 -0.081972845 -0.09082195 0.036363766 0.0020268927 -0.102412045 0.02040563 0.075698726
0.09097424 0.021394791 0.06471948 0.10427383 0.08080586 -0.09307902 0.08567775 0.04110282
-0.09426909 -0.0070136255 0.09465029 -0.07031538 -0.06566182 0.037919976 0.023385027 0.00091354887
0.0109710125 0.040060896 -0.0889603 0.029868405 -0.067824684 0.066081315 -0.06142477 0.06818446
00000000: cc1d 733c 9cf2 86bd 3223 75bc b8e8 55bd
00000010: 5a7f 0fbd 3a14 e53d 5e78 bcbd 50d2 40bd
00000020: 81ea 9c3d 791c 793d 477d c0bc 8592 783d
00000030: 5443 103d c9ab c0bd 7a15 143d 464a b23d
00000040: 0e27 e23c 0127 193d d47a 003d cdee cb3b
00000050: 976d 9d3c 5142 823d 3e89 003c 8533 303d
00000060: 777d 9d3d 1d64 81b8 4a2f a43d 341a 35bd
00000070: 56f7 97bd c4df c33d 6831 d3bd b254 4a3d
00000080: ec79 663d cc50 a2bc 81d4 abbc ebd0 d4bc
00000090: 0608 1cbc e8cf afbd 0171 a6bc 2534 95bb
000000a0: 6807 31bd 9446 04bc 40ed 19bc 14b9 07bb
000000b0: 56f1 9c3c 9fde 193d 13cc 61bc 892f f73c
000000c0: cd38 453c 8636 babb b4a1 663d 56dd 6ebc
000000d0: 9cdb af3d bf8a dbbc 857a a93d 69f4 97bd
000000e0: 54af be3d 58a1 c13c 78d1 613d 3e9c 30bd
000000f0: 5bff 26bc abc2 d2bc 01b6 7cbd eb97 30bd
00000100: 166a 84bd 85dd bb3d a5b9 cb3d e01b e93c
00000110: aa59 b83d 86e4 a33d d3cc 0c3c ee00 b2bb
00000120: e8fa 6dbd 3ad8 733c 3b6d ee3c b62c 3fbd
00000130: 73a8 7cbc 13c6 c3bd 3f6d 563d 8763 853d
00000140: 30c8 9ebd cdf3 da3b c53c 23bc 25f6 15bd
00000150: 3708 9b3c 4ce8 3bbc a688 92bc 6a0c f13d
00000160: 3cc3 20bd ebfb 8f3d 0c4a 1cbd 9eb0 ee3d
00000170: 8c35 73bd 1bf9 eabd 96c7 ce3d 7d88 aabd
00000180: 2a96 d73d 9a79 2fbd 4fc7 a03b b640 d8bd
00000190: 4e38 8d3c 2ac8 273c 0028 1cbd 145e 9b3d
000001a0: ace3 b63d 5fd1 303d 612d c6bd 77ac 073c
000001b0: c098 693a 0226 ce3d 8429 8f3d fd09 4bbc
000001c0: 621c 483d 1242 703d bce1 18bd f220 0c3d
000001d0: 4d42 88bd 2c95 fcbc 02e3 2abd fb7d cabd
000001e0: 0c29 193d 51be 983d e330 99bd b950 ae3d
000001f0: 47a4 a93d 18a8 f7bd 66fc c23d cfd0 a9bd
00000200: 3b03 c53d 6d9f a13d 1d3d c23c 54ac 8f3d
00000210: c240 ddbc 015f e53d fdde 7e3d 653c 71bb
00000220: d1a8 73bd 2a49 96bd cd54 31bd 8e11 86bd
00000230: 6296 5f3d 3cc0 2abd b654 afbd 67c0 d53c
00000240: 832b 013e ea93 3a3d ed98 213c b802 28bc
00000250: fdd2 69bd c9bf 45bb 3bf0 1abc 53f6 8a3d
00000260: 5b29 2f3d f0ef 173d b171 e13d b613 883d
00000270: 4b31 8f3c c325 3bbc 711a 8bbd 508d 133d
00000280: af0f 75bd 88ab a63d 7809 d93d 9027 4dbd
00000290: 8191 3fbd d257 efba 45cc b53d 7181 99bd
000002a0: 95c2 80bd c92c 6c3d a37a 793d 0569 a23d
000002b0: 3bf3 4cbc de1f 03be eca1 77bd 1bcd e33b
000002c0: ad55 9f3d 529f 8c3d 0ecb 99bd 0564 ae3d
000002d0: 3a9f a9bd f659 c63d e543 4a3c 885e 3c3d
000002e0: c4f7 40bd ac34 7cbb d90b 203b 90a6 5f3d
000002f0: 81e0 66bd cd82 ccbd 9c92 fabc 1133 9dbd
00000300: 0826 e13d 4ca2 eb3c 82b2 c23d 43a8 5c3d
00000310: fc2e 933d 2e82 8dbd 1e4a 61bc a8e9 9d3d
00000320: 7f24 a73d e964 bb3d 1f35 f93c a1f5 bc3d
00000330: e292 ebbc 229f 84bd 549f e53c 1922 60bd
00000340: d94b 833d 4bfb 2e3c 5afe edbd 3919 0ebd
00000350: 0931 c0bc 008c ab3d 8e24 3f3d 4278 853d
00000360: 024d 36bc 1d19 433d aa05 a3bc 4883 ea3b
00000370: 6f04 8fbd 9564 65bd 7860 1f3c aa7e a83d
00000380: 6873 fb3c 61e1 a7bd dc00 babd 2cf2 143d
00000390: 9ed5 043b 68bd d1bd b529 a73c ef07 9b3d
000003a0: b450 ba3d 2144 af3c a68b 843d 858d d53d
000003b0: 8b7d a53d 37a0 bebd d177 af3d 6e5b 283d
000003c0: 2710 c1bd 8ed2 e5bb 03d8 c13d 8301 90bd
000003d0: b479 86bd fa51 1b3d f591 bf3c 3a7b 6f3a
000003e0: c3bf 333c e516 243d d130 b6bd 96ae f43c
000003f0: abe7 8abd a455 873d 8a98 7bbd 4ba4 8b3d

tree_conv.3.weights.weight f4 [128, 256, 3]
-0.022418607 -0.041857373 -0.00059566303 -0.01724162 0.016568849 0.011949899 -0.00077499996 -0.05274158
-0.007018826 0.022330424 -0.006214916 0.0019374565 -0.018208103 -0.08487915 -0.016194941 -0.010624213
-0.05718523 0.0004156113 -0.009653486 -0.022169523 -0.009081066 -0.03966207 -0.010369241 -0.10168038
-0.056536995 -0.040826883 -0.030412804 0.017648714 -0.037714634 -0.039160237 -0.025651706 0.022201998
-0.017209873 -0.0008914586 -0.03474569 -0.03491944 0.015266186 -0.008276155 0.028754815 -0.041431695
0.011341595 -0.029987447 -0.000252656 0.0067529604 0.037263677 -0.0026563709 -0.029620742 -0.023145089
-0.035155855 -0.01919115 0.02067054 0.0013211007 0.015017307 -0.030634567 0.04643788 0.003670729
0.044296905 0.03841991 -0.016971864 0.02403903 0.020365946 0.008670649 0.021019379 -0.01839936
-0.0056828735 -0.040588606 0.008579484 0.02717191 0.004876757 -0.030310234 -0.0062552183 -0.0036116424
-0.03869039 0.001480841 -0.022278456 0.047413472 0.04236799 0.014467324 -0.027582718 -0.029327957
-0.035162847 -0.037091196 0.02611631 0.04006157 0.01847447 0.003116433 0.005683238 0.04043055
-0.0069622044 0.034664847 0.016530268 -0.006892411 0.06747301 0.01990608 0.040067974 -0.014156116
-0.011425777 0.015488412 -0.022105716 0.024943156 -0.02737218 0.049218353 -0.025089763 0.032034017
0.049246695 0.034209963 0.028446505 -0.011878728 0.018685937 -0.031367972 0.008712173 -0.031712443
-0.023475217 -0.021742495 0.015358989 -0.0139704235 -0.050124124 0.062325586 -0.021353517 -0.042622626
-0.055870015 -0.011947425 0.0068813595 -0.047245633 -0.015157192 -0.048227042 0.057018504 0.01387851
0.025199218 -0.0006595832 0.048836607 0.04862936 -0.027419884 -0.009481996 0.02114553 -0.02608286
-0.013358268 -0.0055849347 0.010857028 0.0072807055 0.006558613 0.03703864 0.027770206 -0.012345209
0.07136975 0.017593062 0.035858672 -0.020131256 -0.010547961 0.03753135 0.0029452553 -0.0044696336
0.02865632 -0.009564027 -0.013320438 -0.030728666 -0.024803283 -0.0005840128 0.024220107 -0.02457579
-0.02544021 -0.008226837 -0.01261142 -0.017217616 -0.03044553 0.01756792 0.027905252 0.019487863
-0.025077956 -0.012287662 -0.027888656 0.045302417 -0.009404374 0.024900565 -0.021255277 0.027036496
0.05448849 -0.06536668 0.008546556 0.03407432 0.019129869 -0.036264036 -0.0073976014 -0.050067876
-0.013347574 -0.050556216 0.016323792 0.03812069 0.03643428 0.052757602 -0.0050182138 0.028862307
0.036208265 0.016075175 -0.025021678 -0.014261295 0.017587751 0.0091689965 0.013714245 0.004692059
-0.013395342 0.0016170598 -0.040494557 0.003504282 -0.037715875 -0.03876246 -0.020316673 -0.0040868707
0.003466168 0.040203497 -0.009448472 0.005593053 0.0023440996 -0.007317527 -0.0018700238 0.014069246
0.04112928 0.039589822 0.0040513473 -0.0016228192 -0.02891797 -0.0024369173 0.013386388 -0.0072638025
-0.014128509 0.03976389 0.003150522 -0.020491894 0.0054359366 0.021568289 0.040191896 -0.009531598
0.012473838 0.029455613 -0.011142774 0.0063419663 0.013388435 0.057246964 0.08367091 0.060247716
-0.07403717 0.039535206 0.047384482 0.0122555215 0.000898443 0.002938758 0.028672146 0.010440841
-0.035982557 -0.032841474 0.001744605 0.02946428 0.01797009 0.0735071 0.06447361 0.0123885395
00000000: 3aa7 b7bc a372 2bbd 4526 1cba 4c3e 8dbc
00000010: 65bb 873c 82c9 433c 5e29 4bba 8e07 58bd
00000020: 2efe e5bb 4bee b63c 7ea6 cbbb 41f2 fd3a
00000030: 2929 95bc 1fd5 adbd 41ab 84bc 2e11 2ebc
00000040: 0f3b 6abd 68e6 d939 a829 1ebc dc9c b5bc
00000050: c0c8 14bc b274 22bd c0e3 29bc ce3d d0bd
00000060: 5693 67bd 173a 27bd 4624 f9bc 0994 903c
00000070: a97a 1abd 7c66 20bd 8723 d2bc f7e0 b53c
00000080: b8fb 8cbc c6b0 69ba 7f51 0ebd b007 0fbd
00000090: 061f 7a3c b698 07bc 388f eb3c 48b4 29bd
000000a0: 19d2 393c 3ca8 f5bc ea76 84b9 f047 dd3b
000000b0: cca1 183d 8216 2ebb 33a7 f2bc c59a bdbc
000000c0: 96ff 0fbd c236 9dbc 4455 a93c c928 ad3a
000000d0: 270b 763c 58f5 fabc a535 3e3d 9d90 703b
000000e0: ac70 353d 325e 1d3d 9408 8bbc 80ed c43c
000000f0: 7cd6 a63c 560f 0e3c d530 ac3c 41ba 96bc
00000100: 6637 babb 3d40 26bd f790 0c3c a097 de3c
00000110: 34cd 9f3b 2b4d f8bc 93f8 ccbb 4eb1 6cbb
00000120: d079 1ebd c718 c23a 4f81 b6bc a134 423d
00000130: 0f8a 2d3d 5b08 6d3c 27f5 e1bc 2f41 f0bc
00000140: eb06 10bd f0ec 17bd dff1 d53c 9a17 243d
00000150: c657 973c 123d 4c3b 753a ba3b 819a 253d
00000160: 3423 e4bb bafc 0d3d 7c6a 873c bcd9 e1bb
00000170: 4a2f 8a3d 1312 a33c 511e 243d 0eef 67bc
00000180: 2f33 3bbc 1cc3 7d3c 0c17 b5bc 9755 cc3c
00000190: 9f3b e0bc 2f99 493d 0c89 cdbc 1a36 033d
000001a0: e7b6 493d bf1f 0c3d a508 e93c ff9e 42bc
000001b0: 4013 993c b47b 00bd 81bd 0e3c e8e4 01bd
000001c0: 194f c0bc 511d b2bc 45a4 7b3c 34e4 64bc
000001d0: f44e 4dbd 1d49 7f3d 92ed aebc 1095 2ebd
000001e0: f5d7 64bd 22bf 43bc 077d e13b a384 41bd
000001f0: df55 78bc b889 45bd 3c8c 693d b162 633c
00000200: 976e ce3c e1e7 2cba e508 483d 942f 473d
00000210: aa9f e0bc 605a 1bbc 6439 ad3c b9ab d5bc
00000220: a3dc 5abc d401 b7bb ade1 313c fc92 ee3b
00000230: a2e9 d63b d4b5 173d 587e e33c 8f43 4abc
00000240: 4e2a 923d 531f 903c 8be0 123d 4eea a4bc
00000250: 5bd1 2cbc 79ba 193d 2f05 413b 0176 92bb
00000260: a9c0 ea3c 70b2 1cbc f73d 5abc afba fbbc
00000270: 4130 cbbc 7018 19ba 3f69 c63c 2b53 c9bc
00000280: fd67 d0bc dbc9 06bc 21a0 4ebc f50b 8dbc
00000290: e768 f9bc 99ea 8f3c 8e99 e43c 03a5 9f3c
000002a0: 4970 cdbc 3152 49bc c076 e4bc 078f 393d
000002b0: ce14 1abc 45fc cb3c 8c1f aebc a47b dd3c
000002c0: 532f 5f3d f7de 85bd db06 0c3c 8491 0b3d
000002d0: 3eb6 9c3c 9989 14bd 9467 f2bb f913 4dbd
000002e0: c8af 5abc 0914 4fbd 79b9 853c 7124 1c3d
000002f0: 1d3c 153d 5b18 583d d46f a4bb a570 ec3c
00000300: 1e4f 143d 16b0 833c 43fa ccbc 35a8 69bc
00000310: 3014 903c 8f39 163c b6b1 603c d8bf 993b
00000320: 2378 5bbc 86f3 d33a 9fdd 25bd 19a8 653b
00000330: f67b 1abd 63c5 1ebd 276f a6bc 28eb 85bb
00000340: a628 633b 6cac 243d c4cd 1abc ee45 b73b
00000350: 779f 193b dec7 efbb 961b f5ba b282 663c
00000360: 2d77 283d f028 223d 2ac1 843b c7b4 d4ba
00000370: 61e5 ecbc b0b4 1fbb 9552 5b3c 3105 eebb
00000380: 437b 67bc 76df 223d fd78 4e3b 9ede a7bc
00000390: f11f b23b fbaf b03c 42a0 243d 6b2a 1cbc
000003a0: 125f 4c3c e64c f13c 2e90 36bc 45d0 cf3b
000003b0: 2b5b 5b3c cb7b 6a3d a75b ab3d 4fc6 763d
000003c0: cda0 97bd abef 213d 3b16 423d 62cb 483c
000003d0: 7d85 6b3a 2e98 403b d9e1 ea3c 1010 2b3c
000003e0: 7262 13bd c884 06bd 3bab e43a 135f f13c
000003f0: 0336 933c e48a 963d bd0a 843d 4df9 4a3c

tree_conv.3.weights.bias f4 [128]
0.013728545 0.011656372 -0.0060846927 0.017136896 0.010830342 -0.007681668 -0.033407845 0.021310907
-0.009464843 0.02305288 0.007736183 -0.033434782 0.027377121 -0.004167611 0.036325477 -0.0038088318
0.02878353 -0.02221017 -0.016918147 -0.0026491738 0.008802402 0.029776338 -0.020761235 0.016210843
-0.012345331 -0.00902318 0.0013693523 0.023103235 0.00033465325 -0.022893623 -0.026672948 0.010030906
0.04459746 0.018228777 -0.008797246 0.0113367215 0.03089408 0.0019731075 0.005814669 -0.03312036
-0.0037524276 0.04687337 -0.011955601 -0.015753562 0.029597824 -0.022752838 -0.03470079 -0.012116719
-0.031253062 -0.011856651 -0.016161172 -0.03245484 0.031645354 0.018089408 -0.008077148 -0.019820701
0.0015673428 0.010193512 -0.052205104 0.029911943 0.043770928 -0.010324737 0.008238805 0.023480043
0.003351386 -0.019468786 0.024050115 0.024392623 -0.03435752 -0.0042141606 -0.03490061 -0.029393977
0.01543661 -0.0008698061 -0.0144182695 -0.0028675436 -0.024331795 -0.004622602 0.010114081 0.026464583
0.008101123 0.025477683 0.022844043 -0.016391529 0.007982389 -0.012867647 0.0037834076 0.015616777
0.02921337 -0.03311112 0.03456146 0.030278224 0.01394049 -0.026590362 -0.015072895 0.034968175
0.0004522086 0.012303198 0.046671167 -0.007770284 -0.023369024 -0.0089636175 -0.031159313 0.022183299
0.014560838 0.0019916066 0.040087547 0.013034737 -0.048130613 -0.03797746 -0.0017640954 0.0007178805
-0.028971784 0.024092194 0.040437505 -0.022189477 0.0131955305 0.009329178 0.017089237 0.023377433
0.042052988 -0.013317436 0.0011106756 -0.02063919 0.016153175 0.02204562 -0.00023646805 -0.021962179
00000000: b1ed 603c 5efa 3e3c 1a62 c7bb ad62 8c3c
00000010: bf71 313c 80b6 fbbb aad6 08bd 3694 ae3c
00000020: 6e12 1bbc 65d9 bc3c ce7f fd3b e9f2 08bd
00000030: fc45 e03c 7490 88bb 06ca 143d 989d 79bb
00000040: 70cb eb3c 1af2 b5bc ed97 8abc c39d 2dbb
00000050: f337 103c 82ed f33c 7713 aabc 9acc 843c
00000060: 1244 4abc f6d5 13bc d77b b33a ff42 bd3c
00000070: 6674 af39 688b bbbc 3a81 dabc ab58 243c
00000080: d4ab 363d 8454 953c 5322 10bc a8bd 393c
00000090: 9515 fd3c 404f 013b fb88 be3b 37a9 07bd
000000a0: 4aeb 75bb 4afe 3f3d 6de1 43bc 9d0d 81bc
000000b0: 2377 f23c 2964 babc 6a22 0ebd 3485 46bc
000000c0: 3603 00bd 6642 42bc 6f64 84bc 5eef 04bd
000000d0: 8f9e 013d 3d30 943c 0456 04bc 065f a2bc
000000e0: 4c6f cd3a b002 273c 05d5 55bd e409 f53c
000000f0: 2549 333d 1629 29bc 0efc 063c 3859 c03c
00000100: eda2 5b3b 017d 9fbc bf04 c53c 0ad3 c73c
00000110: 79ba 0cbd f116 8abb f1f3 0ebd a3cb f0bc
00000120: d6e9 7c3c b303 64ba 9b3a 6cbc 66ed 3bbb
00000130: 7953 c7bc 3279 97bb 88b5 253c 41cc d83c
00000140: 93ba 043c 93b6 d03c 6e23 bb3c 8747 86bc
00000150: 91c8 023c d3d2 52bc 0cf3 773b 83dd 7f3c
00000160: e150 ef3c 879f 07bd 5190 0d3d 0a0a f83c
00000170: a766 643c 08d4 d9bc 4ef4 76bc ca3a 0f3d
00000180: 6916 ed39 5a93 493c 442a 3f3d de9d febb
00000190: 6570 bfbc 23dc 12bc d141 ffbc c0b9 b53c
000001a0: 9590 6e3c 9d85 023b d732 243d a68f 553c
000001b0: 9b24 45bd 418e 1bbd 3839 e7ba 2530 3c3a
000001c0: 3c56 edbc fe5c c53c cca1 253d b5c6 b5bc
000001d0: 1132 583c 69d9 183c bafe 8b3c 0882 bf3c
000001e0: c13f 2c3d 6031 5abc 1794 913a 8513 a9bc
000001f0: aa53 843c 0499 b43c 69f4 77b9 07ea b3bc

tree_conv.6.weights.weight f4 [64, 128, 3]
-0.01823655 0.0238015 0.05955985 0.034174986 0.026527653 0.026155869 0.041246254 0.008176688
-0.08817948 -0.1276606 -0.06558055 -0.033591248 -0.009774024 -0.028054452 -0.0025830357 0.028164128
-0.04073491 0.018611081 0.051050503 0.039267737 0.03150941 0.028795736 -0.017038254 0.0870894
-0.026794557 0.003031396 0.03684002 -0.0627479 -0.017745523 0.022997377 0.00014920832 -0.054981392
0.0014260733 -0.018431164 0.017959824 0.029694734 -0.052562285 -0.06827391 -0.05926234 -0.02502561
-0.051425163 0.08597604 0.014254083 0.018745327 -0.0040714154 0.002816725 -0.09710101 -0.023472682
-0.012843108 -0.011994436 0.014385309 -0.029525474 0.035129502 -0.012178541 -0.045476288 0.02789027
-0.002215915 0.030622793 0.01013577 0.025741456 -0.014163855 0.0012250923 0.033791117 -0.017723067
-0.005851912 0.011996362 0.037307158 -0.031142496 0.07211682 -0.043975048 -0.025092294 0.030182378
-0.046537764 0.008359501 0.013529978 0.0040715924 -0.01527759 -0.030427352 -0.02017206 -0.057105754
-0.008755863 -0.023909956 -0.051787246 0.039592996 0.03737557 -0.01634057 0.010354994 0.059602655
0.034523696 0.024882227 -0.0520847 0.039569728 -0.022948591 0.012496635 -0.057223674 -0.0018516388
-0.052105524 0.046779785 0.02282478 -0.08097125 0.026350996 0.007633016 -0.03990194 0.04012623
-0.009199754 -0.02866626 -0.012606807 -0.03491965 -0.021868438 -0.0018647353 -0.04074595 -0.007685899
-0.0028017026 0.0028895498 0.0073271086 0.03961039 0.011096388 0.022219438 -0.006434295 -0.028699733
-0.01977324 -0.017043168 0.037978545 0.0034587246 0.022216963 0.04553495 0.042181145 -0.0578755
-0.024814252 0.009998484 0.033667054 -0.0052419277 -0.029458243 -0.043077182 -0.0061652795 0.037384957
0.029401837 0.0063368883 -0.002211691 0.020192167 -0.024859097 -0.043557808 -0.009556088 0.06309508
-0.005839275 -0.02431154 0.060293812 0.0097348625 0.050853923 0.021658884 -0.0102349445 0.01855016
-0.00024721696 0.0040584877 -0.062139716 -0.0068965377 0.005855 0.016219595 -0.023475219 0.040882085
0.005612597 -0.027252309 0.02073101 0.032327373 0.042488288 0.02498718 0.031050084 -0.027053248
0.033319615 0.04837913 0.052782565 -0.00070773606 -0.0109534785 0.087774806 -0.010092231 -0.044305317
-0.017031299 -0.089055136 -0.014697741 -0.01582473 0.062757485 0.01892363 0.03396013 -0.026369995
0.016405825 -0.004503417 -0.010995411 -0.018414157 0.019627914 -0.058348015 0.044369426 0.03207492
0.02107904 0.02369891 -0.034317456 0.06043701 -0.018791907 -0.052456457 0.012120977 -0.028569499
-0.015582385 -0.033464592 -0.013141119 0.009431923 0.03835699 -0.017918004 -0.06666919 -0.028433064
-0.050943863 0.028643608 -0.014633624 0.03938286 -0.059668962 0.010998641 0.025470456 -0.0012087751
-0.073241875 -0.027530639 -0.011469195 0.018436447 0.021855596 0.030049026 -0.032046046 0.038442075
0.043714855 -0.031360913 -0.028454274 -0.0006930828 -0.032380547 -0.05740259 -0.04027208 -0.011115668
-0.005362183 0.024807524 -0.07563103 -0.013680457 -0.043348793 -0.008592421 0.023141991 0.0008260709
-0.014312125 0.009807854 -0.008536893 0.005605075 0.047593694 0.01773231 -0.03949298 0.023124006
0.057000786 0.017132616 0.06734478 -0.060510628 0.00669927 -0.049356196 -0.047665764 0.032181222
00000000: d164 95bc 5dfb c23c 07f5 733d 12fb 0b3d
00000010: 8550 d93c d544 d63c d5f1 283d 84f7 053c
00000020: 7197 b4bd 76b9 02be 184f 86bd fa96 09bd
00000030: 3a23 20bc 73d2 e5bc 2648 29bb 75b8 e63c
00000040: a6d9 26bd 4476 983c 551a 513d 35d7 203d
00000050: 0310 013d 09e5 eb3c cf93 8bbc ed5b b23d
00000060: 4280 dbbc 63aa 463b 90e5 163d f981 80bd
00000070: 0f5f 91bc ff64 bc3c ce74 1c39 2b34 61bd
00000080: 14eb ba3a f4fc 96bc 7b20 933c 5f42 f33c
00000090: 8d4b 57bd 31d3 8bbd 11bd 72bd 8202 cdbc
000000a0: 31a3 52bd 3514 b03d f589 693c cd8f 993c
000000b0: 8269 85bb ce98 383b e5dc c6bd c849 c0bc
000000c0: e66b 52bc 5084 44bc 5cb0 6b3c 68df f1bc
000000d0: f4e3 0f3d 8188 47bc 5845 3abd 237a e43c
000000e0: e238 11bb a7dc fa3c 8010 263c bfdf d23c
000000f0: 840f 68bc 4793 a03a 8e68 0a3d f72f 91bc
00000100: 65c1 bfbb 648c 443c 64cf 183d 8c1e ffbc
00000110: fcb1 933d 2e1f 34bd 5b8e cdbc 0941 f73c
00000120: 629e 3ebd 4af6 083c d7ac 5d3c fe6a 853b
00000130: db4e 7abc c842 f9bc e03f a5bc b9e7 69bd
00000140: c074 0fbc d0de c3bc dd1e 54bd 442c 223d
00000150: 2017 193d a9dc 85bc fea7 293c ea21 743d
00000160: b868 0d3d d0d5 cb3c c456 55bd de13 223d
00000170: affe bbbc b0be 4c3c 5f63 6abd b0b2 f2ba
00000180: 9a6c 55bd 299c 3f3d 08fb ba3c 41d4 a5bd
00000190: 0bde d73c 611e fa3b 3770 23bd 675b 243d
000001a0: 91ba 16bc 81d5 eabc c88c 4ebc e807 0fbd
000001b0: 7025 b3bc 226a f4ba 3ae5 26bd fed9 fbbb
000001c0: c59c 37bb 9a5e 3d3b 3e18 f03b 813e 223d
000001d0: a0cd 353c 8a05 b63c c7d6 d2bb b41b ebbc
000001e0: 7dfb a1bc 1d9e 8bbc 648f 1b3d c5ab 623b
000001f0: 5900 b63c db82 3a3d 23c6 2c3d dc0e 6dbd
00000200: 4247 cbbc aed0 233c 77e6 093d 7ac4 abbb
00000210: 6a52 f1bc b371 30bd 1d06 cabb f820 193d
00000220: 1fdc f03c aca5 cf3b 05f2 10bb 0b6a a53c
00000230: 4ea5 cbbc ac69 32bd 2391 1cbc fe37 813d
00000240: 6457 bfbb ff28 c7bc a5f6 763d f97e 1f3c
00000250: 344c 503d f96d b13c 78b0 27bc 81f6 973c
00000260: e69c 81b9 10fd 843b 3786 7ebd 5afc e1bb
00000270: 4ddb bf3b f5de 843c 1a4f c0bc f973 273d
00000280: e0e9 b73b 3c40 dfbc 14d4 a93c b569 043d
00000290: 3308 2e3d eab1 cc3c bf5c fe3c c69e ddbc
000002a0: 267a 083d 3229 463d 8832 583d 5d87 39ba
000002b0: 3876 33bc 47c3 b33d e359 25bc 7e79 35bd
000002c0: 3985 8bbc 8a62 b6bd cbce 70bc dda2 81bc
000002d0: ff86 803d ba05 9b3c c719 0b3d e305 d8bc
000002e0: 8265 863c 6691 93bb 1926 34bc 49d9 96bc
000002f0: b8ca a03c 54fe 6ebd b7bc 353d fe60 033d
00000300: f3ad ac3c 3724 c23c 7690 0cbd cc8c 773d
00000310: 7cf1 99bc 95dc 56bd 1097 463c 950a eabc
00000320: 424d 7fbc 2b12 09bd d94d 57bc 5a88 1a3c
00000330: 381c 1d3d c7c8 92bc db89 88bd 75ec e8bc
00000340: 83aa 50bd 00a6 ea3c dec1 6fbc ec4f 213d
00000350: 7167 74bd a533 343c 6ba7 d03c c36f 9eba
00000360: d6ff 95bd ef87 e1bc 4ae9 3bbc 0808 973c
00000370: 820a b33c 6029 f63c b742 03bd 7075 1d3d
00000380: 590e 333d 4d74 00bd f018 e9bc 00b0 35ba
00000390: 77a1 04bd fa1e 6bbd 56f4 24bd 7e1e 36bc
000003a0: 40b5 afbb 2639 cb3c 71e4 9abd ff23 60bc
000003b0: 818e 31bd 3ac7 0cbc 4694 bd3c ae8c 583a
000003c0: 677d 6abc 1fb1 203c 53de 0bbc c7aa b73b
000003d0: 9bf1 423d 5943 913c 64c3 21bd 8e6e bd3c
000003e0: a879 693d b359 8c3c 0fec 893d fed9 77bd
000003f0: 8d85 db3b b929 4abd 2d3d 43bd 75d0 033d

tree_conv.6.weights.bias f4 [64]
0.020043164 -0.01647752 0.016854448 -0.05499152 0.012051962 -0.026470363 0.053651895 -0.0036092321
-0.022101564 -0.0021766897 0.010226192 0.011292037 -0.00042998424 -0.0021824497 0.03508673 -0.0031274965
0.02193052 0.03201601 -0.009219601 0.021323523 -0.020179087 -0.047118336 -0.046607487 0.017222583
-0.009938273 -0.020825269 -0.021796763 -0.033340108 0.028329976 -0.0064532063 0.0145926215 0.042547088
-0.04171704 0.014762506 -0.0068160538 0.04681932 -0.04058425 -0.048799552 6.0828334e-05 -0.053794798
-0.009602394 -0.02207495 0.015372903 0.00761096 0.008340104 0.0052237515 0.041014817 0.016525915
0.02272123 0.016651584 -0.03672176 -0.0068588876 0.03727699 -0.006361727 0.04367029 -0.0010354553
0.011814798 -0.024613272 -0.00637473 -0.0042407485 0.02320894 0.0045483173 0.020870602 0.04362699
00000000: 9031 a43c ddfb 86bc 5712 8a3c ca3e 61bd
00000010: 9875 453c 60d8 d8bc 17c2 5b3d de88 6cbb
00000020: 570e b5bc cba6 0ebb c28b 273c 3c02 393c
00000030: 826f e1b9 6e07 0fbb 1ab7 0f3d aff6 4cbb
00000040: a2a7 b33c 3823 033d cf0d 17bc abae ae3c
00000050: 9d4e a5bc 28ff 40bd 7ee7 3ebd 6016 8d3c
00000060: 23d4 22bc c199 aabc 208f b2bc a38f 08bd
00000070: 4414 e83c 6b75 d3bb e415 6f3c db45 2e3d
00000080: 7ddf 2abd 70de 713c 3459 dfbb 9ec5 3f3d
00000090: ac3b 26bd 0ae2 47bd ed21 7f38 ef57 5cbd
000000a0: 5c53 1dbc 87d6 b4bc a1de 7b3c 5c65 f93b
000000b0: eea4 083c 012c ab3b 27ff 273d 5b61 873c
000000c0: df21 ba3c e768 883c 8e69 16bd 85c0 e0bb
000000d0: c2af 183d 0976 d0bb 9edf 323d 1db8 87ba
000000e0: db92 413c c6a1 c9bc 1ce3 d0bb faf5 8abb
000000f0: ad20 be3c 0d0a 953b d3f8 aa3c 37b2 323d

tree_conv.9.weight f4 [32, 64]
-0.061867457 0.114559025 -0.006127204 0.05030536 0.009200068 0.12748553 -0.058812685 -0.05475384
-0.015901202 -0.08014715 -0.115412876 0.08214089 0.066709645 -0.0048108026 0.031351898 -0.1333944
-0.009374127 0.061904754 0.03829848 0.0651478 -0.051771313 0.04369123 0.024504352 0.13527367
-0.07986448 -0.0893506 0.08298718 0.09136742 -0.118152775 -0.06703242 0.118209265 0.056992833
-0.06571789 -0.05820769 0.09168264 0.014779118 -0.04342657 -0.119915135 0.059927154 -0.14389332
-0.022775656 -0.05845311 -0.022610148 -0.1261932 -0.13226722 -0.05915022 0.08719535 0.054209717
-0.04057819 0.08518801 -0.08470283 -0.0008338217 0.06970115 0.02257348 0.12570046 0.08375557
-0.035333 0.028316194 -0.017196616 -0.11670466 -0.061081357 0.11938927 -0.09003131 -0.06278582
-0.050756082 0.13879713 0.048992835 0.07817549 0.08575276 0.14790939 -0.12264499 0.0054643946
-0.026615871 -0.097017124 -0.1833978 0.012509503 0.09425288 0.061841946 0.2061291 0.03302293
-0.06401259 -0.09187157 0.048319887 0.021446243 0.17940505 -0.051147893 -0.120095536 0.0547078
0.2022373 0.16703552 -0.053780206 -0.01085893 -0.043621384 -0.12421445 -0.0961745 0.067693576
0.027206888 -0.14926669 0.07357509 -0.11808847 0.15591758 0.08850251 0.106153995 0.06451095
0.07864024 0.04930337 -0.11252645 -0.07437293 0.1650777 -0.10778607 0.022460716 0.044502057
-0.020622771 0.17050898 0.025465554 -0.04770471 0.08556602 0.17933246 0.090652436 -0.14485726
-0.13956419 0.03670495 0.20690812 -0.09807399 -0.099213235 0.028442165 0.06662709 -0.05883984
0.12014865 -0.14670081 -0.020741252 -0.13965571 -0.0010673134 0.05890912 0.04415772 0.0030767617
0.056509096 -0.04796294 0.15869997 -0.0019907223 0.022541119 -0.02378651 0.043545805 0.007459148
0.10003795 0.08616165 0.023743667 -0.12609537 0.042205565 0.117320985 0.1686893 0.11506797
-0.12755261 -0.12169934 0.014319659 0.04653619 -0.059441257 0.111340255 -0.01695005 0.066671535
0.054734986 0.1494495 0.18632688 0.0069183 -0.082578875 0.07686555 -0.072078116 -0.10913768
-0.073141515 0.18594272 -0.012603989 -0.03073205 0.059708856 0.14453748 0.024576945 -0.10129319
0.05777221 0.04908231 -0.124345794 0.09824379 0.030532246 -0.03260154 0.015488798 0.225396
0.16821475 0.14100261 -0.120189 0.2557853 0.03593752 -0.060357835 -0.088677414 0.19603957
0.11388686 0.013419101 0.009294953 -0.057315912 0.15597242 0.08206703 -0.01541681 0.03895832
-0.03194963 0.01623798 0.19406067 -0.1570438 -0.029680802 0.055306576 0.04383968 0.1545404
0.10806808 0.15408479 -0.012397805 -0.01042596 -0.15152001 0.17796963 0.16282672 0.12574504
-0.15451229 0.03414598 0.05166974 -0.088843815 -0.13652782 0.08886352 0.1414692 0.07927627
0.13077027 0.10384199 0.08325942 -0.010267435 -0.15546198 0.13195513 -0.114097424 -0.08346803
-0.13589878 0.14616261 0.18244071 0.014115303 0.036558125 0.04926851 -0.10667478 -0.07795642
0.1070261 -0.014186623 -0.10893821 0.058398735 0.020438252 0.08186904 0.073349506 0.21582216
0.109112054 0.020865526 -0.10375102 0.047680143 0.04217323 -0.16543637 -0.051798385 0.025141176
00000000: bb68 7dbd ec9d ea3d b6c6 c8bb fe0c 4e3d
00000010: e2bb 163c 918b 023e 92e5 70bd 9045 60bd
00000020: 3d43 82bc 3024 a4bd 965d ecbd 7c39 a83d
00000030: 119f 883d f0a3 9dbb d96a 003d 8b98 08be
00000040: f095 19bc d78f 7d3d dede 1c3d 366c 853d
00000050: 280e 54bd 93f5 323d 5abd c83c 2e85 0a3e
00000060: fd8f a3bd 73fd b6bd 2ff5 a93d d81e bb3d
00000070: 15fa f1bd 4b48 89bd b317 f23d 5171 693d
00000080: 1a97 86bd 306b 6ebd 1cc4 bb3d 1d24 723c
00000090: 0fe0 31bd 1196 f5bd 2d76 753d c558 13be
000000a0: 0394 babc 876c 6fbd eb38 b9bc ca38 01be
000000b0: 0f71 07be 8047 72bd 7a93 b23d 020b 5e3d
000000c0: 5135 26bd 0d77 ae3d ad78 adbd d494 5aba
000000d0: 7abf 8e3d 05ec b83c 9fb7 003e 0a88 ab3d
000000e0: 56b9 10bd 5df7 e73c ebdf 8cbc da02 efbd
000000f0: 7230 7abd 5d82 f43d 5662 b8bd da95 80bd
00000100: 9ce5 4fbd d620 0e3e b6ac 483d 791a a03d
00000110: 259f af3d 8f75 173e 4c2d fbbd aa0e b33b
00000120: 8709 dabc eab0 c6bd a2cc 3bbe a9f4 4c3c
00000130: a707 c13d fb4d 7d3d 8213 533e 0d43 073d
00000140: 0819 83bd 2927 bcbd 13eb 453d 08b0 af3c
00000150: f5b5 373e 7480 51bd a6f4 f5bd 4915 603d
00000160: 4b17 4f3e 5c0b 2b3e a248 5cbd a7e9 31bc
00000170: 56ac 32bd 2564 febd 23f7 c4bd eea2 8a3d
00000180: fbe0 de3c 5ed9 18be 89ae 963d 5ed8 f1bd
00000190: dca8 1f3e ce40 b53d 4467 d93d 511e 843d
000001a0: 220e a13d 55f2 493d 4474 e6bd d650 98bd
000001b0: 210a 293e f1be dcbd 89ff b73c ca47 363d
000001c0: 16f1 a8bc e899 2e3e 239d d03c 0466 43bd
000001d0: 3d3d af3d eea2 373e fca7 b93d 7655 14be
000001e0: eae9 0ebe ee57 163d b9df 533e 04db c8bd
000001f0: 4f30 cbbd 8bff e83c c973 883d 0b02 71bd
00000200: 7f10 f63d bd38 16be 8fe9 a9bc e801 0fbe
00000210: 18e5 8bba b04a 713d bade 343d 7fa3 493b
00000220: 1576 673d ca74 44bd 3f82 223e c776 02bb
00000230: 27a8 b83c eddb c2bc 165d 323d de6b f43b
00000240: b2e0 cc3d 8575 b03d 1482 c23c 251f 01be
00000250: bedf 2c3d fc45 f03d e3bc 2c3e c1a8 eb3d
00000260: 279d 02be 813d f9bd 019d 6a3c bb9c 3e3d
00000270: ad78 73bd 5c06 e43d d5da 8abc 168b 883d
00000280: cb31 603d 4a09 193e 79cc 3e3e e8b2 e23b
00000290: 1d1f a9bd af6b 9d3d b19d 93bd 9383 dfbd
000002a0: 38cb 95bd c567 3e3e f680 4ebc c8c1 fbbc
000002b0: 4691 743d a201 143e 9755 c93c ce72 cfbd
000002c0: 8ea2 6c3d 880a 493d 02a9 febd 0a34 c93d
000002d0: c31e fa3c 3189 05bd bac4 7d3c 36ce 663e
000002e0: 7d40 2c3e fd62 103e a725 f6bd 4af6 823e
000002f0: 3933 133d c739 77bd 819c b5bd 99be 483e
00000300: 843d e93d cadb 5b3c dc49 183c 17c4 6abd
00000310: 3cb7 1f3e c212 a83d ca96 7cbc c292 1f3d
00000320: 9ddd 02bd 8305 853c d7b7 463e 17d0 20be
00000330: 2725 f3bc 2689 623d 3c91 333d d73f 1e3e
00000340: cc52 dd3d 67c8 1d3e 2a20 4bbc a5d1 2abc
00000350: 1028 1bbe ac3d 363e 0cbc 263e 4fc3 003e
00000360: 7838 1ebe a8dc 0b3d a6a3 533d bff3 b5bd
00000370: f3cd 0bbe 14fe b53d 4ddd 103e 995b a23d
00000380: a4e8 053e 1cab d43d ea83 aa3d be38 28bc
00000390: 6d31 1fbe 3f1f 073e e9ab e9bd 49f1 aabd
000003a0: 0d29 0bbe a7ab 153e bdd1 3a3e df43 673c
000003b0: f9bd 153d c7cd 493d 4f78 dabd 9ea7 9fbd
000003c0: 8030 db3d 026f 68bc ff1a dfbd 8333 6f3d
000003d0: 1f6e a73c f5aa a73d 4438 963d 7c00 5d3e
000003e0: 2476 df3d 2eee aa3c 6a7b d4bd 414c 433d
000003f0: d6bd 2c3d 2768 29be 8b2a 54bd def4 cd3c

tree_conv.9.bias f4 [32]
-0.115337536 -0.0062913774 0.17777653 0.055962645 0.110943705 0.08671047 0.19372538 -0.065229565
0.015891487 -0.002976665 -0.013906096 0.12293657 0.004988659 -0.093192615 0.17645918 -0.0057692286
-0.011625019 0.16183425 -0.06530304 0.17700592 0.060146134 0.21334669 -0.119011946 0.013495674
0.1836161 0.1227043 0.23477057 0.11982044 0.17191377 -0.0760636 0.15528786 -0.068533935
00000000: 1636 ecbd e627 cebb 0d0b 363e 1639 653d
00000010: 7436 e33d 4295 b13d f25f 463e 1497 85bd
00000020: dd2e 823c 2714 43bb 65d6 63bc 2bc6 fb3d
00000030: e877 a33b c5db bebd b7b1 343e cc0b bdbb
00000040: dd76 3ebc e1b7 253e 9abd 85bd 0a41 353e
00000050: cb5b 763d 8e77 5a3e 89bc f3bd f61c 5d3c
00000060: dc05 3c3e 644c fb3d b267 703e 6b64 f53d
00000070: 2a0a 303e 3cc7 9bbd c803 1f3e 855b 8cbd

tree_conv.11.weight f4 [1, 32]
0.113480695 -0.3202687 0.31677032 0.44381946 0.30578637 0.21937633 0.3267616 -0.23632291
-0.51996744 -0.29008994 -0.07382591 0.28496847 -0.4593548 0.14297198 0.28000912 -0.06318918
-0.1430701 0.3949454 -0.38683352 0.46935055 -0.23850554 0.48412 0.051627558 0.08454006
-0.43992415 0.025901671 0.4186937 -0.22927603 0.27157608 0.34692532 0.33549318 0.38901374
00000000: 9168 e83d 42fa a3be b82f a23e 4e3c e33e
00000010: 0890 9c3e 30a4 603e 4c4d a73e a2fe 71be
00000020: 961c 05bf ab86 94be 0a32 97bd 63e7 913e
00000030: 8d30 ebbe 3f67 123e 5b5d 8f3e 5469 81bd
00000040: f880 12be 4936 ca3e 0b0f c6be b74e f03e
00000050: cc3a 74be 94de f73e 6b77 533d 5723 ad3d
00000060: bd3d e1be be2f d43c 055f d63e 56c7 6abe
00000070: 050c 8b3e 32a0 b13e c3c5 ab3e cf2c c73e
