models/lero_on_imdb_JOB_JOP.pth (torch, 623086 bytes, 9 tensors)

tree_conv.0.weights.weight f4 [256, 38, 3]
00000000: 773f 593d 1890 d93d b017 b6bd 5ec3 e23c
00000010: 8f8a 61bd d228 8fbd d9d2 233b a7f4 81bb
00000020: 6c2f e83d d7a1 91bd a905 c6bc 0d95 eabd
00000030: a979 08bd 4280 be3d 1f2e 47bd afbb 8a3c
00000040: b7c5 7d3d c01d efbb a430 913c f41e 48bd
00000050: 1094 063d 4500 4f3d a2b3 81bd 7b00 8f3d
00000060: ee19 21bd 89d1 89bd 51fe 52bc a0e8 703c
00000070: 65f3 43bd dfb4 9cbd e985 9ebd 447d 9fbc
00000080: cf23 5c3d f43e 35bd 3751 c13c 48d4 d3bc
00000090: 5688 e9bd b448 753d 89ee 03bd bdc3 b7bd
000000a0: 6bac 2dbd 594d a8bd dbc8 943d 690e 97bb
000000b0: af51 4cbd 2721 c33d 8d19 d63d 7988 00be
000000c0: b6ce 9a3c 66f9 053d 65ce 35bd 22fa 813d
000000d0: b172 debc 103d 1b3d e915 943d 5759 3dbd
000000e0: 854a 843c 2965 c23c 0d04 903d a55b 1d3d
000000f0: 786c 5d3d 4878 7c3b ea34 663d d01b ef3c
00000100: 90de 50bd 6e4a 2abc 6cef b83d 1d95 253d
00000110: 4f40 d43b 3f7b a53d fb7b 303d a297 4cbd
00000120: 8771 9a3d f3ea 1d3d 9307 aa3d 00ab dabd
00000130: 1ba2 49bd 8e58 2d3d ec6b a43c fc93 133e
00000140: 5e44 0bbe 7254 05be 3af6 e3bd cb7b 97bd
00000150: 6a63 143d ab7e aebd 02da d93d fb8d 8abd
00000160: c1ad 033e e1d1 17be dadd d93d 25bd bfbc
00000170: 0263 b3bd 254d 4d3d 88ed 9f3d be96 643b
00000180: a842 fabd 1db4 0bbe 4782 dabd b7b6 69bd
00000190: 9025 6b3d e88a a9bd c465 acbd 0320 ecbd
000001a0: 80cb c83d b26b 453d 42a3 8c3b 2e8b 85bd
000001b0: 9a36 37bc b54b b73c 4ed0 393d e39e e73d
000001c0: 36c8 943d 11cf 99bb 9597 fbbd a874 753c
000001d0: c2e1 79bc e4b4 19bc a949 77bc db03 023e
000001e0: fbe7 e1bc 978a 083d e7d1 bf3c f7d6 8abd
000001f0: 5d68 a1bc a875 ffbd 6194 c03d 30cf 4c3d
00000200: 6979 73bd 6c7a 88bc 920a 05bc 3b58 67bd
00000210: 7afe 803d 843f b5bd 258e d03c 28ee 8abd
00000220: f4a2 233c 47b5 923e 393d e63d 70c6 00be
00000230: cdbf 96bb 0ea6 d23c 7274 203e 8f0a f8bd
00000240: ab86 91bb d2b0 be3d 549d 4dbd 0792 b5bc
00000250: eed8 a23d bb5a a2bd c3b1 523d 8aa3 133d
00000260: 3286 0d3c d1aa 63bd 1853 1c3d d4ec 15bd
00000270: 2a07 f1bc 873a 9e3d b76a 5ebd 6009 48bd
00000280: f456 eb3d ffa6 b0bd fe52 8a3d d4ab b43d
00000290: 5b30 43bd f610 5a3d da86 5dbc 8460 b03c
000002a0: abb9 08bd c515 813d 6f04 83bc fce9 5ebc
000002b0: 46a5 263d 22e8 c9bc f115 003e 50e8 e53d
000002c0: 0ee3 c5bd 40cf 583c 631b a0bd 979f 213e
000002d0: 82ae 3abc 8dd9 b4bd acdf a43d 9e88 96bd
000002e0: ce0b 92bd f69b b3bd f211 d83d c4d8 a0bc
000002f0: b0ab 803d 47a3 81bc 713f cf3d 32b5 0ebe
00000300: 6f40 7ebb ed8a 7abd 8126 d9bc add8 7a3d
00000310: 4062 01bb 3857 f33d df83 8b3d aa9e 003e
00000320: 3b0b 933d 873a 70bd dd64 63bd 8974 b03d
00000330: 93ff a4bd c2e9 f03b fb91 eebb d03c e6bc
00000340: 6090 4fbe a690 51bd 8b74 23bd 57bb 40bc
00000350: becf 1abd 4336 b63d 8f76 d63d b5a2 8fbd
00000360: 48dd 01be e309 1f3c 5905 83bd 2518 dabd
00000370: 3557 503d cbd5 a6bd 0a09 df3b 4ec4 babd
00000380: e889 963a b44e 8c3e ddc4 863d 9ca2 683e
00000390: 8534 793d 8a08 d63d 28d1 663d ce7b f5bd
000003a0: 570e b83d ef04 9f3d d535 173d 4b58 953d
000003b0: a4ef abba 7de8 353d 62ec 123e f203 49bd
000003c0: ec9b a4bd 2290 9ebd 9e01 23bd b6df 0dbd
000003d0: 13ed 40bd d0f5 2abd 6e1a 133c d453 ab3d
000003e0: fb9e 793d 496a e13d 78fc 833d 4a42 31bd
000003f0: 6fc8 9f3d 6cef e1bd 87eb 513d 28ca ea3d
0.05303904 0.10623187 -0.08891237 0.027681049 -0.05506378 -0.06990208 0.0024997501 -0.0039659324
0.1133717 -0.071109466 -0.02417262 -0.114542104 -0.03331915 0.09301807 -0.04862797 0.016935198
0.061956134 -0.0072972476 0.017723389 -0.048857644 0.032856047 0.050537366 -0.0633309 0.069825135
-0.03933137 -0.06729419 -0.012878017 0.0147039 -0.04783954 -0.07651686 -0.07740385 -0.019468911
0.053745087 -0.04424949 0.023598297 -0.02585806 -0.11402957 0.05988379 -0.032209907 -0.08972881
-0.04240076 -0.08217878 0.07264873 -0.004609872 -0.049882587 0.09527808 0.10454092 -0.1255206
0.018897396 0.032708548 -0.044386286 0.06346537 -0.027154298 0.03790003 0.072307415 -0.04622778
0.016148815 0.023729878 0.070320226 0.038417477 0.054058522 0.0038523842 0.056202807 0.029188067
-0.050993502 -0.010393722 0.09030041 0.04042541 0.0064773927 0.08080148 0.043086987 -0.049949296
0.07541185 0.038554143 0.08302226 -0.10677147 -0.04922686 0.04232078 0.020070992 0.1441192
-0.13600299 -0.13020495 -0.11130948 -0.073966585 0.03622762 -0.08520254 0.10637285 -0.06765362
0.1285925 -0.14826156 0.10638018 -0.02340562 -0.087591186 0.0501224 0.07808977 0.0034879888
-0.12219745 -0.13642927 -0.1066938 -0.057059016 0.05740887 -0.082784474 -0.08417848 -0.11529543
0.098044395 0.04819841 0.004291923 -0.06520687 -0.011182452 0.022374967 0.04536467 0.11309602
0.0726475 -0.0046938737 -0.12284771 0.014981426 -0.015251579 -0.009381507 -0.015093246 0.12696783
-0.027576437 0.033335295 0.023415519 -0.067792825 -0.019703085 -0.12473613 0.09403301 0.050002277
-0.059441958 -0.016659938 -0.008120196 -0.056480628 0.062985376 -0.08850005 0.025458405 -0.06783706
0.0099875815 0.2865393 0.11242146 -0.12575698 -0.004600501 0.025713947 0.1566942 -0.12111389
-0.0044411025 0.093110695 -0.050198868 -0.022164358 0.07951532 -0.07927462 0.051439058 0.036044635
0.008637952 -0.055582825 0.038165182 -0.03660281 -0.029422361 0.07726007 -0.05430099 -0.048837066
0.11491194 -0.08625602 0.06754111 0.08821836 -0.047653537 0.05323883 -0.013520921 0.021530397
-0.03338019 0.0630298 -0.015993325 -0.013605591 0.04068496 -0.024646822 0.1250837 0.11225951
-0.09662448 0.013233006 -0.078177236 0.15783535 -0.011394145 -0.08830557 0.080504745 -0.073502764
-0.07131158 -0.087699816 0.10550298 -0.019634612 0.06282747 -0.015824927 0.10119522 -0.13936308
-0.003879573 -0.061167646 -0.026507618 0.061241794 -0.00197424 0.1188187 0.06812262 0.12560526
0.071798764 -0.058649566 -0.055516113 0.08615977 -0.080565594 0.007352085 -0.007280586 -0.02810517
-0.20269918 -0.051163338 -0.039906066 -0.011763415 -0.037795775 0.08897068 0.10471832 -0.07013456
-0.12682068 0.009706947 -0.06397504 -0.106491365 0.050864417 -0.081462465 0.0068064975 -0.091194734
0.0011485191 0.27403796 0.065805174 0.2271828 0.060841102 0.104508474 0.05635181 -0.119865045
0.0898711 0.07764613 0.036916573 0.07292231 -0.0013117683 0.04441117 0.14347985 -0.04907603
-0.08037552 -0.07742335 -0.039796464 -0.034637176 -0.04710109 -0.04173833 0.008978469 0.08365598
0.06094263 0.110066004 0.06444639 -0.04327611 0.078019015 -0.11031994 0.051250007 0.114643395

tree_conv.0.weights.bias f4 [256]
00000000: efe9 59bd 6f38 17bd 35dc cebc 488e 03bd
00000010: 53d6 b5bd 0be7 cdbc 2561 6bbd ebf4 9cbd
00000020: 10b8 583d a1a9 673d 71f4 83bd 1175 e93d
00000030: 069e f3bc 59f8 a3bd 9956 78ba 35ad ae3d
00000040: 769c 11bd f014 e63d 8fd1 fe3d f9db 073d
00000050: 3f39 e1bc c64f 3ebd 8106 ae3c 5def 773d
00000060: 8981 823d b8d9 7abc b9bd fabc aa28 b6bc
00000070: 347e 86bd d36e 803d b9b2 1c3d 9eb3 4ebd
00000080: 3780 86bc 4310 7dbd 586c 56bd 5210 a73d
00000090: 9f94 fcbc de1f 843d 2f33 ef3c 796c 54bd
000000a0: 2134 d1bc efb2 80bd 329d 8d3d 31f6 7b3d
000000b0: 93c5 9c3d 4df1 6bbc e85f cbbd bb7b 883d
000000c0: 1914 6e3b 37e9 123d 3eac a9bc 1e19 b63d
000000d0: cd80 a3bd 8e06 d7bc 8a2d 9dbd 11bb 8fbd
000000e0: 3e0f 55bd ed77 42bc 7b37 283d fa2c bdbc
000000f0: 6dc3 b8bd f063 423d f23c d43d c083 c0bd
00000100: 7316 38bd 97d9 78bd 13e5 e6bc a621 983c
00000110: 7693 9cbd 59ab 9a3d 347a a9bc 6ccf 073d
00000120: 11c1 033d 2702 a33c a08a cd3c a7a8 7ebc
00000130: a58a 783d 816f d23a fcf3 87bd 9b9d c43d
00000140: 6cfc bcbd 1370 45bd 697c b13d 7654 09bc
00000150: e60c 9b3d a63b 753d d92e 22bd e6e0 973d
00000160: 5c1b 3d3d 00e2 3dbd e434 49bd 78be a93c
00000170: 8679 c7bd a36b 43bd 5915 323d 6bff 9a3d
00000180: 1bd8 e0bc 86f2 e03a f9e4 00bd 898a 76bd
00000190: 5d02 b5bd fb12 633c 0d3d 35bb 27a6 c73d
000001a0: 44f0 1d3c 461d 123d 75ad 0d3d 8ef2 e1bc
000001b0: 5f5b 643d 7529 1cbd 466a 10bd a528 64b9
000001c0: 1721 d73c 5b5a d9bd 9eed bd3d 2b62 a0bd
000001d0: d644 f8bc 4231 7abd 3fd9 09bc eeee 38bd
000001e0: eb63 fcbc 09c4 fdbd c3b3 ad3d bd67 1f3d
000001f0: 219f 393d b2a4 e2bd ef9a 7a3d ecfc 893c
00000200: 3c7e bf3d 1ae5 603c 3577 afbd 37f6 013e
00000210: 9f31 8bbc 95dc bb3d 3a55 8cbc ef4e c13d
00000220: 392f 29bd 4a5e b93d b512 0dbd 7758 4dbd
00000230: 293e 073d cee3 e1bc 9a03 da3a 94d7 39bd
00000240: e705 553d 72a4 343d d8b8 4fbd 5634 823d
00000250: 81a2 783d d5cf 5fbc b418 5a3d f6b1 9a3d
00000260: 48c5 ef3c 8195 a7bd 313a e73c 9b33 5cbb
00000270: ebe0 cc3c 078a 30bd cdea ca3d 8678 a53c
00000280: dc7d 9b3d 6300 5a3d 3fcd 503d 8296 85bd
00000290: c92b 1f3d 0ad3 e9bd 6735 a83d ed2b 393d
000002a0: ceed 82bc bb6a 02bd f04e 04bc 1d14 983d
000002b0: 1572 5abd 7827 c43c ee92 d3bc 925e 9e3c
000002c0: f688 b43d ce9a 113d 3fc0 ec3c d77c 44bd
000002d0: a4e6 1dbd f5ce b7bd 843a 033c 78a7 e23d
000002e0: 7b3f afbc 1eae 2bbd 542d bfbc 7562 1fbd
000002f0: e812 a93c bddc 88bd 36ca a13d af26 d63c
00000300: 569a da3c 0c56 ea3c 9207 23bd 6618 87bd
00000310: a0cc 8e3d 34ad 8fbd ecfc c13d 6d1a 49bc
00000320: bd63 53bb 58e4 91bd a2b8 c33c 993f 8bbd
00000330: 5dd6 35bd cf67 c8bd 839a a33d 0a16 823d
00000340: 649e cdbd 4724 b03c 8426 9b3d cf24 01bd
00000350: 446f 803d 5e1c 613d 748f a53d 440b 373b
00000360: 744e a3bd dbeb c53d c6fb 333d f278 3b3d
00000370: 46a8 afbc 4aea 4cbd cd71 abbc 9953 84bd
00000380: 6e86 15bd b470 9fbc 9514 36bd b4a7 a8bd
00000390: ea24 47bd 16a7 89bc 60d4 fb3d d8b3 0cbd
000003a0: 1b84 913d 63f6 16bd 10f5 6539 0118 c9bd
000003b0: cf58 db3d c8df 74bd b534 8c3d 326f ddbc
000003c0: 31c0 a13b e2c4 723d 0670 96bd 510d aa3d
000003d0: a880 4fbb fbe5 e1bc 5ea9 813d 2e66 9e3d
000003e0: 3e77 623d 1879 d2bd 7b58 893c f218 c33b
000003f0: 254d 623d 0021 473b a6f9 92bd 2d2a 8cbc
-0.053201612 -0.036919054 -0.025251487 -0.03211811 -0.0887877 -0.025134584 -0.05746569 -0.07663902
0.05290991 0.056558255 -0.06443108 0.11399282 -0.029738437 -0.08006353 -0.0009473353 0.0852913
-0.035549603 0.11234462 0.12442314 0.033168767 -0.027493117 -0.046462797 0.021243336 0.06053101
0.06372363 -0.015310697 -0.030608045 -0.022236187 -0.0656704 0.06271138 0.03825638 -0.050464265
-0.01641856 -0.061783087 -0.05234942 0.0815741 -0.030832587 0.06451391 0.02919921 -0.05186126
-0.025537552 -0.06284129 0.06914748 0.061514083 0.07654872 -0.014400792 -0.09930402 0.06664225
0.0036327897 0.035866942 -0.020712014 0.088915095 -0.07983551 -0.026248243 -0.076747015 -0.07018102
-0.05201649 -0.011869413 0.041068535 -0.023092736 -0.090216495 0.04745859 0.10363187 -0.09400129
-0.044943284 -0.060754385 -0.028185403 0.018570732 -0.076453134 0.07552213 -0.020688154 0.033156797
0.032166544 0.019898487 0.025090516 -0.01554314 0.060679097 0.0016054959 -0.06638333 0.09600373
-0.09227833 -0.048202585 0.086663075 -0.008381953 0.075708196 0.05987134 -0.03959546 0.07415943
0.04616867 -0.04635811 -0.049122706 0.020720705 -0.09739976 -0.047710072 0.04347739 0.07568248
-0.027446797 0.0017162121 -0.031468365 -0.06019071 -0.088383414 0.013859506 -0.0027654797 0.09748488
0.009639803 0.03567245 0.03458925 -0.02758148 0.0557512 -0.038125474 -0.0352576 -0.00021758916
0.026260896 -0.10612937 0.092738375 -0.07831224 -0.030306261 -0.061082132 -0.008413612 -0.045149736
-0.030809363 -0.12390906 0.084815525 0.038917292 0.045317773 -0.110665694 0.061182912 0.016844235
0.09350249 0.013726497 -0.08567659 0.1269158 -0.016991435 0.09172932 -0.017130483 0.094388835
-0.0413048 0.09051187 -0.03444167 -0.050133195 0.033018265 -0.027574446 0.0016633153 -0.045371607
0.052007582 0.04410214 -0.05071339 0.063576385 0.06070185 -0.013660391 0.053246215 0.075534746
0.029268876 -0.081828125 0.02822599 -0.0033600095 0.025009593 -0.043100383 0.09908066 0.020199072
0.07592365 0.053223025 0.050976988 -0.06522848 0.038860116 -0.11417206 0.08213311 0.045207907
-0.015982535 -0.031840067 -0.008075461 0.07425711 -0.053331453 0.023944601 -0.025826897 0.019332204
0.08815186 0.035548024 0.028900264 -0.04797062 -0.038550034 -0.08975021 0.008009557 0.110670984
-0.021392575 -0.041914098 -0.023337044 -0.038912255 0.020638898 -0.066827275 0.07899897 0.026141493
0.026684921 0.028605483 -0.03980214 -0.065964505 0.06972623 -0.07015458 0.09472069 -0.012274367
-0.0032255494 -0.07123631 0.02389175 -0.0679924 -0.044393886 -0.09785425 0.07988455 0.0635186
-0.10039976 0.021501673 0.07575706 -0.031529244 0.06271222 0.054958694 0.08084002 0.0027930299
-0.07973948 0.096641265 0.04394128 0.04576964 -0.021442544 -0.050028123 -0.020928288 -0.064612575
-0.036505155 -0.01946292 -0.044453222 -0.08235112 -0.04861919 -0.016803306 0.12296367 -0.0343512
0.07105275 -0.036856066 0.00021930435 -0.098190315 0.10710298 -0.059783727 0.068459906 -0.027030561
0.004936241 0.059269793 -0.073455855 0.08303321 -0.0031662378 -0.027575484 0.06331132 0.07734333
0.0552895 -0.10277003 0.016765824 0.0059539014 0.055249352 0.003038466 -0.07176523 -0.017109955

tree_conv.3.weights.weight f4 [128, 256, 3]
00000000: bc72 ea3c f9aa 153d 71c1 583b b5e8 783d
00000010: 50f6 083d bf77 98bd 95fd 59bc 1df5 aebb
00000020: 2c84 8e3d 3f44 26bc 6d5b 64bc 89ba b93c
00000030: 8335 b8bb 29b1 253d 7485 a1bc 1785 dc3b
00000040: 3cea 6cbc d609 113d c17e 2e3d 7496 f83b
00000050: 2779 29bb 2447 febc 8d56 3c3a 4d1e 4fbd
00000060: c418 77bc b522 ed3c f576 ce3c b570 76bd
00000070: f1a4 44bc 41e0 13bd 6de0 c5bc 3b10 c43c
00000080: 7275 a33c a968 ef3c a115 aa3c 9178 1abb
00000090: 5efa 11bd f5f3 843b 62e3 44bc ff02 6ebc
000000a0: 4690 a23c 2117 e23c b3f6 acb8 2358 e83c
000000b0: 0e76 0d3d 9b3b 67bc 6b2f 16bd 0f9e 35bd
000000c0: a815 96bc 6755 3b3c 83b7 8e3d c105 49bd
000000d0: 1db8 74bc d946 913b f207 29bd b2e8 223d
000000e0: d5f8 44bd 9034 eabc 27f4 383c 341f 863c
000000f0: 5e87 c93c e2c3 633c fab4 62bc 5eec b8bb
00000100: 3bd2 17bc e942 9dbb f94e 0fbc 0ddd 3bbd
00000110: c351 893d b013 01bd d964 f6bc f27a 41bd
00000120: f06a 163d b3ff 183d 2a19 0a3d 1fcd febc
00000130: 281f 41bd 8598 273c 4335 473d 838f c4bc
00000140: 8148 0abd 9514 e5bc 3ed4 1d3c 692a 53bc
00000150: 5476 c4bb d855 d23b 73a6 baba 7df9 213c
00000160: 79d6 0abd 1714 2cbc 2bf9 8a3d 1519 a03d
00000170: 70d0 6a3c 3687 c73c 628e 3bbd a641 5f3d
00000180: b23b a1bc 2e57 91b9 e370 03bc ea6c b63c
00000190: b0d1 42bc 84ba eabb dae5 00ba 79c4 3cbb
000001a0: dc38 19bd db73 bcbc f2f4 16bd 4a7c 22bd
000001b0: 8d29 573d 3cbe f7bb 5d2a c7bc eb29 54bd
000001c0: c51c 80bc 8698 aabc c4c7 153d fd20 a33c
000001d0: 135f a3bc 03db 203d 79e7 8f3b 04a5 0c3d
000001e0: ec2c c93c f6e9 05bd 0e43 97bc af88 d4b9
000001f0: 9d3e 1c3d 6fbf 9d3c ad96 0f3c 84aa c4bc
00000200: 61d0 503c e05e 573b 33b5 0f3d f799 9e3c
00000210: 60a1 f5bc da54 f93c 9bce f53c d999 8dba
00000220: 7435 dfbc 346d 49bd 71e3 de3c 2721 a73c
00000230: 2e89 d6bc b1ec 2abd 33fc 0fbd 6924 2ebd
00000240: ad31 9cbc 94a7 a53c a9bb 433d bc4b de3c
00000250: 691b 3d3b 6519 3d3b 7338 9d3c b29a f9bc
00000260: ca38 ec3c 63ce 01bc c9b7 63bd bdf2 0abc
00000270: e20a b3bc e330 57bc 43d5 9d3c d708 85bb
00000280: a80d 223d c3dd cebc 2461 bf3c 34f0 893c
00000290: a032 893d 41a3 2a3c a520 033d 21c7 b4bc
000002a0: 4e8f dc3c aaaf 92bc d236 e7bc c0e1 a73b
000002b0: e106 8b3c f051 17bd f0fd a5bc 8f74 b83c
000002c0: 1cb0 c7bb 0423 dabb f490 123c fe09 a5bd
000002d0: 1b59 ad3c e467 173d 07ee 1abd f67d f7bc
000002e0: e015 a73b a285 fdbc b938 12bc 2030 46bd
000002f0: 975c 88bd 3d58 c03b 7719 093d ab2c 213c
00000300: 618e 85ba 2711 503a 6be9 71bc ff27 273d
00000310: 09c9 1f3c 01f8 40bb 3a45 463a 86c3 b53c
00000320: 8807 163c 4d1a 3dbc be22 79bd 53b9 e8bc
00000330: a233 d8bb c331 843c 2fd0 0b3d 9a43 cdbc
00000340: 76b5 75bb 2214 fd3a 96f2 253d b099 9dbc
00000350: de13 edbc 1a6a 9abb 10f4 b93b 6653 9639
00000360: c087 46bd b5d7 96bc 31b6 0fbd caf4 393c
00000370: 9914 03bc 9844 9ebc 97b7 4abd 528f 54bc
00000380: a8b6 47bd a4a2 b839 b4a1 dd3c b410 ae3b
00000390: f07b f7ba 40e8 ea3c 8fef 33bd 6445 46bd
000003a0: 06f6 95bc 6938 85bc edaf a03d 158b 3c3c
000003b0: 6947 d53d 3a2d b1bc 1e92 b3bc 360a c1ba
000003c0: 5e09 4e3c d0b2 c4bc 0ffa 9e3b 09d0 d0bc
000003d0: e8da a53c b515 2a3c 90eb 45bc e7fc 00bc
000003e0: f20b 3c3d d643 d1bc 9785 88bd cef4 ab3c
000003f0: 5f35 5abd 81bd c3bc 2bd4 bfbd 1cf9 853b
0.028619163 0.036540005 0.0033074284 0.0607688 0.033438027 -0.07444715 -0.013305088 -0.0053392784
0.069588035 -0.010148107 -0.013937813 0.022671955 -0.0056216135 0.040452156 -0.019716956 0.0067297327
-0.014460143 0.03540977 0.04260135 0.007586295 -0.0025859566 -0.031039782 0.0007184528 -0.050566006
-0.015081588 0.028947214 0.025203208 -0.06016608 -0.012002216 -0.036102537 -0.024154866 0.02393352
0.019953463 0.02922471 0.020762267 -0.0023570398 -0.03563916 0.0040574023 -0.012017103 -0.0145270815
0.019844186 0.02759892 -8.2475504e-05 0.02836234 0.034536414 -0.014113332 -0.036666315 -0.04434019
-0.018320873 0.011433936 0.06968596 -0.049077753 -0.014936474 0.0044334945 -0.041267343 0.039772697
-0.048088867 -0.028589517 0.011288679 0.0163723 0.02460068 0.013901683 -0.0138370935 -0.0056434115
-0.009266431 -0.004799236 -0.008746856 -0.045865107 0.06705048 -0.031512916 -0.030077385 -0.04723639
0.036723077 0.03735323 0.033715405 -0.031103669 -0.047148854 0.010229235 0.04863478 -0.023994213
-0.03376055 -0.027963916 0.009633122 -0.012888529 -0.005995551 0.006418925 -0.001424028 0.009886143
-0.033895943 -0.010502837 0.06785806 0.07817284 0.014331922 0.024356466 -0.045790084 0.054505967
-0.019681785 -0.0002772151 -0.00802252 0.022268731 -0.011890814 -0.0071633477 -0.0004917063 -0.002880363
-0.03740774 -0.023004463 -0.03685469 -0.039669313 0.05252986 -0.0075605195 -0.024312193 -0.05179779
-0.015638718 -0.020824682 0.036567464 0.019913191 -0.019942796 0.039271366 0.0043916074 0.03433706
0.024557553 -0.032693826 -0.018464591 -0.00040537628 0.03814565 0.019256322 0.008763951 -0.02400709
0.012744994 0.0032862946 0.035084914 0.019360526 -0.029984176 0.030435968 0.030005744 -0.0010803296
-0.027247168 -0.04917641 0.027208062 0.02040155 -0.02618846 -0.041729633 -0.035152625 -0.042515192
-0.019066656 0.020221509 0.04778639 0.027135722 0.002885545 0.0028854248 0.019191956 -0.030469272
0.028835673 -0.007922742 -0.055595193 -0.008480725 -0.021855775 -0.013134214 0.01926673 -0.0040598917
0.039563805 -0.025252229 0.02336175 0.01683817 0.06699109 0.010414899 0.032013554 -0.022067608
0.026923802 -0.017906029 -0.028224383 0.005123347 0.016971054 -0.036943376 -0.020262688 0.022516517
-0.006093992 -0.006657006 0.008945692 -0.080585465 0.021160653 0.036964312 -0.037824657 -0.03021143
0.0050990433 -0.03094751 -0.008924657 -0.04838574 -0.06658285 0.005869894 0.03347155 0.00983731
-0.0010189527 0.0007937126 -0.014765124 0.040809628 0.00975252 -0.0029444697 0.0007563416 0.02218796
0.009157069 -0.011541915 -0.06082415 -0.028408682 -0.006597952 0.01613701 0.034134086 -0.025056649
-0.0037492192 0.0019308368 0.04051455 -0.019238323 -0.028940137 -0.0047123553 0.0056748465 0.00028672366
-0.048469305 -0.018413404 -0.03508586 0.011349866 -0.008000516 -0.019319817 -0.04949149 -0.012973623
-0.04875818 0.00035216392 0.027054645 0.0053120498 -0.0018881541 0.028675199 -0.043929633 -0.04840602
-0.01830579 -0.01626225 0.07846055 0.011507769 0.10414011 -0.021628011 -0.02192026 -0.0014727775
0.0125754755 -0.024011046 0.0048515867 -0.025489824 0.020245984 0.010381152 -0.012080088 -0.007872797
0.04590983 -0.025545042 -0.06666105 0.020990755 -0.053273555 -0.023894073 -0.0936664 0.004088534

tree_conv.3.weights.bias f4 [128]
00000000: edd7 5dbd f608 e9bc 1333 e23b 77b6 aebc
00000010: 7f67 d0bc 45ac 87bb bcbb acbc 0d4b acbb
00000020: 4b56 493d 8ba2 a03b 6f31 e6bc 38a3 40bc
00000030: d0f9 01bb 43ad 05bd 046c 443d d060 69bc
00000040: 5b4e 313d 1022 723d d21c 073c 1c9d 933d
00000050: f349 bc3c 94ad 153c b369 b63a a819 79bc
00000060: de35 293d 90bb 8dbc f57b 3c3d 5d7f 0ebd
00000070: 8a65 1abb 6ff2 1ab9 2960 843d 2ed0 fd3c
00000080: 4d9d 8e3a bca7 103d b075 193c 3b08 72bc
00000090: d14b 1abd 4e34 b3bc e932 1e3d 242e 1b3c
000000a0: a348 79bb 5f89 483c b81e 66bd 7a2b 323c
000000b0: 3b0d f43c 7a4c 0fbc c2d5 7d3d 2f78 f03c
000000c0: 0565 213d baac 09bd 0bd6 b53a 9250 97bc
000000d0: 7a92 7e3b bd88 433c 4520 6f3d 993c 893c
000000e0: 675c 9abc dbe0 ddbb 67c6 73bc bbd1 0e3d
000000f0: 3f53 84bc 3c08 8fbc 447e 4a3d 401d 1c3d
00000100: 6e55 283d b2d6 153d 548b 9dbc 4a0a ba3a
00000110: 535b eb38 5367 2a3d 2a88 01bc 871f dfbc
00000120: 4804 0b3a d821 553c d1a1 a33c d563 803c
00000130: 24f9 2cbd 841b 8bb8 42d6 0e3c 7b14 0cbd
00000140: d25a 6abc ccba 063c 2552 f3bc 6cbf a43c
00000150: 65ee 58bd 7280 4b3b 77a0 04bd f025 213d
00000160: 18d4 0b3d d7bc 12bd 4963 8c3c 48be bbbc
00000170: 7e38 9c3b b57b ae3c 624e 0dbd 3117 c13c
00000180: f832 9a3c ead2 213d 3085 933c 442f 0fbd
00000190: ab3b 033d bb52 0a3d 89f8 013d 332a b33c
000001a0: 4789 d03c 1b6c acbc c2f2 7b3c 8c1e 9c3d
000001b0: 3d59 6fbd fae5 0f3d aace 8ebd d0d2 f4bc
000001c0: ea97 83bd 4913 8ebc 86cb 91b8 c996 b5bc
000001d0: 91f6 893c 0b2e 7739 2769 0d3d ae31 083d
000001e0: c907 28bb 3551 753d eaab 67bc 17e3 2bbd
000001f0: 0d64 93bc e13b 273c 27ee edbb 5690 833c
-0.054161 -0.028446656 0.006903061 -0.02132724 -0.025439976 -0.004140409 -0.021085612 -0.00525797
0.04915456 0.004902189 -0.028099744 -0.011757664 -0.0019832738 -0.03263594 0.047954574 -0.014244273
0.043287616 0.059114516 0.008246617 0.072077006 0.02298448 0.0091356225 0.0013916999 -0.015203871
0.041311137 -0.01730135 0.046016652 -0.03478943 -0.0023559057 -0.00014776898 0.064636536 0.030983057
0.001088062 0.035316214 0.009366438 -0.01477247 -0.03766996 -0.021875527 0.03862277 0.00947145
-0.003803768 0.012239783 -0.05618164 0.010874623 0.029791465 -0.008746261 0.061971433 0.029354183
0.03940298 -0.03361199 0.0013872994 -0.018471036 0.003884463 0.011934456 0.058380384 0.016752528
-0.018842889 -0.0067711896 -0.014878846 0.034867983 -0.016152976 -0.017459981 0.049436823 0.038113832
0.041097097 0.036581703 -0.019231476 0.001419374 0.00011222684 0.041602444 -0.007905999 -0.027236713
0.0005303067 0.013008557 0.019974621 0.015672604 -0.042229787 -6.633162e-05 0.008718075 -0.03419922
-0.01430388 0.008223247 -0.029702256 0.020110808 -0.052961726 0.0031051901 -0.032379594 0.03934282
0.034137815 -0.035824623 0.017137187 -0.022917882 0.0047674766 0.021299222 -0.03449858 0.023570629
0.018823132 0.039507784 0.018007845 -0.034957185 0.032039326 0.033770304 0.031731162 0.021870708
0.025456084 -0.021047642 0.015377702 0.07623014 -0.058434714 0.035131432 -0.06973012 -0.02988568
-0.0642546 -0.01734318 -6.952048e-05 -0.022166627 0.016841205 0.00023572908 0.03452411 0.033250503
-0.0025639406 0.0598919 -0.014140109 -0.041964617 -0.017992044 0.010207147 -0.007261056 0.016060036

tree_conv.6.weights.weight f4 [64, 128, 3]
00000000: b26f 86bb 86e6 d2bc 313c 0e3c 7221 5dbd
00000010: 68d0 80bc 0844 adbc 55e3 66bc ee58 0fbd
00000020: 0cbb 28bd dc82 c3bc 259f c13c 31a5 91bc
00000030: 0f0f 823d 3e42 f2bc 55e3 56bd 61ad 02bc
00000040: 3b4a 7e3d c487 b6bb 7960 6d3b 3357 1b3d
00000050: 1273 8fbc 6d08 313d 7b7b f1bc 9fd3 653c
00000060: 7746 0c3d b642 6cbd 1b66 923c 3e73 34bb
00000070: 46de 563c 0115 77bd f8c8 c3bc 1231 863b
00000080: f6ae 963b 6e7f c73b 98ba 3b3d 68e1 0fbd
00000090: 3a5b 6bbc 0629 503d df43 f4bc 23df 353b
000000a0: e3e9 2abd 488d 53b9 27d0 4cbd 598f 55bd
000000b0: 41f2 5a3c 4dfe 56bd 6b51 33bd 0d4c 94bc
000000c0: 2ba0 e73c 87a8 10bd d63b c23c 0a12 373c
000000d0: fa13 bcbc 99da e4bc 4ab1 cabc a222 293d
000000e0: e79a 72bc 734f 19bc 1dd5 6b3c 5e35 8ebd
000000f0: 5ef1 a33c ea90 043c 66f5 87bc 9338 bcbc
00000100: 93bc d53c 95ab 0e3d d694 c53b 6758 ca3c
00000110: 26fa 7c3d e6ea 213d dbb4 6b3d 77d3 0f3d
00000120: 2a25 fc3a 049d dd3b 2f20 db3b 0c5b 123c
00000130: 92d4 8dbd c171 3fbd 6b36 d83c 2061 2b3c
00000140: 5c32 2ebd f2d4 843d 7bac a93c 33e5 3f3b
00000150: 8c0c 4f3d b2c4 cf3c ea86 313d cfcd 173d
00000160: 691d 5f3c cf31 8ebd 802c d7bc b2df 1dbd
00000170: f327 fd3c f152 09bd e567 e53d 8829 40bd
00000180: 9f34 ab3c c3dc 253d 6d34 a13d eb01 b6bc
00000190: 51d9 1f3d eb70 303d 41ba 3f3d 8687 28bc
000001a0: 1193 9ebc 3ed6 e03c d6d5 09bd 8f13 a53c
000001b0: 8b40 aebb 7d8c abbc 4315 cbbc 824c 03bd
000001c0: 6098 a5bc 2328 f9bc 83a2 4b3c 6e8e 04bb
000001d0: 6bbf 8bbd c686 cc3c e723 553d dc7f 4abd
000001e0: aeac e2bb b0a0 303c bb9d e03c 3d89 133d
000001f0: 31d0 09bd c2b0 89bc 5c29 c638 c8e8 f83c
00000200: 2640 63bd 18ff 563c 98e0 56bc 9fe4 913c
00000210: e51b 7ebd 33bb 153d 47b5 173c 0b70 dd3b
00000220: a54e 0bbc 9d98 f53c 71b7 7e3c abef 4a3b
00000230: 0be1 22bd 17c6 81bd ae06 8fbc 7626 6539
00000240: d890 cabc 0029 52bc 792f 5fbd 9121 d1bc
00000250: 1d00 0ebd 8fe3 e4bd 7d3d 743d e49b 083d
00000260: 7031 d6bc 277a 82bd eb8a 423d 212d 363d
00000270: ecd4 023d dc9e 703d 2704 683b 26d4 b33c
00000280: ffff 5a3d 789d 7d3c 6f3a ccbc 6b1d 82bd
00000290: ea32 15bd 8712 ca3c 09a8 c7bc 3bb4 cd3c
000002a0: b1d7 fcbc 609d 2d3b bed7 f0bc 847d 38bd
000002b0: 3fc1 123d 2ae4 0cbc ac2f 1e3d bf35 92ba
000002c0: fdef 30bd 864e c23c 8dd0 2c3c 047d 253c
000002d0: 8a54 2d3d b16d 5b3d 71ac b03c 8a1d 2bbd
000002e0: 8283 153d cdbe cc3d 72d2 bebc 660a 72bd
000002f0: 1d77 d73c fa58 373d 2363 063d 2c3d 6dbd
00000300: ffc6 053d 740c 1cbd 27c5 153d a7d2 e6bc
00000310: 8150 1ebc 2f64 24bd 673b 01bb cbd2 f5bc
00000320: 4363 27bc c2bd 3cbd e002 f7bc e543 34bd
00000330: 4a19 8fbc a4d8 503d 3f02 1d3d 2a44 333d
00000340: b7c3 a13d b8cf e2bb 58e0 8b3d 6bc7 12bd
00000350: 5611 4dbd b47c 61bc f242 beb9 5141 243d
00000360: 584c a23c 2ca5 16bd 7aa1 fc3c 9213 683c
00000370: df7b 37bd 2e11 52bd 6b47 ba3c 5423 45bd
00000380: 6f02 0abd 5399 04bd d6a3 393d 747f 47bc
00000390: e717 9fbd f845 0ebd ea7a c93d 2bf6 32bc
000003a0: 17ba 233d 8962 f83c 14a2 173d e8c2 49bc
000003b0: 36ea 3cbb 6edd 6a3d 91e5 07bd 721d 833d
000003c0: abbf b2bc bcdf 323d 3810 ccbc be49 8abd
000003d0: e645 ba3b 33e3 ec3c 56e9 113d 3ee6 c2bb
000003e0: a54e aebc 086d 01bd d9c9 af3c b6a4 033d
000003f0: 5d9a 843d 00b2 363c 0a25 823b f1b7 c0bb
-0.0041026706 -0.025744688 0.008681343 -0.053986974 -0.015724376 -0.021150604 -0.014092286 -0.03499692
-0.041194007 -0.02386611 0.023635456 -0.017778965 0.063505284 -0.029572602 -0.052462894 -0.007975907
0.06208251 -0.0055703837 0.0036220832 0.037924957 -0.017510924 0.043220926 -0.029477825 0.014027505
0.034246888 -0.057680808 0.017870953 -0.002753451 0.013114518 -0.060322765 -0.02389954 0.004095205
0.0045984937 0.006088189 0.045832247 -0.035127074 -0.014365012 0.050820373 -0.02981752 0.0027751408
-0.041726958 -0.0002017516 -0.050003197 -0.05213866 0.013363422 -0.052488614 -0.043778818 -0.01810267
0.028274616 -0.03531697 0.023710173 0.011173734 -0.022958744 -0.027936267 -0.024742741 0.041292794
-0.014807439 -0.009357321 0.014394072 -0.06943773 0.020012554 0.008091191 -0.016596507 -0.022976195
0.026090896 0.034831602 0.0060297055 0.024700357 0.061761998 0.039530657 0.057545524 0.035113778
0.001923715 0.0067631025 0.006687186 0.00893284 -0.0692531 -0.046739344 0.026393136 0.010460168
-0.042528495 0.064859286 0.020712128 0.00292809 0.050549075 0.025362346 0.043341555 0.03706151
0.013617852 -0.06943094 -0.026266336 -0.03854341 0.030902838 -0.033526365 0.11201457 -0.046914607
0.020899115 0.040493738 0.078713275 -0.022217711 0.03902561 0.043076437 0.046808485 -0.010286218
-0.019357236 0.027445909 -0.033651195 0.020150928 -0.0053177527 -0.020941013 -0.024790412 -0.032055385
-0.02021426 -0.030414646 0.0124288825 -0.0020226496 -0.068236195 0.024966609 0.052036192 -0.049438342
-0.0069175577 0.010780498 0.027418962 0.036019552 -0.033645812 -0.016807918 9.4490795e-05 0.030384436
-0.0554811 0.0131223425 -0.013115071 0.01780921 -0.06203832 0.03655548 0.0092595285 0.0067577413
-0.008502637 0.029979998 0.0155466655 0.0030965607 -0.0397654 -0.06336611 -0.01745924 0.0002185347
-0.02472727 -0.012827158 -0.054488633 -0.025528701 -0.034668077 -0.11176216 0.059628952 0.033351794
-0.02614662 -0.06370955 0.047495764 0.044476632 0.03194134 0.05874525 0.0035402866 0.021951746
0.053466793 0.015479438 -0.024930207 -0.06353267 -0.03642551 0.024667038 -0.024372118 0.025110355
-0.030864568 0.0026491508 -0.029399749 -0.045041576 0.035828825 -0.00859932 0.038619682 -0.0011154934
-0.04319762 0.023719084 0.010547769 0.010100607 0.04231695 0.053571407 0.021566601 -0.041776218
0.03650237 0.0999733 -0.023293708 -0.059091948 0.026301915 0.04476259 0.032809388 -0.057919666
0.03266048 -0.038097814 0.036564972 -0.028176619 -0.009662748 -0.040134605 -0.0019719244 -0.03000774
-0.010216537 -0.046079405 -0.030152738 -0.04401006 -0.017468113 0.050987855 0.03833222 0.04376618
0.07898658 -0.0069217347 0.068298995 -0.03583471 -0.05006536 -0.013762642 -0.00036289502 0.040101353
0.019811794 -0.036778614 0.030838717 0.014164822 -0.044795867 -0.051285915 0.022739133 -0.048129395
-0.033693727 -0.032372784 0.04532226 -0.012176383 -0.07768231 -0.034734696 0.09837897 -0.010922949
0.03997239 0.030320423 0.037019804 -0.012314536 -0.0028826124 0.057340078 -0.033177916 0.064021006
-0.02181991 0.0436704 -0.024910077 -0.067523465 0.005684602 0.02891693 0.035622917 -0.005947857
-0.021277735 -0.03159812 0.021458553 0.032139502 0.06474755 0.011150837 0.0039717006 -0.0058813025

tree_conv.6.weights.bias f4 [64]
00000000: 7633 81bd 7202 15bd 8f5a 523d 420f 4fbd
00000010: 75bf 0fbd 1522 39bb beaa 8bbc 663b 153d
00000020: b787 31bd 5d2a d53c 0732 d4bc 109e 243d
00000030: 4206 5b3d f414 26bc db8e 173c 8238 5b3c
00000040: 407a 0abd 25b4 60bc deba 643c b096 79bd
00000050: b805 243d 7bd6 b8bc 2dd4 1ebc 4684 53bd
00000060: b893 183d 4120 6dbd ed37 793d 73d4 15bc
00000070: 8434 873d 604f aa3c 70b0 c8bc 5144 133b
00000080: 83b7 4ebd 4579 8a3d c247 1a3d 5e87 773d
00000090: 2a55 d4bc 3eac 86bc 1c97 86bd 10f9 a6bc
000000a0: 2be7 febc 0373 5e3c f5a9 e9bc 2dd8 cabb
000000b0: 0688 5cbb 70cc 04bd 003c 67bb 2948 ae3b
000000c0: 2bec c13b 8751 f4bc fa0f fa3c 066c 413d
000000d0: 732f 29bd 6b3a 0b3c 14ab 9c3d 21b7 093d
000000e0: 667e e9bc 410f 1b3d 3b7d 6f3d 3b3a 013d
000000f0: e169 73bc 82ec 23bc d78c 48bc d607 733c
-0.063086435 -0.036379285 0.051355895 -0.05055166 -0.035094697 -0.0028249074 -0.01704919 0.0364336
-0.04334232 0.026021177 -0.025902761 0.040189803 0.053472765 -0.010136832 0.009250368 0.013380172
-0.033807993 -0.013714825 0.013960568 -0.060934722 0.040044516 -0.02256321 -0.009694141 -0.051639818
0.03725025 -0.057892088 0.06084435 -0.00914489 0.066018134 0.020789802 -0.024498194 0.002247114
-0.05046798 0.067614116 0.03766609 0.06043183 -0.025919516 -0.016439553 -0.065717906 -0.020382434
-0.031116089 0.013577226 -0.028523425 -0.006190321 -0.0033650412 -0.03242153 -0.0035283566 0.0053186608
0.005918046 -0.029824032 0.030525196 0.04722216 -0.041305017 0.008497815 0.07649818 0.03362191
-0.028502654 0.037856344 0.05846904 0.031549674 -0.0148567865 -0.010005118 -0.01224061 0.014833411

tree_conv.9.weight f4 [32, 64]
00000000: 4840 1f3d 3db4 133e 6414 a73c 80fe 33bc
00000010: 982c be3d c3f1 2d3d 1d7e f73d a6ef f3bc
00000020: 04f3 eb3d acb3 3bbd a404 a5bd 870d dfbd
00000030: 83d1 a2bc 1c2f 913d b8a1 08bd 43d4 973d
00000040: 85fa 643d d4ac 073d 14d0 c6bd 0689 66bc
00000050: 5138 71bb ae57 44bd d475 ed3d 3f63 b53d
00000060: 763a 32bd 4363 593d 28af 49bd cf5b 133d
00000070: 9f1e 5dbd caaa 043d eafd 173c e15e 21bd
00000080: c261 383d 511b 57bd a02e 183d cc5c ccbc
00000090: 96ba 943d 76ee 8cbc f00b f0bd 35d0 abbd
000000a0: 302b b8bd a967 fdbd 7222 88bd 5a1c 073b
000000b0: 3138 57bc b665 ce3d 9b30 d6bd c2be f638
000000c0: 6124 15be 7072 2ebd 574d d83d eff9 033c
000000d0: 90e0 afbd 50c0 e23d a0da 9f3d 626b 903d
000000e0: 50a9 083d c05f 2cbd feae 2fbd 76bf 1dbd
000000f0: f9fb a53d 2166 7cbd d7b2 e9bd 3417 b6bd
00000100: f039 eb3c d3d7 a8bd 53fb 643c df77 883d
00000110: a64c 1cbe 3a8e 873d e019 d6bd 86a9 94bc
00000120: c178 6a3e eb2d 1b3e 604f c2bd eae0 4e3d
00000130: b972 1ebb 4b11 193e 4b36 f8bd 3766 5abc
00000140: 2cde f3bc 898e c43d f688 a1bc aa1d 0bbe
00000150: 3bcc bc3c defb 18bd 8916 23bd ebd1 463e
00000160: 4024 8a3d 81ff 4cbd 1b80 2d3e 57fc 5a3e
00000170: 32d1 0c3d eb26 57bd b122 803d c556 80bc
00000180: 90c5 8bbd 1e3c cb3d b3e1 1a3c 2856 95bd
00000190: 88f0 0cbd 3f17 91bb 93bf 9b3d 8e1c 7f3d
000001a0: d192 283e e2f9 3d3e a867 2ebd 6b6e c43d
000001b0: 2e03 b03d 2124 f8bb 94af 023e d4e3 c2bd
000001c0: bd9a 373e 5a9f 69bd e995 bfbd b24c 05be
000001d0: c02a 81b9 0aff 883d 8789 5cbd dc7d 0abe
000001e0: e189 0b3d dde9 9dbd 520e 06be 8ffd 133e
000001f0: 7253 18be 8548 55bd 8131 61bd 317e 413c
00000200: 46a7 adbd b010 9a3b f0f2 afbc 1fca 94bd
00000210: c731 1cbe e551 1e3e 39b7 1a3c c8b5 793d
00000220: 2510 7c3c 5cdd 053e 2b5b 08be 0a9f 96bc
00000230: 2574 ad3d 0375 983d 441e 51bd 8a77 2dbe
00000240: c9e3 42bd 33fa 033e 3b88 fbb9 6935 803d
00000250: ac02 a13d 76c5 413d 6206 0dbe 7374 a4bc
00000260: a19c 3f3d 43e5 853d 1fe2 333e aa4c 263e
00000270: 6407 023e d07a e4bd ca02 18be e1de d83d
00000280: c974 7fbd 17c6 8f3d 3692 ce3d f0fc 1bbe
00000290: 468f 003e 9d99 2c3e d329 abbd 1e99 c0bd
000002a0: 5512 3a3e 63e8 d2bc 5336 3b3e 7430 0abd
000002b0: ad53 93bc 09c0 aebd c45e 283e 9aef b9bd
000002c0: 6133 d33d dd42 88bd aee3 babd 36a4 e8bd
000002d0: 4466 e43d 5c6c 873d e7ac f8bd 1d68 f13c
000002e0: bfb5 66bd da70 adbd 9d4b ac3c b993 2c3d
000002f0: 9c24 7b3d cce0 9f3c 528b 14bd f964 013e
00000300: aeb0 a33d 6301 503d 9bb7 3fbb bcd0 0cbe
00000310: a8cc 2c3d df19 adbd 34c1 7fbd 6505 a53c
00000320: dd9d 8dbd 28a0 a1bb 7719 5fbd 8266 c53d
00000330: b529 603d 3f31 d8bd b8fd fb3d eb20 363e
00000340: 58bb 72bd 1c8c 163c ef15 8d3d 9003 babb
00000350: 7c67 acbd 89f1 3c3d 1c44 8d3b 3d32 8c3c
00000360: 30fa 753d 66bc f33d d274 39bc 5945 263c
00000370: 3a15 4bbd c328 303e 43f4 f03c 7e48 e1bd
00000380: efa2 483c e4b8 35bd e3ce abbd 3317 3dbd
00000390: dad7 51bd 8060 723d 96a9 003e c03a 3c3e
000003a0: 6cce 313d 5fff 03be fb7f 933d 7685 7a3d
000003b0: 952a 6fbd dc98 adbc 5e48 c03c f63a 6c3d
000003c0: 83b5 aabd 7902 b6bd e83f 003e 800a bf3d
000003d0: fe36 e4bd b459 fe3c 8310 903d 4ed9 72bd
000003e0: 5f3f bbbd 25e5 f83d 42d5 4d3b e9ed d8bd
000003f0: b6a0 ef3d 1806 85bd 6809 343c 898d 81bd
0.038879663 0.14424224 0.020395465 -0.0109859705 0.09285849 0.04246689 0.12084601 -0.02977736
0.11520961 -0.045825645 -0.08057526 -0.10891252 -0.019875294 0.070890635 -0.033357352 0.074135326
0.055902977 0.033123806 -0.097076565 -0.014070755 -0.0036807249 -0.04793518 0.115947396 0.0885682
-0.043512784 0.05307318 -0.049239308 0.035976227 -0.05398428 0.03238944 0.009276846 -0.039397124
0.045015104 -0.052516285 0.03715384 -0.024946593 0.07262151 -0.01720355 -0.11721027 -0.08389322
-0.08992612 -0.12373287 -0.06647195 0.0020616264 -0.013135956 0.100779936 -0.104584895 0.000117657255
-0.14564659 -0.042589605 0.105616264 0.008055194 -0.08587754 0.11071837 0.07805371 0.07051732
0.033364594 -0.0420835 -0.042891495 -0.03851267 0.081047006 -0.061620835 -0.11411064 -0.088911444
0.02871415 -0.0824429 0.013975936 0.066634886 -0.15263614 0.066189244 -0.10454154 -0.018147241
0.22897626 0.15154235 -0.09487796 0.050507464 -0.0024177267 0.14948003 -0.121197306 -0.013330034
-0.029769026 0.09597499 -0.019718628 -0.13585535 0.023046603 -0.037349574 -0.039816413 0.19416015
0.067451954 -0.050048355 0.169434 0.21385323 0.03437919 -0.05252735 0.06256617 -0.015666375
-0.068247914 0.09923576 0.009453225 -0.072918236 -0.034409076 -0.00442782 0.07604899 0.06228309
0.16462256 0.18552354 -0.042579323 0.09591373 0.085943565 -0.0075726663 0.1276229 -0.09516111
0.17930122 -0.057036735 -0.09354765 -0.13017538 -0.0002463665 0.0668927 -0.053842094 -0.13524574
0.03406704 -0.077106215 -0.130914 0.14452194 -0.14875582 -0.052071113 -0.05497885 0.0118098715
-0.084791705 0.0047016963 -0.021478146 -0.07265114 -0.15253364 0.15460928 0.009443098 0.060964376
0.0153847085 0.13072723 -0.13316028 -0.018386383 0.084694184 0.07444193 -0.051054254 -0.16940132
-0.047580514 0.12888412 -0.0004797595 0.06260187 0.07861838 0.047307454 -0.13771966 -0.020075059
0.046780232 0.06537869 0.17566727 0.16240183 0.12698132 -0.11156237 -0.14844814 0.10589386
-0.062367234 0.070202045 0.10086481 -0.15233207 0.12554654 0.16855474 -0.08357587 -0.09404205
0.18171056 -0.025745576 0.18282442 -0.033737615 -0.017984236 -0.085327215 0.164424 -0.090789035
0.10312534 -0.06653378 -0.09125458 -0.11359446 0.11152318 0.06612465 -0.121423535 0.02946859
-0.05632567 -0.0846879 0.021032149 0.042133067 0.06131421 0.019516371 -0.03626568 0.12636174
0.07992683 0.050782572 -0.0029253724 -0.13751501 0.042187363 -0.084522 -0.062440112 0.020144174
-0.06914876 -0.004932422 -0.054467645 0.096386924 0.054727275 -0.10556268 0.123042524 0.17785995
-0.059260696 0.009188678 0.06888949 -0.005676694 -0.084181756 0.046128783 0.004311098 0.0171138
0.06005305 0.119011685 -0.011319356 0.01014837 -0.04958079 0.1720305 0.029413348 -0.11000155
0.012245878 -0.04436578 -0.0838907 -0.046164703 -0.051231243 0.05917406 0.12564692 0.18381786
0.04340975 -0.12890385 0.07202145 0.061162435 -0.05839022 -0.021191053 0.023472007 0.057673417
-0.08335402 -0.0888719 0.12524378 0.093281746 -0.111433014 0.031048633 0.07034399 -0.05928927
-0.091429465 0.12153081 0.003140763 -0.10592253 0.11700575 -0.06495303 0.010988571 -0.06325824

tree_conv.9.bias f4 [32]
00000000: e251 973c 944d 7c3c c4ee 02bd 8fcb 283d
00000010: 3457 0c3e e0f5 4c3d dc46 313e f99e 253e
00000020: fa4b 0ebe 49fd 413d 4fdb 3e3e 5c7d 3a3d
00000030: 9b30 45bb 7cfb d0bc 354a 033e c336 243e
00000040: 4ab9 2e3e 4e21 cd3d 494c db3d b92f ddbc
00000050: f8f9 7abd 7c6e 113e 30ba a33d 83ba 463e
00000060: 89c2 133e de31 cb3d 619a 47bd f81d e8bd
00000070: a99d c03c 8304 c83d 1f91 2abd 25d3 033e
0.018471662 0.015399355 -0.031965986 0.041209754 0.1370514 0.050039172 0.17312187 0.16173925
-0.1389617 0.047360692 0.18638347 0.04552971 -0.0030088786 -0.025510542 0.12821276 0.16036515
0.1706287 0.10016118 0.107079096 -0.027000295 -0.061273545 0.14202303 0.07994497 0.19407086
0.14429678 0.09921621 -0.04873121 -0.11333841 0.023512678 0.097664855 -0.041642305 0.12873514

tree_conv.11.weight f4 [1, 32]
00000000: b729 763d d5c1 d13e 4198 863e bc67 89be
00000010: 1bc2 ed3e aaab e1be 4c4a eb3e 6cd4 653e
00000020: a98d 49bc 27d2 013e f329 ce3e c150 e73e
00000030: 08c0 d9be d47e 80bd 86f5 92be 067f 45be
00000040: 687a ae3e ab8c 5f3e 119e de3e adc1 bd3e
00000050: 59b1 db3d be2c a3be dffd 0cbe 4fc2 a4be
00000060: cd0c 263e fe17 9c3e 7d42 b83e a813 873e
00000070: 9b8f 5e3d bfc7 ccbe 803b 903e af02 8fbe
0.060098376 0.40968195 0.26288036 -0.26836956 0.46437153 -0.44076282 0.45955122 0.22444314
-0.012301841 0.12677823 0.4026638 0.45178798 -0.4252932 -0.062741905 -0.28702945 -0.19286737
0.34077764 0.21831004 0.4347997 0.37061825 0.10727186 -0.31870073 -0.13768719 -0.32179496
0.1621582 0.30487055 0.35988227 0.26382184 0.05433617 -0.39996144 0.28170395 -0.27931735
