models/lero_on_tpcds_10_TPCDS_JOP.pth (torch, 663170 bytes, 9 tensors)

tree_conv.0.weights.weight f4 [256, 51, 3]
0	0x3d73ac35	0.0594904
1	0x3d26a610	0.040685713
2	0xbd8c4d45	-0.068506755
3	0x3d70b614	0.058767393
4	0xbd42af62	-0.04753054
5	0xbd11867b	-0.03552864
6	0xbbaf42f3	-0.005348557
7	0xbb605a60	-0.0034233555
8	0x3d126ea7	0.035750058
9	0xbd78ad1f	-0.060711976
10	0xbd957283	-0.07297232
11	0x3d2b9528	0.041890293
12	0xbd404dc3	-0.04694916
13	0x3d781c69	0.06057397
14	0xbd2bee31	-0.041975204
15	0x3c6f819c	0.014618304
16	0x3d5b0dcb	0.05347995
17	0xbbce6722	-0.0062989155
18	0x3c7aa73f	0.015298664
19	0xbd2cbe13	-0.042173456
20	0x3ce85565	0.028361032
21	0xbd0f368a	-0.034964122
22	0xbd33c134	-0.043885425
23	0x3e0b7888	0.13620198
24	0xbc248dc1	-0.010043562
25	0x3d1865d4	0.037206486
26	0x3ba2889d	0.004960133
27	0xbd044788	-0.03229478
28	0xbd0f0a1d	-0.034921754
29	0xbda160d2	-0.07879795
30	0xbd74786b	-0.059685152
31	0xbc89ab70	-0.01680538
32	0x3da9bf2f	0.082884185
33	0xbd2ccece	-0.04218941
34	0x3ccd3fb5	0.025054792
35	0xbc87f2b6	-0.016595226
36	0xbd96c583	-0.07361891
37	0x3dc315cd	0.095256425
38	0xbd564bcd	-0.052318383
39	0xbd4d3f44	-0.050109163
40	0xbd7addfd	-0.06124686
41	0xbd9146de	-0.07093595
42	0x3d631088	0.055435687
43	0x3b4e6f72	0.0031499532
44	0xbd305dc6	-0.04305818
45	0x3d348b7f	0.044078346
46	0x3d18b501	0.037281994
47	0xbd33d8bd	-0.04390787
48	0x3b93e84b	0.0045137755
49	0x3cf42e72	0.029807303
50	0x3c276e06	0.010219103
51	0x3d6c5eef	0.057707723
52	0xbcaf4a3a	-0.021397699
53	0x3ce36d42	0.02776206
54	0x3d786636	0.06064435
55	0xbd7b7be1	-0.061397437
56	0x3cb3da85	0.021954784
57	0x3ca7ccd1	0.020483406
58	0x3d78a04f	0.060699757
59	0x3d07d477	0.033161607
60	0x3d81c739	0.06336827
61	0xbb793e01	-0.0038031342
62	0x3db10621	0.08643747
63	0x3c881bc4	0.016614802
64	0xbd1f22e5	-0.038851637
65	0xbc960864	-0.018314548
66	0x3d9fa266	0.07794647
67	0x3d0eede2	0.03489483
68	0x3bb73697	0.0055912244
69	0x3dc155c0	0.09440184
70	0x3d37b340	0.04484868
71	0xbd2439e7	-0.040094282
72	0x3d995cb7	0.07488387
73	0x3da3e808	0.08003241
74	0x3d57388d	0.052544165
75	0xbd915b02	-0.070974365
76	0xbc3251b1	-0.010883735
77	0x3d0d8822	0.034553654
78	0x3c2a0d83	0.010379198
79	0x3d5ea499	0.05435619
80	0xbd665d0c	-0.05624108
81	0xbd7e16b8	-0.062033385
82	0xbd7b5928	-0.061364323
83	0xbc9f7080	-0.019462824
84	0x3c643e3c	0.013930853
85	0xbd5e4f2e	-0.05427473
86	0x3d48a31c	0.04898368
87	0xbd9a8859	-0.075455375
88	0x3d7bcc4c	0.06147413
89	0xbd9a2c20	-0.075279474
90	0x3d611226	0.05494895
91	0xbd5f8cf3	-0.05457778
92	0xbd469ebe	-0.048491232
93	0xba95468f	-0.0011388826
94	0x3cd81c46	0.02638067
95	0x3b929b18	0.004474055
96	0xbca9cf9f	-0.020728884
97	0xbd68ac3b	-0.056804877
98	0xbd46f054	-0.04856904
99	0xbd211242	-0.039324053
100	0x3d2beebf	0.041975733
101	0xbd74712c	-0.05967824
102	0xbcf94b44	-0.030431397
103	0xbd0c2c13	-0.03422172
104	0xbc03de69	-0.008048632
105	0x3c82c7dd	0.015964443
106	0xbd00379f	-0.031303044
107	0xbd1c14ec	-0.03810589
108	0xba360e5a	-0.00069448876
109	0x3c68c6a6	0.014207518
110	0x3dcbfdff	0.09960555
111	0x3d31f608	0.043447524
112	0x3d4fced3	0.050734352
113	0xbd3401de	-0.043947093
114	0xbd6fefb1	-0.058578197
115	0xbd706409	-0.05868915
116	0x3d7635cb	0.060109895
117	0xbd15fd23	-0.036618363
118	0xbc5574da	-0.013028348
119	0x3d81a26d	0.063298084
120	0x3c66326a	0.014050106
121	0x3cebb8f2	0.028774712
122	0x3d0bddaa	0.034146942
123	0x3c8eb03b	0.017418018
124	0x3d339e47	0.043852117
125	0xbb3484e6	-0.0027545034
126	0xbd3e9ec6	-0.046538137
127	0xbd7aded6	-0.06124767
128	0xbd522a29	-0.05130974
129	0xbc6b9d08	-0.014380701
130	0xbbe5ae13	-0.0070092767
131	0xbd47b1cd	-0.04875355
132	0x3d5eb162	0.054368384
133	0xbd9c73a0	-0.07639241
134	0x3cb405df	0.021975456
135	0xbd414dc3	-0.0471933
136	0xbc70ba79	-0.014692896
137	0x3d9f5a0a	0.077808455
138	0x3d417eee	0.04724019
139	0xbcfc5b96	-0.03080539
140	0x3c8f698c	0.017506383
141	0xbce80601	-0.028323175
142	0x3b22da18	0.0024849232
143	0xbd991077	-0.074738435
144	0xbc0fae2b	-0.008769552
145	0x3d99e123	0.075136445
146	0xbd25e748	-0.04050377
147	0x3bd1e233	0.006405139
148	0x3d491bc9	0.049098764
149	0xbd49714f	-0.049180325
150	0x3d3dbb70	0.046321332
151	0x3d85905b	0.06521674
152	0x3d6410ba	0.055680014
153	0x3ccd4566	0.025057506
154	0x3d9b5fca	0.0758663
155	0xbcc60dea	-0.024176557
156	0x3aa3a718	0.0012485711
157	0x3d8894db	0.06669017
158	0xbd4e02aa	-0.05029551
159	0xbd7ea320	-0.062167287
160	0x3d57597d	0.052575577
161	0xbc230827	-0.009950674
162	0x3b2f7533	0.0026772737
163	0xbd97aaf2	-0.07405652
164	0xbd43ff59	-0.04785094
165	0x3d4f6e6d	0.05064242
166	0x3d45d7ae	0.04830139
167	0xbc1c9be8	-0.009558655
168	0xbca06f20	-0.019584239
169	0x3ca33aa0	0.019925416
170	0xbce09e20	-0.02741915
171	0xbc406ad3	-0.011744219
172	0x3d0fd8cf	0.035118874
173	0xbcae48b6	-0.021274906
174	0x3dd3a83b	0.10334822
175	0x3d65dcc0	0.056118727
176	0xbcdab00a	-0.02669527
177	0x3d0d9f6b	0.03457586
178	0xbbf2ea57	-0.0074131894
179	0x3d858229	0.06518967
180	0x3d27fcb3	0.041012477
181	0xbd9759d1	-0.07390178
182	0x3d860e47	0.06545692
183	0xbc4507da	-0.012025798
184	0xbd2bf976	-0.04198595
185	0xbd87b5d8	-0.06626481
186	0x3d401202	0.046892174
187	0xbd5041f0	-0.050844133
188	0xbd1a4ff1	-0.037673894
189	0x3d15879a	0.036506273
190	0x3cd47713	0.025935685
191	0xbd0a8eff	-0.033827778
192	0xbd419574	-0.04726167
193	0xbdde9caf	-0.10869729
194	0xbcb52513	-0.022112405
195	0x3c9e39be	0.019314643
196	0x3d5909ca	0.05298785
197	0x3d70b826	0.058769368
198	0x3d69ca58	0.057077736
199	0x3d01bd1a	0.031674482
200	0x3d340150	0.043946564
201	0xbbb7afd9	-0.0056056795
202	0x3d0c9fdb	0.034332138
203	0x3d7a6545	0.061131734
204	0xbda59105	-0.08084301
205	0xbd92b98b	-0.07164296
206	0x3d52912a	0.05140797
207	0x3b16213b	0.002290799
208	0xbdd2a664	-0.10285643
209	0xbc0e889e	-0.008699564
210	0xbcb7cc70	-0.02243635
211	0x3cdde9c4	0.027089007
212	0xbd4ff087	-0.050766494
213	0x3d8cf7ce	0.068832025
214	0x3da0a57a	0.07844062
215	0xbdb18f5b	-0.08669921
216	0xbd752136	-0.059846126
217	0x3cab081b	0.020877888
218	0xbce444bf	-0.027864812
219	0xbd6a56f9	-0.05721185
220	0xbc1394fd	-0.00900769
221	0xbd2ba805	-0.041908283
222	0xba8d9115	-0.0010800684
223	0xbd91900c	-0.07107553
224	0xbc10f21b	-0.008846785
225	0x3d6ad6d2	0.057333775
226	0x3c411083	0.011783722
227	0xbcb0e9ae	-0.021595802
228	0x3d4c49fa	0.049875237
229	0x3d7c7fc9	0.061645303
230	0x3d6c6bd6	0.057720028
231	0xbd43a5ce	-0.047765546
232	0x3dd64e63	0.1046417
233	0x3d3c0868	0.045906454
234	0xbbb5c66c	-0.0055473354
235	0x3d80e9c2	0.06294586
236	0xbd1c56ff	-0.038168903
237	0xbd4a6692	-0.049414225
238	0x3d405153	0.046952557
239	0x3b87391f	0.0041266824
240	0xbcbd762c	-0.023127638
241	0xbd6c8495	-0.057743628
242	0xbd0cb49d	-0.034351934
243	0xbcf4edaa	-0.029898483
244	0xbd26882f	-0.04065722
245	0xbd13923d	-0.036028136
246	0x3bfdf4ce	0.0077501303
247	0x3d93e364	0.07221106
248	0x3d577874	0.052605107
249	0x3d16b202	0.036790855
250	0x3d4e91a9	0.05043188
251	0x3cfddd38	0.030989274
252	0x3d9e456a	0.077280834
253	0xbd14ffdf	-0.03637683
254	0x3d814248	0.0631147
255	0x3d96e3d4	0.073676735

tree_conv.0.weights.bias f4 [256]
0	0xbd95e7e6	-0.07319622
1	0x3cb77597	0.022394938
2	0x3b339e81	0.0027407708
3	0xbcdfd491	-0.02732304
4	0x3c486031	0.012229965
5	0x3d077769	0.033072863
6	0x3d622f28	0.055220753
7	0x3c007277	0.007839791
8	0x3d46089f	0.048348065
9	0xbc099438	-0.0083971545
10	0xbd92307a	-0.071381524
11	0x3d78d15b	0.060746532
12	0x3c73e8f6	0.014887085
13	0x3d947c7d	0.07250307
14	0xbc897aa5	-0.016782114
15	0xbd9b9b33	-0.07597961
16	0x3d4f8e6d	0.050672937
17	0x3d3c1dff	0.045927044
18	0x3d52757b	0.05138157
19	0x3d6369e5	0.05552091
20	0x3d171330	0.036883533
21	0xbd447dba	-0.047971465
22	0xbd1796d9	-0.037009094
23	0x3d85e4ec	0.06537804
24	0x3d707e59	0.058714245
25	0x3d0800cd	0.03320389
26	0xbb593e21	-0.0033148604
27	0xbd522281	-0.051302437
28	0xbd13574c	-0.035971925
29	0xbd2e9e5a	-0.042631485
30	0x3dbb8d55	0.09157816
31	0xbd97cf33	-0.07412567
32	0xbcd1d179	-0.02561258
33	0xbd0fb5a8	-0.03508535
34	0xbd0df5cf	-0.03465825
35	0xbc05f887	-0.008176929
36	0x3cf5d4fe	0.03000879
37	0xbcfa54c5	-0.030558
38	0x3d31cc5e	0.04340779
39	0xbd6dba9c	-0.058039293
40	0xbd21d7f1	-0.03951258
41	0x3d799137	0.060929503
42	0xbcf99508	-0.030466571
43	0xbd2f1d38	-0.042752475
44	0xbd4c468a	-0.04987196
45	0xbd03600e	-0.032074027
46	0xbd4e6549	-0.05038956
47	0x3d318df4	0.043348268
48	0x3c721a65	0.014776801
49	0x3be50d0e	0.0069900816
50	0x3da84460	0.082161665
51	0xbb8d045e	-0.004303499
52	0x3dac4d06	0.084131286
53	0x3d65f111	0.056138102
54	0xbd59bc49	-0.05315808
55	0x3b88f384	0.00417942
56	0xbd883433	-0.06650581
57	0xbd316807	-0.0433121
58	0x3d5ebb51	0.054377858
59	0x3b012804	0.001970769
60	0x3da42bfd	0.080162026
61	0xbcfcdf3f	-0.03086817
62	0x3b9e3254	0.004827777
63	0xbd9b646a	-0.07587512
64	0x3d8a8d8f	0.067652814
65	0xbcbbb0e6	-0.0229115
66	0xbcce4071	-0.025177212
67	0x3cee04ab	0.02905496
68	0xbb901bfa	-0.0043978663
69	0xbc5200c2	-0.0128175635
70	0x3d8a2aa9	0.06746418
71	0x3d66e78f	0.056373175
72	0x3d72138b	0.05910067
73	0xbd0c677f	-0.03427839
74	0xbc7c4659	-0.015397632
75	0xbd22a260	-0.039705634
76	0xbbe0100a	-0.0068378495
77	0xbdb7ddc4	-0.08977845
78	0x3d52fc2b	0.051510017
79	0xbbeb74ba	-0.0071855457
80	0x3d5667e0	0.052345157
81	0xbc292c33	-0.010325479
82	0x3d633173	0.05546708
83	0xbab6ab78	-0.00139366
84	0x3c46d81c	0.012136485
85	0x3cb70ce6	0.022345018
86	0xbcb45305	-0.022012243
87	0x3d9cd597	0.076579265
88	0xbd1aeca9	-0.037823353
89	0xbb607d46	-0.0034254356
90	0xbd16104a	-0.03663663
91	0x3d70eba6	0.05881848
92	0x3cc6d632	0.024272058
93	0x3d1f77e1	0.038932685
94	0x3c951ab5	0.018201211
95	0xbd0c30b5	-0.03422614
96	0x3bc5e53a	0.006039289
97	0xbd8ca632	-0.06867637
98	0x3d42f432	0.047596164
99	0x3d835237	0.064121656
100	0xbca9f6fe	-0.020747658
101	0xbd597502	-0.053090103
102	0xbd8e015a	-0.069338515
103	0x3dbd2b93	0.09236827
104	0xbd47c93a	-0.04877589
105	0xbc8f68dd	-0.017506057
106	0x3c7d0e62	0.015445324
107	0xbd7159c6	-0.058923505
108	0x3d04d97c	0.03243397
109	0x3d992c62	0.074791685
110	0xbd63d593	-0.055623602
111	0x3d3ce8eb	0.046120565
112	0x3d947d36	0.072504446
113	0x3cd601df	0.02612394
114	0xbd9fbbb2	-0.07799472
115	0xbd61357c	-0.054982647
116	0x3cb1ad67	0.02168913
117	0x3c99ac95	0.018759051
118	0xbd555f08	-0.052092582
119	0xbd1b9e48	-0.037992746
120	0xbc6bd664	-0.014394376
121	0xbd1cd86c	-0.038292333
122	0x3d82168d	0.063519575
123	0xbce8c5d3	-0.028414642
124	0xbc2c8e3e	-0.01053196
125	0x3d28cb03	0.041209232
126	0x3ca3bd35	0.019987682
127	0xbd850afa	-0.06496234
128	0x3ca8efab	0.020622095
129	0x3cbffa94	0.023434915
130	0x3d0520c4	0.03250195
131	0x3d3921a4	0.045198098
132	0xbbe2bca9	-0.0069194627
133	0x3d60c97b	0.054879647
134	0xbd94b7f4	-0.07261649
135	0xbb8bfaae	-0.0042718267
136	0x3d87fbfd	0.0663986
137	0xbcf8388b	-0.0303004
138	0x3d49921a	0.0492116
139	0x3cc18cfd	0.023626799
140	0xbd5a44da	-0.05328832
141	0x3d7b55a5	0.061360974
142	0x3d6f28b1	0.058388416
143	0x3c488a2a	0.012239972
144	0x3cf618bf	0.030041097
145	0xbc028c73	-0.007968056
146	0x3c4a6f14	0.012355585
147	0x3ce46f4c	0.027885102
148	0x3d16811e	0.03674423
149	0x3d29377b	0.041312676
150	0x3d80104a	0.06253107
151	0x3d16cdad	0.03681724
152	0x3bb6a121	0.0055734073
153	0xbd6ca0a6	-0.057770394
154	0x385e045d	5.293299e-05
155	0xbd4f6715	-0.050635416
156	0x3c2a6cfe	0.010401962
157	0xbc5c91fc	-0.01346254
158	0xbd546d91	-0.051862303
159	0x3c691d72	0.014228212
160	0xbd3327e7	-0.043739226
161	0x3d6e8227	0.05822959
162	0xbcf61b07	-0.030042185
163	0x3d8256a1	0.063641794
164	0xbd215fa4	-0.03939785
165	0xbbd05928	-0.0063582845
166	0xbddce6f1	-0.10786236
167	0xbcfe0ccb	-0.03101196
168	0xbcc56efd	-0.024100775
169	0x3d584731	0.05280227
170	0x3d277b48	0.040889055
171	0x3d32437f	0.0435214
172	0x3b6e9dd4	0.003640999
173	0x3cb065d7	0.021532936
174	0x3d3bc380	0.04584074
175	0x3cc733d2	0.024316702
176	0x3dbba453	0.09162202
177	0xbd0e8d64	-0.03480281
178	0x3ce9a197	0.028519435
179	0xbd563927	-0.0523006
180	0x3cc854db	0.024454525
181	0xbcaaeda2	-0.020865265
182	0x3da68b2a	0.08132012
183	0xbc19ead7	-0.009394369
184	0x3d9b1ab9	0.07573456
185	0xbcd42a98	-0.025899217
186	0x3d38c4a4	0.045109406
187	0xbd8c59cc	-0.06853065
188	0xbce58b8f	-0.028020648
189	0x3b152534	0.002275777
190	0x3d81d01e	0.06338523
191	0xbd534ca6	-0.05158677
192	0x3ccce0d7	0.025009556
193	0x3d7e9b81	0.06216002
194	0xbaad8822	-0.0013239423
195	0x3c1cd1f1	0.009571538
196	0x3cb27169	0.021782594
197	0x3c42715f	0.01186785
198	0xbda581d6	-0.08081405
199	0x3db3360c	0.08750543
200	0xbd4c42ff	-0.04986858
201	0x3da61de6	0.081111714
202	0xbc80fa5a	-0.015744377
203	0xbade46fb	-0.001695841
204	0xbd705fc3	-0.058685075
205	0xbca1b3e8	-0.019739106
206	0xbbfc6979	-0.007703003
207	0xbccc099b	-0.024906924
208	0xbd2828f4	-0.04105468
209	0x3bf2596d	0.0073959143
210	0xbce43fc3	-0.027862435
211	0x3d91f442	0.071266666
212	0xbd9a8a65	-0.07545928
213	0x3b9ae0f3	0.004726523
214	0x3d914e5c	0.07095024
215	0x3ca203cd	0.019777203
216	0xbd80aad2	-0.062825814
217	0xbd1e8c8f	-0.038708266
218	0x3d18667a	0.037207104
219	0xbcfc0daa	-0.030768234
220	0xbd18850b	-0.037236255
221	0x3d99f825	0.07518033
222	0x3caaf2ad	0.02086767
223	0xbc814e88	-0.015784517
224	0x3b385647	0.0028127597
225	0xbcd1d2bb	-0.02561318
226	0x3d8187ca	0.06324728
227	0xbd22e2fa	-0.039767243
228	0xbd5d8f0d	-0.054091502
229	0xbd3c213f	-0.045930143
230	0xbb9bc179	-0.0047532883
231	0x3dcd5548	0.10026032
232	0x3cc951fb	0.024575224
233	0x3c61b245	0.013775413
234	0x3dbd6642	0.0924802
235	0x3d748c97	0.05970439
236	0x3d50369c	0.05083333
237	0x3d2ffdc7	0.04296663
238	0x3bb05baf	0.0053820233
239	0x3da09b4c	0.078421205
240	0xbd1c75a8	-0.038198143
241	0x3cfaa3ab	0.030595621
242	0xbd859e72	-0.06524362
243	0xbd2cf169	-0.042222414
244	0x3d215224	0.039384976
245	0xbd70f8b8	-0.058830947
246	0xbd76a6f8	-0.060217828
247	0xbd7ceb92	-0.061748095
248	0x3d885630	0.06657064
249	0x3d66b8cd	0.056328584
250	0xbcc0dc4b	-0.023542544
251	0x3d077d6e	0.033078603
252	0x3d0e57ef	0.03475183
253	0xbc499b3d	-0.012305078
254	0x3d169432	0.036762424
255	0xbc90434f	-0.01761022

tree_conv.3.weights.weight f4 [128, 256, 3]
0	0x3b4d1734	0.0031294348
1	0xbd3053c5	-0.04304864
2	0xbcc4f2a6	-0.024041485
3	0xbcae2c9f	-0.021261511
4	0xbcb819d4	-0.022473253
5	0xbc82b051	-0.015953215
6	0x3a1220fd	0.00055743736
7	0x3cb82e3e	0.022482987
8	0x3c09aedb	0.008403505
9	0xbc606581	-0.013696075
10	0xbc95dec1	-0.018294694
11	0xbce7ce12	-0.028296504
12	0xbcb21ea5	-0.021743128
13	0x3cc08f8e	0.023505952
14	0xbd17f360	-0.037097335
15	0x3c82f11a	0.015984107
16	0x3d07f57d	0.0331931
17	0x3d29735d	0.041369785
18	0x3c7ec3e4	0.015549634
19	0x3c64fc54	0.013976175
20	0x3ab04360	0.0013447814
21	0xbca3946f	-0.01996824
22	0x3ce0159d	0.027354056
23	0xbd085a30	-0.033289135
24	0xbc6d4b15	-0.014483233
25	0xbcd762df	-0.026292263
26	0x3ca1f067	0.019767953
27	0xbcb19191	-0.021675857
28	0xb984846a	-0.00025275658
29	0xbcff619c	-0.031174473
30	0x3d138973	0.036019754
31	0x3a9bee5e	0.00118966
32	0x3baada32	0.005213999
33	0xbc8119c6	-0.01575936
34	0xbd21f564	-0.039540663
35	0x3d05d8f6	0.032677613
36	0x398ae39d	0.00026490996
37	0x3bd7770f	0.006575472
38	0x3c13ed65	0.009028767
39	0x3c9f35ce	0.019434836
40	0x3b3cabcc	0.0028788922
41	0xbca96d09	-0.020681875
42	0x3cf1f71a	0.029536773
43	0xbd10dbd5	-0.0353659
44	0xbcf0b59e	-0.029383477
45	0xbcb22a38	-0.021748647
46	0x3c882f33	0.016624069
47	0xbc73c945	-0.014879529
48	0x3cfc97d2	0.030834112
49	0xbb823d16	-0.003974567
50	0x3cb7d942	0.022442464
51	0xbc5224b6	-0.012826135
52	0xbd138934	-0.03601952
53	0xbcee0b37	-0.029058082
54	0xbd00ffeb	-0.031494062
55	0xbcbd9037	-0.023140056
56	0xbcbd5ed0	-0.0231165
57	0xbc846e7e	-0.016165968
58	0xbba19b49	-0.0049318415
59	0x3c00e58b	0.007867227
60	0x3d3df517	0.046376314
61	0x3c8a950c	0.016916774
62	0x3c68bcbd	0.014205155
63	0x3d2e17e0	0.042503238
64	0xbb88a1ad	-0.004169664
65	0x3ceb3783	0.028712993
66	0xbc1b1920	-0.0094664395
67	0x3c146624	0.009057555
68	0xbcfe52d6	-0.031045359
69	0xbd0d37aa	-0.034476914
70	0x3cb824d1	0.022478493
71	0x3a8a8bee	0.0010570267
72	0x3d2cb1db	0.042161804
73	0x3cf5c20b	0.029999753
74	0x3cae26f3	0.021258807
75	0xbc2dda37	-0.0106111085
76	0xbcea6773	-0.028613782
77	0x3c68b04e	0.014202191
78	0x3cabc31d	0.02096706
79	0x3bc6482c	0.006051084
80	0x3c88cca7	0.016699148
81	0x3c9e6e39	0.019339668
82	0xbb8c71a4	-0.004286008
83	0x3c9ee82c	0.019397818
84	0x3bf6c81c	0.007531179
85	0xbc4bc586	-0.01243723
86	0x3cc86c1b	0.024465611
87	0x3d50d900	0.050988197
88	0xbcc53e79	-0.02407764
89	0xbc953b69	-0.018216806
90	0x3c81f983	0.015866047
91	0x3aa5b4b0	0.001264235
92	0x3c435bac	0.011923712
93	0x3cb081ac	0.021546207
94	0xbc18185f	-0.009283154
95	0xbc9d37ea	-0.019191701
96	0x3c1ee327	0.009697712
97	0xbc9a54fc	-0.018839352
98	0x3cbd45a9	0.023104506
99	0xbc5de8d7	-0.013544283
100	0xbccab39c	-0.024743848
101	0xbd118128	-0.035523564
102	0x3bf1c186	0.007377806
103	0x3c84dc7d	0.016218418
104	0xbcd38a75	-0.025822857
105	0xbcc3e0c3	-0.023910886
106	0x3cfc2cd4	0.030783094
107	0x3b99b4f8	0.0046907626
108	0xbca92486	-0.020647299
109	0xbc5c1e85	-0.013435011
110	0x3cc54448	0.02408041
111	0xbca83892	-0.020534787
112	0x3ca3652b	0.019945702
113	0x3aaabb09	0.0013025712
114	0xba951cad	-0.0011376344
115	0x3c2e2d69	0.010630944
116	0x3c56c80e	0.01310922
117	0x3d7f6c8b	0.062359374
118	0xbc97485d	-0.018467123
119	0x3cce59c7	0.025189294
120	0xbd1b31b0	-0.037889183
121	0xbd364cff	-0.044507023
122	0x3a8f9e27	0.0010957167
123	0x3d816369	0.06317789
124	0x3d064677	0.032782044
125	0xbce1dcc1	-0.027571084
126	0x3c92ebfc	0.017934792
127	0x3b8c7449	0.004286323
128	0x3cc52990	0.02406767
129	0xbb04393a	-0.0020175711
130	0xbcc18bd1	-0.02362624
131	0x3cb6acf1	0.022299262
132	0x3cd4dff7	0.025985701
133	0x3cf08141	0.029358508
134	0xbd158285	-0.036501426
135	0xbd098710	-0.03357607
136	0x3b63188d	0.0034652085
137	0xbc9047e7	-0.01761241
138	0xbd183709	-0.03716186
139	0xbca329ad	-0.019917333
140	0xbc9e9acd	-0.019360924
141	0xbd1f63fc	-0.038913712
142	0xbcc9277e	-0.024554964
143	0x3c8683b3	0.016420221
144	0x3cabf510	0.020990878
145	0x3d27053f	0.040776487
146	0x3cdc82f5	0.026917914
147	0x3c2a8652	0.010408001
148	0xbca6f7b9	-0.020381795
149	0x3ca97617	0.020686192
150	0xbc2f819c	-0.010712054
151	0x3c7a3a5b	0.015272702
152	0xbc8c542a	-0.017129976
153	0xbce7ae9d	-0.028281504
154	0xbceade92	-0.028670583
155	0x3cf6f4bd	0.030145997
156	0xbb0f5eda	-0.0021876604
157	0xbcbb8184	-0.022888906
158	0xbd0161b7	-0.03158733
159	0xbbeed446	-0.0072884886
160	0xbd495154	-0.049149826
161	0xbb2c331f	-0.0026275588
162	0xbcae2212	-0.02125648
163	0xbc87519a	-0.016518403
164	0x3cfa2e33	0.030539608
165	0xbc77fb1b	-0.015135552
166	0x3a99d861	0.001173746
167	0x3b96792c	0.0045920815
168	0x3c490270	0.012268648
169	0x3c8cecaf	0.017202703
170	0xbcb308af	-0.021854727
171	0x3cc13c81	0.02358842
172	0x3c28c368	0.010300495
173	0x3d0ed1a3	0.034867894
174	0xbc9df627	-0.019282414
175	0x3c1d9697	0.009618423
176	0x3d2f40da	0.042786457
177	0xbaf511ac	-0.0018697283
178	0xbcc5ca7e	-0.024144407
179	0xbcfe4d1b	-0.031042626
180	0xba5484b9	-0.00081069354
181	0xbb25f573	-0.00253233
182	0x3c421583	0.011845949
183	0xbcc44b14	-0.023961581
184	0x3c312604	0.010812286
185	0xbd06b1c2	-0.032884367
186	0x3c40581d	0.011739758
187	0x3d4405cc	0.04785709
188	0x3b73f3a3	0.0037224076
189	0x3bb4d8c8	0.0055190064
190	0xbd45c57f	-0.04828405
191	0xbb86883f	-0.0041055973
192	0xbd23bf26	-0.039977215
193	0xbcec1a4d	-0.028821135
194	0x3c6a1b1f	0.014288693
195	0xbca7a430	-0.020464033
196	0xbd580397	-0.0527378
197	0xbc375308	-0.01118923
198	0xbc1b2a73	-0.00947057
199	0x3ce458ba	0.02787434
200	0xbba1dfef	-0.004940025
201	0x3c83afdc	0.016075067
202	0xbbb107ca	-0.00540254
203	0xbbfff90c	-0.007811671
204	0xba6225ee	-0.0008626868
205	0x3bcde04b	0.0062828413
206	0xbb584116	-0.0032997779
207	0x3c1213b9	0.008915835
208	0x3cd64393	0.026155269
209	0x3ced080f	0.028934507
210	0xbb2177ed	-0.0024638132
211	0x3d1c97c3	0.03823067
212	0x3c8a4186	0.016876947
213	0x3c8dc0a3	0.01730377
214	0xbccd2e3a	-0.025046457
215	0x3d3baebd	0.04582094
216	0x3d344192	0.044007845
217	0xbcf38abc	-0.02972924
218	0xbd18d28a	-0.03731016
219	0x3c22ddb2	0.009940552
220	0xbd01a168	-0.03164807
221	0x3bd07005	0.00636101
222	0xb9f66ff8	-0.000470042
223	0x3cd7ed94	0.026358403
224	0x3b7c5092	0.0038500172
225	0xbd419c7a	-0.04726837
226	0xba018f1b	-0.0004942284
227	0xbcd2ea71	-0.025746556
228	0x3d1fdd93	0.03902967
229	0x3d00d49c	0.03145276
230	0xbcc16ad4	-0.02361051
231	0x3c10cff0	0.008838639
232	0x3ce1c278	0.02755855
233	0x3bc3513e	0.0059606126
234	0xbccc608b	-0.024948379
235	0x3ceeae2b	0.029135784
236	0x3c80af0a	0.015708465
237	0xbc8d6020	-0.01725775
238	0x3c2207c7	0.00988955
239	0x3c1b3dd1	0.009475187
240	0xbd09f0fe	-0.033677094
241	0xbd28555c	-0.04109703
242	0x3c6ee413	0.014580744
243	0x3d015e1f	0.0315839
244	0x3cdbad10	0.026815921
245	0xbcf92892	-0.030414853
246	0xbcf00a78	-0.029301867
247	0x3cb7ec30	0.02245149
248	0xb9a4c45d	-0.0003142682
249	0xbd03568e	-0.032064967
250	0x3d1d71f2	0.038438745
251	0xbd07709d	-0.03306638
252	0x3c5f47f6	0.013627997
253	0xb8a59334	-7.895232e-05
254	0xbd0acaa0	-0.033884645
255	0xbccbc2d8	-0.024873182

tree_conv.3.weights.bias f4 [128]
0	0x3c61ac6d	0.01377402
1	0xbca1a7b6	-0.019733291
2	0xbce79038	-0.028267011
3	0xbc591206	-0.013248926
4	0x3d016979	0.031594727
5	0x3ce86966	0.02837057
6	0x3c6133fb	0.013745303
7	0x3c60f049	0.013729163
8	0xbd008e65	-0.031385798
9	0x3cae1476	0.02124999
10	0x3c594b82	0.013262631
11	0x3c5af059	0.013362967
12	0xbd325ab9	-0.04354355
13	0xbcd9afce	-0.026573088
14	0xbc9019df	-0.017590461
15	0x3d1e85bc	0.038701758
16	0xbceb20f2	-0.028702233
17	0xbc866806	-0.016407024
18	0xbca04c49	-0.019567626
19	0x3d11d70e	0.035605483
20	0x3c7cd2bd	0.015431103
21	0x3a950a49	0.0011370863
22	0x3aa153d8	0.0012308313
23	0x3bd67714	0.006544957
24	0x3c17ca4c	0.00926454
25	0xbcddcd93	-0.027075564
26	0x3d2913ac	0.041278526
27	0xbce71d44	-0.028212197
28	0xbcdae6af	-0.026721327
29	0xbc9a3ac9	-0.01882686
30	0xbd0dffe7	-0.034667876
31	0x3c20acd1	0.009806828
32	0xbca8a4b6	-0.020586353
33	0xbc6707b6	-0.0141009595
34	0x3cf26642	0.029589776
35	0x3d06f1a2	0.032945283
36	0x3c3b690f	0.011438622
37	0x3ce37f52	0.027770672
38	0xbb489f11	-0.003061239
39	0x3ceb51e0	0.028725564
40	0x3c65177c	0.01398265
41	0xbd247100	-0.040146828
42	0xbcb3947c	-0.021921389
43	0x3bad53c3	0.005289526
44	0x3c7e914f	0.015537574
45	0xbd113d4e	-0.035458855
46	0x3cd87882	0.02642465
47	0x3c2dd64e	0.010610176
48	0x3ce58690	0.028018266
49	0x3cef8399	0.029237555
50	0x3d0c0238	0.034181803
51	0x3c105337	0.008808902
52	0xbc5934f9	-0.013257259
53	0x3ccd6c70	0.025076121
54	0xbc9b2316	-0.018937629
55	0xbb4b8c7f	-0.0031059084
56	0xbcdf7bcc	-0.02728071
57	0x3ca1f9ee	0.019772496
58	0xbc5a3453	-0.013318139
59	0xbb52a4c4	-0.0032141665
60	0x3c09228a	0.008370051
61	0xbd00cb88	-0.031444103
62	0x3c011dca	0.007880637
63	0xbd01b61d	-0.031667817
64	0xbcca3c22	-0.024686877
65	0x3c2ee0fd	0.010673759
66	0xbcd6b414	-0.026208915
67	0x3d0d0da2	0.03443683
68	0x3d0ce3d1	0.03439695
69	0xbd0da538	-0.034581393
70	0x3cbcc5a4	0.023043461
71	0x3c73723e	0.01485878
72	0x3d140c71	0.036144678
73	0xbc8496bc	-0.016185157
74	0xbbbd59b8	-0.0057785176
75	0xbcc85fe7	-0.024459792
76	0x3d08e84c	0.03342466
77	0x3c920344	0.017823823
78	0x3d19932d	0.037493873
79	0xbc3f1507	-0.011662728
80	0x3ccc6ff2	0.024955723
81	0x3c902031	0.017593475
82	0xbc5af289	-0.013363489
83	0x3ccb324b	0.024804255
84	0x3bc802a1	0.006103829
85	0xbd069a6b	-0.03286211
86	0x3cb51f29	0.022109585
87	0x3c65aebe	0.014018713
88	0xbc560ea3	-0.013065013
89	0xbb07d15d	-0.0020724155
90	0xbc83836f	-0.016053883
91	0x3cecad03	0.028891092
92	0x3c3ab35a	0.0113953
93	0xbc7ab0d6	-0.01530095
94	0xb9181748	-0.00014504523
95	0xbbf0f2b1	-0.00735315
96	0x3ce6f257	0.028191729
97	0xb958b793	-0.00020667752
98	0xbce973a1	-0.028497519
99	0x3cc8c7f3	0.024509406
100	0x3ba74beb	0.0051054857
101	0x3d053134	0.032517627
102	0x3c40d3fd	0.011769292
103	0xba562340	-0.0008168705
104	0xbce50902	-0.027958397
105	0x3b56bc91	0.0032766203
106	0xbbf177ac	-0.0073690023
107	0xbca1afc3	-0.01973713
108	0x3be0fec1	0.0068663065
109	0x3c8ed64b	0.017436167
110	0xbc4ab324	-0.012371812
111	0x3d0f375e	0.03496491
112	0xbb96b909	-0.0045996946
113	0x3ce7bb70	0.02828762
114	0x3d278288	0.04089597
115	0x3c8b36f7	0.016993983
116	0xbd07e683	-0.033178817
117	0xb926a38d	-0.00015891921
118	0x3c7d2e02	0.015452864
119	0x3cbb9793	0.022899425
120	0x3c6f0681	0.014588953
121	0xbd43efd7	-0.04783615
122	0x3caaee54	0.020865597
123	0xbcc1230b	-0.02357628
124	0xbc8a9213	-0.016915357
125	0xbcb849fe	-0.02249622
126	0x3cb5bf8d	0.022186065
127	0x3c2adefc	0.01042914

tree_conv.6.weights.weight f4 [64, 128, 3]
0	0x3d39ef8d	0.04539447
1	0x3c745f87	0.014915354
2	0x3c7ee2e4	0.015557025
3	0xbc05eb8b	-0.008173834
4	0x3bb8f9c6	0.0056450097
5	0xbd149c51	-0.036281887
6	0xbcf338e7	-0.02969022
7	0x3d0e8fc4	0.034805074
8	0xbcaabd01	-0.020842077
9	0xbcfd704b	-0.030937335
10	0xbc814fb0	-0.015785068
11	0xbd28f714	-0.041251257
12	0xbd232a6a	-0.03983537
13	0x3d3f353e	0.046681635
14	0xbbe05a17	-0.006846677
15	0x3c8788e9	0.016544776
16	0xbccb8958	-0.024845764
17	0x3d23d133	0.03999443
18	0xbcc9ccd8	-0.02463381
19	0x3ad6aa53	0.0016377665
20	0x3d12ccfb	0.035840016
21	0x3d171832	0.03688831
22	0x3d4946a5	0.049139638
23	0x3d23e643	0.040014517
24	0x3c95ab1e	0.018270072
25	0xbd2fec8e	-0.042950206
26	0xbd84f0a4	-0.06491211
27	0x3cff961d	0.03119951
28	0x3d0fdb73	0.035121392
29	0x3ca360c5	0.019943604
30	0x3c8bf12b	0.017082771
31	0xbc9c2bea	-0.019063909
32	0x3d22d420	0.03975308
33	0x3a53fc41	0.00080866
34	0x3c5ad4a1	0.013356359
35	0x3ce0471b	0.027377656
36	0x3c59f63f	0.013303339
37	0x3cabdf35	0.020980457
38	0x3cec72a6	0.028863262
39	0xbca4f358	-0.020135567
40	0xbcb92b07	-0.022603525
41	0xbd05c6ea	-0.032660402
42	0x3d1caf8c	0.038253352
43	0x3b1dfd96	0.0024107448
44	0x3bf11a78	0.0073578916
45	0xbd887be7	-0.066642575
46	0x3d7f1cb6	0.06228324
47	0x3c8be011	0.017074617
48	0xbce8598a	-0.028363008
49	0xbbbc23e4	-0.005741583
50	0xbce6997b	-0.028149357
51	0x3d2eadd3	0.04264624
52	0x3bb15ec3	0.005412908
53	0xbd07126d	-0.032976557
54	0x3b52d45e	0.0032170038
55	0xbd2df15c	-0.042466506
56	0xbd585cef	-0.052823003
57	0xbd3ef97c	-0.046624646
58	0x3cc5cbcd	0.024145031
59	0x3d0b9d90	0.03408581
60	0xbceef0c1	-0.029167535
61	0x3d11231a	0.035433866
62	0xbceef528	-0.029169634
63	0x3d1af741	0.037833456
64	0xba9db1d2	-0.0012031144
65	0xbd42663c	-0.04746078
66	0xbb64d80f	-0.003491882
67	0xbd629dca	-0.05532626
68	0x3d3109a4	0.043222085
69	0x3ac6e775	0.0015175181
70	0x3d1dd0d7	0.038529243
71	0xbccbb2fd	-0.024865622
72	0xbcc495df	-0.023997245
73	0x3cdd2a5c	0.026997738
74	0xbd1822e5	-0.037142653
75	0xba411364	-0.0007365255
76	0xbc99f31b	-0.01879268
77	0x3d03c2bb	0.03216813
78	0xbd17f356	-0.037097298
79	0x3c312d8b	0.010814081
80	0x3d2c6b0b	0.04209427
81	0xbbd0c82b	-0.006371518
82	0x3b55f8eb	0.0032649587
83	0x3d27ac4c	0.0409358
84	0xbc8a4bd8	-0.016881868
85	0x3d3a4a66	0.045481108
86	0xbc1de9da	-0.009638274
87	0x3c13fb88	0.009032138
88	0xbcef8460	-0.029237926
89	0x3d269e41	0.040678266
90	0x3c3f74e1	0.011685581
91	0x3b2d151f	0.0026410294
92	0xbd04f8b8	-0.03246376
93	0xbcd3081b	-0.0257607
94	0xbc9edac6	-0.019391429
95	0xbc903d3d	-0.017607326
96	0xbcd52b9a	-0.026021767
97	0x3cd54ea7	0.02603848
98	0x3d6f7358	0.05845961
99	0x3c368b3f	0.011141597
100	0x3bb83801	0.0056219106
101	0x3c08953d	0.008336362
102	0xbd07e6bc	-0.03317903
103	0xbcc9054e	-0.024538662
104	0xbd5f969c	-0.05458699
105	0xbd4ad742	-0.049521692
106	0xbcff277f	-0.031146763
107	0xbc83f4d5	-0.016107956
108	0xbce7950d	-0.028269315
109	0x3ce81b50	0.028333336
110	0x3c4e98a8	0.012609638
111	0x3d76d7cc	0.060264394
112	0x3cbb489f	0.022861777
113	0x3c8479cc	0.016171359
114	0x3b29f23d	0.0025931739
115	0x3da9df25	0.082945146
116	0xbb3c06fc	-0.0028690686
117	0xbd5b7bd1	-0.053584877
118	0xbce46d35	-0.027884105
119	0x3c64206b	0.013923745
120	0x3d5f7af2	0.05456061
121	0x3c81fc27	0.015867306
122	0x3b6f4657	0.0036510432
123	0x3d4fdb53	0.050746273
124	0xbd1e6bab	-0.0386769
125	0x3b250fa9	0.0025186336
126	0xbc418177	-0.011810652
127	0xbd55d755	-0.05220731
128	0x3c232370	0.009957179
129	0xbd0a5858	-0.033775657
130	0xbc99f33b	-0.01879274
131	0x3a6959cf	0.0008901627
132	0x3cd96a33	0.026539898
133	0x3cd45957	0.025921507
134	0xbbf4c9f6	-0.0074703647
135	0x3c85c3a5	0.016328642
136	0x3ccd3c1b	0.025053075
137	0x3c691d9c	0.014228251
138	0x3ca15b34	0.01969681
139	0x3d799e76	0.060942136
140	0x3d236aae	0.03989666
141	0xbd2e0f4f	-0.04249507
142	0x3c8c3d45	0.01711906
143	0x3cba3d57	0.022734327
144	0xbcc6ecee	-0.024282899
145	0xbbd1c4e9	-0.0064016473
146	0xbb4d1e12	-0.003129844
147	0x3cc13a63	0.023587411
148	0xbdd5b4c2	-0.104348674
149	0x3c46f315	0.012142916
150	0x3ccac202	0.024750713
151	0x3d08a810	0.033363402
152	0xbc80ffb1	-0.015746923
153	0x3d1da5c0	0.03848815
154	0xbd9a42a1	-0.0753224
155	0x3c072b06	0.008250004
156	0x3d19b978	0.037530392
157	0xbd2660d0	-0.04061967
158	0xbbcd9731	-0.006274127
159	0xbd234c0a	-0.03986744
160	0xbcca5113	-0.024696862
161	0x3cb5049e	0.022096928
162	0xbcc66c00	-0.02422142
163	0x3d36b27a	0.044603802
164	0x3b188763	0.0023274056
165	0x3d036d98	0.03208694
166	0xbcca4743	-0.024692183
167	0x3b96e80a	0.004605298
168	0xbd04c9ab	-0.032418888
169	0xbcd4f7a6	-0.025996994
170	0x3c86c8b6	0.016453128
171	0xbd2f07e3	-0.04273213
172	0xbcbf4480	-0.023348093
173	0x3c991d07	0.0186906
174	0xbd4ab469	-0.04948846
175	0xbc94342f	-0.01809129
176	0xbbaa6b8d	-0.0052008093
177	0x3d090abc	0.033457503
178	0x3dbf3706	0.09336667
179	0x3cc5cd66	0.024145793
180	0xbd14c087	-0.03631642
181	0xbd585b42	-0.052821405
182	0xbcfd73e1	-0.030939044
183	0xbd0c3c0f	-0.034236964
184	0x3ccbb842	0.024868134
185	0x3d3adf4d	0.045623112
186	0x3c81ad46	0.015829694
187	0x3d20b4b7	0.039234843
188	0xbc40de36	-0.011771729
189	0x3d0c2bfc	0.034221634
190	0x3d8cf451	0.06882537
191	0xbc6c78fd	-0.014433143
192	0x3c8914cc	0.01673355
193	0x3ce63a36	0.028103929
194	0xbd08b4f0	-0.03337568
195	0x3c870ff0	0.016487092
196	0x3d3c881b	0.046028238
197	0x3be9981d	0.007128729
198	0x3cd184e3	0.02557606
199	0xbbe78038	-0.0070648454
200	0x3d87476e	0.06605421
201	0xbc600e56	-0.013675293
202	0xbbbd90d4	-0.005785087
203	0x3d2695bc	0.04067014
204	0x3c51e34f	0.012810542
205	0x3ceefa57	0.029172106
206	0x3c936b71	0.017995568
207	0xbce16a57	-0.027516527
208	0xbc960f56	-0.01831786
209	0xbc3cd501	-0.011525393
210	0xbcb1950e	-0.02167752
211	0x3d2aa502	0.04166127
212	0xbc36811c	-0.0111391805
213	0x3d4f42a1	0.05060065
214	0xbcdb56a1	-0.026774706
215	0xbd1493b8	-0.036273688
216	0x3c882eb9	0.016623842
217	0xbd667e30	-0.056272686
218	0x3c9e9859	0.019359754
219	0xbcd00a7f	-0.02539563
220	0xbd34eea6	-0.044172905
221	0xbcfcc2be	-0.030854579
222	0x3c8bf39b	0.017083934
223	0x3c4545d8	0.012040578
224	0xbccc2438	-0.024919614
225	0xbc317d33	-0.0108330725
226	0xbd38d733	-0.045127105
227	0xbcc4f6d1	-0.024043472
228	0x3d2b9636	0.0418913
229	0xbcb4d633	-0.022074794
230	0xbd69e4cf	-0.057102975
231	0x3c743991	0.014906303
232	0x3cfed567	0.031107618
233	0x3c640911	0.013918177
234	0xbbb1fec3	-0.0054319813
235	0x3d02f05b	0.031967502
236	0xbcc87d8d	-0.02447393
237	0x3d5b0b82	0.05347777
238	0x3c8bf298	0.017083451
239	0xbd059852	-0.032615967
240	0xbc690e07	-0.014224536
241	0xbd8454a8	-0.064614594
242	0x3bdf3cbc	0.00681266
243	0x3cbdd878	0.02317451
244	0x3d002fa3	0.03129543
245	0xbce60ed0	-0.028083235
246	0xbbf1a76f	-0.007374696
247	0xbcc28119	-0.0237432
248	0xbc4f9dd4	-0.0126719065
249	0xbd31828b	-0.043337386
250	0x3c84ded5	0.016219536
251	0xbcf21431	-0.029550644
252	0xbbc1b153	-0.0059110313
253	0x3cae1f5e	0.021255191
254	0xbd3e7e89	-0.046507392
255	0x3a8a9fa7	0.0010576145

tree_conv.6.weights.bias f4 [64]
0	0xbc3d8342	-0.011566939
1	0x3c57bf43	0.013168159
2	0x3bdecd74	0.0067993943
3	0xbcc8c495	-0.0245078
4	0x3c9ffcfc	0.019529812
5	0xbc8f48a6	-0.017490696
6	0xbca23e77	-0.019805176
7	0xbc5bea25	-0.013422524
8	0x39cd814e	0.00039196986
9	0x3cb52470	0.022112101
10	0x3cbfad3a	0.02339803
11	0xbad49428	-0.001621847
12	0x3b57fa96	0.0032955757
13	0xbd0404a8	-0.032231003
14	0xbc74d626	-0.014943635
15	0x3d2bd299	0.04194889
16	0xbd358339	-0.044314597
17	0xbd1fd1b2	-0.03901834
18	0xbd8fc33c	-0.0701966
19	0xbba3037c	-0.0049747806
20	0x3af37743	0.0018574971
21	0xbc973961	-0.018459978
22	0x3c5c7a1a	0.013456846
23	0x3c19caf4	0.009386767
24	0xbce9155c	-0.028452568
25	0x3c38641f	0.0112543395
26	0x3c1c3d7e	0.009536145
27	0xbd4a0897	-0.0493246
28	0xbd1ded6a	-0.038556494
29	0x3c60e376	0.013726106
30	0xbbbc7a68	-0.0057518966
31	0x3c864db9	0.016394483
32	0xbc9a8e6d	-0.018866742
33	0x3d0a4d77	0.033765282
34	0x3d069182	0.03285361
35	0xbad0c3de	-0.0015927514
36	0x3c864385	0.016389618
37	0x3d1cf1f8	0.038316697
38	0x3c20977b	0.009801741
39	0x3adc7f21	0.0016822555
40	0xbb996a8e	-0.0046818918
41	0xbc308bc1	-0.010775507
42	0x3adac5d5	0.0016691039
43	0xbd3abdc5	-0.045591135
44	0xbd37d819	-0.04488382
45	0x3ca557d9	0.02018349
46	0x3ab78b54	0.0014003315
47	0xbd04ae38	-0.03239271
48	0xbd464fd3	-0.04841597
49	0xbd082e89	-0.033247504
50	0x3cd4f225	0.02599437
51	0x3ce14f4e	0.027503636
52	0xbc278343	-0.010224166
53	0xbc4d7a06	-0.0125413
54	0x3cba9e30	0.022780508
55	0xbc973f4a	-0.018462796
56	0x3c6fb017	0.014629385
57	0xbc2b4259	-0.01045283
58	0xbc01bf82	-0.007919194
59	0xbc3706c9	-0.011171051
60	0xbc92411b	-0.01785331
61	0x3b875f0f	0.004131205
62	0xbc0c9a11	-0.008581654
63	0xbc280e89	-0.010257372

tree_conv.9.weight f4 [32, 64]
0	0x3c3e6dc7	0.011622853
1	0xbdb114df	-0.08646559
2	0xbe123a1c	-0.1427998
3	0x3df26742	0.11836101
4	0x3dd24b69	0.102682896
5	0xbe064055	-0.13110478
6	0xbda309da	-0.079608634
7	0xbd7f22a7	-0.062288906
8	0x3d5b80ba	0.05358956
9	0xbde74857	-0.112930946
10	0xba88400f	-0.0010395068
11	0x3d631ae0	0.055445552
12	0x3db5fc0b	0.08885964
13	0xbd9b13a4	-0.075721055
14	0x3ddb6389	0.10712344
15	0xbe30bdd5	-0.17259915
16	0xbd311382	-0.043231495
17	0x3d166c49	0.036724363
18	0x3d9281d6	0.071536705
19	0xbdb48642	-0.0881467
20	0x3dad779e	0.08470081
21	0xbd9eae4b	-0.077480875
22	0x3d1e6773	0.038672876
23	0xbe122c4d	-0.14274712
24	0xbde1d8bc	-0.11027667
25	0x3dc11377	0.09427541
26	0xbd257607	-0.040395763
27	0xbd47c234	-0.04876919
28	0xbc1706b4	-0.009217907
29	0xbc26f914	-0.010191221
30	0x3c991b79	0.018689858
31	0x3dbadeb4	0.091245085
32	0xbdb3bf66	-0.08776741
33	0x3d7a0d0a	0.06104759
34	0xbe02fc8e	-0.12791654
35	0x3d6e517b	0.058183175
36	0xbb9cc1f3	-0.0047838627
37	0x3e0c1566	0.13680038
38	0x3dd1756d	0.10227475
39	0xbdc804b5	-0.09766523
40	0xbde9021e	-0.11377357
41	0xbc532a59	-0.012888514
42	0xbaf75b1b	-0.0018871756
43	0x3de18fe8	0.11013776
44	0x3cf71d8e	0.03016546
45	0x3c09b533	0.008405018
46	0x3dcbacab	0.09945043
47	0xbc517fc8	-0.012786813
48	0xbdc0b500	-0.09409523
49	0xbdbd4b6c	-0.09242901
50	0xbda16c7f	-0.07882022
51	0xbdcae053	-0.09906068
52	0x3d376885	0.044777412
53	0x3e267ceb	0.1625859
54	0xbda0ec40	-0.07857561
55	0x3dc7d690	0.097577214
56	0x3dee911b	0.116487704
57	0x3d93d55f	0.07218432
58	0xbda71fa4	-0.08160332
59	0x3dbecade	0.093160376
60	0xbca9188c	-0.020641588
61	0xbd1f7ebe	-0.03893923
62	0xbdac4f04	-0.084135085
63	0x3dedd6da	0.11613245
64	0xbda62433	-0.08112373
65	0xbde6a2e7	-0.1126154
66	0x3d8e5a72	0.06950845
67	0x3c974413	0.018465078
68	0xbd2c2c3d	-0.042034376
69	0x3dcb8dd9	0.09939165
70	0xbdd39bbb	-0.103324376
71	0x3d4ae04c	0.049530312
72	0xbd71f23e	-0.05906891
73	0xbc4045f0	-0.011735424
74	0xbdb3ed85	-0.08785538
75	0x3dcdc926	0.10048132
76	0x3d6144d4	0.05499728
77	0x3e054712	0.13015392
78	0xbe23d60f	-0.15999626
79	0xbcd732f2	-0.02626941
80	0xbdb181a7	-0.08667307
81	0x3d80c086	0.06286721
82	0xbd539aaf	-0.05166119
83	0xbd87b140	-0.06625605
84	0x3cf59769	0.029979425
85	0x3cdda708	0.027057186
86	0x3d949eeb	0.07256874
87	0x3d6352ce	0.05549889
88	0x3de2ffbe	0.11083935
89	0xbd804f42	-0.06265117
90	0x3c77ba3f	0.015120088
91	0x3df73265	0.12070159
92	0xbd232f21	-0.039839868
93	0xbdbac0b2	-0.09118785
94	0xbc676e56	-0.014125427
95	0x3dd0a620	0.10187936
96	0xbd303578	-0.04301974
97	0x3dc0e9aa	0.09419568
98	0xbd9f0bda	-0.077659324
99	0xbd38c622	-0.04511083
100	0xbc2769dc	-0.01021811
101	0x3d37d16f	0.044877466
102	0x3cfba6cd	0.030719185
103	0xbdd3e3ea	-0.103462055
104	0xbc99066a	-0.018679816
105	0x3d987ed2	0.07446064
106	0xbd6d8ea2	-0.057997353
107	0xbd342d7b	-0.043988686
108	0xbd43fb32	-0.04784698
109	0x3d395739	0.045249198
110	0xbc92ecbf	-0.017935155
111	0xbd19b88c	-0.037529513
112	0xbbc1015c	-0.0058900546
113	0xbd9f403f	-0.07775926
114	0x3cc0b75a	0.023524929
115	0xbabe2616	-0.00145072
116	0xbda17108	-0.07882887
117	0xbe000da0	-0.12505198
118	0xbe389055	-0.18023808
119	0xbd55b78a	-0.05217699
120	0x3d5f31ca	0.054490842
121	0xbe1c46ee	-0.15261433
122	0x3d7ba72d	0.061438728
123	0x3d73ce80	0.059523106
124	0xbdea6d14	-0.11446586
125	0xbdb08684	-0.08619407
126	0x3dd84852	0.10560669
127	0xbd198cf1	-0.037487928
128	0xbd95d582	-0.07316114
129	0xbd2e528a	-0.042559184
130	0x3c3cbd31	0.011519716
131	0x3df7266f	0.120678775
132	0x3b8267a6	0.003979641
133	0x3cb92d70	0.022604674
134	0x3de59b35	0.11211244
135	0xbdbe9224	-0.09305218
136	0xbdb6efd2	-0.08932461
137	0xbcb54a1b	-0.022130063
138	0xbd7fe0dc	-0.062470302
139	0x3d1fa18b	0.03897242
140	0xbddeae5c	-0.108731
141	0xbc49d89a	-0.012319708
142	0x3e1e5b86	0.15464601
143	0xbdda4601	-0.106578834
144	0x3c873735	0.016505817
145	0xbde15477	-0.110024385
146	0x3de2bf6e	0.110716686
147	0x3dfc453a	0.123178914
148	0x3deed190	0.116610646
149	0xbb7eb169	-0.003886307
150	0x3c49d93f	0.012319862
151	0xbdbe6899	-0.09297294
152	0x3bc97ecf	0.00614915
153	0xbc6a7eab	-0.014312427
154	0x3ccdc126	0.025116514
155	0x3d7388ba	0.059456564
156	0x3d9fcc2f	0.07802617
157	0xbcdb300d	-0.02675631
158	0x3dd87da8	0.10570842
159	0xbd636e3a	-0.055525042
160	0x3b488407	0.0030596273
161	0xbd25d544	-0.04048659
162	0xbd86c02c	-0.065796226
163	0xbc6e4e50	-0.014545038
164	0xbdb4f9ee	-0.08836733
165	0x3e2997da	0.16561833
166	0x3df3e469	0.119088
167	0x3d380e5a	0.04493556
168	0xbd8db506	-0.06919293
169	0x3d08bba0	0.03338206
170	0xbdd90a4d	-0.10597668
171	0x3d48f1c9	0.04905871
172	0x3dea9d06	0.11455731
173	0xbda99bb3	-0.082816504
174	0x3d28fdb2	0.041257568
175	0x3d84cf49	0.06484849
176	0xbdb79201	-0.08963395
177	0x3da635a8	0.08115703
178	0x3c9c3c7b	0.019071808
179	0xbdcf246d	-0.101143695
180	0x3d51f29a	0.051256754
181	0xbd16ac36	-0.036785327
182	0x3e7f352b	0.24922626
183	0x3dc704d6	0.09717719
184	0xbdb81ea0	-0.08990216
185	0x3e387158	0.18011987
186	0x3c6ff249	0.014645168
187	0x3e17ac53	0.1481183
188	0x3de0e45c	0.10981056
189	0x3d1345d1	0.035955254
190	0xbd03108f	-0.031998213
191	0x3d13f5b3	0.03612299
192	0xbd85d43f	-0.06534623
193	0xbcd6f13b	-0.026238075
194	0xbe0e0462	-0.1386886
195	0xbda14c90	-0.07875931
196	0x3de04a9b	0.1095173
197	0x3c861c83	0.016371017
198	0xbbb156ee	-0.005411974
199	0x3dab2f68	0.083586514
200	0x3d86f47e	0.06589602
201	0xbded661f	-0.11591744
202	0xbd905dc2	-0.07049133
203	0xbcd9b47f	-0.026575325
204	0xbdbca4d4	-0.09211126
205	0xbdb5af36	-0.088713095
206	0xbc80a944	-0.015705712
207	0xbddcf5f0	-0.10789096
208	0xbd810973	-0.063006304
209	0x3d4e8ceb	0.05042736
210	0x3d4eebe5	0.050517935
211	0xbdc5e6c5	-0.096631564
212	0xbdab1e9f	-0.0835545
213	0x3d79f4c5	0.061024446
214	0x3ab3c0cd	0.0013714075
215	0xbdb372a2	-0.08762099
216	0xbd327196	-0.043565355
217	0xbdd276ed	-0.102765895
218	0xbd46602f	-0.04843157
219	0xbd909c02	-0.07061006
220	0xbe0c1535	-0.13679965
221	0xbbc5916e	-0.0060292995
222	0xbe0652dc	-0.13117546
223	0xbdab798e	-0.08372794
224	0x3d88d2b3	0.06680813
225	0x3dd5374d	0.104109384
226	0xbda07907	-0.07835584
227	0xbcc38c03	-0.023870474
228	0xbc94c76b	-0.018161496
229	0xbdeec6a8	-0.116589844
230	0xbb0a3d96	-0.0021093837
231	0xbd9c8213	-0.07641997
232	0x3dededfb	0.11617657
233	0xbcdb98ee	-0.026806321
234	0x3c60d294	0.013722081
235	0x3ccb5a67	0.02482338
236	0x3dc0b034	0.09408608
237	0xbda9b460	-0.08286357
238	0xbd00adf6	-0.031415902
239	0xbdc5137b	-0.09622856
240	0xbc15754b	-0.009122203
241	0x3deeb4cb	0.11655577
242	0xbe1cfd6b	-0.15331046
243	0x3c3f4de8	0.011676289
244	0x3d7fff00	0.062499046
245	0x3d4c09c7	0.049814012
246	0xbcde4cc3	-0.027136212
247	0x3dbb0b1d	0.09132979
248	0x3d751a77	0.059839692
249	0x3db1fc95	0.08690754
250	0x3b0658cd	0.0020499707
251	0x3c0c85ae	0.008576794
252	0xbc9dca56	-0.01926152
253	0xbe14e96a	-0.14542165
254	0x3cab96f7	0.02094601
255	0x3ddbdbd6	0.1073529

tree_conv.9.bias f4 [32]
0	0xbd9436ad	-0.07236991
1	0x3da4f661	0.080548055
2	0x3e7a1c17	0.24424778
3	0xbdb30792	-0.08741678
4	0x3df9fa9b	0.12206002
5	0x3e9eb76e	0.3099932
6	0xbdb20b11	-0.08693517
7	0x3c4dbfa6	0.0125579
8	0x3d83dda3	0.06438758
9	0x3e820ca5	0.25400272
10	0xbd32e35a	-0.04367385
11	0x3d34c1a4	0.044129983
12	0x3eaf7052	0.3426538
13	0xbd34aaf6	-0.044108354
14	0x3d9e7891	0.0773784
15	0x3def8135	0.11694566
16	0xbcfbd849	-0.030742781
17	0xbd078fbd	-0.033096064
18	0xbcc365c6	-0.02385224
19	0xbdb0ac8c	-0.08626661
20	0xbb807175	-0.003919775
21	0x3ca64880	0.020298243
22	0x3db62cc7	0.08895259
23	0xbdb6a574	-0.089182764
24	0x3d4b1889	0.049583945
25	0x3d8cf2c0	0.068822384
26	0x3d0a16f5	0.0337133
27	0xbca00c1d	-0.019537026
28	0x3de5f6d3	0.112287186
29	0x3dc91972	0.098193064
30	0x3c8f2373	0.017472958
31	0x3c814f2a	0.015784819

tree_conv.11.weight f4 [1, 32]
0	0xbea71420	-0.32632542
1	0x3e0d9be8	0.13829005
2	0xbe7cd1b7	-0.24689375
3	0x3df71049	0.12063653
4	0xbe55a4e7	-0.20863687
5	0xbe974913	-0.2954794
6	0xbe6ecf30	-0.23321223
7	0xbe9056cc	-0.2819122
8	0xbea69b3b	-0.32540306
9	0xbe88206c	-0.26587236
10	0x3e8c3c74	0.27389872
11	0xbe76d55c	-0.24104828
12	0xbe1f3886	-0.15548906
13	0x3e80f15b	0.2518414
14	0xbea51061	-0.3223906
15	0xbe24c332	-0.16090086
16	0x3e929f19	0.28637007
17	0x3e244447	0.1604167
18	0x3e29a2e1	0.1656604
19	0x3e4cfe83	0.20018964
20	0x3ea47e34	0.32127535
21	0xbe05edd8	-0.13079011
22	0x3dddea31	0.10835684
23	0x3e3813b7	0.1797627
24	0x3e3460b7	0.17615019
25	0xbe4fc71a	-0.20290795
26	0x3e8c6b19	0.2742546
27	0xbe90b1be	-0.28260607
28	0xbe492524	-0.19643074
29	0xbe9f0b67	-0.31063387
30	0x3e9131d0	0.28358316
31	0xbe1f9870	-0.15585494
