models/lero_on_tpcds_10_TPCDS_Bao.pth (torch, 663170 bytes, 9 tensors)

tree_conv.0.weights.weight f4 [256, 51, 3]
0	0x3caf19af	0.021374552
1	0x3d3bd8c7	0.04586103
2	0xbda03681	-0.07822896
3	0x3d91ba30	0.071155906
4	0xbd42af62	-0.04753054
5	0xbcdd7d4a	-0.027037282
6	0x3cbd39ec	0.023098908
7	0xbb605a60	-0.0034233555
8	0x3d303ac7	0.043024804
9	0xbd1d71c7	-0.038438585
10	0x39cdf034	0.00039279612
11	0xbd9b0c03	-0.075706504
12	0xbd326be9	-0.043559942
13	0x3d1fa8ee	0.038979463
14	0xbd2bee31	-0.041975204
15	0x3c6f819c	0.014618304
16	0x3d5b0dcb	0.05347995
17	0xbbce6722	-0.0062989155
18	0x3c7aa73f	0.015298664
19	0xbd2cbe13	-0.042173456
20	0x3ce85565	0.028361032
21	0xbd16994b	-0.036767285
22	0xbd208297	-0.03918704
23	0x3d47b759	0.04875884
24	0x3d095b8b	0.033534568
25	0x3d9ec115	0.07751671
26	0x3b7b3355	0.0038330157
27	0xbd406924	-0.04697527
28	0xbdb5d4dc	-0.0887849
29	0xbd2bbedb	-0.04193006
30	0xbd97a73e	-0.07404946
31	0xbc511d84	-0.012763385
32	0x3dac6693	0.08418002
33	0xbceac5df	-0.028658805
34	0x3c594199	0.013260269
35	0xbd91c4c9	-0.07117612
36	0xbd8561c3	-0.06512787
37	0x3dc47236	0.095920965
38	0xbd564bcd	-0.052318383
39	0xbd36a9eb	-0.04459564
40	0xbda32cff	-0.07967567
41	0xbd9146de	-0.07093595
42	0x3d9138a6	0.07090883
43	0xbc37bd49	-0.011214563
44	0xbd305dc6	-0.04305818
45	0x3d348b7f	0.044078346
46	0x3d18b501	0.037281994
47	0xbd33d8bd	-0.04390787
48	0xbcadb70f	-0.021205453
49	0x3cd9662e	0.02653798
50	0xbc2dd6c7	-0.010610289
51	0x3dbbeaf0	0.0917567
52	0xbc79152a	-0.0152028
53	0x3d7f68fd	0.062355984
54	0x3d4b57db	0.049644332
55	0xbdc0393e	-0.09385918
56	0x3d279157	0.04091009
57	0x3ca7ccd1	0.020483406
58	0x3d78a04f	0.060699757
59	0x3d07d477	0.033161607
60	0x3d512587	0.05106118
61	0xb8ffa165	-0.000121894096
62	0x3d86b09c	0.06576654
63	0x3ca1b0cb	0.019737622
64	0xbcaa7e44	-0.020812161
65	0xbcf9ce12	-0.03049377
66	0x3d9fa266	0.07794647
67	0x3d0eede2	0.03489483
68	0x3bb73697	0.0055912244
69	0x3da1da29	0.07902939
70	0x3cad8a39	0.021184074
71	0xbc8c60da	-0.017136026
72	0x3da9752d	0.08274303
73	0x3d8cc0b8	0.06872696
74	0x3d9ab88b	0.0755473
75	0xbd915b02	-0.070974365
76	0xbc3251b1	-0.010883735
77	0x3d0d8822	0.034553654
78	0xbc804ac0	-0.015660644
79	0x3d1ebd3d	0.03875469
80	0xbde5bd56	-0.112177536
81	0xbd7e16b8	-0.062033385
82	0xbd7b5928	-0.061364323
83	0xbc9f7080	-0.019462824
84	0x3d05cd80	0.032666683
85	0xbd5cf3fe	-0.053943627
86	0x3d96fcc7	0.07372432
87	0xbd9a8859	-0.075455375
88	0x3d7bcc4c	0.06147413
89	0xbd9a2c20	-0.075279474
90	0x3d611226	0.05494895
91	0xbd5f8cf3	-0.05457778
92	0xbd469ebe	-0.048491232
93	0xba95468f	-0.0011388826
94	0x3cd81c46	0.02638067
95	0x3b929b18	0.004474055
96	0xbca9cf9f	-0.020728884
97	0xbd68ac3b	-0.056804877
98	0xbd46f054	-0.04856904
99	0xbd211242	-0.039324053
100	0x3d2beebf	0.041975733
101	0xbd74712c	-0.05967824
102	0xbcf94b44	-0.030431397
103	0xbd0c2c13	-0.03422172
104	0xbc03de69	-0.008048632
105	0xba66e89e	-0.00088084664
106	0xbd588a28	-0.05286613
107	0xbdd270f8	-0.10275453
108	0x3d60e752	0.054908104
109	0x3d959fd2	0.07305874
110	0x3dbd2004	0.09234622
111	0x3d31f608	0.043447524
112	0x3d4fced3	0.050734352
113	0xbd3401de	-0.043947093
114	0xbda6784a	-0.08128412
115	0xbda12a50	-0.078693986
116	0x3d1826b6	0.037146293
117	0xbd15fd23	-0.036618363
118	0xbc5574da	-0.013028348
119	0x3d81a26d	0.063298084
120	0x3c66326a	0.014050106
121	0x3cebb8f2	0.028774712
122	0x3d0bddaa	0.034146942
123	0x3c8eb03b	0.017418018
124	0x3d339e47	0.043852117
125	0xbb3484e6	-0.0027545034
126	0xbd3e9ec6	-0.046538137
127	0xbd7aded6	-0.06124767
128	0xbd522a29	-0.05130974
129	0xbc6b9d08	-0.014380701
130	0xbbe5ae13	-0.0070092767
131	0xbd47b1cd	-0.04875355
132	0x3d5eb162	0.054368384
133	0xbd9c73a0	-0.07639241
134	0x3cb405df	0.021975456
135	0xbd6ef54c	-0.058339402
136	0xbcdef901	-0.027218344
137	0x3daadb94	0.083426625
138	0x3d417eee	0.04724019
139	0xbcfc5b96	-0.03080539
140	0x3c8f698c	0.017506383
141	0xbce80601	-0.028323175
142	0x3b22da18	0.0024849232
143	0xbd991077	-0.074738435
144	0xbcb2e40f	-0.021837262
145	0x3d6f9a8a	0.05849699
146	0xbc9ecf4d	-0.019385958
147	0x3c4f647e	0.012658237
148	0x3d6e6297	0.05819949
149	0xbd737f17	-0.059447374
150	0x3d35821c	0.044313535
151	0x3d7a234a	0.06106881
152	0xbc5ed1a3	-0.013599786
153	0x3ce77ece	0.028258707
154	0x3d9e4c04	0.077293426
155	0xbce71fd8	-0.028213426
156	0xbcf17ec0	-0.029479384
157	0x3d8894db	0.06669017
158	0xbd9a0951	-0.07521308
159	0xbd2d737e	-0.04234647
160	0x3d57597d	0.052575577
161	0xbc9f5947	-0.01945175
162	0x3d1c2fe4	0.03813161
163	0xbb7bd07c	-0.0038423827
164	0xbad84155	-0.0016498963
165	0x3d1d417f	0.03839254
166	0x3d18faad	0.037348438
167	0xbc1c9be8	-0.009558655
168	0xbca06f20	-0.019584239
169	0x3ca33aa0	0.019925416
170	0xbce09e20	-0.02741915
171	0xbc406ad3	-0.011744219
172	0x3d0fd8cf	0.035118874
173	0xbcae48b6	-0.021274906
174	0x3d0a7630	0.03380412
175	0x3d95c7d0	0.07313502
176	0xbd36ba57	-0.0446113
177	0x3cfc1dc4	0.030775912
178	0xbc9a9d22	-0.018873755
179	0x3d23be1b	0.03997622
180	0x3ca5df49	0.020248072
181	0xbddc2850	-0.107498765
182	0x3dbd989e	0.09257625
183	0xbc10a87d	-0.008829233
184	0xbd7f3603	-0.06230737
185	0xbd8667e2	-0.06562783
186	0x3d23ca4f	0.03998786
187	0xbd47b5fb	-0.048757534
188	0xbc9ec6a3	-0.019381827
189	0x3c3de13f	0.011589347
190	0xbc9e0130	-0.019287676
191	0xbd0a8eff	-0.033827778
192	0x3ceedddd	0.029158527
193	0xbc4ecb8b	-0.012621771
194	0xbcb52513	-0.022112405
195	0x3d46cc57	0.048534717
196	0x3d66213f	0.05618405
197	0x3d70b826	0.058769368
198	0x3d69ca58	0.057077736
199	0x3d01bd1a	0.031674482
200	0x3d340150	0.043946564
201	0xbd28f8cb	-0.041252892
202	0x3d1e48f4	0.038643792
203	0xbc2f2b11	-0.01069142
204	0xbe126f60	-0.14300299
205	0xbdd9f5ed	-0.1064261
206	0x3c8f5993	0.017498767
207	0xbbe358e2	-0.006938086
208	0xbd921973	-0.0713376
209	0xbd949284	-0.07254508
210	0xbcb7cc70	-0.02243635
211	0x3cdde9c4	0.027089007
212	0xbd4ff087	-0.050766494
213	0x3dd1c467	0.10242539
214	0x3df72f7b	0.12069603
215	0xbda66aa8	-0.08125812
216	0xbdfc8762	-0.1233051
217	0xbd3c7348	-0.04600838
218	0xbd049d9f	-0.03237688
219	0xbd6a56f9	-0.05721185
220	0xbc1394fd	-0.00900769
221	0xbd2ba805	-0.041908283
222	0x3c7b40f5	0.015335311
223	0xbdaea185	-0.08526901
224	0x3d196163	0.03744639
225	0x3d161c6a	0.03664819
226	0xbc028e31	-0.007968471
227	0xbc884622	-0.016635004
228	0x3d4c49fa	0.049875237
229	0x3d7c7fc9	0.061645303
230	0x3d6c6bd6	0.057720028
231	0xbd4596a1	-0.048239354
232	0x3dc109f6	0.09425728
233	0x3d8783e1	0.06616951
234	0xbbb5c66c	-0.0055473354
235	0x3d80e9c2	0.06294586
236	0xbd1c56ff	-0.038168903
237	0xbd123f2a	-0.03570477
238	0x3d57996c	0.05263655
239	0x3c90ed16	0.017691176
240	0xbcbd762c	-0.023127638
241	0xbd6c8495	-0.057743628
242	0xbd0cb49d	-0.034351934
243	0xbcf4edaa	-0.029898483
244	0xbd26882f	-0.04065722
245	0xbd13923d	-0.036028136
246	0x3bfdf4ce	0.0077501303
247	0x3d93e364	0.07221106
248	0x3d577874	0.052605107
249	0x3d16b202	0.036790855
250	0x3d4e91a9	0.05043188
251	0x3cfddd38	0.030989274
252	0x3d9e456a	0.077280834
253	0xbd14ffdf	-0.03637683
254	0x3d814248	0.0631147
255	0x3d96e3d4	0.073676735

tree_conv.0.weights.bias f4 [256]
0	0xbd622241	-0.05520845
1	0x3cbd645c	0.023119144
2	0x3c183218	0.009289287
3	0xbc2c4990	-0.010515586
4	0x3cc0c614	0.023531951
5	0x3c8f7601	0.017512323
6	0x3d05f99d	0.032708753
7	0xbc79c3e8	-0.015244462
8	0x3d231617	0.03981599
9	0x3b334c55	0.002735873
10	0xbd5dfdfa	-0.05419729
11	0x3d487ecb	0.048949044
12	0x3ca4503d	0.020057792
13	0x3d6b44b7	0.05743858
14	0xbc7b94e0	-0.015355319
15	0xbda4cf21	-0.08047319
16	0x3d8f6b01	0.07002831
17	0x3d103ef6	0.035216294
18	0x3d5ed21e	0.054399602
19	0x3d67a1ed	0.05655091
20	0x3d15f04e	0.036606126
21	0xbcdd22de	-0.026994165
22	0xbcfdbfe2	-0.030975286
23	0x3d8071dc	0.06271717
24	0x3d7e494f	0.06208163
25	0x3cf6059a	0.030031968
26	0xb9ab0bc0	-0.00032624416
27	0xbd278d57	-0.040906277
28	0xbb4a481c	-0.0030865734
29	0xbd01cdf4	-0.031690553
30	0x3d9015a0	0.07035375
31	0xbd849186	-0.06473069
32	0xbcfdb467	-0.030969812
33	0xbd323339	-0.04350588
34	0xbd0a38ad	-0.033745456
35	0xbd17a093	-0.03701837
36	0x3c36f7a6	0.011167442
37	0xbcdf8f9c	-0.027290158
38	0x3d1be732	0.038062282
39	0xbd4bb24d	-0.049730588
40	0xbcd211ff	-0.025643347
41	0x3d5dbc9f	0.05413496
42	0xbcdfb019	-0.02730565
43	0xbd439450	-0.047748864
44	0xbd1c7175	-0.03819414
45	0xbd27f72f	-0.041007217
46	0xbd82f146	-0.063936755
47	0x3c6d7704	0.014493708
48	0x3c9a0d7a	0.018805254
49	0xbb578a66	-0.0032888888
50	0x3d726364	0.059176818
51	0xbc19bdfe	-0.009383677
52	0x3d7eb3e0	0.06218326
53	0x3d78dd8f	0.06075817
54	0xbd1f01b9	-0.038820002
55	0x3a02e412	0.00049930916
56	0xbd3e4fb6	-0.046462737
57	0xbd2d2e36	-0.0422804
58	0x3d7cbf2f	0.061705764
59	0xbb5456ea	-0.0032400438
60	0x3d6bb93f	0.05754971
61	0xbd3507bd	-0.044196833
62	0xbbe226a6	-0.00690158
63	0xbd520a48	-0.051279336
64	0x3d578436	0.05261632
65	0xbb1070d0	-0.0022039898
66	0xbd14b8a3	-0.036308896
67	0x3cac4abf	0.021031735
68	0x3ba9f4fe	0.005186676
69	0xbd06569f	-0.032797452
70	0x3da468ea	0.08027823
71	0x3d7a4688	0.06110242
72	0x3d791986	0.060815357
73	0xbcb2b7d7	-0.021816177
74	0xbccb73f1	-0.024835559
75	0xbd31c44b	-0.04340009
76	0xba9a5215	-0.001177373
77	0xbd9a5be3	-0.07537057
78	0x3d14894f	0.03626376
79	0x3b40ca94	0.002941762
80	0x3d6d4537	0.057927337
81	0xbc9702d6	-0.01843397
82	0x3d62fbd4	0.055415943
83	0x3b8c35a1	0.004278854
84	0x3c46930c	0.01212002
85	0x3cb7cb6b	0.022435864
86	0xbcac53a7	-0.021035982
87	0x3dac7f58	0.084227264
88	0xbcbc16fd	-0.02296018
89	0xbbfa1839	-0.007632282
90	0xbcee7814	-0.029109992
91	0x3d58a54d	0.052892018
92	0x3c8d424a	0.017243523
93	0x3ce2ba7a	0.02767681
94	0x3ca4f414	0.020135917
95	0xbce42e3c	-0.027854078
96	0xbc2b8448	-0.01046855
97	0xbd971477	-0.0737695
98	0x3d6c1dca	0.057645597
99	0x3d49cef2	0.049269624
100	0xbc8d7b7f	-0.017270802
101	0xbd799181	-0.06092978
102	0xbd86d446	-0.06583457
103	0x3dad8e44	0.08474401
104	0xbd62a62e	-0.055334263
105	0xba904be3	-0.0011008944
106	0x3c532d35	0.012889196
107	0xbd67ed16	-0.056622587
108	0x3d1d9b15	0.038477976
109	0x3d86c6de	0.065809
110	0xbd3cb49b	-0.046070676
111	0x3d556811	0.0521012
112	0x3d41c13a	0.047303416
113	0x3d12961d	0.03578769
114	0xbd7b36be	-0.061331503
115	0xbd54965e	-0.051901214
116	0x3ca911dd	0.0206384
117	0x3cd20d54	0.025641121
118	0xbda740c9	-0.08166654
119	0xbd13da84	-0.036097065
120	0xbd2e073f	-0.04248738
121	0xbd1a654b	-0.037694257
122	0x3d681ea7	0.056669857
123	0xbcc8e482	-0.024523024
124	0xbc564d72	-0.013079988
125	0x3d45adb4	0.04826136
126	0x3cf81a18	0.03028588
127	0xbd729e70	-0.05923313
128	0x3b2c7620	0.0026315525
129	0x3c058df0	0.008151516
130	0x3d24ee17	0.040266123
131	0x3cfbf594	0.03075675
132	0xbce71779	-0.028209435
133	0x3da4b8cb	0.08043059
134	0xbda5886c	-0.08082661
135	0xbc3a9aaa	-0.011389414
136	0x3dbe12f1	0.092809565
137	0xbce3b8de	-0.027798112
138	0x3d309f5c	0.043120727
139	0x3cf3f3a8	0.02977927
140	0xbd859795	-0.065230526
141	0x3d21b4cc	0.039479062
142	0x3d01340f	0.031543788
143	0xbabd05fe	-0.0014421341
144	0x3d121d56	0.03567251
145	0xbc907160	-0.017632186
146	0x3c33b499	0.010968351
147	0x3c5f2b80	0.013621211
148	0x3d1d220f	0.03836256
149	0x3d579a11	0.052637164
150	0x3d3a0037	0.04541036
151	0x3d30875f	0.04309785
152	0x3c15abf2	0.009135233
153	0xbd54900c	-0.051895186
154	0x3c6576ab	0.014005343
155	0xbcfac1cd	-0.03060999
156	0x3b47bbe9	0.0030476993
157	0x3c23bb6f	0.009993418
158	0xbd60b4bf	-0.054859873
159	0x3c5c796a	0.013456682
160	0xbcfc38e5	-0.030788848
161	0x3d0ee0a2	0.034882195
162	0xbcb4c81d	-0.022068078
163	0x3d934463	0.07190778
164	0xbd1597b1	-0.036521617
165	0xbc4af3d4	-0.012387235
166	0xbd97c57c	-0.07410714
167	0xbca05b69	-0.019574838
168	0xbd27e349	-0.04098824
169	0x3d1880fc	0.037232384
170	0x3cf7171a	0.030162383
171	0x3d15bdd1	0.036557976
172	0x3cceeace	0.025258448
173	0x3c938926	0.018009733
174	0x3d7b5e4d	0.06136923
175	0x3cbd1459	0.023080992
176	0x3db3a463	0.08771589
177	0xbcdeaedb	-0.027182987
178	0x3d14e64d	0.036352444
179	0xbd86c870	-0.06581199
180	0x3cb6a632	0.022296045
181	0xbc8a3795	-0.016872207
182	0x3d991473	0.074746035
183	0x3bf3326e	0.007421783
184	0x3d910535	0.07081071
185	0xbd24a3c0	-0.040195227
186	0x3d23dacb	0.04000358
187	0xbd6a9551	-0.057271305
188	0xbd0d8aae	-0.034556083
189	0x3c3e18ea	0.01160262
190	0x3d344086	0.044006847
191	0xbcfae464	-0.030626483
192	0x3ca47c08	0.020078674
193	0x3d7e99af	0.062158283
194	0xb9c80002	-0.00038146978
195	0x3c3303af	0.010926171
196	0x3bc9ff64	0.006164478
197	0x3cbab351	0.022790583
198	0xbdb25d06	-0.08709149
199	0x3da2767f	0.079327576
200	0xbd42fa29	-0.047601853
201	0x3d954d59	0.072901435
202	0xbcf98e4f	-0.030463366
203	0x3a1bb905	0.0005940351
204	0xbd74e8fa	-0.059792496
205	0xbc138e70	-0.009006128
206	0xbbe5703a	-0.007001904
207	0xbd0205dc	-0.03174387
208	0xbd0b9aa4	-0.034083024
209	0x3b79b78b	0.0038103785
210	0x39eb5b26	0.00044890604
211	0x3d860ef3	0.0654582
212	0xbd55cbb9	-0.05219624
213	0x3b31ae67	0.0027112009
214	0x3d6107df	0.054939147
215	0xbb20d548	-0.0024541188
216	0xbd21eefa	-0.039534546
217	0xbd1f8c19	-0.038951967
218	0x3d3d871d	0.046271432
219	0xbc5e6aa5	-0.013575231
220	0xbd2e1b0a	-0.042506255
221	0x3d88abeb	0.06673416
222	0x3bc2d601	0.0059459214
223	0xbc312e84	-0.010814313
224	0x3cb4255a	0.021990467
225	0xbc84a670	-0.016192645
226	0x3d670bbb	0.05640767
227	0xbcc8fc36	-0.024534326
228	0xbd516514	-0.051121786
229	0xbd408deb	-0.047010344
230	0x3b4f4491	0.0031626562
231	0x3d9dd968	0.077074826
232	0x3c0ec685	0.008714323
233	0x3c66e68d	0.0140930535
234	0x3d88e9e4	0.06685236
235	0x3d8fa89f	0.07014584
236	0x3cb779e5	0.022396991
237	0x3d3703e6	0.044681452
238	0x3ab9058d	0.0014116034
239	0x3da7990b	0.081834875
240	0xbd0cbfb9	-0.03436253
241	0x3d11c531	0.035588447
242	0xbd878f66	-0.06619148
243	0xbcf598e0	-0.029980123
244	0x3d015adc	0.03158079
245	0xbd55e0b4	-0.052216247
246	0xbd7a6952	-0.061135598
247	0xbd09ea5c	-0.03367077
248	0x3d801265	0.062535085
249	0x3d40de01	0.04708672
250	0xbcc02ec3	-0.023459798
251	0x3d3a2f94	0.04545553
252	0x3ccf8a21	0.02533442
253	0xbc912f05	-0.017722616
254	0x3d8c132d	0.06839595
255	0xba4bd54f	-0.0007775621

tree_conv.3.weights.weight f4 [128, 256, 3]
0	0x396d8659	0.0002265213
1	0xbd43021a	-0.047609426
2	0xbcfe4de7	-0.031043006
3	0xbc455179	-0.01204335
4	0xbccd999f	-0.025097666
5	0xbd025044	-0.03181483
6	0x3c8ddffe	0.017318722
7	0x3d1a291f	0.037636872
8	0x3d649e6b	0.05581514
9	0xbad839ec	-0.0016496754
10	0xbcac56f5	-0.021037558
11	0xbcabe5ff	-0.020983694
12	0xbc0dfeba	-0.008666689
13	0x3d171b3f	0.03689122
14	0xbd04da34	-0.032434657
15	0x3c6a03b6	0.014283111
16	0x3d08bcc1	0.033383135
17	0x3d19113e	0.03736996
18	0x3c596d3d	0.013270673
19	0x3bf91712	0.007601627
20	0xbb42b9e0	-0.002971284
21	0xbd4dbdb0	-0.05022973
22	0x3d214576	0.039372884
23	0xbcf17e1a	-0.029479075
24	0xbbfd10d9	-0.0077229557
25	0xbab9d8c1	-0.0014178978
26	0x3d0f55bd	0.034993876
27	0xbcc3b47e	-0.023889776
28	0x3c725536	0.014790824
29	0xbd1ec7c5	-0.038764734
30	0x3c213dca	0.009841392
31	0x3b6709bf	0.0035253612
32	0xbcde78d6	-0.027157228
33	0x3baaf205	0.0052168393
34	0xbbd19aa2	-0.0063966075
35	0x3d009606	0.031393073
36	0xbbae4fe7	-0.0053195837
37	0x3cc9f94d	0.024655009
38	0x3d0957a9	0.033530865
39	0x3c8baf92	0.017051492
40	0xbb8041c4	-0.00391409
41	0xbc59ce1d	-0.01329377
42	0x3d41b192	0.047288485
43	0xbd498b11	-0.04920489
44	0xbcb48061	-0.022033872
45	0xbcc747ac	-0.024326168
46	0x3cb95108	0.022621647
47	0xbc159f8c	-0.009132277
48	0x3cb94d97	0.022620006
49	0xbce38163	-0.027771657
50	0xbb1bbf93	-0.002376531
51	0xbba205de	-0.004944547
52	0xbd3018ff	-0.042992588
53	0xbcc7c3b1	-0.024385305
54	0xbcfa61e6	-0.03056426
55	0xbbbbb913	-0.0057288497
56	0xbca25e65	-0.019820401
57	0xbc68c13b	-0.014206226
58	0xbad32e97	-0.0016111907
59	0x3b4196cd	0.0029539347
60	0x3d1b134e	0.037860207
61	0x3bd84d7e	0.0066010347
62	0x3ca6f43c	0.020380132
63	0x3acbb095	0.0015540296
64	0xbd3f4d38	-0.0467045
65	0x3c6111b0	0.013737127
66	0xbd1c21ce	-0.038118176
67	0x3c147f61	0.009063573
68	0xbd0ff50f	-0.035145815
69	0xbc8d3f92	-0.017242227
70	0x3d00b533	0.031422805
71	0x3c39b240	0.011334002
72	0x3d5acd9a	0.053418733
73	0x3c474eb8	0.012164764
74	0x3cddd1da	0.027077604
75	0xbc30b29d	-0.010784772
76	0xbd20d930	-0.039269626
77	0x3ce569cb	0.028004548
78	0xbd97d06f	-0.074128024
79	0xbd69eab3	-0.057108592
80	0x3d805560	0.06266284
81	0x3c8b589e	0.01701003
82	0x3c6fa565	0.0146268355
83	0x3c1420dd	0.009041038
84	0x3c69f7ab	0.01428024
85	0x3bcd4f48	0.0062655546
86	0x3d01d3dc	0.031696185
87	0x3cac4869	0.021030622
88	0xbc8e26f1	-0.017352553
89	0xbd16383c	-0.036674723
90	0x3cce7f43	0.025207167
91	0x3c14a826	0.009073293
92	0x3cc661df	0.02421659
93	0x3cabac97	0.02095632
94	0xbce2e327	-0.027696205
95	0xbbe4d263	-0.006983088
96	0x3d0be26f	0.03415149
97	0xbcaefa64	-0.02135963
98	0x3c641b7b	0.0139225675
99	0xbd5759f0	-0.052576005
100	0xbda752a1	-0.08170057
101	0xbc4846fe	-0.012223957
102	0x3c9f9e01	0.019484522
103	0x3d2f0748	0.042731553
104	0xbcb011e2	-0.021492902
105	0xbcced505	-0.02524806
106	0x3ce629dc	0.028096132
107	0x3c5caf97	0.013469598
108	0xba363a36	-0.0006951423
109	0xbc86d478	-0.016458735
110	0x3cf2176d	0.029552186
111	0xbc9e24cf	-0.019304661
112	0x3d1ab383	0.037768852
113	0xbb8ef3a4	-0.0043625403
114	0x3c17dbc3	0.009268704
115	0xbc56af92	-0.013103383
116	0x3c841452	0.01612297
117	0x3d35fafc	0.04442881
118	0xbc88e96c	-0.016712867
119	0x3cd5ac0a	0.026083011
120	0xbd660f50	-0.056166947
121	0xbd0bf932	-0.034173198
122	0x3c48d2ee	0.012257321
123	0x3c81e15f	0.015854536
124	0x3a5bcc73	0.00083846523
125	0xbca1999b	-0.019726565
126	0x3c5965dd	0.013268915
127	0xbbfdae80	-0.0077417493
128	0x3b9ec31d	0.0048450367
129	0x3d3c5962	0.04598368
130	0x3cc6dce5	0.024275253
131	0x39dc7ddc	0.00042055442
132	0x3c98ca0b	0.01865103
133	0x3d3bc9ca	0.045846738
134	0xbca7ca93	-0.020482337
135	0xbd05a1b6	-0.032624923
136	0x3c21546e	0.00984679
137	0xbcc28df5	-0.023749331
138	0xbd37881d	-0.044807542
139	0xbd245d16	-0.040127836
140	0xbd07966b	-0.033102434
141	0xbd079a25	-0.033105988
142	0xbcbcb4be	-0.023035403
143	0x3c07151a	0.008244777
144	0xbc2a7f4d	-0.010406327
145	0x3d42cef7	0.04756066
146	0x3d6f1b0e	0.05837541
147	0x3c075627	0.008260286
148	0xbcc3d8cc	-0.023907088
149	0x3ce94fe6	0.028480481
150	0xbac5ec57	-0.0015100342
151	0x3d0fda37	0.035120215
152	0xbccdd4e7	-0.025125934
153	0xbced5aca	-0.028973956
154	0xbcfd0e5a	-0.030890632
155	0x3ce7e88c	0.02830913
156	0xbbfcdc7d	-0.007716714
157	0xbcd9a6da	-0.026568819
158	0xbca4fdfa	-0.020140637
159	0xbaf8b7c9	-0.0018975671
160	0xbd26b0c5	-0.040695924
161	0x3d34306c	0.04399149
162	0xb9625386	-0.00021584154
163	0x3c961d31	0.018324466
164	0x3cd791cd	0.02631464
165	0x3b89a78a	0.0042008804
166	0x3c57835b	0.013153876
167	0x3a91cb32	0.0011123179
168	0x3d05b4d0	0.03264314
169	0x3d23326b	0.039843004
170	0x3cd0606f	0.025436608
171	0x3d1e4dbd	0.038648356
172	0x3ce61a80	0.028088808
173	0x3cdfeb7d	0.02733397
174	0xbc9dcb0e	-0.019261863
175	0x3c861cc5	0.01637114
176	0x3d4a6a9e	0.049418084
177	0x3b3fbf9b	0.0029258493
178	0xbd3af516	-0.04564389
179	0xbc958f14	-0.018256702
180	0xbb2d4b3b	-0.0026442546
181	0xbcb0df85	-0.021590957
182	0x3d06e367	0.03293171
183	0xbd0b3a2c	-0.033991024
184	0xbaa8c597	-0.0012876269
185	0xbcdc7d7a	-0.0269153
186	0xbd08a2a9	-0.03335825
187	0x3ca1f54c	0.019770287
188	0x3b69c1e0	0.0035668537
189	0x3d0a49b3	0.03376169
190	0x3c935a51	0.017987402
191	0xbc8278c2	-0.015926722
192	0xbd08d47d	-0.03340577
193	0xbd2e2f44	-0.042525545
194	0x3d3aec8e	0.045635752
195	0x3b3735b6	0.0027955598
196	0xbc8fce0b	-0.017554304
197	0xbce179b6	-0.027523857
198	0xbc926bc5	-0.017873654
199	0x3cc2a9ff	0.023762701
200	0xbc8aa2d1	-0.01692334
201	0x3d04b2c1	0.032397036
202	0x3cd88b91	0.026433738
203	0xbadc4fa5	-0.0016808404
204	0xbc4f04a7	-0.012635387
205	0x3b8ef801	0.0043630605
206	0xbc87ac69	-0.016561704
207	0x39e62e55	0.0004390354
208	0x3c91a981	0.017781021
209	0x3d157c2d	0.036495376
210	0x3d261a55	0.040552456
211	0x3d9c6281	0.07635976
212	0x3d1e06df	0.03858077
213	0x3cea73a2	0.028619591
214	0xbc8972a5	-0.0167783
215	0x3d87be16	0.06628053
216	0x3d4da6b7	0.05020782
217	0x3cd08586	0.025454294
218	0xbce4bf1b	-0.027923157
219	0x3cf83e5a	0.030303169
220	0xbd042bfe	-0.032268517
221	0x3b18c51c	0.0023310846
222	0x3c88a42c	0.016679846
223	0x3c8e982f	0.017406551
224	0x3d155376	0.036456548
225	0xbd02f138	-0.031968325
226	0x3c95b724	0.018275805
227	0x3ad7a7b1	0.0016453174
228	0x3d9e7f22	0.077390924
229	0x3d1be5dd	0.03806101
230	0xbd240ff4	-0.040054277
231	0x3c563515	0.013074179
232	0x3cff53db	0.031167915
233	0xbb79147d	-0.0038006597
234	0xbccad353	-0.02475897
235	0x3cfd12dd	0.030892784
236	0x3d1209a0	0.03565371
237	0xbce450fe	-0.027870651
238	0x3d1fd084	0.039017215
239	0x398db097	0.00027025185
240	0xbcb5274b	-0.022113463
241	0xbd329a66	-0.043604277
242	0x3b9f1df0	0.0048558637
243	0x3d4e7aca	0.05041007
244	0x3cb2e75b	0.021838835
245	0xbcf7e292	-0.030259404
246	0xbc67eab4	-0.014155079
247	0x3d078a00	0.03309059
248	0x3ca67461	0.020319166
249	0xbd33eca6	-0.043926857
250	0x3d711ae1	0.058863524
251	0xbccc05d4	-0.024905123
252	0x3c5bff2a	0.013427535
253	0x3d4880aa	0.04895083
254	0xbd077ad9	-0.03307614
255	0xbc944af3	-0.018102145

tree_conv.3.weights.bias f4 [128]
0	0x3d1185a5	0.035527844
1	0x3a596fcc	0.0008294552
2	0xbd346295	-0.044039328
3	0xbbf68f21	-0.0075243865
4	0x3d2d8c66	0.042370223
5	0x3d1925c9	0.03738955
6	0x3b80f95f	0.0039359774
7	0x3d507307	0.05089095
8	0xbcd0a5e1	-0.025469722
9	0x3ca505b5	0.020144323
10	0xbc70fa05	-0.014708047
11	0x3cbed34b	0.023294112
12	0xbd24fcc9	-0.040280137
13	0xbc934ce1	-0.017980995
14	0xbc6240ee	-0.013809426
15	0x3cb28280	0.021790743
16	0xbd060539	-0.032719824
17	0xbbb4e845	-0.0055208527
18	0xbca3df0b	-0.020003816
19	0x3cabffef	0.020996062
20	0x3c7d3219	0.015453839
21	0x39cc3ee8	0.0003895678
22	0x3b3c6b4d	0.002875048
23	0x3c246be4	0.010035489
24	0xbc2ab076	-0.010418048
25	0xbc5de94e	-0.013544394
26	0x3d1ce906	0.038308166
27	0xbcd9610e	-0.026535537
28	0xbc329a4b	-0.010901044
29	0xbd14d5c3	-0.03633667
30	0xbcdb2ed3	-0.026755726
31	0x3c6172ea	0.013760308
32	0xbc774a8e	-0.015093459
33	0xbc38f844	-0.01128966
34	0x3cb950b5	0.022621492
35	0x3cc5b843	0.024135714
36	0x3cdb9809	0.026805894
37	0x3d1870f1	0.037217084
38	0xbc5b73c1	-0.013394297
39	0x3d0a29dd	0.03373133
40	0x3c535d73	0.012900698
41	0xbcb3bbd2	-0.021940146
42	0xbcb17115	-0.021660367
43	0x3b86c9e7	0.004113424
44	0xbc3ac271	-0.0113988975
45	0xbcc7012c	-0.024292551
46	0x3d372cb7	0.044720378
47	0x3ca29943	0.019848472
48	0x3bce3def	0.006294004
49	0x3d349158	0.044083923
50	0x3cd5e90f	0.026112108
51	0x3c9eb4e8	0.019373372
52	0xbc8847a0	-0.016635716
53	0x3ccaf548	0.024775162
54	0xbcf2f0f7	-0.029655917
55	0x3aa8b6ba	0.001287184
56	0xbc3bb81d	-0.01145747
57	0x3cec1a4b	0.028821131
58	0xbcb1ce42	-0.021704797
59	0xbd01c316	-0.03168019
60	0xbaab9081	-0.001308933
61	0xbc78aa5d	-0.0151773365
62	0x3be2fe7c	0.0069273096
63	0xbc4cf705	-0.012510066
64	0xbcf71679	-0.030162083
65	0x3c87c3e5	0.016572902
66	0xbc229734	-0.009923745
67	0x3cd2399f	0.025662242
68	0x3d0ecd5b	0.03486381
69	0xbd097b90	-0.033565104
70	0x3d01b728	0.031668812
71	0x3cfc47a7	0.030795885
72	0x3d036f2e	0.03208845
73	0xbcd8a77b	-0.026447048
74	0x3b840832	0.0040292973
75	0xbc9292d8	-0.017892286
76	0x3d38ad57	0.045087185
77	0x3d1339f2	0.035943933
78	0x3d0f68dc	0.03501211
79	0xbbe80d7c	-0.0070816856
80	0x3be6347a	0.0070252987
81	0x3bf51ee8	0.007480491
82	0xbc9894c6	-0.018625628
83	0x3c9c7ba2	0.019101921
84	0x3c9216ab	0.017833075
85	0xbcc0c852	-0.02353302
86	0xbc0b5260	-0.008503526
87	0x3c5c6d59	0.013453805
88	0xbbd4a625	-0.0064895325
89	0xbc524d92	-0.012835877
90	0xbc68e373	-0.014214384
91	0x3cd2bf54	0.025725998
92	0x3cdee9fe	0.027211186
93	0xbc599910	-0.013281122
94	0x3c2a4985	0.010393505
95	0xbc6f20d1	-0.014595226
96	0x3d084f9b	0.033279043
97	0xbc3b4656	-0.011430344
98	0xbca68254	-0.020325817
99	0x3d184af4	0.037180856
100	0x3c8f682c	0.017505728
101	0x3cb8ed7e	0.022574183
102	0x3c7ad4a7	0.015309489
103	0xbc82b6b2	-0.015956257
104	0xbc8c246e	-0.017107215
105	0x3bde156b	0.0067774556
106	0xbc3db793	-0.011579412
107	0xbcbe5698	-0.02323465
108	0x3caef464	0.021356769
109	0x3cfbcb97	0.030736728
110	0xba86eb9f	-0.0010293609
111	0x3d001863	0.031273257
112	0x3ccfa8ca	0.02534904
113	0x3c6d859a	0.014497185
114	0x3c795115	0.015217085
115	0x3cbbf956	0.022946041
116	0xbcf1628b	-0.029465934
117	0xbc91d3e0	-0.017801225
118	0x3c483db6	0.012221744
119	0x3d4cb7b5	0.049979884
120	0x3c51c363	0.0128029315
121	0xbd3a4d54	-0.045483902
122	0x3c625ee4	0.013816569
123	0xbba0ab5b	-0.0049032397
124	0xbc6c269f	-0.014413505
125	0xbd00b741	-0.031424765
126	0x3d0264a4	0.03183426
127	0xbc39761e	-0.011319665

tree_conv.6.weights.weight f4 [64, 128, 3]
0	0x3d11e1fe	0.035615914
1	0x3cfabddb	0.030608108
2	0x389e9cae	7.563211e-05
3	0xbc9f07eb	-0.019412955
4	0xbba3dbe4	-0.0050005782
5	0xbc85ee2c	-0.01634892
6	0xbd07c411	-0.033145968
7	0x3c56aa97	0.013102195
8	0x3bdf12d1	0.006807663
9	0x39c0bff9	0.00036764125
10	0xbaed286b	-0.001809371
11	0xbcbb60df	-0.02287334
12	0xbd3abb19	-0.045588586
13	0x3cdcc475	0.026949147
14	0x3cdde961	0.027088823
15	0x3c6b798e	0.014372243
16	0xbd06ea64	-0.032938376
17	0x3d327c1b	0.043575387
18	0xbc6bd4af	-0.014393969
19	0xbc0fff60	-0.0087889135
20	0x3d81942f	0.06327092
21	0x3cfe82ef	0.031068293
22	0x3d1ceb24	0.038310185
23	0x3d01c67c	0.03168343
24	0x3c877c2c	0.016538702
25	0xbcb15e83	-0.021651512
26	0xbcfaaa69	-0.030598836
27	0x3d03cabe	0.032175772
28	0x3d57508f	0.05256706
29	0x3d10477e	0.03522443
30	0x3d232488	0.03982976
31	0xbce4a3c9	-0.02791013
32	0x3d898473	0.06714716
33	0x3c92a71b	0.017901948
34	0x3ce7f998	0.028317258
35	0x3d28b7b3	0.041190814
36	0x3b010425	0.0019686308
37	0xbc8f6d72	-0.017508242
38	0x3d27a5af	0.040929493
39	0xbd3941d4	-0.045228794
40	0x3be0ddaa	0.006862362
41	0xbce72b38	-0.02821885
42	0x3ceeca26	0.029149126
43	0xbc157c1f	-0.009123831
44	0x3ced4ac1	0.02896631
45	0xbd743084	-0.05961658
46	0x3d480d47	0.048840787
47	0xbbc7e47d	-0.006100236
48	0xbc0287e6	-0.007966971
49	0xbc3276d2	-0.010892587
50	0xbc8d7f4e	-0.017272618
51	0x3cbec914	0.02328924
52	0xbbb9825c	-0.005661292
53	0xbcdc9b32	-0.026929472
54	0x3cd965b1	0.026537748
55	0xbb17be81	-0.002315432
56	0xbcde1f09	-0.027114408
57	0xbd6df198	-0.05809173
58	0x3cb7c1a9	0.022431212
59	0xbc6c77e1	-0.014432878
60	0xbd0895e7	-0.033346083
61	0x3ceeee43	0.029166346
62	0xba7fe3eb	-0.00097614405
63	0x3c8bca71	0.017064305
64	0xbd0f737e	-0.03502225
65	0xbd4a2b7a	-0.04935787
66	0xbc9307a0	-0.017947972
67	0xbd538a7a	-0.051645733
68	0x3d001f90	0.0312801
69	0x3d0c14e6	0.034199618
70	0x3c8d4283	0.01724363
71	0x3d0817c4	0.03322579
72	0xbc15ccde	-0.009143082
73	0x3c81cd74	0.015845038
74	0xbb92f13c	-0.004484324
75	0x3c717fc4	0.014739934
76	0x3a8b287d	0.0010616925
77	0x3d52ac23	0.051433694
78	0xbcad0332	-0.021119688
79	0x3c37d8e3	0.011221143
80	0x3bbbb0c8	0.005727861
81	0xbd2cf7bc	-0.042228445
82	0xbce49633	-0.027903652
83	0x3d18599d	0.037194837
84	0x3b0174ab	0.0019753377
85	0x3c99f1f2	0.018792126
86	0x3c665b7d	0.014059898
87	0x3c5edec8	0.01360292
88	0xbc79bcce	-0.015242768
89	0x3d315d3e	0.043301813
90	0x3c22ff42	0.0099485535
91	0x3bb31334	0.0054649357
92	0xbd2e9602	-0.042623527
93	0xbd4e77c5	-0.05040719
94	0xbd80bfc6	-0.06286578
95	0xbc4a2f5b	-0.012340392
96	0xbcd2d344	-0.025735505
97	0x3d103f5a	0.035216667
98	0x3d4956c1	0.049155
99	0x3b93e098	0.0045128576
100	0xbc0e5b78	-0.0086888
101	0x3c46b4f6	0.012128105
102	0x3cafb7e1	0.021449985
103	0xbc593d30	-0.013259217
104	0xbcf9efb4	-0.030509807
105	0xbd146e61	-0.036238078
106	0xbb4270ec	-0.0029669357
107	0x3cc1bdc4	0.023650058
108	0xbc529ae6	-0.0128543135
109	0x3d0e9a86	0.034815334
110	0x3d36a641	0.044592146
111	0x3d908853	0.07057252
112	0xbc1cae2a	-0.009563008
113	0x3d1cd57e	0.03828954
114	0xbcf2815b	-0.029602697
115	0x3c1818b5	0.009283234
116	0x3c518991	0.012789146
117	0xbd4c18ce	-0.049828343
118	0xbc54e12a	-0.012993136
119	0x3c2b8a26	0.010469949
120	0x3cf5f7c0	0.030025363
121	0xbace03c2	-0.0015717673
122	0xbba0161b	-0.0048854477
123	0x3ca04218	0.019562766
124	0xbd7a7c37	-0.061153617
125	0x3c00eab5	0.0078684585
126	0xbc39a710	-0.011331335
127	0xbdc1d4e7	-0.09464436
128	0x3b49c499	0.0030787347
129	0xbc6f47f7	-0.01460456
130	0xbd362a66	-0.044474028
131	0x3c7d3c7f	0.015456318
132	0x3c9fe7af	0.019519655
133	0x3d048e09	0.032362018
134	0xbc137e92	-0.009002345
135	0x3c8ddca4	0.017317124
136	0x3c95f965	0.018307397
137	0x3cd37f2e	0.02581748
138	0x3c783d67	0.015151358
139	0x3d3ba226	0.045808934
140	0x3d0e9e21	0.034818772
141	0xbd48fa75	-0.04906698
142	0x3cdb243c	0.026750676
143	0x3cc13fd1	0.02359
144	0xbcf8e2e6	-0.030381631
145	0x3cb02d15	0.021505872
146	0x3c81ad48	0.015829697
147	0x3ba6a3fd	0.005085467
148	0xbd921762	-0.07133366
149	0xbc079fa4	-0.008277807
150	0x3b5e4713	0.0033916875
151	0x3da92f3d	0.08260963
152	0xbbfa0d24	-0.007630961
153	0x3d28b201	0.041185383
154	0xbd95ba85	-0.073109664
155	0x3c780de0	0.015140027
156	0x3cf7f694	0.030268945
157	0xbd48e6d2	-0.049048252
158	0x3bfe7e87	0.007766548
159	0xbc9275d4	-0.01787845
160	0xbce769e9	-0.028248744
161	0x3d2351e9	0.039873037
162	0xbbe8d192	-0.007105061
163	0x3d87731c	0.06613752
164	0x3c04bbd4	0.008101422
165	0x3d503479	0.05083129
166	0xb9164db8	-0.00014334067
167	0x3cbf4770	0.023349494
168	0xbb8a499c	-0.0042202007
169	0xbd21d4d7	-0.03950962
170	0x3d2bcc38	0.041942805
171	0xbd2303a4	-0.039798394
172	0xbc4808ec	-0.012209158
173	0xbc4666e8	-0.012109496
174	0xbced1ef3	-0.028945422
175	0xbc3cb6c1	-0.011518181
176	0xbcf9a75a	-0.030475307
177	0x3d04bf92	0.03240926
178	0xbcf97c14	-0.030454673
179	0xbcd068ba	-0.025440563
180	0xbbb5ddfc	-0.0055501442
181	0xbd5d95bb	-0.054097872
182	0x3a5c7024	0.0008409044
183	0xbcb829bf	-0.022480844
184	0x3d3c9f31	0.046050254
185	0x3d586760	0.05283296
186	0x3ce7649f	0.028246222
187	0xbb2e6223	-0.0026608787
188	0xb97fb49b	-0.00024385976
189	0x3d1acc78	0.037792653
190	0x3dbc720f	0.092014425
191	0xbd1d7db8	-0.038449973
192	0x3d5ee63a	0.05441878
193	0xbb52b5bd	-0.0032151781
194	0xbd028aac	-0.03187053
195	0x3c9eead3	0.019399082
196	0x3d5e8c68	0.05433312
197	0xbbfdcb17	-0.0077451575
198	0x3c1a93d8	0.009434663
199	0xbc59f3f5	-0.013302793
200	0x3d57d2e7	0.052691367
201	0x3bfc460b	0.0076987795
202	0xbc92d9a9	-0.017926054
203	0x3d336d3d	0.04380535
204	0xbb2d8d78	-0.0026482027
205	0x3c4f0b73	0.012637007
206	0x3cd1e738	0.025622949
207	0xbd8838c1	-0.0665145
208	0xbd31dc1b	-0.0434228
209	0xbcbfccde	-0.023413118
210	0xbbfaf7bd	-0.0076589272
211	0x3d81def7	0.06341355
212	0xbc2a2f56	-0.010387262
213	0x3c17bb8f	0.009261026
214	0xbd9be4ad	-0.07611976
215	0x39ec15fa	0.00045029802
216	0xbb6f66fe	-0.0036529894
217	0xbd9451de	-0.072421774
218	0xbb660de3	-0.0035103492
219	0xbd66afbc	-0.056319937
220	0xbd3fb3d1	-0.046802346
221	0xbd03acf3	-0.03214736
222	0x3ca5371e	0.020167883
223	0x3d112e23	0.03544439
224	0xbcb95153	-0.022621786
225	0xbd03f8ae	-0.03221958
226	0xbd35f14d	-0.044419575
227	0xbcdb88c6	-0.026798617
228	0x3d681364	0.056659117
229	0xbda5f0c7	-0.08102565
230	0xbb38c303	-0.0028192408
231	0x3c5b2df9	0.01337766
232	0x3c226286	0.009911185
233	0x3ad2422c	0.0016041449
234	0x3c8f0154	0.017456688
235	0x3d1440b2	0.03619451
236	0xbd5e913b	-0.05433772
237	0x3cc66db1	0.024222227
238	0x3ab87c45	0.0014075121
239	0xbc7d6f71	-0.015468464
240	0xbc0b9288	-0.0085188225
241	0xbd1c484a	-0.038154878
242	0x3c8aa8d3	0.016926205
243	0x3d02a06f	0.031891283
244	0x3cfb9194	0.030709065
245	0x3c4057e0	0.011739701
246	0xbbcaedb1	-0.006192886
247	0xbc46578c	-0.012105834
248	0xbca62c78	-0.020284876
249	0xbd5de9cb	-0.05417804
250	0x3d02971b	0.031882387
251	0xbc8f7f92	-0.017516885
252	0xbad257ad	-0.0016047858
253	0x3ccd4764	0.025058456
254	0xbd95a03e	-0.073059544
255	0x3d09e502	0.033665664

tree_conv.6.weights.bias f4 [64]
0	0xbce9698e	-0.028492715
1	0x3c89da41	0.016827704
2	0x3c77caf5	0.015124072
3	0xbd83c629	-0.064342804
4	0xbb914892	-0.0044337
5	0xbc8ab56d	-0.016932214
6	0xbcb3bb2d	-0.021939838
7	0x3bbfe96e	0.0058566844
8	0xbb5b3b56	-0.0033452115
9	0x3d5ab02a	0.05339066
10	0x3cd7fa34	0.026364423
11	0x3c457579	0.012051933
12	0xbc4111f6	-0.011784067
13	0xbd4e9de2	-0.050443538
14	0x3c236f3f	0.009975254
15	0x3bc7d03e	0.0060978225
16	0xbc4b6954	-0.012415249
17	0xbd01b62d	-0.031667877
18	0xbd7c711a	-0.0616313
19	0x3cdd6c78	0.027029261
20	0xbcb2968a	-0.021800298
21	0xbcdce741	-0.02696574
22	0x3d00b626	0.03142371
23	0xbcf18426	-0.029481959
24	0xbb845bfb	-0.0040392852
25	0x3c82d5b2	0.015971038
26	0x3c5343f4	0.012894619
27	0xbd20b7e2	-0.039237864
28	0xbc555f9b	-0.013023282
29	0x3c7c4a80	0.015398622
30	0xbc5bca80	-0.013414979
31	0xbbfb5e82	-0.0076711783
32	0xbd539144	-0.051652208
33	0x3d20cfaf	0.039260563
34	0x3ce805c7	0.028323067
35	0x3be0372c	0.0068425145
36	0x3d41228e	0.047152095
37	0x3c7552dd	0.014973369
38	0x3c9ad6fa	0.018901337
39	0x3cb692ff	0.02228689
40	0x3ca88b2c	0.020574175
41	0xbc97d6ed	-0.018535102
42	0x3be68d0a	0.007035856
43	0xbd78d440	-0.060749292
44	0xbbe98de3	-0.00712751
45	0x3c77c3a1	0.015122325
46	0xbbaf1fcb	-0.005344366
47	0xbc2111b6	-0.009830883
48	0xbaadf135	-0.0013270738
49	0xbc220a2e	-0.009890122
50	0x3d1c801a	0.038208105
51	0x3cf56d79	0.029959427
52	0x3c942407	0.018083585
53	0xbc81e84b	-0.015857836
54	0x3c2be40d	0.010491383
55	0x3c0d0a76	0.008608451
56	0x3c1d1722	0.009588035
57	0xba169be5	-0.0005745276
58	0x3b8586b8	0.0040748976
59	0x3c4b099f	0.012392431
60	0xbbebd787	-0.0071973237
61	0x3d1bc950	0.038033783
62	0x3b2809c0	0.0025640577
63	0x3b9646af	0.004586063

tree_conv.9.weight f4 [32, 64]
0	0x3d0c4dc4	0.03425385
1	0xbdbb3415	-0.09140793
2	0xbe129173	-0.14313297
3	0x3da0d35b	0.07852813
4	0x3dc2a8ff	0.0950489
5	0xbdd4fa5f	-0.10399317
6	0xbd8180f7	-0.06323426
7	0xbdc420f7	-0.095766
8	0x3c749677	0.014928452
9	0xbdadb0d1	-0.08480991
10	0x3cb09553	0.021555578
11	0xbcc36718	-0.02385287
12	0x3daa828a	0.083256796
13	0xbd3a511d	-0.045487512
14	0x3dd597cc	0.104293436
15	0xbe0758c8	-0.13217461
16	0xbd5f26fe	-0.054480545
17	0x3d47b2be	0.048754446
18	0x3d0be0b8	0.034149855
19	0xbdb9e217	-0.09076326
20	0x3d797422	0.06090177
21	0xbdbb439b	-0.09143754
22	0x3a27d8e9	0.00064028666
23	0xbe068997	-0.13138424
24	0xbdfa8ed1	-0.12234271
25	0x3dd70698	0.104993045
26	0xbd548a8f	-0.051889952
27	0xbd304fa7	-0.043044712
28	0xbd89af62	-0.06722905
29	0xba25e2a0	-0.000632802
30	0xbcbabca2	-0.022795025
31	0x3dbee982	0.09321882
32	0xbdaee674	-0.08540049
33	0x3cf1deb0	0.029525131
34	0xbe02e4c2	-0.12782577
35	0x3d872c91	0.06600297
36	0x3cb0bed7	0.021575375
37	0x3dd92325	0.106024064
38	0x3d84586d	0.064621784
39	0xbdf70213	-0.120609425
40	0xbdd4e438	-0.10395092
41	0xbbf67a8d	-0.0075219334
42	0xbc8765fb	-0.01652812
43	0x3dd1e13e	0.1024804
44	0xbc99a1d8	-0.01875393
45	0xbc1f4f80	-0.009723544
46	0x3dd6cdca	0.1048847
47	0xbd883cd3	-0.06652226
48	0xbe0ff0aa	-0.1405665
49	0xbda26afa	-0.079305604
50	0xbdeb1b63	-0.11479833
51	0xbde4da6d	-0.11174474
52	0x3d59e373	0.053195428
53	0x3dcc49c4	0.09975007
54	0xbdeb70ad	-0.114961006
55	0x3d8037ae	0.0626062
56	0x3db57ad8	0.08861321
57	0x3ca960cc	0.02067604
58	0xbda89643	-0.08231785
59	0x3da8ae3f	0.0823636
60	0xbcecd82f	-0.028911678
61	0xbd9cb613	-0.076519154
62	0xbd911f98	-0.07086104
63	0x3dba5416	0.09098069
64	0xbd083400	-0.033252716
65	0xbe1244f5	-0.14284118
66	0x3dfa4175	0.12219516
67	0x3d2f0aee	0.042735033
68	0xbd943a0c	-0.07237634
69	0x3d7f20f1	0.062287275
70	0xbdfcd6a2	-0.123456255
71	0x3c89b481	0.016809704
72	0xbd533e7e	-0.05157327
73	0x3c9bc00a	0.01901247
74	0xbd885d3b	-0.06658407
75	0x3dc28dd1	0.094997056
76	0x3dc54159	0.09631605
77	0x3e2e070c	0.16994876
78	0xbde8d490	-0.11368668
79	0xbcbae58c	-0.022814535
80	0xbdd7ea2a	-0.1054271
81	0x3dd20e74	0.10256663
82	0xbd5f7ba5	-0.054561276
83	0xbd8cbb4d	-0.06871662
84	0x3ca064ab	0.019579252
85	0x3e17a79e	0.14810035
86	0x3da1534f	0.07877218
87	0x3de0de19	0.10979862
88	0x3d840b0c	0.064474195
89	0xbd35212c	-0.04422109
90	0x3cad3afa	0.021146286
91	0x3e25a18b	0.16174905
92	0xbceecd70	-0.029150695
93	0xbd885495	-0.06656758
94	0x3af80582	0.001892254
95	0x3e07bcac	0.13255566
96	0x3cf9516e	0.030434337
97	0x3deb8de3	0.11501672
98	0xbdbf5718	-0.09342784
99	0xbdaeb3b2	-0.08530368
100	0x3c9366cc	0.017993353
101	0x3da2fc7f	0.07958316
102	0x3d1b3f83	0.037902366
103	0xbde33587	-0.11094194
104	0xbd27453b	-0.040837508
105	0x3df1fcc1	0.11815787
106	0xbd15d9ef	-0.03658479
107	0xbca48311	-0.020082029
108	0x3d810b5f	0.06300997
109	0x3ccacadf	0.02475494
110	0xbcf97d06	-0.030455124
111	0xbdba488c	-0.090958685
112	0xbbe942da	-0.007118565
113	0xbdd8c6d9	-0.10584802
114	0x3d8baf2f	0.06820523
115	0xbc9dba44	-0.019253857
116	0xbdd7592b	-0.10515054
117	0xbe2aa1e6	-0.16663322
118	0xbddb2c1b	-0.10701772
119	0xbd30b590	-0.0431419
120	0x3cf6e012	0.030136142
121	0xbe3ab490	-0.18232942
122	0x3d7e7f8a	0.06213335
123	0x3d917718	0.071027935
124	0xbdfdef5b	-0.12399169
125	0xbd34c1a7	-0.044129994
126	0x3de5de05	0.112239875
127	0x3d0a3929	0.03374592
128	0xbda3335d	-0.07968781
129	0xbd59a696	-0.053137384
130	0x3c695088	0.014240392
131	0x3e0c81cb	0.13721387
132	0x3d0d3667	0.03447571
133	0x3d8f98e7	0.07011586
134	0x3dc3fa8e	0.09569274
135	0xbd9ff4a8	-0.07810336
136	0xbd0f9459	-0.035053585
137	0xbcd986ef	-0.0265536
138	0xbd6657a6	-0.05623593
139	0x3d015681	0.031576637
140	0xbde3a872	-0.11116113
141	0x3bd7351b	0.00656761
142	0x3e364b1a	0.17802086
143	0xbdc61851	-0.09672607
144	0xbb2c89d5	-0.0026327271
145	0xbda6316f	-0.081148975
146	0x3dac8237	0.08423274
147	0x3dcde59b	0.100535594
148	0x3de2265a	0.11042471
149	0x3beb2dea	0.0071771042
150	0x3d0233a2	0.031787522
151	0xbdb6af2d	-0.08920131
152	0x3c8861e3	0.016648239
153	0x3bb7ed34	0.0056129936
154	0xbc921b2c	-0.017835222
155	0x3d3108bd	0.043221224
156	0x3d5d6b11	0.054057185
157	0xbd2eb057	-0.04264864
158	0x3d96ec3d	0.073692776
159	0xbd330ec7	-0.043715265
160	0x3cb2f49d	0.021845156
161	0x3dbf83d4	0.09351316
162	0xbd5dfcd0	-0.05419618
163	0xbd4052cb	-0.046953958
164	0xbd9bcc52	-0.076073304
165	0x3e095913	0.13412885
166	0x3db2a1db	0.08722278
167	0x3d12bd3a	0.03582499
168	0xbd7c5a9a	-0.061609842
169	0x3d483f00	0.048888206
170	0xbda9bf7f	-0.08288478
171	0x3d23f970	0.040032804
172	0x3de43473	0.111428164
173	0xbdc038e8	-0.09385854
174	0x3d45e2cc	0.048311993
175	0x3dc29a52	0.095020905
176	0xbddc6d7b	-0.10763069
177	0x3d9cc4ce	0.07654725
178	0xbca9574a	-0.020671505
179	0xbddeaac4	-0.10872415
180	0x3d50a3e4	0.05093755
181	0xbd21df39	-0.039519522
182	0x3dfcf9f9	0.12352366
183	0x3d947107	0.07248121
184	0xbdd1821f	-0.10229897
185	0x3e150055	0.14550908
186	0xbc7aa984	-0.015299205
187	0x3e02fcc4	0.12791735
188	0x3d9686f5	0.0734996
189	0xbc486e23	-0.01223329
190	0xbca30740	-0.019900918
191	0x3aa37b23	0.0012472611
192	0xbd4a0f9e	-0.0493313
193	0xbc8b6ec4	-0.01702059
194	0xbdf3ef81	-0.11910916
195	0xbda00a42	-0.078144565
196	0x3dca92bb	0.09891268
197	0x3c01d641	0.007924617
198	0x3befe5e0	0.0073211044
199	0x3d9f68c4	0.07783654
200	0x3d6d4af9	0.057932828
201	0xbde1af54	-0.11019769
202	0xbd783356	-0.060595833
203	0xbc833f20	-0.016021311
204	0xbd977e83	-0.07397177
205	0xbdbdb7c0	-0.09263563
206	0xbcf7db9c	-0.030256085
207	0xbdcff8b3	-0.101548575
208	0xbd33f259	-0.043932293
209	0x3d4e6429	0.05038849
210	0x3d8b37f3	0.06797781
211	0xbdab7ebd	-0.08373783
212	0xbd8f78ef	-0.07005488
213	0x3d7203b4	0.059085563
214	0x3c238b69	0.009981968
215	0xbd968efc	-0.07351491
216	0xbd3d8410	-0.046268523
217	0xbdd93ecd	-0.106076814
218	0xbd081788	-0.033225566
219	0xbd3c6e4e	-0.046003632
220	0xbdf3870f	-0.11890995
221	0x3bd5c9ba	0.006524292
222	0xbddfdfc5	-0.109313525
223	0xbd904563	-0.070444845
224	0x3d9197de	0.071090445
225	0x3d6e3069	0.058151636
226	0xbd94f18a	-0.072726324
227	0xbca1e92d	-0.019764507
228	0xbca18f0c	-0.01972153
229	0xbdca35da	-0.098735526
230	0x3c889710	0.016673595
231	0xbd95c251	-0.073124535
232	0x3de16e0e	0.110073194
233	0xbc9740d0	-0.018463522
234	0x3ccb7544	0.02483619
235	0x3d5788a9	0.052620564
236	0x3ddbaeb7	0.107266836
237	0xbd9849a8	-0.07435924
238	0xbc9831b9	-0.018578397
239	0xbdd55b6f	-0.1041783
240	0x3c8a948c	0.016916536
241	0x3dff3dd6	0.12462966
242	0xbe018f5e	-0.12652346
243	0x3cce9445	0.025217185
244	0x3d8688e7	0.06569081
245	0x3d7487e3	0.059699904
246	0x3cb2eaa0	0.021840394
247	0x3dd15f6c	0.102232784
248	0x3d9f40b7	0.07776015
249	0x3dd9b8da	0.10630961
250	0x3c5dc304	0.013535265
251	0x3cc30ce1	0.023809852
252	0xbbeb1fa6	-0.0071754036
253	0xbdf0f890	-0.117661595
254	0x3cc573f3	0.02410314
255	0x3e122afb	0.14274208

tree_conv.9.bias f4 [32]
0	0xbda65708	-0.08122069
1	0x3da9b081	0.082856186
2	0x3e59e874	0.2128008
3	0xbdb069a5	-0.086139
4	0x3e2ec498	0.17067182
5	0x3ef72e09	0.4827731
6	0xbdd331c5	-0.10312227
7	0x3e8916b8	0.26775146
8	0x3cefb457	0.029260797
9	0x3e428e50	0.189996
10	0xbd186571	-0.037206117
11	0x3d5e22ed	0.054232527
12	0x3e727566	0.23677596
13	0xbd2de583	-0.042455208
14	0x3d601741	0.054709677
15	0x3e0e61aa	0.13904443
16	0xbd011ea7	-0.031523373
17	0xba836f33	-0.0010027647
18	0x3b93f407	0.0045151743
19	0xbdbadda4	-0.09124306
20	0xbcd8da7b	-0.026471367
21	0x3d793ed0	0.06085092
22	0x3e9508e8	0.29108357
23	0xbd73813e	-0.059449427
24	0x3df4e661	0.11958004
25	0x3e879aa6	0.26485175
26	0x3e3f566a	0.18685308
27	0x3d9de078	0.0770883
28	0x3dcbcad4	0.09950796
29	0x3e87f46e	0.26553673
30	0x3d034583	0.032048713
31	0x3dfa87b1	0.12232912

tree_conv.11.weight f4 [1, 32]
0	0xbe12a4cf	-0.14320682
1	0x3eed7c6d	0.46383992
2	0xbe09d580	-0.1346035
3	0x3d9fcbe5	0.07802562
4	0xbe2fbdfb	-0.17162316
5	0xbe4a4fd9	-0.19757022
6	0xbe29bf4e	-0.16576883
7	0xbe0df4ff	-0.1386299
8	0xbe39f8b2	-0.18161276
9	0xbe51a26a	-0.20472112
10	0x3e762c35	0.24040301
11	0xbe7e951c	-0.24861568
12	0xbd947e22	-0.072506204
13	0x3e8782aa	0.26466876
14	0xbe20f1b7	-0.15717207
15	0xbdec6a2e	-0.1154369
16	0x3e87de39	0.2653673
17	0x3dbba7d4	0.0916287
18	0x3e00ff6e	0.12597439
19	0x3e12b4eb	0.14326827
20	0x3e8479d4	0.25874197
21	0xbdc31424	-0.09525326
22	0xbd91f684	-0.07127097
23	0x3e34383e	0.1759958
24	0x3e13b02e	0.14422676
25	0xbe13d2d0	-0.14435887
26	0x3e669f87	0.22521792
27	0xbe478e21	-0.19487812
28	0xbdd9f63e	-0.1064267
29	0xbe7bdd2b	-0.24596088
30	0x3e90f13e	0.28309053
31	0xbe38d742	-0.18050864
