models/lero_on_tpcds_10_TPCDS_Lero.pth (torch, 663268 bytes, 9 tensors)

tree_conv.0.weights.weight f4 [256, 51, 3]
0	0x3d0e8602	0.03479577
1	0x3d263d45	0.040585775
2	0xbd785d8e	-0.060636096
3	0x3d4bf8bc	0.04979776
4	0xbd42af62	-0.04753054
5	0xbd08b343	-0.033374082
6	0x3cbd39ec	0.023098908
7	0xbb605a60	-0.0034233555
8	0x3d303ac7	0.043024804
9	0xbcd4b15e	-0.025963482
10	0x3bf7918d	0.007555193
11	0xbd5d6104	-0.0540476
12	0xbd56ef09	-0.052474055
13	0x3d663ef4	0.05621238
14	0xbd2bee31	-0.041975204
15	0x3c6f819c	0.014618304
16	0x3d5b0dcb	0.05347995
17	0xbbce6722	-0.0062989155
18	0x3c7aa73f	0.015298664
19	0xbd2cbe13	-0.042173456
20	0x3ce85565	0.028361032
21	0xbc38c677	-0.011277786
22	0xbd03b107	-0.03215125
23	0x3d47b759	0.04875884
24	0xbba3edbf	-0.005002707
25	0x3c9b15c9	0.018931286
26	0xbbe6146c	-0.0070214774
27	0xbd057c83	-0.032589447
28	0xbd1a083e	-0.037605517
29	0xbd350572	-0.044194646
30	0xbd714d0d	-0.058911372
31	0xbc89ab70	-0.01680538
32	0x3d656f93	0.05601461
33	0xbd2e5707	-0.042563464
34	0x3cd112a2	0.02552158
35	0xbd28da48	-0.041223794
36	0xbd925c0c	-0.07146463
37	0x3dafe8f4	0.08589354
38	0xbd564bcd	-0.052318383
39	0xbcd655dd	-0.02616399
40	0xbd9ef25f	-0.07761072
41	0xbd9146de	-0.07093595
42	0x3d65fe9f	0.05615103
43	0x3b8091aa	0.0039236145
44	0xbd305dc6	-0.04305818
45	0x3d348b7f	0.044078346
46	0x3d18b501	0.037281994
47	0xbd33d8bd	-0.04390787
48	0xbc90cbcc	-0.017675303
49	0xbaff93d5	-0.0019499013
50	0x3c7241d8	0.014786206
51	0x3d2877c8	0.041129857
52	0xbd19ccbf	-0.037548777
53	0x3d1690cb	0.03675918
54	0x3d326280	0.04355097
55	0xbd4b2a9b	-0.04960118
56	0xbc878c2b	-0.01654633
57	0x3c16e6c3	0.009210291
58	0x3d56cec7	0.052443292
59	0x3cc1be02	0.023650173
60	0x3d34b82d	0.044120956
61	0xbca04d77	-0.019568188
62	0x3d804ffc	0.06265256
63	0x3d5a996a	0.053368963
64	0xbc8fca4b	-0.017552515
65	0xbc5f197b	-0.013616915
66	0x3daf7d8a	0.085688666
67	0x3d2c68b9	0.04209206
68	0x3bc69b4e	0.006060994
69	0x3d942e43	0.07235386
70	0x3c0d3687	0.008618957
71	0xbc76dadc	-0.015066829
72	0x3d810b5c	0.06300995
73	0x3d8ff6d3	0.070295
74	0x3d70f03c	0.058822855
75	0xbd8348c3	-0.064103626
76	0xbc6cead5	-0.014460285
77	0x3d34a14f	0.04409915
78	0x3c886162	0.016647998
79	0x3d82a3f0	0.06378925
80	0xbd5f4ac1	-0.05451465
81	0xbda0653d	-0.0783181
82	0xbd999b66	-0.07500343
83	0xbd0136cc	-0.0315464
84	0xbbc75ab1	-0.0060838093
85	0xbd95131f	-0.07279038
86	0x3d667a91	0.056269232
87	0xbd6f65a1	-0.05844653
88	0x3d989d75	0.074519075
89	0xbd8758af	-0.06608712
90	0x3d65456f	0.05597442
91	0xbd314d88	-0.04328683
92	0xbd6d4aff	-0.05793285
93	0xba95468f	-0.0011388826
94	0x3cd81c46	0.02638067
95	0x3b929b18	0.004474055
96	0xbca9cf9f	-0.020728884
97	0xbd68ac3b	-0.056804877
98	0xbd46f054	-0.04856904
99	0xbd211242	-0.039324053
100	0x3d2beebf	0.041975733
101	0xbd74712c	-0.05967824
102	0xbcb5edd3	-0.02220813
103	0xbcb61a87	-0.022229446
104	0xbc03de69	-0.008048632
105	0x3bf97be3	0.0076136454
106	0xbc416353	-0.011803466
107	0xbddc0128	-0.10742408
108	0x3c099030	0.008396193
109	0x3d0657dc	0.032798633
110	0x3db6a248	0.089176714
111	0x3ce54629	0.027987557
112	0x3d063ec1	0.03277469
113	0xbc02382d	-0.007947964
114	0xbda44311	-0.080206044
115	0xbd8824a3	-0.06647613
116	0x3bbeef1c	0.005826844
117	0xbd15fd23	-0.036618363
118	0xbc5574da	-0.013028348
119	0x3d81a26d	0.063298084
120	0x3c66326a	0.014050106
121	0x3cebb8f2	0.028774712
122	0x3d0bddaa	0.034146942
123	0x3c8eb03b	0.017418018
124	0x3d339e47	0.043852117
125	0xbb3484e6	-0.0027545034
126	0xbd3e9ec6	-0.046538137
127	0xbd7aded6	-0.06124767
128	0xbd522a29	-0.05130974
129	0xbc6b9d08	-0.014380701
130	0xbbe5ae13	-0.0070092767
131	0xbd47b1cd	-0.04875355
132	0x3d5eb162	0.054368384
133	0xbd9c73a0	-0.07639241
134	0x3cb405df	0.021975456
135	0xbd1f2827	-0.03885665
136	0xbc8bded8	-0.017074034
137	0x3da440aa	0.08020146
138	0x3d721a94	0.059107378
139	0xbc968613	-0.018374478
140	0x3cb0c1b5	0.021576742
141	0xbce80601	-0.028323175
142	0x3b22da18	0.0024849232
143	0xbd991077	-0.074738435
144	0x3a2fa584	0.0006700384
145	0x3da7527c	0.081700295
146	0xbd211b18	-0.03933248
147	0x3cec2336	0.028825384
148	0x3d938229	0.072025605
149	0xbd82b5f7	-0.06382363
150	0x3bb77429	0.005598564
151	0x3d4caf25	0.04997172
152	0xbc37f25e	-0.011227218
153	0x3cebd40d	0.028787637
154	0x3d9c21cb	0.07623633
155	0xbd069fe9	-0.032867346
156	0xbd04a1ad	-0.03238075
157	0x3d8894db	0.06669017
158	0xbd8f8117	-0.07007044
159	0xbd2d737e	-0.04234647
160	0x3d57597d	0.052575577
161	0xbc9f5947	-0.01945175
162	0x3cc0feb0	0.023558944
163	0x3ca022bf	0.019547818
164	0xbcff52e3	-0.031167453
165	0x3d3236c2	0.043509252
166	0x3d5ec309	0.05438522
167	0xbc1c9be8	-0.009558655
168	0xbca06f20	-0.019584239
169	0x3ca33aa0	0.019925416
170	0xbce09e20	-0.02741915
171	0xbc406ad3	-0.011744219
172	0x3d0fd8cf	0.035118874
173	0xbcae48b6	-0.021274906
174	0x3d85af95	0.0652763
175	0x3d1b2474	0.03787656
176	0xbd36ba57	-0.0446113
177	0xbc504849	-0.012712547
178	0xbd002ded	-0.0312938
179	0x3d871d57	0.06597393
180	0x3be3256e	0.006931952
181	0xbd9e6369	-0.07733805
182	0x3d9f93fc	0.07791898
183	0xbd1e0873	-0.038582277
184	0xbd2bf976	-0.04198595
185	0xbd6e87d3	-0.058235
186	0x3d6e379e	0.05815851
187	0xbcca054a	-0.024660725
188	0xbc4712e8	-0.012150504
189	0x3c8910e3	0.016731685
190	0xbbf54ec4	-0.0074861962
191	0xbd0a8eff	-0.033827778
192	0x3c96695c	0.018360786
193	0xbd66c65a	-0.056341507
194	0xbcb52513	-0.022112405
195	0x3c9eb7e0	0.019374788
196	0x3cd88622	0.026431147
197	0x3d70b826	0.058769368
198	0x3d69ca58	0.057077736
199	0x3d01bd1a	0.031674482
200	0x3d340150	0.043946564
201	0xbd3f4c7c	-0.0467038
202	0x3b6686df	0.0035175604
203	0x3cfa0392	0.03051928
204	0xbdbbfd2b	-0.09179147
205	0xbd89f387	-0.06735902
206	0x3cd26430	0.025682539
207	0x3ccdb0fb	0.025108805
208	0xbd880946	-0.06642394
209	0xbc5f3f32	-0.013625907
210	0x3b957b5b	0.0045618243
211	0x3d54cad3	0.05195124
212	0xbd134496	-0.03595408
213	0x3d92e616	0.07172792
214	0x3da36bb6	0.079795286
215	0xbda7fe2e	-0.08202778
216	0xbdad9001	-0.08474732
217	0x3c31ff3d	0.010864076
218	0xbd2928d5	-0.041298706
219	0xbd665bd5	-0.05623992
220	0xbbd0d7d3	-0.0063733845
221	0xbd2dcbfd	-0.042430867
222	0xb94552b2	-0.0001881819
223	0xbd89243a	-0.06696363
224	0xbc050e90	-0.008121148
225	0x3d99065c	0.07471916
226	0x3cfc3ac6	0.030789744
227	0xbcc0ac8e	-0.02351978
228	0x3d6ae31a	0.057345487
229	0x3d5b1126	0.05348315
230	0x3da4e4fe	0.08051489
231	0xbdbf587c	-0.09343049
232	0x3d892818	0.066971004
233	0x3d00c81f	0.03144085
234	0xbc140663	-0.009034726
235	0x3d60c7a7	0.054877903
236	0xbd011b07	-0.031519916
237	0xbd55f949	-0.05223969
238	0x3d5078a7	0.050896313
239	0xbc0efc04	-0.008727077
240	0xbcb4d6a9	-0.022075014
241	0xbd732373	-0.05935998
242	0xbd05df8f	-0.032683905
243	0xbceb2acd	-0.028706932
244	0xbce76911	-0.028248342
245	0xbd4553ac	-0.0481755
246	0x3bfdf4ce	0.0077501303
247	0x3d93e364	0.07221106
248	0x3d577874	0.052605107
249	0x3d16b202	0.036790855
250	0x3d4e91a9	0.05043188
251	0x3cfddd38	0.030989274
252	0x3d9e456a	0.077280834
253	0xbd14ffdf	-0.03637683
254	0x3d814248	0.0631147
255	0x3d721d13	0.05910976

tree_conv.0.weights.bias f4 [256]
0	0xbd8e25c2	-0.069407955
1	0x3c177157	0.009243331
2	0x3c314e65	0.010821913
3	0xbca70898	-0.02038984
4	0x3c27dd8d	0.010245693
5	0x3cb5dc3b	0.02219974
6	0x3d37b353	0.04484875
7	0xbc8c2ee3	-0.017112201
8	0x3cea8dab	0.028632006
9	0x3c61080f	0.0137348315
10	0xbd8563cc	-0.06513175
11	0x3d9c99a4	0.07646492
12	0x3d22a9cb	0.03971271
13	0x3d913009	0.0708924
14	0xbb7cffe2	-0.0038604666
15	0xbda00031	-0.078125365
16	0x3d8114b3	0.06302776
17	0x3d40305d	0.046921123
18	0x3d32acdd	0.043621887
19	0x3d9e4c71	0.07729424
20	0x3d104820	0.035225034
21	0xbd45e6af	-0.0483157
22	0xbd7dc0bb	-0.06195138
23	0x3d820594	0.0634872
24	0x3d7f488f	0.062325057
25	0x3cf03f4d	0.02932706
26	0x3aea57da	0.0017878965
27	0xbd4f5fbb	-0.050628405
28	0xbc61a908	-0.01377321
29	0xbd1f2f82	-0.038863666
30	0x3da229ff	0.07918166
31	0xbd8c71cd	-0.06857643
32	0xbcfa58c6	-0.030559909
33	0xbd355c82	-0.044277675
34	0xbd2990b4	-0.041397765
35	0xbcf9d071	-0.0304949
36	0x3ca70d93	0.020392215
37	0xbd0b1a82	-0.033960827
38	0x3cf7e160	0.030258834
39	0xbd6b2fd2	-0.057418652
40	0xbcb3c9bd	-0.021946782
41	0x3d5b9ddd	0.053617347
42	0xbcd831ba	-0.026390899
43	0xbd3fbae9	-0.04680911
44	0xbd48caa4	-0.04902138
45	0xbcd907fe	-0.026493069
46	0xbd6a5be0	-0.057216525
47	0x3cf93615	0.030421296
48	0x3c490c61	0.012271018
49	0x3c4c2136	0.01245909
50	0x3d82098a	0.06349476
51	0xb99f1e7d	-0.0003034956
52	0x3d8e6977	0.069537096
53	0x3da3769a	0.07981606
54	0xbd380deb	-0.04493515
55	0xbc5b1ae4	-0.01337311
56	0xbd8d13b7	-0.06888526
57	0xbd2d6ad1	-0.042338196
58	0x3d939e1d	0.07207892
59	0x3bc0afc6	0.005880329
60	0x3d719570	0.058980405
61	0xbd4c6aea	-0.04990665
62	0xbb9bf866	-0.004759836
63	0xbd5dfb50	-0.05419475
64	0x3d728fa1	0.059219006
65	0xbc2bf782	-0.010496022
66	0xbc8b0983	-0.016972309
67	0x3cd56467	0.026048852
68	0x3c6c3eda	0.014419282
69	0xbc672a32	-0.014109181
70	0x3d912a43	0.07088139
71	0x3d8df15e	0.06930803
72	0x3d4d8f75	0.05018564
73	0xbd23ed3b	-0.040021162
74	0xbc982610	-0.018572837
75	0xbd237906	-0.03991034
76	0xbc993fbc	-0.018707149
77	0xbd978338	-0.07398075
78	0x3cfac439	0.030611144
79	0xbb9549b9	-0.0045559076
80	0x3d7a0daf	0.061048206
81	0xbd0152ad	-0.031572986
82	0x3d40484d	0.04694395
83	0xbc1affaf	-0.009460374
84	0x3c5725c6	0.0131315645
85	0x3cccf136	0.025017362
86	0xbd0b013d	-0.033936728
87	0x3d805f28	0.062681496
88	0xbd1c8233	-0.038210105
89	0xbb9e0ef2	-0.004823559
90	0xbce7e9ba	-0.028309692
91	0x3d8c3d7c	0.06847665
92	0x3c9e7644	0.019343503
93	0x3c3fc1cd	0.011703921
94	0x3ce7acee	0.028280701
95	0xbd020789	-0.031745467
96	0x3b2aef65	0.0026082632
97	0xbda2614d	-0.07928715
98	0x3d6fb17d	0.058518875
99	0x3d851f71	0.065001376
100	0xbd4c4096	-0.04986628
101	0xbd6e0b59	-0.05811629
102	0xbd8ab18e	-0.06772147
103	0x3d8d7323	0.06906726
104	0xbd76c042	-0.060241945
105	0xbc6c698c	-0.014429461
106	0x3ca4a731	0.020099254
107	0xbd9251eb	-0.07144531
108	0x3d16aae7	0.03678408
109	0x3d9f411e	0.07776092
110	0xbd51a79a	-0.051185228
111	0x3d28f518	0.041249365
112	0x3d582724	0.052771702
113	0x3d0f6b78	0.0350146
114	0xbd8a255d	-0.06745408
115	0xbd2c4ef6	-0.04206749
116	0x3c869885	0.016430149
117	0x3c4d0e51	0.01251562
118	0xbd9baf71	-0.07601822
119	0xbcf16e73	-0.029471612
120	0xbd2f6ae6	-0.042826556
121	0xbc655a87	-0.013998634
122	0x3d46adac	0.04850547
123	0xbcb3c573	-0.021944737
124	0xbcb2e026	-0.021835398
125	0x3d477775	0.048697907
126	0x3cd9d8ca	0.02659263
127	0xbd708f75	-0.05873056
128	0x3cab3a53	0.020901835
129	0x3c9de870	0.019275874
130	0x3d428568	0.047490507
131	0x3cfbaddd	0.030722553
132	0xbcf7da83	-0.030255562
133	0x3da27c8c	0.07933912
134	0xbd879fb5	-0.066222586
135	0xbc88525c	-0.016640835
136	0x3daa1c9e	0.083062395
137	0xbcd906e8	-0.026492551
138	0x3d1d0e53	0.03834374
139	0x3cc37685	0.023860225
140	0xbd90a129	-0.07061989
141	0x3d5ccd44	0.053906694
142	0x3d1cd74a	0.038291253
143	0xbc026872	-0.007959472
144	0x3d2a05dd	0.041509498
145	0xbcb9fa26	-0.022702288
146	0x3bb57a6d	0.005538276
147	0x3c61cd29	0.013781824
148	0x3d02a480	0.03189516
149	0x3d7138a1	0.058891896
150	0x3d352498	0.04422435
151	0x3d1ef7c1	0.038810495
152	0x3c2f094e	0.010683371
153	0xbd7b4d98	-0.061353296
154	0x39e93888	0.00044483342
155	0xbd25d1c9	-0.04048327
156	0x3c92d152	0.017922077
157	0xbc9c764d	-0.019099379
158	0xbd843ec8	-0.06457287
159	0x3c1fcd6a	0.009753564
160	0xbd0f4867	-0.034981158
161	0x3d85281a	0.065017894
162	0xbd052c81	-0.032513145
163	0x3d91fa9b	0.07127877
164	0xbd3cabc5	-0.04606225
165	0xbd14c750	-0.03632289
166	0xbda01ff6	-0.07818596
167	0xbd0cfd4e	-0.034421258
168	0xbd096b9f	-0.0335499
169	0x3d3968bc	0.045265898
170	0x3ca540b9	0.020172464
171	0x3d100311	0.035159174
172	0x3cd51d98	0.026015088
173	0x3d58af5e	0.05290162
174	0x3d8c8521	0.0686133
175	0x3cb5d8bd	0.022198075
176	0x3d9b623e	0.075870976
177	0xbc5f7638	-0.013639025
178	0x3d0a8eee	0.033827715
179	0xbd71b037	-0.059005942
180	0x3c849951	0.016186388
181	0xbca0f9d9	-0.019650387
182	0x3d968354	0.073492676
183	0xbc2cba6f	-0.010542496
184	0x3d8c87cf	0.06861841
185	0xbd24eca4	-0.04026474
186	0x3d0a5c82	0.03377963
187	0xbd1848ef	-0.03717893
188	0xbd113d1a	-0.03545866
189	0x3bd851a5	0.0066015297
190	0x3d49003e	0.049072497
191	0xbd3d28cc	-0.046181485
192	0x3cf80baf	0.030279009
193	0x3d7ec90b	0.06220345
194	0x3a592501	0.0008283407
195	0x3c9fecf4	0.019522168
196	0xbb30371c	-0.0026888316
197	0x38fc0745	0.000120176504
198	0xbd8c3746	-0.0684648
199	0x3d9ed3c2	0.07755233
200	0xbd8050e3	-0.06265428
201	0x3d9fb190	0.07797539
202	0xbc1d923a	-0.009617383
203	0xbb515565	-0.0031941768
204	0xbd82ec17	-0.06392687
205	0xbc37d3a7	-0.011219895
206	0xbc9c8f96	-0.019111436
207	0xbd34971f	-0.044089433
208	0xbd2e5405	-0.042560596
209	0x39ef2df6	0.00045619876
210	0xbcaea5a1	-0.021319212
211	0x3d93bed4	0.07214132
212	0xbd9a8fb4	-0.075469404
213	0xbb9cb949	-0.00478283
214	0x3d97c258	0.07410115
215	0x3c39ca55	0.011339744
216	0xbd4074d0	-0.0469864
217	0xbd6341a3	-0.055482518
218	0x3d41da17	0.047327127
219	0xbc8f375b	-0.01748245
220	0xbd1a6529	-0.03769413
221	0x3d7d6f74	0.061873868
222	0x3930265d	0.0001679896
223	0xbc9cc2d4	-0.01913587
224	0x3c715297	0.014729164
225	0xbd071ac9	-0.03298453
226	0x3d339c97	0.043850508
227	0xbc6fe407	-0.014641768
228	0xbd5de128	-0.054169804
229	0xbd43364e	-0.04765921
230	0xbc62a594	-0.013833422
231	0x3d9528b7	0.07283156
232	0x3c972c17	0.01845364
233	0x3bf72e3b	0.007543353
234	0x3d9d3680	0.07676411
235	0x3d9c1437	0.07621043
236	0x3d2b9090	0.041885912
237	0x3d0231ed	0.031785894
238	0x3a9d8a0c	0.0012019291
239	0x3d6aa731	0.057288352
240	0xbcffed90	-0.031241208
241	0x3cc47048	0.023979321
242	0xbd5d051d	-0.053959955
243	0xbd230452	-0.039799042
244	0x3cd9b09f	0.026573477
245	0xbd6ecf99	-0.05830345
246	0xbd8571c0	-0.06515837
247	0xbd371e04	-0.04470636
248	0x3d73d1d3	0.059526276
249	0x3d56805c	0.052368507
250	0xbc8af901	-0.016964437
251	0x3d1faa90	0.03898102
252	0x3cd9f25e	0.026604827
253	0xbc2a7d71	-0.010405884
254	0x3d28208b	0.04104666
255	0xbb0b26eb	-0.0021232914

tree_conv.3.weights.weight f4 [128, 256, 3]
0	0x3ba5fcd8	0.0050655417
1	0xbd12d817	-0.03585061
2	0xbc608365	-0.013703202
3	0xbc844ad9	-0.016148971
4	0xbd1a6300	-0.03769207
5	0xbcf99877	-0.030468209
6	0xbb5ca662	-0.0033668508
7	0x3ca1e69c	0.019763283
8	0x3c65b895	0.014021059
9	0xbc06e09c	-0.008232262
10	0xbc770726	-0.015077388
11	0xbcc9e278	-0.024644122
12	0xbcd5463f	-0.026034473
13	0x3cede38e	0.02903917
14	0xbd00ac61	-0.031414393
15	0x3c639f3d	0.013892946
16	0x3cf30795	0.029666701
17	0x3d115de9	0.03548995
18	0x3c91dfbe	0.017806884
19	0x3c86e6d2	0.016467486
20	0x3b4b5b91	0.003102992
21	0xbca4be28	-0.020110205
22	0x3cc576a9	0.024104433
23	0xbcab5d22	-0.020918433
24	0xbc838a4e	-0.01605716
25	0xbca423f4	-0.020036675
26	0x3ccb2073	0.024795746
27	0xbc7d978e	-0.015478028
28	0x3b9b591b	0.004740847
29	0xbcf65230	-0.030068487
30	0x3caa56d5	0.020793358
31	0x3bc7a54d	0.0060927034
32	0xbb384dd2	-0.0028122556
33	0x3c1b388b	0.00947393
34	0xbc82521b	-0.015908292
35	0x3ccf13c6	0.025277983
36	0x3bc95732	0.0061444277
37	0x3c3a1abe	0.011358915
38	0x3c54de7c	0.0129924975
39	0x3c5441c0	0.012955129
40	0xbb11df9e	-0.002225853
41	0xbd0d80d8	-0.034546703
42	0x3cb2c9bd	0.021824712
43	0xbd202b7e	-0.039103977
44	0xbcec853a	-0.028872121
45	0xbc8f0c4b	-0.017461916
46	0x3c67154c	0.014104199
47	0xba24cad0	-0.0006286325
48	0x3bb2c614	0.0054557417
49	0xbcb9cc3b	-0.022680392
50	0x3bad7e38	0.0052945875
51	0xbc19ca37	-0.009386591
52	0xbcf7ae95	-0.030234614
53	0xbd0533c4	-0.03252007
54	0xbce6caaf	-0.028172819
55	0xbc5dace7	-0.013529993
56	0xbc5a4623	-0.013322386
57	0xbc71d84b	-0.014761041
58	0x3b43b86f	0.002986457
59	0xbc1fa0a6	-0.009742891
60	0x3ce73d7c	0.02822756
61	0x3c26d298	0.010182045
62	0x3c2eaf56	0.0106619205
63	0x3ce007d8	0.02734749
64	0xbbee9560	-0.0072809905
65	0x3d1b2cf2	0.03788466
66	0xbd197833	-0.037468147
67	0x3c8064f4	0.015673138
68	0xbc03c519	-0.008042597
69	0xbc24d62a	-0.010060826
70	0x3d037223	0.03209127
71	0xbb3b880f	-0.0028615033
72	0x3d1968d2	0.03745348
73	0x3cacbe25	0.021086762
74	0x3c9373a9	0.017999487
75	0xbac3b235	-0.0014930429
76	0xbcdaae6c	-0.026694499
77	0x3cb77ae4	0.022397466
78	0x3cf64d30	0.030066103
79	0xbbb727d9	-0.005589467
80	0x3cdd81bb	0.0270394
81	0x3bac65d5	0.0052611628
82	0xbcaba7f4	-0.02095411
83	0x3c62fc1e	0.013854055
84	0x3bd2f3c0	0.0064377487
85	0x3bdc737d	0.0067276345
86	0x3cff3a56	0.031155746
87	0x3ce661a7	0.028122736
88	0xbd22aaf0	-0.0397138
89	0xbc83aedd	-0.016074592
90	0x3c2255b5	0.009908129
91	0x3b35a2a0	0.002771534
92	0x3bd1451c	0.0063864123
93	0x3cac5f46	0.021041524
94	0xbc50f4ab	-0.012753646
95	0xbc0a5498	-0.00844302
96	0x3cdfff98	0.027343556
97	0x3be3db92	0.006953665
98	0x3d0c1a47	0.034204748
99	0xbc74408b	-0.014907966
100	0xbd024f53	-0.03181393
101	0xbbe17764	-0.0068806875
102	0x3c6158b8	0.013754062
103	0x3c04bc80	0.0081015825
104	0xbb08244a	-0.0020773583
105	0xbcb4c721	-0.022067608
106	0x3cc327c6	0.023822676
107	0x3c3ddbe5	0.0115880715
108	0xbc5209b6	-0.012819698
109	0xbc6d9c45	-0.01450259
110	0x3c98e8f4	0.018665768
111	0xbc7676f6	-0.015043011
112	0x3c946d52	0.018118534
113	0x3c130d16	0.008975288
114	0x3c98adf2	0.018637631
115	0x3bf847d5	0.0075769224
116	0x3caa7694	0.020808496
117	0x3d3f41e6	0.046693705
118	0xbce9aa5c	-0.028523616
119	0x3d307e39	0.043089125
120	0xbd0a1c25	-0.033718247
121	0xbcf7930f	-0.03022149
122	0xba808795	-0.0009806032
123	0x3d55dd09	0.05221275
124	0x3bde160d	0.006777531
125	0xbcf03b70	-0.029325217
126	0x3c8dd361	0.017312707
127	0xbb396a9d	-0.0028292306
128	0x3d0e7cb4	0.034786895
129	0x3c207ea5	0.009795819
130	0xbb86e681	-0.0041168337
131	0x3d2dcaf1	0.042429868
132	0x3d656dcf	0.056012925
133	0x3d06e65b	0.032934528
134	0xbc27f12e	-0.010250373
135	0xbd0f6fad	-0.03501861
136	0x3bc17dcc	0.0059048887
137	0xbc4ceb0b	-0.0125072105
138	0xbcba5f7a	-0.022750605
139	0xbd254721	-0.040351037
140	0xbcc03096	-0.023460668
141	0xbd1a1608	-0.037618667
142	0xbc8e32c9	-0.0173582
143	0x3c31c601	0.0108504305
144	0x3b6a3822	0.0035739024
145	0x3cec0aaa	0.028813679
146	0x3d03d5d5	0.032186348
147	0x3c00c85a	0.007860268
148	0xbcdab336	-0.026696783
149	0x3cc9e7f5	0.024646739
150	0xbc596460	-0.01326856
151	0x3c837197	0.016045375
152	0xbd0c7581	-0.034291748
153	0xbce8286d	-0.028339589
154	0xbcd9458e	-0.026522424
155	0x3cf7f6c4	0.030269034
156	0xbbdeb487	-0.006796423
157	0xbc8b0598	-0.01697044
158	0xbcf10b79	-0.029424416
159	0x3c0e404d	0.008682323
160	0xbcf9d581	-0.030497314
161	0xbb4f5101	-0.0031633975
162	0xbc97d2ac	-0.018533073
163	0x3a5e9ece	0.00084922917
164	0x3ce96bd2	0.028493796
165	0xbbda6c35	-0.0066657313
166	0xba882e6b	-0.001038981
167	0x3b8c0375	0.004272873
168	0x3b791513	0.0038006946
169	0x3cca9024	0.024726935
170	0xbb69542d	-0.0035603151
171	0x3cce55d7	0.025187416
172	0x3c4564f6	0.012047997
173	0x3cf4ce05	0.029883394
174	0xbccd6e15	-0.025076905
175	0x3cfc9bdb	0.030836036
176	0x3d146fbe	0.03623938
177	0x3c0c060a	0.008546362
178	0xbd0b3543	-0.03398634
179	0xbcd3de4d	-0.025862837
180	0xbc59ef63	-0.013301703
181	0xbc1e4303	-0.0096595315
182	0x3cd3628b	0.025803825
183	0xbd036354	-0.03207715
184	0x3aec33ac	0.001802077
185	0xbcfa522d	-0.030556763
186	0x3b43a396	0.0029852143
187	0x3c99a492	0.018755231
188	0x3bb290e8	0.005449403
189	0x3c5a3a12	0.013319509
190	0x3c88a78e	0.016681459
191	0xbd002518	-0.031285375
192	0xbc922d61	-0.017843904
193	0xbd0d4141	-0.03448606
194	0x3c09c952	0.008409815
195	0x3d354dbc	0.044263586
196	0xbc230d95	-0.009951969
197	0xbc3aabc7	-0.011393494
198	0xbc4faa78	-0.01267492
199	0x3cf46b5d	0.029836351
200	0xbce75d17	-0.02824263
201	0x3c9a7fa4	0.018859692
202	0x3c7d9322	0.015476974
203	0xbb55f2ba	-0.0032645897
204	0xbc24713f	-0.010036766
205	0x3bda2aaf	0.0066579203
206	0xbbd8af62	-0.006612704
207	0xbb94db34	-0.0045427326
208	0x3c8a55df	0.01688665
209	0x3cfb374f	0.030666022
210	0xbae480ae	-0.0017433369
211	0x3c892fbe	0.016746398
212	0x3c94eb46	0.018178593
213	0x3c734999	0.01484909
214	0xbca17d76	-0.019713145
215	0x3cf9c52f	0.030489532
216	0x3cad1776	0.021129351
217	0xbc80fc88	-0.015745416
218	0xbcfc7c99	-0.030821132
219	0x3c790cf9	0.015200847
220	0xbc019289	-0.007908472
221	0x3a9e9899	0.0012099921
222	0x3cf65157	0.030068083
223	0x3d242843	0.04007746
224	0x3cd3abb4	0.02583871
225	0xbd596cde	-0.05308234
226	0xbc08566a	-0.008321384
227	0xbba79750	-0.0051144734
228	0x3d4eb055	0.050461132
229	0x3c02e6cc	0.007989597
230	0x3be43a6a	0.0069649713
231	0x3bceb0ff	0.0063077207
232	0x3cdaff0d	0.026732946
233	0x3b47f49c	0.0030510789
234	0xbcd36ad1	-0.02580777
235	0x3cd9f197	0.026604457
236	0x3c9c151a	0.01905303
237	0xbcde3a07	-0.027127279
238	0x3ca1c644	0.01974786
239	0xb8792c7b	-5.9407652e-05
240	0xbd088599	-0.033330534
241	0xbcd9fa39	-0.026608573
242	0x3c1f8c0a	0.009737978
243	0x3cd7e43c	0.026353948
244	0x3c9c8e68	0.019110873
245	0xbd0dce05	-0.034620304
246	0xbcf2021d	-0.029542023
247	0x3c8783cd	0.01654234
248	0x3a11a2e6	0.0005555585
249	0xbc73dcb2	-0.014884161
250	0x3ca5667c	0.02019047
251	0xbcf9a992	-0.030476365
252	0x3c161d45	0.009162252
253	0x3bc05490	0.0058694556
254	0xbcfbff68	-0.030761436
255	0xbcb4e2e6	-0.02208085

tree_conv.3.weights.bias f4 [128]
0	0x3cc2ac2f	0.023763744
1	0xbc76ce31	-0.015063808
2	0xbc9f1ea8	-0.019423798
3	0xbc4bff92	-0.012451069
4	0x3cf71176	0.030159693
5	0x3cd4b032	0.025962923
6	0x3bf7a157	0.007557075
7	0x3cd2d977	0.025738461
8	0xbcc83b25	-0.024442265
9	0x3c5197dd	0.012792555
10	0xbad0f8bf	-0.0015943273
11	0x3cb3f6e2	0.021968309
12	0xbd0ce1ff	-0.034395214
13	0xbcfcbc59	-0.03085153
14	0xbc55f35d	-0.013058511
15	0x3cdffa0a	0.027340908
16	0xbcfc9cbf	-0.030836461
17	0xbc33c856	-0.010973057
18	0xbcf3e5b7	-0.029772623
19	0x3cc01de7	0.023451759
20	0x3c8a56da	0.016887117
21	0xbbe0694b	-0.0068484894
22	0xbae72532	-0.0017634986
23	0x3c676bb4	0.0141247995
24	0x3c5899a5	0.013220225
25	0xbcf7f181	-0.030266525
26	0x3d057350	0.032580674
27	0xbcdc97e2	-0.026927892
28	0xbcb616cf	-0.022227673
29	0xbcddbdfa	-0.027068127
30	0xbcf37b48	-0.029721871
31	0x3cd35ca6	0.025801014
32	0xbcd34cfa	-0.025793541
33	0xbc2a0e39	-0.0103793675
34	0x3cdfdbaf	0.027326433
35	0x3ca06ed3	0.019584095
36	0x3cc32487	0.023821129
37	0x3d0e13c5	0.034686822
38	0xbc05c590	-0.008164778
39	0x3cf4d9a5	0.029888937
40	0x3a169266	0.0005743861
41	0xbcd02c4c	-0.025411747
42	0xbce40e11	-0.027838739
43	0x3a82081a	0.0009920627
44	0x3bb0495f	0.0053798403
45	0xbd084d63	-0.033276927
46	0x3cc0a1a6	0.02351458
47	0x3bdbe5bd	0.0067107365
48	0x3c8289ee	0.01593491
49	0x3d0ab9ea	0.033868708
50	0x3cd702da	0.026246477
51	0xbb658678	-0.0035022777
52	0xbc8bc93d	-0.017063731
53	0x3c795557	0.0152181005
54	0xbcb7f566	-0.022455882
55	0x3b57e1c2	0.0032940959
56	0xbcde4a0a	-0.027134914
57	0x3cdf8cce	0.02728882
58	0xbc32d2a7	-0.010914481
59	0xbc2b51e0	-0.010456532
60	0xbaad25b1	-0.0013210085
61	0xbcb74014	-0.022369422
62	0x3b0fceca	0.0021943324
63	0xbd0fae47	-0.035078313
64	0xbd006bfa	-0.031352974
65	0xbc46661a	-0.012109304
66	0xbcd9d588	-0.026591077
67	0x3d013c30	0.03155154
68	0x3ca70466	0.02038784
69	0xbd286958	-0.04111609
70	0x3cff7e05	0.03118802
71	0x3c809a37	0.015698535
72	0x3cf9ed19	0.030508565
73	0xbc44727d	-0.011990187
74	0xbc1948a5	-0.009355699
75	0xbcae8572	-0.021303866
76	0x3cce500e	0.025184657
77	0x3ccabf67	0.02474947
78	0x3d052dc0	0.032514334
79	0xbca4d11b	-0.02011924
80	0x3c7158b0	0.014730617
81	0x3c7e7de8	0.015532948
82	0xbbf42192	-0.007450291
83	0x3c114a3f	0.008867799
84	0x3c4d51c5	0.012531702
85	0xbd050458	-0.032474846
86	0x3c805bb4	0.015668727
87	0x3c5be50d	0.013421309
88	0x3a6f1002	0.0009119512
89	0x3a392f02	0.00070641947
90	0xbbef1aa5	-0.0072968774
91	0x3ce5f609	0.02807142
92	0x3c19a56c	0.009377819
93	0xbcc853aa	-0.024453957
94	0x3b192a4e	0.0023371163
95	0xbb642c1f	-0.0034816337
96	0x3cdcc095	0.026947299
97	0x3ae7c7e8	0.0017683478
98	0xbc94012a	-0.018066961
99	0x3d11a848	0.035560876
100	0x3bca5d05	0.0061756396
101	0x3cc37e93	0.023864066
102	0x3c2db130	0.010601327
103	0xbc45c234	-0.012070227
104	0xbd0407c6	-0.032233976
105	0x3bb855c5	0.005625459
106	0xbcdafa59	-0.026730703
107	0xbc2a4e7c	-0.010394689
108	0x3c435a89	0.011923441
109	0x3ca655c7	0.020304574
110	0xbbea0ee9	-0.0071428907
111	0x3cdbfd6a	0.026854236
112	0x3c8592d3	0.016305363
113	0x3c673cc1	0.014113606
114	0x3d09f24f	0.03367835
115	0x3c938076	0.01800559
116	0xbd0eb4d5	-0.034840424
117	0xbca2d83e	-0.019878503
118	0x3ccb4a85	0.024815807
119	0x3d05ef60	0.03269899
120	0x3c8a1594	0.016855992
121	0xbd2b9c48	-0.04189709
122	0x3cb53b9c	0.02212315
123	0xbcd9e31f	-0.026597558
124	0xbc763210	-0.015026584
125	0xbcd7d374	-0.026345946
126	0x3ce028a8	0.027363136
127	0x3bc89f5f	0.006122514

tree_conv.6.weights.weight f4 [64, 128, 3]
0	0x3d34cda3	0.044141423
1	0x3cb7ecb7	0.022451742
2	0xbc3dfa9a	-0.011595393
3	0x3cddf780	0.027095556
4	0x39895a56	0.00026197982
5	0xbcf26ca2	-0.029592816
6	0xbc8b9145	-0.017037043
7	0x3cf80ffd	0.030281061
8	0xbd00737b	-0.03136013
9	0xbc5a204c	-0.013313364
10	0xbc0971fd	-0.008388993
11	0xbcf471c3	-0.029839402
12	0xbcd36570	-0.025805205
13	0x3d1373a5	0.03599896
14	0x3c159c80	0.009131551
15	0x3cab5caf	0.020918218
16	0xbc6ade30	-0.0143352
17	0x3d0f647f	0.03500795
18	0xbcf2299f	-0.029560862
19	0x3d1a1a93	0.037623
20	0x3d670db2	0.056409545
21	0x3d186093	0.037201475
22	0x3d11adf6	0.035566293
23	0x3cc94a47	0.024571551
24	0x3cab3c85	0.020902881
25	0xbccf2820	-0.025287688
26	0xbd1c90e6	-0.038224123
27	0x3cff332e	0.031152334
28	0x3d1381e6	0.036012553
29	0x3d1a1c3d	0.037624586
30	0x3c9236f5	0.017848471
31	0xbc423ce2	-0.011855336
32	0x3d088690	0.033331454
33	0x3ac96723	0.001536582
34	0x3c38e9ed	0.011286241
35	0x3ccf3f33	0.02529869
36	0x3ceb386e	0.028713431
37	0x3c8e4882	0.017368559
38	0x3d0ef530	0.034901798
39	0xbc945c8c	-0.018110536
40	0xbcbaded8	-0.022811338
41	0xbcecc67f	-0.028903244
42	0x3d1dacc5	0.038494844
43	0x3c4b4cfd	0.012408492
44	0xbbaa455e	-0.0051962575
45	0xbd24cc65	-0.04023399
46	0x3d12544d	0.035724927
47	0x3b745c14	0.0037286328
48	0xbce88585	-0.02838398
49	0xbbf4def1	-0.0074728657
50	0xbca57c87	-0.02020098
51	0x3cf402fb	0.029786577
52	0xbd075dbc	-0.033048376
53	0xbd1b32f7	-0.0378904
54	0x3cead850	0.028667599
55	0xbbf8cf14	-0.007593045
56	0xbd10fefe	-0.03539943
57	0xbd3a851d	-0.045537103
58	0x3d2350ec	0.039872095
59	0x3a3f0373	0.0007286586
60	0xbcf72327	-0.03016813
61	0x3c97be83	0.01852346
62	0xbc160f9d	-0.009158996
63	0x3cd16871	0.025562497
64	0xbc8b2e6f	-0.016989915
65	0xbd3dfb1b	-0.04638205
66	0x3ba3f7ae	0.005003891
67	0xbd2d3131	-0.04228324
68	0x3d5c88a7	0.05384126
69	0x3d404a53	0.04694588
70	0x3cd94224	0.026520796
71	0x3c113b3d	0.008864221
72	0xbc852a14	-0.016255416
73	0x3d18812e	0.03723257
74	0xba7a6884	-0.0009552317
75	0x3c0b1350	0.008488491
76	0x3ca0d7ba	0.019634116
77	0x3d49e7d7	0.049293365
78	0xbd0c09cf	-0.03418904
79	0x3cf86de3	0.030325836
80	0x3d2a0f96	0.04151877
81	0xbca3b048	-0.019981518
82	0x3cb08ad4	0.021550573
83	0x3d4284c1	0.047489885
84	0xbc25b335	-0.010113527
85	0x3c7b0947	0.015322036
86	0xbcb61535	-0.02222691
87	0x3c2b6447	0.01046092
88	0xbcb1b714	-0.021693744
89	0x3d1d6896	0.03842982
90	0x3c7f4609	0.0155806625
91	0x3b5b0534	0.003341985
92	0xbcec52ea	-0.02884813
93	0xbd024479	-0.031803582
94	0xbcc921da	-0.024552274
95	0x3c258cd1	0.010104374
96	0xbd2d289d	-0.04227506
97	0x3cbf7baf	0.023374407
98	0x3d3faeaf	0.04679745
99	0x3cb9759c	0.022639088
100	0xbba93507	-0.005163792
101	0x3c473af7	0.012160054
102	0xbd04cafc	-0.032420143
103	0xbc9a5696	-0.018840116
104	0xbd31eb28	-0.043437153
105	0xbd1d1545	-0.038350362
106	0xbca41172	-0.02002785
107	0xba89bf6a	-0.0010509316
108	0xbbf18925	-0.007371085
109	0x3d163c71	0.036678735
110	0x3d2db691	0.042410437
111	0x3d2be521	0.04196656
112	0x3c0065ec	0.0078368
113	0x3c883d39	0.016630756
114	0xbc0a5c0c	-0.008444797
115	0x3c817690	0.015803605
116	0x3c0ade50	0.008475855
117	0xbd46e04d	-0.048553754
118	0xbc984977	-0.018589718
119	0x3d0dd53f	0.034627195
120	0x3c85fae5	0.016354987
121	0x3c041b67	0.008063174
122	0x3b4daf75	0.0031385098
123	0x3cfd029d	0.030885035
124	0xbd65e7f7	-0.056129422
125	0x3c1c2a75	0.009531607
126	0xbcee5d12	-0.029097114
127	0xbd5fdc48	-0.054653436
128	0xbc0ffcb5	-0.008788277
129	0xbce557fb	-0.027996054
130	0xbcee054d	-0.029055262
131	0x3b856cc9	0.004071806
132	0x3c33e572	0.010979997
133	0x3d269ed2	0.040678807
134	0xbcbaee6d	-0.022818768
135	0xbb3fbe7d	-0.0029257827
136	0x3cb55db9	0.022139417
137	0x3ba6efa6	0.0050944863
138	0x3cf7ebe7	0.030263854
139	0x3d404cbd	0.046948183
140	0x3ca492b9	0.020089494
141	0xbd069f12	-0.032866545
142	0x3b91d0c0	0.004449934
143	0x3cc09a25	0.023511002
144	0xbd2f4388	-0.042789012
145	0xbbef8dc4	-0.007310601
146	0x3c34db17	0.011038563
147	0x3d0401e4	0.032228366
148	0xbcc5b5b2	-0.02413449
149	0x3cc6f12b	0.02428492
150	0x3c686dc9	0.014186331
151	0x3d1af14e	0.037827782
152	0xbbae05b8	-0.0053107403
153	0x3d0dc908	0.034615546
154	0xbd3d7b22	-0.046260007
155	0x3c9b3833	0.018947696
156	0x3c7961dc	0.015221085
157	0xbd5efc16	-0.054439627
158	0x3b5c3af7	0.0033604482
159	0xbca39e02	-0.019972805
160	0x3c207a84	0.009794835
161	0x3d133225	0.035936493
162	0xbc4190ba	-0.011814291
163	0x3d3100a2	0.043213494
164	0x3c0754ef	0.008259996
165	0x3d1e3dd3	0.03863318
166	0xbb48954f	-0.0030606573
167	0x3cecaa88	0.02888991
168	0xbd0164ba	-0.0315902
169	0xbbd7bcda	-0.006583792
170	0x3d18ecf5	0.037335355
171	0xbd247c77	-0.04015776
172	0xbd3cbcb2	-0.04607839
173	0xbc847fad	-0.016174162
174	0xbcedd88b	-0.02903392
175	0xba9dfd09	-0.001205356
176	0xbcc958cc	-0.024578474
177	0x3c490f47	0.012271709
178	0x3c71daab	0.014761607
179	0x3a39461c	0.0007067637
180	0xbcd5dfa4	-0.026107617
181	0xbd78f36c	-0.06077902
182	0xbc455131	-0.012043283
183	0xbc89a541	-0.016802432
184	0x3c515b2b	0.012778084
185	0x3d3a3f6b	0.045470636
186	0x3cd788dc	0.026310377
187	0x3ccd8ffd	0.025093073
188	0x3c35d060	0.011097044
189	0x3d39fa3c	0.045404658
190	0x3d25bfbb	0.04046605
191	0xbca66c30	-0.02031526
192	0x3cdef884	0.02721811
193	0x3be84e6d	0.007089427
194	0xbcf74dc7	-0.030188454
195	0x3cad29ea	0.02113815
196	0x3d4b2780	0.049598217
197	0x38b5696e	8.6503904e-05
198	0x3c9b4303	0.018952852
199	0xbcb4fd5e	-0.022093471
200	0x3d4380ab	0.04773013
201	0x3aeff350	0.0018306766
202	0xba9e4b19	-0.0012076824
203	0x3d13f940	0.036126375
204	0x3bb456f9	0.005503532
205	0x3ccccd13	0.02500013
206	0x3cb38811	0.021915467
207	0xbd4f6664	-0.050634757
208	0xbcfa71d3	-0.030571854
209	0xbca24810	-0.019809753
210	0xbce56f7a	-0.028007258
211	0x3d064835	0.032783706
212	0xbd01e046	-0.031708024
213	0x3d1ddb4c	0.038539216
214	0xbd44f6f6	-0.048087083
215	0xbcb95ce2	-0.022627298
216	0x3bab7089	0.005231921
217	0xbd06406a	-0.032776274
218	0x3d076b91	0.033061568
219	0xbd40cf81	-0.04707289
220	0xbd4e6d48	-0.050397187
221	0xbcd45b19	-0.025922345
222	0x3c715924	0.014730725
223	0x3d179985	0.037011642
224	0xbd19b158	-0.037522644
225	0xbc618eba	-0.013766939
226	0xbcb5cd9f	-0.022192774
227	0xbc0af0f6	-0.008480301
228	0x3d282743	0.041053068
229	0xbd336c2b	-0.04380433
230	0xbc9a1541	-0.018808963
231	0x3ba16776	0.0049256636
232	0xb9ad81b2	-0.00033093762
233	0x3b9fb008	0.0048732795
234	0xbb9f2adf	-0.0048574056
235	0x3d4c3a22	0.049860127
236	0xbd0974d8	-0.033558697
237	0x3cb4986e	0.02204534
238	0x3cb439ad	0.022000158
239	0xbc2d1d14	-0.010566015
240	0xbc6bad11	-0.014384524
241	0xbd0434b2	-0.032276817
242	0x3c6757dd	0.014120069
243	0x3cd82fe2	0.02639002
244	0x3d010c12	0.03150565
245	0xbc9dfd14	-0.019285716
246	0xbc53453e	-0.012894927
247	0xbca3a109	-0.019974248
248	0xbb87a901	-0.00414002
249	0xbd537ff3	-0.051635694
250	0x3cdf8a20	0.027287543
251	0xbc7dc69d	-0.015489248
252	0x3bd6d9cd	0.0065567256
253	0x3c31b3b5	0.010846068
254	0xbd28d85e	-0.04122197
255	0x3cb15f88	0.021651998

tree_conv.6.weights.bias f4 [64]
0	0xbd0a4a4f	-0.033762272
1	0x3d0164d2	0.03159029
2	0x3bd3da10	0.006465204
3	0xbcec0d0b	-0.028814813
4	0x3ccb69d8	0.024830744
5	0xbd00039d	-0.031253446
6	0xbccef7b1	-0.025264593
7	0xbd148c5a	-0.036266662
8	0xbb0baf6b	-0.0021314274
9	0x3cf942d3	0.030427372
10	0x3ca30642	0.019900445
11	0x3b1bf90b	0.0023799564
12	0x3c354017	0.0110626435
13	0xbd2e36b2	-0.04253263
14	0x3b1f1ce6	0.00242787
15	0x3d062b00	0.03275585
16	0xbd067262	-0.032823928
17	0xbd2c82e7	-0.042117026
18	0xbd87a4bc	-0.066232175
19	0x3c17bf6d	0.009261948
20	0x3c1bab43	0.009501281
21	0xbc9f6b64	-0.019460388
22	0x3cee4c77	0.029089196
23	0x3d1e06ea	0.038580813
24	0xbd0283f4	-0.03186412
25	0x3cd759b3	0.02628789
26	0xbc025b71	-0.007956372
27	0xbd3b750f	-0.045765933
28	0xbd06abde	-0.03287875
29	0x3c87d459	0.016580747
30	0xbc144067	-0.009048558
31	0x3c8a3c86	0.016874563
32	0xbcb74511	-0.0223718
33	0x3d153d89	0.036435638
34	0x3d25b5f7	0.04045674
35	0x3c5174ad	0.012784165
36	0x3b808b9d	0.003922893
37	0x3cd37151	0.02581087
38	0x3b1eee68	0.0024250988
39	0xbad1165a	-0.0015952096
40	0x3aed6f91	0.0018114914
41	0xbcda395a	-0.026638675
42	0xbd0605e0	-0.032720447
43	0xbd1321f7	-0.035921063
44	0xbd10e5a2	-0.035375245
45	0x3b264d46	0.0025375648
46	0xbc2c52c9	-0.010517784
47	0xbd0da4f8	-0.034581155
48	0xbd233c42	-0.03985239
49	0xbcb5d117	-0.022194428
50	0x3beb73b9	0.007185426
51	0x3d10aa5f	0.03531873
52	0x3c338ec1	0.010959328
53	0xbbe83900	-0.007086873
54	0x3ce05c63	0.027387803
55	0x3c8618cc	0.016369246
56	0x3cd4c6eb	0.025973758
57	0x3b8f507d	0.0043736086
58	0xbc158462	-0.009125801
59	0xbc248964	-0.010042522
60	0xbce42fd2	-0.027854834
61	0x3be5caf7	0.0070127207
62	0xbaba9c8c	-0.0014237328
63	0x3b55b196	0.003260707

tree_conv.9.weight f4 [32, 64]
0	0x3d869081	0.06570531
1	0xbdbe7a65	-0.09300689
2	0xbdffd90a	-0.12492569
3	0x3da59f0e	0.08086978
4	0x3dca65d4	0.098827034
5	0xbdc133c2	-0.094337
6	0xbd82d896	-0.06388967
7	0xbdc9383a	-0.098251775
8	0x3cf31246	0.0296718
9	0xbdc5b087	-0.096528105
10	0x3d04c606	0.032415412
11	0x3bf034f4	0.0073305313
12	0x3daf2ddc	0.08553669
13	0xbd433172	-0.047654577
14	0x3dd43c2b	0.10363039
15	0xbe01dc8a	-0.12681785
16	0xbd28f9ca	-0.041253842
17	0x3d34be90	0.044127047
18	0x3d1c0731	0.038092796
19	0xbdb8b931	-0.090196975
20	0x3d7d8ec3	0.061903726
21	0xbd625ecc	-0.055266187
22	0x3b840025	0.0040283375
23	0xbe02afe8	-0.12762415
24	0xbddf22dc	-0.10895321
25	0x3dce8b5a	0.10085173
26	0xbd30b9b3	-0.043145847
27	0xbcc359b8	-0.023846492
28	0xbd88adab	-0.066737495
29	0xbb53e62b	-0.0032333236
30	0xbcaa9deb	-0.020827254
31	0x3dc9d22f	0.098545425
32	0xbdaef8ee	-0.08543573
33	0x3d29e7ae	0.041480713
34	0xbdfc6c24	-0.12325314
35	0x3d924d95	0.07143704
36	0x3cab09d7	0.020878715
37	0x3ddfbd6a	0.109248
38	0x3d9e7f6e	0.07739149
39	0xbde97e6d	-0.11401067
40	0xbdd132b6	-0.102147505
41	0xbc598074	-0.0132752545
42	0xba462760	-0.0007558968
43	0x3ddcd773	0.10783281
44	0xbb90888a	-0.004410808
45	0x3b1ab945	0.0023608964
46	0x3dc832a6	0.097752854
47	0xbd6c6a19	-0.05771837
48	0xbdf18345	-0.11792616
49	0xbd9a17ac	-0.07524046
50	0xbde24e6f	-0.11050116
51	0xbdd94468	-0.106087506
52	0x3d6a67c2	0.057227857
53	0x3de6bf52	0.1126696
54	0xbdd8abef	-0.10579669
55	0x3d9aaf1a	0.07552929
56	0x3dbe34d4	0.0928742
57	0x3d12be91	0.03582627
58	0xbd980e4a	-0.074246004
59	0x3db88c37	0.09011119
60	0xbc9b8ee3	-0.018989032
61	0xbda21f2b	-0.07916101
62	0xbd8f4f9c	-0.06997606
63	0x3dc569cf	0.09639322
64	0xbd8ec7d3	-0.06971707
65	0xbdc9dac4	-0.09856179
66	0x3dd7811a	0.10522671
67	0x3cc3881f	0.023868619
68	0xbd87e1d9	-0.06634874
69	0x3dcd39a5	0.100207604
70	0xbde2fe04	-0.11083606
71	0x3cc383f1	0.023866626
72	0xbdc1827a	-0.094487146
73	0xbbda1607	-0.006655458
74	0xbdcd8c9e	-0.10036586
75	0x3db3c452	0.087776795
76	0x3d8fab44	0.07015088
77	0x3e0a8da8	0.135306
78	0xbdf0875d	-0.117445685
79	0xbcf921a1	-0.030411543
80	0xbdbd0ed9	-0.092313476
81	0x3d8f94ac	0.07010779
82	0xbbe3f7a9	-0.0069570136
83	0xbd9ac7a4	-0.0755761
84	0x3d587124	0.052842274
85	0x3cab4ed7	0.020911617
86	0x3dbe33c3	0.092872165
87	0x3d75f86e	0.060051374
88	0x3dd5dddc	0.10442707
89	0xbd82071c	-0.06349012
90	0xbaaf02e2	-0.00133523
91	0x3e12fa01	0.14353181
92	0xbc3c5885	-0.011495714
93	0xbdb4fa49	-0.088368006
94	0x3ca9529d	0.020669276
95	0x3dd1214a	0.102114275
96	0xbd22ff70	-0.039794385
97	0x3c02f885	0.007993822
98	0xbdad7d46	-0.0847116
99	0xbd2d1643	-0.04225756
100	0xbbd4a939	-0.0064898995
101	0x3d8397a4	0.064254075
102	0x3ce2aeac	0.02767118
103	0xbdd2b99c	-0.102893084
104	0xbc8bcfbb	-0.017066827
105	0x3d90f5aa	0.07078107
106	0xbdc9b0b6	-0.09848158
107	0xbd335c9b	-0.043789487
108	0xbd10228f	-0.035189208
109	0x3d0c5118	0.034257025
110	0xbcdeca0b	-0.027195951
111	0xbd231f22	-0.039824612
112	0xbca4f6d9	-0.020137237
113	0xbda63fe3	-0.08117654
114	0x3d2c4aa7	0.04206338
115	0xbc01b71d	-0.007917193
116	0xbda78eea	-0.081815556
117	0xbdfe1be3	-0.12407663
118	0xbdb3825f	-0.08765101
119	0xbd731674	-0.059347585
120	0x3d56ffd5	0.052490074
121	0xbe193b79	-0.14964093
122	0x3d660d53	0.05616505
123	0x3d172a9d	0.036905874
124	0xbdfb1212	-0.12259306
125	0xbd9f60cc	-0.077821344
126	0x3db78f20	0.08962846
127	0xbc1bd90e	-0.009512199
128	0xbda6184a	-0.081101015
129	0xbd955ca4	-0.072930604
130	0xbceaefbc	-0.028678767
131	0x3de82926	0.113359734
132	0x3cecb8f7	0.028896792
133	0x3c831193	0.015999591
134	0x3ddd31b9	0.108004995
135	0xbd89280b	-0.06697091
136	0xbd84dab3	-0.06487026
137	0xbd2a831e	-0.04162895
138	0xbd960b13	-0.07326331
139	0x3d53b016	0.0516816
140	0xbdde0c62	-0.108422056
141	0xbc944736	-0.018100362
142	0x3dec6527	0.11542731
143	0xbdd88ab5	-0.10573331
144	0xbb1b5671	-0.0023702646
145	0xbe0326b7	-0.12807737
146	0x3d3047d7	0.04303726
147	0x3deb8141	0.114992626
148	0x3da5e638	0.08100551
149	0x3c49f57e	0.012326596
150	0xbc05b6a6	-0.008161223
151	0xbde449ae	-0.11146866
152	0x3c570547	0.013123817
153	0x3a694f18	0.00089000305
154	0x3c9a4bf4	0.018835045
155	0x3d4b1565	0.04958095
156	0x3cb0a6a2	0.021563832
157	0xbcbf12f9	-0.023324477
158	0x3d856f62	0.06515385
159	0xbd88f323	-0.06687
160	0xbc7b8ac9	-0.015352913
161	0x3d431cbe	0.047634833
162	0xbd4b20fa	-0.049591996
163	0xbd300979	-0.042977784
164	0xbdcb8701	-0.09937859
165	0x3e08392a	0.13303056
166	0x3de6df0f	0.11273014
167	0x3ccc21c6	0.024918448
168	0xbda1c022	-0.078979746
169	0x3d125c2c	0.035732433
170	0xbda878a3	-0.08226135
171	0x3d2f1d99	0.042752836
172	0x3dacb2a8	0.084325135
173	0xbdaf5f2e	-0.08563076
174	0x3d56aefc	0.05241297
175	0x3d58a0d8	0.052887768
176	0xbdb96363	-0.0905216
177	0x3daf0375	0.08545581
178	0xbcbffc31	-0.023435684
179	0xbde7ec22	-0.11324336
180	0x3d175bdd	0.036952842
181	0xbd434574	-0.047673658
182	0x3dc5867a	0.0964479
183	0x3db89e5f	0.09014582
184	0xbde883bc	-0.11353251
185	0x3e123898	0.14279401
186	0x3b9af81d	0.0047292844
187	0x3e1b36fd	0.15157695
188	0x3dc0c170	0.09411895
189	0x3c176d92	0.009242432
190	0xbcae7491	-0.021295818
191	0x3b03d292	0.0020114523
192	0xbd57960b	-0.052633327
193	0x3b9a7e11	0.0047147353
194	0xbdd5990a	-0.104295805
195	0xbd8e3351	-0.069433816
196	0x3dda9ca8	0.10674411
197	0x3cf5b810	0.029994994
198	0x3b034b72	0.0020033983
199	0x3d8ff098	0.070283115
200	0x3d79aa5f	0.060953494
201	0xbdd04669	-0.1016968
202	0xbd7c49af	-0.061593708
203	0xbcbae0ce	-0.022812273
204	0xbdabfbc5	-0.083976306
205	0xbdac6495	-0.08417622
206	0x3c101228	0.008793391
207	0xbddbc60e	-0.10731135
208	0xbd4c4dda	-0.049878933
209	0x3d745e79	0.05966041
210	0x3da6b387	0.08139711
211	0xbdb347c3	-0.08753922
212	0xbd80715c	-0.062716216
213	0x3d7edd8c	0.062223002
214	0x3c944a85	0.01810194
215	0xbd9b8d9d	-0.0759537
216	0xbd189b8e	-0.037257724
217	0xbddc63b5	-0.10761205
218	0xbd11ad64	-0.03556575
219	0xbd698d9a	-0.057019807
220	0xbddf59f2	-0.109058276
221	0x3b2c8c71	0.0026328827
222	0xbdd0c7df	-0.101943724
223	0xbd7df270	-0.061998785
224	0x3d967f9b	0.073485576
225	0x3d807eeb	0.06274208
226	0xbda81ea4	-0.08208969
227	0xbc0626eb	-0.00818799
228	0xbbbffcd6	-0.005858998
229	0xbdb11fd9	-0.086486526
230	0x3bcc0cbf	0.0062271054
231	0xbd72ea34	-0.059305385
232	0x3df6f171	0.1205777
233	0xbca44480	-0.020052195
234	0x3c86dbf0	0.016462296
235	0x3d351c82	0.04421664
236	0x3ddd995e	0.10820268
237	0xbd98ee3e	-0.07467316
238	0xbd0103a3	-0.03149761
239	0xbdab42b2	-0.083623305
240	0xbb04770a	-0.0020212554
241	0x3df534b1	0.11972941
242	0xbe034475	-0.12819083
243	0x3cada13e	0.02119505
244	0x3d9b9469	0.07596666
245	0x3d83b6d8	0.06431359
246	0x3ceda1e9	0.029007869
247	0x3dca9f38	0.0989365
248	0x3d9e42ef	0.0772761
249	0x3ddf4a15	0.10902802
250	0x3bd3b169	0.006460358
251	0x3c57168a	0.013127932
252	0xbc82bbb7	-0.01595865
253	0xbdf23e41	-0.1182828
254	0x3cbaf3f0	0.022821397
255	0x3dfba0b6	0.122865126

tree_conv.9.bias f4 [32]
0	0xbd9d453c	-0.07679221
1	0x3db0ce2e	0.08633076
2	0x3dc3b763	0.095564626
3	0xbd8015ee	-0.06254183
4	0xbc191275	-0.009342779
5	0x3e068d72	0.13139895
6	0xbdf25fd2	-0.118346825
7	0x3cc4cc2e	0.024023142
8	0x3ceb50cf	0.028725056
9	0x3dd61ecd	0.104550935
10	0xbd15ec53	-0.03660233
11	0x3d633bef	0.05547708
12	0x3d73ef4f	0.059554394
13	0xbd1eabdf	-0.038738128
14	0x3d9eebd2	0.07759823
15	0x3dde7283	0.10861685
16	0xbd86d305	-0.065832175
17	0xbd72ee64	-0.05930938
18	0xbc9eea08	-0.019398704
19	0xbdad47f6	-0.08460991
20	0xbce97fab	-0.02850326
21	0xbdd2cc0d	-0.10292826
22	0x3dd50017	0.10400408
23	0xbd505035	-0.05085774
24	0x3d4da3c0	0.050204992
25	0x3d27f8d1	0.041008774
26	0x3d402f30	0.04692
27	0xbdf23357	-0.118261985
28	0x3db159a9	0.086596794
29	0x3c883da9	0.016630964
30	0x3cc32e1f	0.023825703
31	0x3cbb9561	0.022898378

tree_conv.11.weight f4 [1, 32]
0	0xbe1eddc3	-0.15514283
1	0x3e153e03	0.14574437
2	0xbe03d3d9	-0.12873782
3	0x3db8b33f	0.090185635
4	0xbe23512b	-0.15948932
5	0xbe606572	-0.21913698
6	0xbe0ccba4	-0.13749558
7	0xbe196414	-0.14979583
8	0xbe1cf8a3	-0.15329222
9	0xbe6c393b	-0.23068707
10	0x3e4580b6	0.1928738
11	0xbe1742ec	-0.14771622
12	0xbdc0081f	-0.09376549
13	0x3e4a229f	0.1973977
14	0xbe1321f1	-0.14368416
15	0xbdf3e2f1	-0.1190852
16	0x3e0fe959	0.14053859
17	0x3ddb5029	0.10708649
18	0x3e0b3472	0.13594225
19	0x3e1396a1	0.14412929
20	0x3e8411b0	0.25794744
21	0xbd9c7779	-0.07639975
22	0xbd89ccdc	-0.06728527
23	0x3e178b62	0.14799264
24	0x3e0c1869	0.13681187
25	0xbdf71668	-0.120648205
26	0x3e709940	0.2349596
27	0xbe571185	-0.21002777
28	0xbe11cc4c	-0.1423809
29	0xbe808904	-0.25104535
30	0x3e57a1be	0.21057793
31	0xbe318ea1	-0.17339565
