models/lero_on_tpch_10_TPCH_Bao.pth (torch, 583270 bytes, 9 tensors)

tree_conv.0.weights.weight f4 [256, 25, 3]
0	0x3dca11d7	0.09866684
1	0x3d3d4279	0.04620597
2	0xbd7492d8	-0.059710354
3	0x3d91114b	0.070833765
4	0xbd8b0870	-0.06788719
5	0xbd81d913	-0.06340232
6	0x3e068ad5	0.13138898
7	0xbba03859	-0.0048895297
8	0x3e04c0f9	0.12964238
9	0xbd47a04a	-0.048736848
10	0xbc10ef8d	-0.008846176
11	0xbd71974d	-0.058982182
12	0xbd8dfe67	-0.06933289
13	0x3de9cd22	0.11416079
14	0xbd7590d7	-0.059952583
15	0x3cab0aad	0.020879114
16	0x3d9c6f8e	0.07638465
17	0xbc1366b0	-0.008996651
18	0x3cb30094	0.021850862
19	0xbd76b9c2	-0.060235746
20	0x3d25eb5b	0.040507656
21	0xbd7591b3	-0.059953403
22	0xbd09a529	-0.033604775
23	0x3c8a41ae	0.016877022
24	0x3bce2515	0.0062910416
25	0x3d804a41	0.06264163
26	0xbc935aa1	-0.017987551
27	0xbd5d8586	-0.054082416
28	0xbd5ce05b	-0.0539249
29	0xbd6c66c0	-0.057715178
30	0xbda75692	-0.08170809
31	0xbc067708	-0.00820709
32	0x3d9b022d	0.07568774
33	0xbd9563f7	-0.072944574
34	0x3cc1aba8	0.023641422
35	0xbd83feda	-0.064450935
36	0xbdf14499	-0.11780662
37	0x3deec410	0.1165849
38	0xbd9909bc	-0.0747256
39	0xbd20f15a	-0.03929267
40	0xbde8d5c7	-0.113689
41	0xbdcf7f2f	-0.1013168
42	0x3db27881	0.087143905
43	0x3c03b381	0.008038403
44	0xbd7be6c7	-0.061499383
45	0x3dba82b8	0.09106964
46	0x3d82abcb	0.06380423
47	0xbd9fde48	-0.07806069
48	0xbc1b327d	-0.009472487
49	0x3cc50761	0.02405137
50	0x3d5a4660	0.05328977
51	0x3da7a95e	0.08186601
52	0xbd1460b1	-0.036225025
53	0x3d483167	0.04887524
54	0x3cf16a3b	0.0294696
55	0xbddd2574	-0.10798159
56	0xbc04f2ac	-0.008114498
57	0x3ced0600	0.028933525
58	0x3daec8b2	0.08534373
59	0x3cfb0771	0.030643197
60	0x3d88b508	0.06675154
61	0xbbd8f67b	-0.0066211796
62	0x3da8da5a	0.08244772
63	0x3d09227d	0.033480156
64	0xbd45675a	-0.048194267
65	0xbceaa343	-0.028642302
66	0x3dc3ee05	0.09566883
67	0x3d3013cf	0.04298764
68	0xbba835b4	-0.005133355
69	0x3d889d87	0.06670671
70	0xbc9b6210	-0.018967658
71	0xbd39a7cb	-0.045326035
72	0x3dab7d23	0.08373477
73	0x3da91cef	0.08257472
74	0x3d2d676b	0.042334955
75	0xbdf53d86	-0.11974625
76	0xbd1cb7e8	-0.038261324
77	0x3d42276c	0.047400877
78	0x3a6cba00	0.00090304017
79	0x3db4f643	0.08836033
80	0xbdf34346	-0.11878066
81	0xbe47d981	-0.19516565
82	0xbdb37fa2	-0.087645784
83	0xbe523991	-0.20529772
84	0x3c00a856	0.007852634
85	0xbdb5c39d	-0.08875201
86	0x3de73254	0.11288896
87	0xbdfd7023	-0.12374904
88	0x3dc35152	0.09536995
89	0xbddc33c2	-0.107520595
90	0x3da0bb96	0.07848279
91	0xbd9fa5a5	-0.07795266
92	0xbd8dd7d7	-0.06925934
93	0xbad5354f	-0.0016266498
94	0x3d1a556f	0.037679132
95	0x3bd16520	0.006390229
96	0xbdcda1e9	-0.100406475
97	0xbdcec412	-0.10095991
98	0xbd078afe	-0.033091538
99	0xbcb2dd8d	-0.02183416
100	0x3d1689ed	0.03675263
101	0xbda8d41c	-0.08243582
102	0xbd320813	-0.04346473
103	0xbd4834b6	-0.048878394
104	0xbc3c58a8	-0.011495747
105	0x3d597ebb	0.053099375
106	0xbd3fbb54	-0.04680951
107	0xbe0021c6	-0.12512884
108	0x3d0434f9	0.03227708
109	0x3d1857f5	0.037193257
110	0x3de36bb2	0.111045256
111	0x3d428f32	0.047499843
112	0x3d951d84	0.0728102
113	0xbd808d09	-0.062769
114	0xbda405d8	-0.08008927
115	0xbd9de01d	-0.07708762
116	0x3cc29e3d	0.023757095
117	0xbd43e7c2	-0.047828443
118	0x3cbbc3b5	0.022920469
119	0x3db927b3	0.09040775
120	0xbab0c2bf	-0.0013485773
121	0x3cc151b8	0.023598537
122	0x3d483410	0.048877776
123	0x3d474c88	0.04865697
124	0x3d955b8d	0.072928526
125	0xbc09216f	-0.008369788
126	0xbd931167	-0.071810536
127	0xbdeecd5f	-0.11660265
128	0xbd6b50b4	-0.05745001
129	0xbcbc4400	-0.022981644
130	0xbcb28459	-0.021791624
131	0xbd620279	-0.05517814
132	0x3dbffcd1	0.09374393
133	0xbdca72c0	-0.09885168
134	0x3d5a4a30	0.053293407
135	0xbd7b2478	-0.061314076
136	0xbca6c5e6	-0.020358037
137	0x3dea9040	0.11453295
138	0x3d8a2f04	0.06747249
139	0xbd343830	-0.043998897
140	0x3cccd56f	0.025004117
141	0xbd83230b	-0.06403168
142	0xbc35f8f5	-0.011106719
143	0xbe17c36e	-0.14820644
144	0xbca0a1a4	-0.019608326
145	0x3dbcc90c	0.09218034
146	0xbd77ab58	-0.06046614
147	0x3d58cf4c	0.05293207
148	0x3e054304	0.13013846
149	0xbdc191d9	-0.09451646
150	0xbcc0aa1f	-0.02351862
151	0x3db6b243	0.089207195
152	0x3d8b78da	0.0681016
153	0x3d233e87	0.039854553
154	0x3dc826f6	0.09773056
155	0xbd21a8f4	-0.039467767
156	0x3e062ed8	0.13103807
157	0x3dc313cd	0.09525261
158	0x3dc67dff	0.096920006
159	0xbd6f5675	-0.05843206
160	0x3da19a05	0.07890705
161	0xbd34d7ea	-0.044151224
162	0x3da6f7ca	0.08152731
163	0x3d89153d	0.06693504
164	0xbd365670	-0.044516027
165	0x3d9bc6c8	0.07606274
166	0x3d90e27d	0.07074449
167	0xbc5faeb2	-0.01365249
168	0xbce5254c	-0.027971886
169	0x3ce9233d	0.028459186
170	0xbd2068bb	-0.03916238
171	0xbd28c5cc	-0.04120426
172	0x3cfa553c	0.030558221
173	0x3bced56a	0.006312062
174	0x3dce1f6b	0.10064586
175	0x3db4d3e2	0.08829476
176	0xbd502150	-0.05081302
177	0xbd57fb08	-0.052729636
178	0xbcf0b731	-0.029384227
179	0x3dad5c4f	0.08464872
180	0x3dab1840	0.08354235
181	0xbcf05bdb	-0.029340675
182	0x3e1ad675	0.15120871
183	0xbac13efc	-0.0014743502
184	0xbd01e34d	-0.03171091
185	0xbdcb9e11	-0.09942258
186	0x3d7d21a1	0.06179965
187	0xbcca5fee	-0.024703946
188	0xbcb9e943	-0.022694236
189	0x3d51f24f	0.051256474
190	0x3bd4da9f	0.006495788
191	0xbd45e6b7	-0.04831573
192	0x3cafbf26	0.021453451
193	0x3c8c3b21	0.017118039
194	0xbd015d00	-0.031582832
195	0x3dc28312	0.09497656
196	0x3db31073	0.08743372
197	0x3dac4b03	0.08412745
198	0x3df95f46	0.12176375
199	0x3daa6c25	0.08321408
200	0x3d9fc085	0.07800392
201	0xbc0ae650	-0.008477762
202	0x3da38b1d	0.07985518
203	0x3d657496	0.05601939
204	0xbde1c9d1	-0.110248215
205	0xbd8ff190	-0.07028496
206	0x3cd938b2	0.026516292
207	0x3d2f3b53	0.042781185
208	0xbd9af26b	-0.07565769
209	0xbcd9646d	-0.026537145
210	0xbd034229	-0.032045517
211	0x3d1e7a4a	0.038690843
212	0xbd947fa1	-0.07250906
213	0x3dc8e393	0.09809031
214	0x3dd15066	0.10220413
215	0xbde2cffc	-0.11074826
216	0xbd783a02	-0.060602196
217	0x3d4c9a37	0.04995176
218	0x3c487609	0.012235173
219	0xbd9f506b	-0.077790104
220	0xbc1bf8dd	-0.009519783
221	0xbd8839ca	-0.066516474
222	0xbd0c578f	-0.03426319
223	0xbd76bb2a	-0.060237087
224	0x3ce1a1bd	0.027542943
225	0x3dc32e16	0.095302746
226	0x3d842e4c	0.06454143
227	0xbd9391b5	-0.07205526
228	0x3d700ef6	0.058608018
229	0x3db4520a	0.0880471
230	0x3dca7ff8	0.09887689
231	0xbe255c50	-0.16148496
232	0x3de2eb63	0.11080053
233	0x3e70f6b3	0.23531608
234	0xbd2b526e	-0.041826658
235	0x3da09427	0.07840758
236	0xbd1380b3	-0.03601141
237	0xbd283031	-0.041061584
238	0x3de25caf	0.11052834
239	0xbc8a6160	-0.016892135
240	0xbd074d7b	-0.033032876
241	0xbda8e856	-0.082474396
242	0xbd48f7ba	-0.049064375
243	0xbd2ee9f2	-0.042703576
244	0xbd6ddaf0	-0.058070123
245	0xbd52c61e	-0.05145847
246	0x3ce9e5e3	0.028552001
247	0x3db62e2e	0.08895527
248	0x3d8b64e8	0.06806356
249	0x3d8f5f11	0.07000554
250	0x3db0dbaa	0.086356476
251	0x3d0be5e5	0.03415479
252	0x3de20e72	0.110379115
253	0xbd54d058	-0.051956505
254	0x3db89e60	0.09014583
255	0x3d6091d9	0.05482659

tree_conv.0.weights.bias f4 [256]
0	0x3d487f66	0.04894962
1	0xbda8881f	-0.08229088
2	0xbd6162ac	-0.05502574
3	0xbd863594	-0.06553188
4	0xbdddaeb3	-0.10824337
5	0x3df5ba99	0.11998481
6	0xbd9f5e42	-0.0778165
7	0xbd47e495	-0.048801977
8	0x3d989335	0.074499525
9	0x3d93f191	0.072238095
10	0xbd442919	-0.047890756
11	0x3d803980	0.06260967
12	0xbaeb0ebc	-0.0017933468
13	0xbdfc0741	-0.12306071
14	0x3cd317fc	0.025768273
15	0x3dd8702c	0.1056827
16	0x3d60d691	0.054892126
17	0x3d3bf66c	0.045889303
18	0x3d83e73f	0.06440591
19	0x3c0a35cf	0.0084356805
20	0xbc135dff	-0.008994578
21	0x3d988794	0.074477345
22	0xbdcf88f8	-0.101335466
23	0x3d9684ff	0.07349586
24	0x3d8a2de7	0.067470364
25	0x3ce18f3d	0.027534122
26	0x3d86b962	0.06578328
27	0xbdca65a6	-0.09882669
28	0xbd3a8f50	-0.04554683
29	0x3dcba398	0.099433124
30	0xbdeab61a	-0.11460514
31	0x3d3eab5e	0.046550147
32	0x3db490fc	0.08816716
33	0x3bb22682	0.0054367194
34	0x3cceafbf	0.025230287
35	0xbc60f421	-0.01373008
36	0xbce663cb	-0.028123757
37	0xbdc2d110	-0.09512532
38	0xbb5bb0db	-0.0033522162
39	0x3cb635e8	0.022242501
40	0xbd98830c	-0.0744687
41	0xbd860147	-0.065432124
42	0xbd300a7e	-0.042978756
43	0xbce893f2	-0.028390858
44	0x3d06d97d	0.032922257
45	0x3d61083e	0.0549395
46	0xbb172ca2	-0.0023067375
47	0x3d675e31	0.056486312
48	0xbd4ee21e	-0.05050861
49	0xbc9f5845	-0.01945127
50	0x3db1762d	0.08665118
51	0xbd07e818	-0.033180326
52	0x3dc3fcfa	0.09569736
53	0xbd46760e	-0.04845243
54	0x3db53f6f	0.088499896
55	0xbdd445c4	-0.10364869
56	0x3d927913	0.07151999
57	0xbc22412b	-0.009903233
58	0x3c4e68a5	0.012598191
59	0xbda9733a	-0.08273931
60	0xbd00fb49	-0.031489644
61	0xbd15f88e	-0.036613993
62	0xbdb72fa6	-0.08944635
63	0xbd9a5fa9	-0.07537777
64	0xbd74c3d2	-0.05975706
65	0xbbf4e26b	-0.00747328
66	0x3da661eb	0.08124145
67	0x3bf19c3c	0.007373361
68	0x3d8044ed	0.062631465
69	0x3db9a547	0.09064727
70	0x3cc0d635	0.023539642
71	0xbcab1650	-0.020884663
72	0xbd31f009	-0.043441806
73	0x3c9908ac	0.018680893
74	0x3d1b8888	0.037972003
75	0xbd03da7e	-0.032190792
76	0xbddf2684	-0.10896018
77	0xbe0b8e0d	-0.13628407
78	0x3dc34813	0.095352314
79	0x3d889d55	0.06670634
80	0xbe0d0abb	-0.13773625
81	0xbdc676c6	-0.09690623
82	0xbd3b70ca	-0.04576186
83	0xbd257603	-0.040395748
84	0xbc98b0fb	-0.018639078
85	0x3bccaa4d	0.0062458874
86	0xbcee0935	-0.029057125
87	0x3e09bcac	0.13450879
88	0xbd810fff	-0.06301879
89	0x3d7242f6	0.05914589
90	0xbd93ccc5	-0.07216791
91	0x3db9b2d6	0.090673134
92	0xbdbab932	-0.091173545
93	0xbde81baf	-0.11333405
94	0x3e0a2b64	0.13493115
95	0xbdd09a14	-0.10185638
96	0x3dea06ef	0.11427104
97	0xbd840bf4	-0.064475924
98	0x3be1f274	0.0068953577
99	0xbdf46fb1	-0.11935366
100	0x3cdce591	0.026964935
101	0xbc2365ac	-0.009972971
102	0xbd6067ee	-0.054786615
103	0x3d77479e	0.060371034
104	0x3dd6eabd	0.104939915
105	0x3d1559ed	0.036462713
106	0xbdaecd5e	-0.085352644
107	0x3c7d76c8	0.015470214
108	0xbbd378d8	-0.0064536147
109	0x3df77f20	0.12084794
110	0x3d327f29	0.0435783
111	0xbdf160a9	-0.117860146
112	0x3cca616f	0.024704663
113	0x3d1efa34	0.03881283
114	0xbd3bf09f	-0.04588377
115	0x3d62ac09	0.055339847
116	0xbdd5ea0f	-0.10445034
117	0xbdf9a502	-0.12189676
118	0xbd6e4507	-0.0581713
119	0xbd9b3506	-0.07578473
120	0x3d699087	0.057022598
121	0x3d6b8848	0.057503015
122	0xbdb6cff7	-0.08926385
123	0x3db5f28c	0.08884153
124	0x3dff3f06	0.12463193
125	0xbdcbaf10	-0.099455
126	0x3d80530a	0.062658384
127	0xbdf1f1d0	-0.118137
128	0x3df2e1dd	0.11859486
129	0x3dee4bd3	0.11635556
130	0x3ceb0295	0.028687755
131	0x3d91407e	0.07092379
132	0xbd0c32d6	-0.03422817
133	0x3df14c95	0.11782185
134	0x3d2d4a70	0.042307317
135	0xbc9cecb6	-0.019155841
136	0xbdb18f7c	-0.086699456
137	0xbd9a319e	-0.07528995
138	0xbd4990b4	-0.049210265
139	0xbdbbe981	-0.09175397
140	0x3de03b45	0.10948805
141	0xbda6d74c	-0.08146533
142	0xbdec86ef	-0.11549174
143	0xbcc0452b	-0.023470482
144	0x3ddbaaaf	0.10725915
145	0x3d8ea8f0	0.06965816
146	0x3d510f7a	0.05104015
147	0xbcfba817	-0.0307198
148	0xbdd81dc4	-0.10552552
149	0x3bcd4e85	0.006265464
150	0xbd003add	-0.031306136
151	0x3cb53f9d	0.02212506
152	0x3ca98039	0.020691024
153	0x3ce1ac75	0.027548054
154	0x3df29966	0.11845665
155	0x3d254a22	0.0403539
156	0xbbd4f79e	-0.006499245
157	0xbd419dc9	-0.047269616
158	0xbda8a31b	-0.08234235
159	0x3d4d2532	0.0500843
160	0xbdaeb52a	-0.08530648
161	0x3d9ef4d8	0.07761544
162	0x3df8abab	0.12142118
163	0xbd7f4364	-0.062320128
164	0xbdb6d56a	-0.08927424
165	0x3c20db7c	0.009817954
166	0x3dd02c9b	0.10164758
167	0xbdb32054	-0.087464005
168	0xbdae3cfa	-0.08507724
169	0x3ca1afa1	0.019737067
170	0x3d7a422a	0.061098255
171	0x3d91c21e	0.07117103
172	0xbd1cce7d	-0.03828286
173	0xbdd61fb1	-0.104552634
174	0xbdebe08a	-0.11517437
175	0xbd112548	-0.035435945
176	0x3dc1dfe7	0.09466534
177	0x3db201f7	0.08691781
178	0xbdf8b7ef	-0.121444575
179	0x3df2ec8d	0.11861525
180	0xbddb3862	-0.107041135
181	0x3de1119b	0.10989686
182	0xbcd5158b	-0.026011249
183	0x3ce838ee	0.028347459
184	0xbd168f9a	-0.036758043
185	0xbd358b36	-0.044322215
186	0xbd5954f2	-0.053059526
187	0x3d5f0e37	0.054456916
188	0xbdc3d9d3	-0.09563031
189	0xbd98ded2	-0.074643746
190	0xbc05c70f	-0.008165135
191	0xbd31f68e	-0.043448023
192	0x3deac3d9	0.11463136
193	0x3c96b455	0.018396536
194	0x3dbce965	0.09224204
195	0x3d589a87	0.052881744
196	0x3d93d640	0.07218599
197	0xbda36d9d	-0.079798914
198	0x3c1a2ed2	0.009410577
199	0x3d29639c	0.04135476
200	0x3dc7ddc9	0.09759099
201	0x3dbec1ec	0.093143314
202	0x3d2389b8	0.03992626
203	0x3d8c653a	0.06855245
204	0xbd6cebb9	-0.05784199
205	0xbdc04f00	-0.09390068
206	0x3ab84595	0.0014058823
207	0xbd58c61a	-0.0529233
208	0x3bf04346	0.0073322384
209	0xbc4aa3e6	-0.012368178
210	0xbe02404e	-0.12719843
211	0xbd4ab331	-0.049487296
212	0xbd1023a3	-0.035190236
213	0x3da0e612	0.078563824
214	0x3ceddf84	0.029037245
215	0x3da1a34f	0.07892477
216	0xbd8fc85c	-0.070206374
217	0x3d752ed5	0.059859116
218	0xbc2389e5	-0.009981607
219	0xbdddc482	-0.108284965
220	0xbd5e8836	-0.05432912
221	0xbdb0b4dd	-0.08628247
222	0xbbf50434	-0.0074773077
223	0x3cd8c028	0.026458815
224	0x3d641f48	0.055693895
225	0xbddc38ec	-0.107530445
226	0xbd86240b	-0.065498434
227	0x3d746de2	0.059675105
228	0xbd40e936	-0.047097407
229	0xbdf0752a	-0.11741097
230	0xbbccf8f5	-0.006255264
231	0x3db2499a	0.08705445
232	0x3dad6d1d	0.08468077
233	0x3cc99eca	0.02461185
234	0x3d8fd14d	0.07022343
235	0x3dea5ea4	0.114438325
236	0x3d5d7027	0.054062035
237	0xbd9d84f9	-0.07691378
238	0x3dd8651d	0.10566161
239	0x3d4ba0f2	0.049714036
240	0xbdbb3af3	-0.09142103
241	0xbc8b6931	-0.017017933
242	0x3d891d84	0.06695083
243	0xbdea7b1d	-0.11449263
244	0xbdb5d2e3	-0.08878114
245	0x3d83f2e8	0.06442815
246	0xbd9c083f	-0.0761876
247	0xbd326c76	-0.043560468
248	0x3c8c4c4c	0.017126225
249	0x3d95eb5d	0.073202826
250	0xbd9db732	-0.07700957
251	0x3c1fc21e	0.009750871
252	0xbdadfe45	-0.08495764
253	0x3d07be6d	0.03314059
254	0xbdcc71fe	-0.0998268
255	0x3d7f53b3	0.06233568

tree_conv.3.weights.weight f4 [128, 256, 3]
0	0xbcc9e813	-0.024646794
1	0xbcb37e75	-0.021910885
2	0x3c78b8f2	0.015180813
3	0xbc528a2d	-0.0128503265
4	0xbc7cf211	-0.0154385725
5	0x3c9ce856	0.019153755
6	0xbc3607c2	-0.011110248
7	0xbc47deaf	-0.012199088
8	0x3c6a8fc9	0.014316508
9	0xbcca5eec	-0.024703465
10	0x3c83c599	0.016085433
11	0xbc6fc93e	-0.014635382
12	0xbcb86fa5	-0.022514174
13	0xbc9a5fec	-0.018844567
14	0xbd4aec68	-0.04954186
15	0x3a42e653	0.00074348337
16	0xbd2f05d4	-0.042730168
17	0x3cb19e74	0.021682002
18	0xbc717fdc	-0.014739957
19	0xbcf267bb	-0.029590478
20	0x3a240fae	0.000625844
21	0x3b9660dc	0.0045891833
22	0xbc8ca4b2	-0.017168377
23	0xbcaf4d08	-0.021399036
24	0xbd1fc379	-0.039004777
25	0xbc6467d1	-0.013940767
26	0xbb71c59f	-0.0036891473
27	0x3cc84109	0.024445074
28	0x3cbfb50a	0.023401756
29	0x3c0d3cf0	0.008620486
30	0x3d0b668b	0.03403334
31	0xbc15ad72	-0.009135591
32	0xbc7ba7c6	-0.0153598245
33	0x3c0e2902	0.008676769
34	0xbcdfd76a	-0.027324397
35	0xbca7af83	-0.020469433
36	0x3cd92208	0.026505485
37	0xbc51f5a2	-0.012814911
38	0x3c64476d	0.013933045
39	0xbce99d85	-0.028517494
40	0x3cb3cc37	0.021947963
41	0x3bedc857	0.0072565484
42	0xbc5b440e	-0.013382925
43	0xbb151a05	-0.0022751105
44	0x3d3bc761	0.04584444
45	0xbbb25d73	-0.005443269
46	0x3be29301	0.006914497
47	0xbab458ed	-0.0013759412
48	0xbcb01dbf	-0.021498559
49	0xbd2e5cbd	-0.04256891
50	0x3d0f2ea7	0.0349566
51	0x3b007149	0.0019598773
52	0x3cbcede5	0.023062656
53	0xbbc1a40c	-0.0059094485
54	0x3cebe96a	0.028797824
55	0xbb8000fb	-0.003906367
56	0x3d78f433	0.06077976
57	0x3c71165a	0.014714802
58	0xbd2143cf	-0.039371308
59	0x3c5fab09	0.013651618
60	0x3c2c7cbf	0.010527789
61	0xbc920947	-0.01782669
62	0x3ca501ba	0.020142425
63	0xbc96069f	-0.018313704
64	0x3c0ac5a3	0.008469972
65	0xbc940d59	-0.01807277
66	0x3c841cdd	0.016127044
67	0xbc3f47f6	-0.011674872
68	0xbd06ffe5	-0.032958884
69	0xbd1495a7	-0.036275532
70	0x3b20f717	0.002456134
71	0x3c4066f8	0.0117433
72	0xbd1c2cd9	-0.038128708
73	0xbd05daec	-0.032679483
74	0xbb35f6b4	-0.0027765455
75	0x3c5daada	0.013529504
76	0x3d095db9	0.033536647
77	0x3c0602ea	0.008179406
78	0xbd017305	-0.03160383
79	0xbcbf16c7	-0.02332629
80	0xbceff964	-0.029293723
81	0xbc9d51df	-0.019204078
82	0xbb69e554	-0.0035689669
83	0xbc2c1c9d	-0.010504869
84	0x3c44d780	0.01201427
85	0xbc8121aa	-0.015763123
86	0x3b98723f	0.004652291
87	0x3d9143f2	0.07093038
88	0x3c8bbe22	0.017058436
89	0x3d4d2f7b	0.05009411
90	0x3c03f2bf	0.008053481
91	0xbcc753c4	-0.024331935
92	0x3d00ca11	0.031442706
93	0x3caa65f6	0.020800572
94	0x3c97f92b	0.01855143
95	0xba98cdfa	-0.0011658065
96	0xbce0a7e7	-0.027423812
97	0x3c02eb9b	0.007990743
98	0xbc2d2a5d	-0.010569182
99	0x3cd11bf6	0.025526028
100	0x3d0cee13	0.034406733
101	0x3d5190f6	0.051163636
102	0xbd098f36	-0.033583842
103	0x3d23f3be	0.040027373
104	0x3d75581d	0.059898484
105	0x3d416fed	0.04722588
106	0x3d056462	0.032566436
107	0x3caa8c3a	0.020818818
108	0x3ca76a40	0.020436406
109	0xbc85e501	-0.01634455
110	0x3c018735	0.007905771
111	0xbcc9b9dc	-0.024624757
112	0xbd12cefd	-0.03584193
113	0xbc4814cd	-0.012211991
114	0x3c97c1a7	0.018524958
115	0x3c21410a	0.009842167
116	0xbcf2b410	-0.029626876
117	0x3d01a492	0.031651087
118	0xbc211b19	-0.009833121
119	0xbd046939	-0.03232691
120	0xbd00dd40	-0.031461
121	0xbb523afd	-0.0032078617
122	0x3d01c8ab	0.031685513
123	0xbce74506	-0.028231155
124	0x3d8ccc9a	0.06874962
125	0xbd56ff31	-0.052489463
126	0x3d1ea393	0.038730215
127	0xbd1a2ed5	-0.03764232
128	0x3cc73f31	0.024322124
129	0xbc9dc57a	-0.019259203
130	0x3d289909	0.04116157
131	0x3cea20d1	0.028580101
132	0xbd20a472	-0.039219327
133	0xbca62628	-0.020281866
134	0x3d022fd7	0.031783905
135	0xbc9bfdbf	-0.019041894
136	0xbca63f4f	-0.02029386
137	0x3c901571	0.017588349
138	0xbc1bd357	-0.009510837
139	0xbb4d6422	-0.0031340201
140	0x3c3ce985	0.011530285
141	0x3c7f4f53	0.015582877
142	0x3d03d5ea	0.032186426
143	0xbcb45e1f	-0.022017537
144	0x3db2c5df	0.08729147
145	0xbce6e47c	-0.028185122
146	0x3b0acc46	0.0021178885
147	0x3c4fb449	0.012677261
148	0xbd0b7689	-0.03404859
149	0x3d050cc7	0.03248289
150	0xbb49b0f8	-0.0030775648
151	0xbcb69b6b	-0.022290906
152	0x3d43f8c7	0.047844674
153	0xbb700dbf	-0.0036629287
154	0xbc847746	-0.016170155
155	0xbc241fcc	-0.010017347
156	0xbd0f1f78	-0.03494212
157	0xbcbb432f	-0.022859184
158	0x3d42e463	0.047581088
159	0xbd21030e	-0.039309554
160	0xbcf839d1	-0.030301007
161	0xbba58357	-0.0050510573
162	0xbbc7add1	-0.0060937186
163	0xbac2accd	-0.0014852524
164	0xbc580237	-0.013184122
165	0x3cf5a1e8	0.02998443
166	0x3d036daf	0.032087024
167	0xbb867265	-0.0041029924
168	0xbb153611	-0.0022767822
169	0xbbb59d22	-0.0055424133
170	0xbb04fb16	-0.002029126
171	0x3c1bdd04	0.009513143
172	0xbc8aad1a	-0.016928244
173	0x3d35d609	0.044393573
174	0xbb35e648	-0.0027755667
175	0x3c5cf7ba	0.013486797
176	0x3cfd569c	0.030925088
177	0xb9c2167e	-0.00037019321
178	0x3cb9c5a9	0.02267726
179	0xbc8ccfa8	-0.017188862
180	0x3b6cc60c	0.0036128787
181	0xbc061d52	-0.008185701
182	0x3c334d6b	0.010943751
183	0xbcfb019d	-0.030640418
184	0x3cadb1f0	0.021203011
185	0xbd122d25	-0.035687584
186	0x3c9f038d	0.019410873
187	0xbcb26e29	-0.021781044
188	0xbd1d43f0	-0.03839487
189	0x3cc0f89f	0.023556052
190	0x3d1d9cd2	0.038479634
191	0xbcb45842	-0.02201474
192	0x3d148201	0.036256794
193	0x3c1f6699	0.009729051
194	0xbc30911e	-0.010776786
195	0xbc033cc4	-0.008010093
196	0x3c4c2435	0.012459804
197	0x3beeae92	0.007283994
198	0x3d28006c	0.041016027
199	0x3c29f78b	0.01037396
200	0x3c18ba0e	0.009321703
201	0x3b775630	0.003774058
202	0x3c4b2950	0.012399986
203	0x3be088ad	0.0068522305
204	0xbc1b4675	-0.0094772475
205	0xbd191fe3	-0.037383925
206	0xbc0e2bdf	-0.008677452
207	0x3b100cb0	0.0021980219
208	0xbce23270	-0.027611941
209	0xba0832aa	-0.0005195538
210	0xbcac97d2	-0.021068487
211	0xbb912eaf	-0.004430614
212	0xbb8c9349	-0.0042900187
213	0xbc3aa31d	-0.011391428
214	0xbd71d39d	-0.0590397
215	0x3bc965d0	0.00614617
216	0x3c496a26	0.012293374
217	0x3ca5111b	0.020149758
218	0x3b9c6b5f	0.004773542
219	0x396e4e1c	0.00022726547
220	0xbd15cd79	-0.036572907
221	0xbc0d0493	-0.008607048
222	0x3c9253dc	0.017862253
223	0xbc43dfc6	-0.011955207
224	0xbb9fdf2a	-0.004878898
225	0x3d0bc0d7	0.034119453
226	0x3abd7ea0	0.0014457293
227	0xbcc2e2bf	-0.023789762
228	0x3c111d24	0.008857045
229	0xbc1f5c4c	-0.009726595
230	0x3977f301	0.00023646282
231	0xbcdfc4a0	-0.027315438
232	0xbcafb3d0	-0.021448046
233	0x3c9998c2	0.018749598
234	0xbc77172e	-0.01508121
235	0x3c9c5264	0.019082256
236	0x3cc9259a	0.024554063
237	0x3cf4f830	0.029903501
238	0x3d0d7031	0.034530822
239	0x3bbd53af	0.005777798
240	0xbbd1c969	-0.006402184
241	0xbaacd90e	-0.0013187246
242	0xbb8238f3	-0.003974074
243	0x3baf575d	0.0053509907
244	0xbd3c1a43	-0.045923483
245	0xbd44dae1	-0.0480603
246	0x3c1b7c2b	0.009490053
247	0x3c82f8de	0.01598781
248	0x3b959bf1	0.004565709
249	0xbced20d8	-0.028946325
250	0x3be5d626	0.007014054
251	0x3c6c8a32	0.014437245
252	0x3d50a203	0.050935756
253	0x3c965ef8	0.018355832
254	0xba6929f1	-0.00088944944
255	0xbafd6bad	-0.0019334458

tree_conv.3.weights.bias f4 [128]
0	0x3c397381	0.011319042
1	0x3c9056ba	0.01761948
2	0x3b941d36	0.004520084
3	0x3c9c6040	0.019088864
4	0x3cc4c8ae	0.024021473
5	0xbcc31986	-0.023815881
6	0xbd0752c4	-0.033037916
7	0x3c99efc6	0.01879109
8	0xbc8477c0	-0.016170382
9	0x3d3a8cef	0.04554456
10	0xba36fa49	-0.00069800444
11	0xbce914f8	-0.028452381
12	0x3c782364	0.0151451565
13	0x3bba21ae	0.0056802845
14	0x3d09ecf5	0.033673245
15	0x3bfa80a5	0.00764473
16	0x3c776fb5	0.015102317
17	0xbc64dfaa	-0.013969341
18	0xbc96f7be	-0.01842868
19	0xbc97cfa9	-0.018531637
20	0x3c0c9d12	0.00858237
21	0x3c8117d9	0.015758442
22	0xbb9f1565	-0.0048548453
23	0x3ca21e9a	0.019789983
24	0xbb9b7c18	-0.0047450177
25	0xbbaf0056	-0.005340616
26	0x3c3c677f	0.011499285
27	0x3cfd218a	0.030899782
28	0x3c417a8b	0.011809002
29	0x3b72b283	0.003703267
30	0xbc7f4484	-0.0155803
31	0x3d222daf	0.03959435
32	0x3cc79a62	0.024365608
33	0x3cc0a8ef	0.023518054
34	0xbc0f06fd	-0.0087296935
35	0x3c9d06f9	0.019168364
36	0x3cfb60e0	0.030685842
37	0x3c3c66bd	0.011499104
38	0x3c445923	0.0119841425
39	0xbce8545a	-0.028360534
40	0xbc1db746	-0.009626215
41	0x3d230fae	0.039809875
42	0xbc44ed14	-0.012019414
43	0xbd059847	-0.032615926
44	0x3c71bb89	0.0147541845
45	0xbce828f9	-0.02833985
46	0xbd191abc	-0.03737901
47	0xbcaa4e31	-0.020789238
48	0xbcd3c0f3	-0.025848841
49	0xbbdc4931	-0.0067225923
50	0xbcf22e6f	-0.029563157
51	0xbd2f52ab	-0.042803448
52	0x3c9539c7	0.018216027
53	0x3c2ba630	0.010476634
54	0xbc3dab38	-0.011576466
55	0xbc9c2394	-0.019059934
56	0x3bd9f3d4	0.006651381
57	0xb9a21537	-0.00030914854
58	0xbcff53ef	-0.031167952
59	0x3d2d83fd	0.042362202
60	0x3cc60869	0.024173932
61	0x3bdaff0e	0.006683237
62	0x3c1e3bcd	0.009657812
63	0xbc4e332b	-0.012585442
64	0xbc90abd1	-0.017660053
65	0xbca04029	-0.019561844
66	0x3cc0b569	0.023524003
67	0x3c84d53b	0.016214957
68	0xbcc098ee	-0.023510423
69	0xbbd82eb3	-0.006597364
70	0xbd0a2f4d	-0.033736516
71	0xbd0e7a72	-0.03478474
72	0x3ca4c26f	0.020112244
73	0x3cdd1f33	0.026992416
74	0xbc66e64c	-0.014092993
75	0xbb5496b0	-0.003243845
76	0xbd432f74	-0.047652677
77	0xbd00ca28	-0.03144279
78	0x3bfd71a5	0.0077344947
79	0x3bfd2245	0.0077250325
80	0x3beb59a3	0.0071823164
81	0x3c6f8dde	0.014621226
82	0x3c9cc964	0.019139
83	0x3b8b0a15	0.004243145
84	0x3c60ebc3	0.013728085
85	0xbcb7e899	-0.022449778
86	0xbb8765af	-0.0041319947
87	0x3cb9f3e1	0.022699298
88	0x3d1a2b91	0.037639204
89	0xbcbb3868	-0.022854045
90	0x3cb2fed3	0.021850025
91	0x3c0b430c	0.008499872
92	0x3b914e89	0.004434411
93	0xbbe9eb76	-0.007138665
94	0xbced19a5	-0.028942892
95	0x3d3d728a	0.04625181
96	0x3c6ee2ef	0.014580472
97	0x3c168a17	0.009188197
98	0x3d4a1083	0.049332153
99	0xbc6f0fdd	-0.014591184
100	0xbce36c60	-0.027761638
101	0x3c6c382c	0.014417689
102	0xbc9f19ca	-0.019421477
103	0x3d17d540	0.037068605
104	0x3c3b31cf	0.0114254495
105	0xbcb238e6	-0.021755647
106	0x3cfc2aa6	0.030782055
107	0x3be0f963	0.0068656667
108	0xbcade73f	-0.02122843
109	0xbceaf962	-0.028683368
110	0x3b69ade5	0.0035656628
111	0x3bcc1c0e	0.0062289303
112	0xbcda8cb9	-0.02667843
113	0x3d06de9c	0.03292714
114	0x3d28068f	0.04102188
115	0xbab34eba	-0.0013680079
116	0xbbc666b5	-0.006054724
117	0x3ca5541d	0.02018171
118	0xbafaa189	-0.0019121628
119	0x3cb17fe1	0.021667423
120	0x3c444be3	0.011980983
121	0xbccbed26	-0.024893355
122	0x3a91e44c	0.001113066
123	0xbc5b3fac	-0.01338188
124	0x3cd7b1c3	0.02632988
125	0x3d00080b	0.03125767
126	0xbc353216	-0.011059305
127	0xbcda525f	-0.026650606

tree_conv.6.weights.weight f4 [64, 128, 3]
0	0x3ca5c848	0.020237103
1	0x3cb6d05e	0.022316154
2	0x3d98ed0d	0.07467089
3	0x3bd56789	0.0065125865
4	0xbc25df40	-0.010124028
5	0x3c4701de	0.012146441
6	0x3b0b54d6	0.0021260283
7	0xbb179b79	-0.002313344
8	0xbc8a2e50	-0.016867787
9	0xbc49e928	-0.012323655
10	0xbd44412f	-0.047913726
11	0xb9e5709f	-0.00043762193
12	0xbcc63778	-0.024196371
13	0xbd7e7870	-0.062126577
14	0xbc13244c	-0.008980822
15	0x3d0e0e81	0.0346818
16	0xbce9d5da	-0.028544355
17	0xbb42da6a	-0.0029732236
18	0x3d1eb112	0.038743086
19	0xbc55725d	-0.013027755
20	0xbd0a9704	-0.033835426
21	0x3d4ceedd	0.050032485
22	0x3ca38b5d	0.019963915
23	0x3c3f53a6	0.011677658
24	0xbd099d58	-0.03359732
25	0x3d0af3a0	0.033923745
26	0x3d2dfcb7	0.042477336
27	0x3d43badb	0.04778562
28	0xbc5094cf	-0.012730791
29	0xbc985556	-0.018595379
30	0x3cf5c4a4	0.030000992
31	0x3b55e337	0.0032636651
32	0x3c8042f5	0.015656928
33	0xbd4940a4	-0.04913391
34	0x3d5e0746	0.054206155
35	0x3d177473	0.03697629
36	0xbc9584fb	-0.018251887
37	0xbc8d0cda	-0.017218042
38	0xbcc0db3d	-0.023542041
39	0x3c84f926	0.016232084
40	0xbb2bfeeb	-0.0026244472
41	0x3d5b7ed2	0.053587742
42	0x3b2f177f	0.0026716886
43	0x3c948d0b	0.01813366
44	0x3c7a6462	0.015282722
45	0x3c363f36	0.011123469
46	0xbd44bca7	-0.048031475
47	0xbd292432	-0.041294284
48	0xbd43125f	-0.047624942
49	0xbc4db08c	-0.012554299
50	0xbd190091	-0.037354056
51	0xbd4875b0	-0.04894036
52	0x3c9882d7	0.018617077
53	0x3ccba3ba	0.024858344
54	0x3c3c3db5	0.0114893215
55	0x3c95ba7c	0.0182774
56	0xbd01c9f1	-0.031686727
57	0x3cddf6ff	0.027095316
58	0xbcb6db68	-0.022321418
59	0x3c391fd5	0.011299093
60	0x3ca2aa09	0.01985647
61	0xbd1fbcf8	-0.038998574
62	0x3d09187a	0.03347061
63	0xbd07bd38	-0.033139437
64	0xbc931365	-0.017953584
65	0x3cb3de27	0.021956516
66	0x3cec7a45	0.028866896
67	0xbd26bc78	-0.04070708
68	0x3ca7bfc2	0.02047718
69	0xbd15ed17	-0.03660306
70	0x3b0bda8e	0.0021339986
71	0x3d322167	0.043488886
72	0xbd27cd41	-0.04096723
73	0x3d58c4d8	0.0529221
74	0x3d0ea1b7	0.034822192
75	0xbc231a16	-0.00995495
76	0xbd2a98f7	-0.041649785
77	0xbcac1c48	-0.02100958
78	0x3c4a553a	0.012349421
79	0x3c048937	0.008089355
80	0x3bcae88a	0.0061922716
81	0xbd3d36cb	-0.046194833
82	0xbb74209c	-0.0037250882
83	0x3d223891	0.039604727
84	0xbb8b0823	-0.0042429133
85	0x3c1f55d6	0.009725055
86	0x3d363e35	0.04449292
87	0x3d6055c7	0.054769304
88	0x3cf3c803	0.029758459
89	0x3bcfa182	0.006336392
90	0xbd8166cb	-0.06318434
91	0x3d337d48	0.04382065
92	0xbd30a4cd	-0.043125916
93	0xbd0c1647	-0.034200933
94	0xbd3d0b69	-0.04615346
95	0x3a921c2d	0.0011147313
96	0xbc4b8246	-0.012421196
97	0x38d8ec7b	0.000103437305
98	0x3c36a24f	0.011147096
99	0xbd13835f	-0.036013957
100	0x3cebee5a	0.028800178
101	0x3c96fbf9	0.018430697
102	0xbc979452	-0.018503342
103	0x3c29242f	0.010323568
104	0xbcfdac7e	-0.03096604
105	0xbd68e750	-0.05686122
106	0xbab3e25e	-0.0013724079
107	0xbcdec566	-0.027193736
108	0xbc7fa7a1	-0.015603931
109	0x3c482dc3	0.012217942
110	0xbd92d329	-0.07169182
111	0xbba3e89a	-0.0050020935
112	0xbb1f1d39	-0.0024278893
113	0xbc58cfd2	-0.013233142
114	0x3c0756a8	0.008260407
115	0x3c900527	0.017580582
116	0xbc879767	-0.016551686
117	0x3b6cc1fa	0.0036126361
118	0x3c1d7a20	0.009611636
119	0xbc5f2e0a	-0.013621816
120	0xbbb4ea0c	-0.0055210646
121	0xbc89d6a3	-0.01682598
122	0x3d374257	0.044741
123	0xbca3504e	-0.019935753
124	0xbc3d325d	-0.011547652
125	0x3ce4112b	0.027840218
126	0x3d322196	0.04348906
127	0xbc85d685	-0.016337642
128	0xbd12822e	-0.03576868
129	0x3d11c111	0.035584513
130	0x3d057ccf	0.03258973
131	0xbc564948	-0.013078995
132	0xba9e64b6	-0.0012084458
133	0x3c084090	0.008316174
134	0x3c3522f1	0.011055694
135	0x3c659188	0.014011748
136	0x3cc22b30	0.023702234
137	0x3c7f2fad	0.015575332
138	0xbcdd6e79	-0.027030217
139	0x3b2bf88f	0.0026240682
140	0xbc737b2d	-0.01486091
141	0xbb9874ff	-0.004652619
142	0x39a322d2	0.00031115726
143	0x3d36d3db	0.044635635
144	0xbd64a75d	-0.055823673
145	0xbcf50e61	-0.029914083
146	0x3ce11ab7	0.027478559
147	0x3cdd8f83	0.02704597
148	0x3d3990d7	0.045304146
149	0xbab58da8	-0.0013851421
150	0xbd0b4d38	-0.03400919
151	0xbc68faa5	-0.014219915
152	0x3c57ef7e	0.013179658
153	0x3d200965	0.03907146
154	0xbccac18c	-0.024750493
155	0xbcec6bb7	-0.028859956
156	0x3b1073a8	0.0022041593
157	0x3bbbac45	0.0057273232
158	0xbd6200e1	-0.05517662
159	0x3c88d8f7	0.01670502
160	0xba8b7601	-0.0010640026
161	0xbb231e6b	-0.0024889957
162	0x3d647e69	0.055784617
163	0x3be63426	0.0070252595
164	0x3d01694a	0.031594552
165	0xba031985	-0.0005001056
166	0x3cdc5371	0.026895257
167	0xbd189298	-0.037249178
168	0x3cc5c983	0.02414394
169	0x3bb7fd37	0.0056149024
170	0x3d885518	0.06656855
171	0x3ac75335	0.0015207293
172	0xbd256fc9	-0.04038981
173	0x3d78b639	0.060720656
174	0xbc9ecbc4	-0.019384272
175	0xbd478d3c	-0.048718676
176	0x3c37cfe4	0.011218999
177	0xbcc68e6a	-0.02423783
178	0x3c361794	0.01111402
179	0xbccadff4	-0.024764992
180	0x3cc7fa2c	0.024411283
181	0x3d3a0b40	0.045420885
182	0x3cb5c1c7	0.022187127
183	0xbcad17a2	-0.021129433
184	0xbdb64cc2	-0.08901359
185	0x3c92b327	0.017907692
186	0x3d1f8106	0.038941406
187	0x3cedabaf	0.02901253
188	0x3b9f8f7e	0.0048694005
189	0xbc60e08d	-0.013725412
190	0x3d494dd7	0.0491465
191	0xbc1276cb	-0.008939455
192	0x3c4d3e7f	0.012527107
193	0x3ba39bcd	0.004992938
194	0xbc89b3ef	-0.016809432
195	0x3c9b465a	0.018954445
196	0xbd1490fd	-0.036271084
197	0xbd125790	-0.035728037
198	0xbd0b5687	-0.034018066
199	0xbcb8f9b3	-0.022580003
200	0xbc2a87d3	-0.01040836
201	0xbd381690	-0.044943392
202	0xbbe83c24	-0.0070872474
203	0xbcff3ad2	-0.031155977
204	0x3d1fb69e	0.038992517
205	0x3a553060	0.00081325136
206	0xbd55c7a3	-0.05219234
207	0x3abae5dc	0.0014259177
208	0xbd7b08fe	-0.061287872
209	0x3c3df6b2	0.011594461
210	0xbd13ef9a	-0.036117174
211	0x3cce4acb	0.025182148
212	0x3d261229	0.040544663
213	0xbc3ea76c	-0.011636596
214	0x3cb4d7a9	0.022075491
215	0xbd241b67	-0.040065195
216	0xbd1f968a	-0.038961925
217	0xbd27179c	-0.040794
218	0xbd591804	-0.05300142
219	0xbaae1dc9	-0.0013284023
220	0x3ca374b3	0.019953107
221	0x3cfb09c4	0.030644305
222	0xbd509be8	-0.050929934
223	0x3d2fc1ca	0.04290942
224	0x3d4ea246	0.050447725
225	0xbc3827d4	-0.0112399645
226	0xbcb0a1bb	-0.021561494
227	0xbc94d6ca	-0.018168826
228	0xbbe9edbe	-0.007138937
229	0xbd8ccf85	-0.06875519
230	0xbd53f657	-0.0517486
231	0xbbaaa2fc	-0.0052074175
232	0xbd094e4f	-0.033521947
233	0x3b924584	0.0044638533
234	0xbce244a1	-0.027620615
235	0xbc0c3dce	-0.008559657
236	0xbd63aa97	-0.05558261
237	0xbd069869	-0.032860193
238	0x3d5ac94d	0.05341463
239	0xbbd4fa32	-0.006499552
240	0x3ca25a6f	0.019818513
241	0xbbf2d15c	-0.0074102115
242	0xbca9ed16	-0.020742934
243	0x3cae7ff6	0.02130125
244	0x3d6c211d	0.057648767
245	0xbcc08e83	-0.023505455
246	0xbd0e3a57	-0.034723606
247	0x3d1906e8	0.037360102
248	0x3cfbe6e0	0.030749738
249	0x3ca44271	0.020051213
250	0x3d56ba99	0.052424047
251	0xbccd44c6	-0.025057208
252	0xbc197354	-0.009365875
253	0xbc78c06b	-0.015182595
254	0x3cd5e32c	0.0261093
255	0x3d8f6a7e	0.07002734

tree_conv.6.weights.bias f4 [64]
0	0x3c6f89b7	0.014620236
1	0xbc43a3c6	-0.011940902
2	0x3d33ef7a	0.043929555
3	0xbcc610b4	-0.024177887
4	0xbcd92dfd	-0.026511187
5	0xbce4bf54	-0.027923264
6	0x3c042559	0.008065545
7	0xbb13b613	-0.0022538945
8	0xbd29a6db	-0.04141889
9	0x3a1ccb0a	0.0005981183
10	0xbbde3127	-0.0067807618
11	0xbc352c33	-0.011057901
12	0xbc789f27	-0.015174664
13	0x3a8ac58f	0.0010587442
14	0x3b0bef17	0.0021352225
15	0x3b2f32c7	0.0026733147
16	0x3bd046ff	0.0063561196
17	0x3c9e6262	0.019334022
18	0xbd38ec63	-0.04514731
19	0x3c695bd2	0.014243083
20	0xbc377b3c	-0.011198815
21	0xbd2173f7	-0.039417233
22	0xbc746eab	-0.014918963
23	0x3c8f95c1	0.017527463
24	0x3cea4723	0.028598374
25	0xbcbfc8f1	-0.023411246
26	0xbc6a427d	-0.014298079
27	0xbafc6594	-0.0019256347
28	0xbb9e8dc3	-0.0048386767
29	0x3b7a6654	0.0038207965
30	0x3d1b1a78	0.03786704
31	0x3cccb8f6	0.02499054
32	0xbcd7325e	-0.026269134
33	0x3bb4d4bf	0.0055185254
34	0x3ba15c87	0.00492436
35	0x3ce1254e	0.027483609
36	0x3b6d680d	0.003622535
37	0xbcb07d26	-0.02154405
38	0xbccaeae0	-0.0247702
39	0xbd0d1f1c	-0.034453496
40	0xbb23238d	-0.0024893016
41	0xbcf7e9d9	-0.030262874
42	0xbb72878e	-0.0037007066
43	0x3c210e09	0.009830006
44	0x3bf18b1c	0.0073713195
45	0xbc817b28	-0.015805796
46	0x3d0874be	0.03331446
47	0x3cba1aa9	0.02271779
48	0x3c8f7b9f	0.017515002
49	0xbb0c9353	-0.0021450117
50	0xbcf282fd	-0.029603476
51	0xbab5d2fd	-0.0013872084
52	0x3c587331	0.0132110575
53	0x3b76eabd	0.0037676536
54	0x3c4c30c2	0.012462797
55	0xbb34e76d	-0.002760376
56	0x3cb39a67	0.02192421
57	0xbd2ed796	-0.042686068
58	0x3bacfd75	0.005279238
59	0xbcf3df3b	-0.02976953
60	0x3b637aae	0.0034710574
61	0xbb8ee0c9	-0.0043602926
62	0x3cb8725c	0.022515468
63	0x3c5a92d5	0.013340672

tree_conv.9.weight f4 [32, 64]
0	0xbd9563df	-0.072944395
1	0x3e004a8c	0.12528437
2	0x3d1187b2	0.0355298
3	0x3d15fd1b	0.036618333
4	0x3c1fcbb3	0.0097531555
5	0x3df6baeb	0.120473705
6	0xbd23114f	-0.03981143
7	0xbc1f55a4	-0.009725008
8	0x3da40afc	0.080099076
9	0xbd082a75	-0.033243615
10	0xbdbfba94	-0.09361759
11	0x3d4f2f62	0.050582297
12	0x3e027e29	0.12743439
13	0x3b86f0df	0.0041180695
14	0x3bb489b0	0.0055095777
15	0xbdf76b78	-0.12081045
16	0xbcf7ae46	-0.030234467
17	0x3dbf2a10	0.09334195
18	0x3dbda67c	0.0926027
19	0x3b0e85ce	0.0021747234
20	0xbdc839b2	-0.097766295
21	0x3e18f1d9	0.14936008
22	0x3d66232f	0.056185897
23	0x3de83416	0.113380596
24	0xbd513913	-0.05107982
25	0xbdc839c3	-0.09776642
26	0x3db86c49	0.09005029
27	0x3d453153	0.048142742
28	0xbdf7db9f	-0.12102436
29	0xbd96fa09	-0.07371909
30	0x3e08ecf9	0.13371648
31	0x3d88106c	0.06643757
32	0x3cc88f0a	0.024482269
33	0xbdae0e78	-0.084988534
34	0x3e0b313c	0.13593
35	0x3da44374	0.08020678
36	0xbce70f08	-0.02820541
37	0xbdb826fc	-0.08991811
38	0x3d4a2362	0.04935015
39	0xbe03ddc3	-0.12877564
40	0x3b8869a9	0.0041629863
41	0xbd84c559	-0.064829536
42	0xbc0d5fbf	-0.008628785
43	0xbdc971f7	-0.0983619
44	0xbdfdcfb6	-0.12393133
45	0xbcff4c02	-0.031164173
46	0x3d8ede48	0.069759905
47	0x3d127ecf	0.035765465
48	0xbcdc6d3a	-0.026907552
49	0x3dc918e2	0.09819199
50	0xbdedb7d2	-0.116073266
51	0x3d59bef9	0.05316064
52	0x3d1dcbe1	0.038524512
53	0x3ceceb49	0.028920786
54	0x3de611be	0.11233853
55	0x3e5a43c5	0.21314915
56	0xbd2d4fb7	-0.04231235
57	0x3dc6e812	0.09712233
58	0xbcb1dfe9	-0.021713214
59	0xbd3ee95f	-0.04660928
60	0xbd382b5e	-0.044963233
61	0x3dd135ac	0.10215315
62	0xbdf35488	-0.118813574
63	0xbca89504	-0.020578869
64	0x3a466f63	0.00075696985
65	0x3dbb947b	0.0915918
66	0x3d596e52	0.053083725
67	0x3c55a637	0.013040117
68	0x3e467789	0.19381537
69	0x3e02abac	0.127608
70	0xbe002a98	-0.12516248
71	0x3c1c4ddb	0.009540047
72	0xbd3eb581	-0.046559814
73	0xbd9a1751	-0.075239785
74	0xbdf8a20c	-0.12140283
75	0x3b14957d	0.002267211
76	0x3dbcc4b1	0.092172034
77	0x3de5b7e9	0.11216719
78	0x3e244dd8	0.1604532
79	0x3de5337e	0.11191462
80	0x3caac0f4	0.02084396
81	0xbd577021	-0.05259717
82	0x3d4bdb3d	0.04976963
83	0xbcc81869	-0.024425702
84	0x3e15d578	0.14632213
85	0xbd267bd7	-0.040645447
86	0xbde95d04	-0.113946944
87	0x3dcaa182	0.098940864
88	0x3e0ee057	0.13952766
89	0x3df2caac	0.11855063
90	0xbc9873e0	-0.018609941
91	0xbd377f84	-0.044799343
92	0xbcc3e5cb	-0.023913285
93	0xbd86d750	-0.06584036
94	0xbd187e00	-0.037229538
95	0x3d706f40	0.058699846
96	0x3d2435dc	0.040090427
97	0xbde5495c	-0.11195633
98	0x3de514ef	0.111856334
99	0xbdf0b047	-0.11752372
100	0x3dc0a544	0.09406522
101	0x3e067d23	0.13133673
102	0x3ca9685a	0.020679642
103	0x3cca8412	0.02472118
104	0x3c4cb725	0.012494837
105	0x3d968ca6	0.07351045
106	0xbd559e2b	-0.052152794
107	0xbd40d5b7	-0.047078814
108	0x3df4b9be	0.1194949
109	0xbdc2229f	-0.0947926
110	0xbc1f03c3	-0.009705487
111	0x3d3689c5	0.04456498
112	0x3d0dea9c	0.03464757
113	0x3e236424	0.1595617
114	0xbc5de837	-0.013544134
115	0xbc895788	-0.016765371
116	0x3deb3666	0.11484985
117	0x3e0c8ebf	0.13726328
118	0x3d44c420	0.048038602
119	0xbdd8d5fc	-0.10587689
120	0xbd8f1d06	-0.06987958
121	0x3ac417e1	0.001496073
122	0x3dc29227	0.095005326
123	0xbd5cea31	-0.05393428
124	0xbd301243	-0.042986166
125	0xbd10f615	-0.035390932
126	0x3cd9bc05	0.026578913
127	0xbcf09591	-0.029368194
128	0x3dafbc52	0.08580841
129	0xbda13306	-0.0787106
130	0xbc93b158	-0.0180289
131	0xbdb8c43b	-0.09021803
132	0xbdc3307a	-0.095307305
133	0x3db05de2	0.08611657
134	0x3d51725c	0.051134452
135	0xbc5bec09	-0.013422974
136	0x3db559ca	0.088550165
137	0xbd77c93c	-0.060494646
138	0x3dc95e17	0.09832399
139	0x3c55a44b	0.013039659
140	0x3cf883b0	0.030336231
141	0xbd445a98	-0.04793796
142	0x3d8f8060	0.070069075
143	0xbd83132a	-0.0640014
144	0x3b12b569	0.002238596
145	0x3d4c9e83	0.049955856
146	0x3d4b78e8	0.049675852
147	0xbdd07384	-0.10178283
148	0x3d828427	0.06372862
149	0x3e05ed45	0.13078792
150	0x3e1cd120	0.1531415
151	0x3d879662	0.0662048
152	0xbd9629a5	-0.07332162
153	0xbdbd6c11	-0.09249128
154	0xbcd6b2d4	-0.026208319
155	0x3d82aca1	0.063805826
156	0xbd9aacd9	-0.07552499
157	0x3d308e68	0.04310456
158	0xbd454b3e	-0.04816746
159	0x3dd204fc	0.10254857
160	0x3da788ff	0.08180427
161	0x3dd7cd2a	0.10537179
162	0x3e0734ed	0.13203783
163	0x3cd02d82	0.025412325
164	0xbd5995c9	-0.053121362
165	0x3c02a1da	0.007973159
166	0xbc3a528e	-0.011372222
167	0xbdcb07ca	-0.09913595
168	0x3c42646b	0.011864762
169	0x3e1802ef	0.14844869
170	0xbd4d6778	-0.050147504
171	0xbd6a102f	-0.05714434
172	0x3df098e1	0.11747909
173	0x3e0ce407	0.1375886
174	0x3d7d6128	0.061860234
175	0xbdaeb063	-0.08529737
176	0xbc8dc1bd	-0.017304296
177	0x3cff3f09	0.031157987
178	0xbdc9389a	-0.09825249
179	0x3d94d936	0.07267992
180	0x3d0faaf6	0.03507515
181	0xbbff0421	-0.0077824746
182	0x3d5f2cc0	0.054486036
183	0x3e5d0d09	0.21587004
184	0x3e0f180e	0.1397402
185	0x3e40e565	0.18837507
186	0xbc5061c7	-0.012718624
187	0x3e4ffab3	0.20310478
188	0xbb3f245c	-0.002916596
189	0x3c305146	0.010761565
190	0xbd2897d2	-0.041160412
191	0x3e10996e	0.14121029
192	0x3d976336	0.0739197
193	0x3d93d97d	0.07219217
194	0x3cbd2840	0.023090482
195	0x3ae068bf	0.001712106
196	0x3dbd0600	0.0922966
197	0x3dbbc703	0.09168818
198	0xbd138b21	-0.036021356
199	0xbaa216fb	-0.0012366468
200	0xbcddf3ca	-0.027093787
201	0xbbfb3377	-0.007666047
202	0x3dd074b6	0.10178511
203	0xbe055497	-0.1302055
204	0xbd50fea0	-0.05102408
205	0x3cac38a0	0.021023095
206	0x3d8ee370	0.06976974
207	0x3d89899b	0.06715699
208	0x3d09bc87	0.03362706
209	0x3df38397	0.11890333
210	0xbcbb286e	-0.022846427
211	0x3c97db56	0.018537205
212	0xbe019506	-0.12654504
213	0x3e0d6d1f	0.13811158
214	0x3df56ed7	0.11984032
215	0x3d8b36dd	0.06797574
216	0xbde3e62c	-0.11127886
217	0x3d876ab8	0.06612152
218	0xbc7d0a2c	-0.01544432
219	0xbd99c931	-0.07509077
220	0xbdf83a1c	-0.121204585
221	0x3c50a77a	0.012735242
222	0x3dd06efa	0.10177417
223	0x3dca6a11	0.09883512
224	0x3df8798a	0.12132557
225	0x3d25eaf8	0.040507287
226	0x3bdeed28	0.0068031736
227	0xbc3b23da	-0.011422122
228	0xbde96558	-0.11396283
229	0x3d62478e	0.05524402
230	0xbd8b563b	-0.068035565
231	0xbd84f524	-0.06492069
232	0xbd943e15	-0.07238404
233	0x3dc854b5	0.097817816
234	0x3e0a9b28	0.1353575
235	0xbd180156	-0.03711065
236	0x3d891d4d	0.06695042
237	0x3c0868a2	0.008325728
238	0xbdac563f	-0.08414888
239	0xbd8f1132	-0.069857016
240	0x3ce4e053	0.027938997
241	0xbd16ae66	-0.036787413
242	0xbdd4a054	-0.10382143
243	0x3c86f3ff	0.016473768
244	0x3d0a1976	0.033715688
245	0x3dd4663f	0.103710644
246	0x3dbba68c	0.09162626
247	0x3e22ea40	0.15909672
248	0x3d536999	0.051614378
249	0x3cd9f572	0.026606295
250	0xbcc7c8a7	-0.02438767
251	0xbd07cc5c	-0.033153877
252	0xbc9310aa	-0.017952282
253	0xbde85be4	-0.11345652
254	0xbb2c3d0e	-0.0026281509
255	0xbd18694b	-0.03720979

tree_conv.9.bias f4 [32]
0	0xbddf7896	-0.10911672
1	0x3db8bc57	0.09020298
2	0x3e8acecb	0.27110896
3	0xbd7b989f	-0.061424848
4	0x3e09060b	0.13381211
5	0x3dde64d9	0.10859079
6	0x3eb5c2b9	0.35500124
7	0x3e1e60ed	0.15466662
8	0x3e23f1f3	0.16010265
9	0x3e3da81f	0.18521164
10	0x3e0e736f	0.13911222
11	0x3e1b372c	0.15157765
12	0x3e06c2cc	0.13160247
13	0xbd3a65d1	-0.045507256
14	0x3ea25848	0.31707978
15	0x3dbd6fe8	0.0924986
16	0xbb45b2b7	-0.0030166337
17	0x3e8da6b3	0.27666244
18	0x3d9e3ad5	0.07726065
19	0x3da38351	0.07984031
20	0x3deedb6a	0.11662944
21	0x3e6f3229	0.23358978
22	0xbdeaf344	-0.114721805
23	0x3d1d4ab5	0.038401324
24	0x3eac2d37	0.33628246
25	0x3e7df5aa	0.24800745
26	0x3e135680	0.14388466
27	0x3ea63230	0.32460165
28	0x3e9e6608	0.3093722
29	0x3d9fe951	0.078081734
30	0x3e8ccae4	0.27498543
31	0x3ca4dc1b	0.020124486

tree_conv.11.weight f4 [1, 32]
0	0x3e6f1f7e	0.23351857
1	0xbdef1f64	-0.11675909
2	0x3e2904ba	0.1650571
3	0x3e458a5f	0.19291066
4	0x3dfb8d01	0.12282754
5	0x3d95752a	0.07297738
6	0x3dfea0b1	0.12432993
7	0xbe1bdfd3	-0.15222101
8	0xbe87b9ba	-0.26508886
9	0xbe229986	-0.15878877
10	0xbe36f332	-0.17866209
11	0x3dc9d997	0.09855955
12	0xbe70a357	-0.23499809
13	0x3e1005e1	0.14064743
14	0x3dd9b657	0.10630482
15	0xbde54536	-0.111948416
16	0xbe2bf197	-0.16791378
17	0x3e15b8cb	0.14621274
18	0xbe2070f4	-0.15668088
19	0x3e3c5c33	0.18394546
20	0xbe3addf7	-0.18248735
21	0x3e6cd615	0.23128541
22	0x3b7cebcb	0.0038592692
23	0x3e3405a2	0.17580274
24	0xbe5c0bad	-0.21488829
25	0x3ddae183	0.10687544
26	0x3e321c0d	0.17393513
27	0xbda793f1	-0.081825145
28	0x3de9dbc3	0.11418869
29	0x3e336d3c	0.17522138
30	0x3e3abaf6	0.18235382
31	0x3e4f446c	0.20240945
