models/lero_on_stats_STATS_Bao.pth (torch, 583256 bytes, 9 tensors)

tree_conv.0.weights.weight f4 [256, 25, 3]
0.05395953 0.0053371456 -0.10353191 0.05423271 -0.06788719 -0.05899902 0.062394198 -0.0048895297
0.074579336 -0.026826061 0.03591962 -0.115019396 -0.12772356 0.11633297 -0.059952583 0.020879114
0.07638465 -0.008996651 0.021850862 -0.060235746 0.040507656 -0.08565119 -0.067994356 0.06964155
-0.008653915 0.078310646 0.02222128 -0.09248567 -0.1323528 -0.13436036 -0.09309985 0.0021047615
0.09171956 -0.08627651 0.022994008 -0.064450935 -0.11340251 0.105326146 -0.0747256 0.006456429
-0.11063147 -0.1013168 0.06931653 -0.0033534688 -0.061499383 0.023904964 0.02843503 -0.07378573
-0.025223799 0.008589891 0.054713555 0.072695 -0.047224894 0.04923579 0.060877718 -0.105258465
-0.0035943857 0.060789924 0.045440104 0.091354884 0.027425531 -0.0033618326 0.08751731 0.042447608
0.019218314 -0.05678302 0.23599835 0.19343448 0.0065097967 0.017016374 -0.009396825 -0.015035886
0.14414641 0.115139775 0.16770881 -0.0775713 -0.010367752 0.047719445 -0.045015335 0.08836033
-0.10170185 -0.14966698 -0.087645784 -0.1047367 0.038102046 -0.076076254 0.042295497 -0.005287865
0.07562047 -0.107520595 0.07848279 -0.07795266 -0.06925934 -0.0016266498 0.037679132 0.006390229
-0.03750043 -0.106676124 -0.06937046 0.017728005 0.07179497 -0.09252833 -0.07010053 -0.1106525
-0.024403555 0.035478737 -0.05541948 -0.10532676 0.011923144 0.040000644 0.111045256 0.06457825
0.07456016 -0.062769 -0.14525603 -0.095434286 0.023757095 0.02041639 0.0052998206 0.09040775
0.011559685 0.017560204 0.0660201 0.029895933 0.09066355 -0.06576444 -0.08626637 -0.1157105
-0.065122604 -0.040686637 -0.007892832 -0.11073015 0.061578754 -0.12797566 0.014311339 -0.08733005
-0.04931785 0.11617029 0.06516753 -0.036427096 0.0035576343 -0.089981996 -0.07519895 -0.08637455
-0.011423148 0.066178046 -0.08109791 0.120249204 0.22170056 -0.13305531 -0.034481004 0.0040778974
-0.013323253 0.032030556 0.09773056 -0.012213168 -0.030248955 0.09525261 -0.09651381 -0.077144824
0.08448131 0.020198438 0.003946372 0.0445908 -0.044516027 0.07606274 0.07074449 -0.01365249
-0.027971886 0.028459186 -0.03916238 0.046827946 0.028755978 -0.030386643 0.1412854 0.14083478
-0.110729165 -0.0025699416 -0.0911056 0.038411845 0.072473556 -0.04294699 0.13315476 -0.03186422
-0.038554013 -0.09942258 0.08905492 -0.037240196 -0.022694236 0.043198902 -0.02595012 -0.04831573
0.024250234 0.0060493583 -0.031582832 0.06409927 0.07147782 0.06865856 0.10145134 -0.019640133
0.14632082 -0.03883713 0.028915022 0.041898534 -0.0969554 -0.056068804 0.032574594 -0.026167808
-0.14434263 -0.069031596 -0.05729198 0.016744962 -0.087251276 0.11472298 0.12161979 -0.15919259
-0.07341467 0.037512425 -0.009297938 -0.045256976 -0.009430027 -0.047748145 0.010895757 -0.0913544
0.008356931 0.089410745 0.047810342 -0.10942016 0.026211945 0.0880471 0.09575447 -0.1166001
0.11080053 0.0771894 -0.012120803 0.10335108 -0.08474359 -0.053290073 0.08638901 -0.016892135
-0.033032876 -0.082474396 -0.049064375 -0.042703576 -0.058070123 -0.05145847 -0.033658724 0.12457523
0.07513512 0.04611363 0.02887315 0.079296395 0.10332913 -0.035505068 0.0691045 0.13354847
00000000: ab04 5d3d 39e3 ae3b 8a08 d4bd 1e23 5e3d
00000010: 7008 8bbd f5a8 71bd 0f91 7f3d 5938 a0bb
00000020: 0dbd 983d 54c2 dbbc 7420 133d 4a8f ebbd
00000030: f7c9 02be fb3f ee3d d790 75bd ad0a ab3c
00000040: 8e6f 9c3d b066 13bc 9400 b33c c2b9 76bd
00000050: 5beb 253d e469 afbd a040 8bbd 3ba0 8e3d
00000060: 26c9 0dbc 5561 a03d 6709 b63c 2069 bdbd
00000070: 7e87 07be c395 09be 22ab bebd 0af0 093b
00000080: 77d7 bb3d bdb1 b0bd ee5d bc3c dafe 83bd
00000090: 933f e8bd 3cb5 d73d bc09 99bd 7490 d33b
000000a0: c192 e2bd 2f7f cfbd d3f5 8d3d dfc5 5bbb
000000b0: c7e6 7bbd 58d4 c33c 94f0 e83c f91c 97bd
000000c0: 24a2 cebc 9dbc 0c3c 521b 603d 1ee1 943d
000000d0: e46e 41bd 78ab 493d ea5a 793d c091 d7bd
000000e0: c98f 6bbb dbfe 783d 671f 3a3d 4518 bb3d
000000f0: 82ab e03c 3152 5cbb 473c b33d 8bdd 2d3d
00000100: ba6f 9d3c 5095 68bd 8da9 713e b013 463e
00000110: 2250 d53b ec65 8b3c 24f5 19bc 1459 76bc
00000120: 1e9b 133e 67ce eb3d dcbb 2b3e b4dd 9ebd
00000130: 81dd 29bc 7775 433d 0062 38bd 43f6 b43d
00000140: 0f49 d0bd 4d42 19be a27f b3bd 3280 d6bd
00000150: e410 1c3d decd 9bbd 0b3e 2d3d d445 adbb
00000160: e8de 9a3d c233 dcbd 96bb a03d a5a5 9fbd
00000170: d7d7 8dbd 4f35 d5ba 6f55 1a3d 2065 d13b
00000180: 0d9a 19bd 0379 dabd 1a12 8ebd 523a 913c
00000190: 3e09 933d 7e7f bdbd de90 8fbd c79d e2bd
000001a0: f7e9 c7bc 2752 113d 89ff 62bd 8eb5 d7bd
000001b0: 4a59 433c b7d7 233d b26b e33d 9a41 843d
000001c0: ffb2 983d 098d 80bd ffbd 14be 0d73 c3bd
000001d0: 3d9e c23c 4640 a73c 1eaa ad3b b327 b93d
000001e0: d564 3d3c 6bda 8f3c 8c35 873d 51e8 f43c
000001f0: d0ad b93d 82af 86bd 6cac b0bd a0f9 ecbd
00000200: 005f 85bd 08a7 26bd f050 01bc 7dc6 e2bd
00000210: 013a 7c3d 0d0c 03be 1b7a 6a3c 19da b2bd
00000220: 8401 4abd b0ea ed3d 8e76 853d 9434 15bd
00000230: 3327 693b 7b48 b8bd e801 9abd 24e5 b0bd
00000240: 2828 3bbc 5b88 873d a916 a6bd 3745 f63d
00000250: 7905 633e a73f 08be f43b 0dbd e29f 853b
00000260: c649 5abc 7932 033d f626 c83d bd19 48bc
00000270: a8cc f7bc cd13 c33d 08a9 c5bd 1bfe 9dbd
00000280: 8904 ad3d 3277 a53c 9150 813b d8a4 363d
00000290: 7056 36bd c8c6 9b3d 7de2 903d b2ae 5fbc
000002a0: 4c25 e5bc 3d23 e93c bb68 20bd a9ce 3f3d
000002b0: a891 eb3c 69ed f8bc 1fad 103e fe36 103e
000002c0: f9c5 e2bd 776c 28bb 9395 babd bd55 1d3d
000002d0: 046d 943d 2fe9 2fbd b959 083e 0e84 02bd
000002e0: d0ea 1dbd 119e cbbd 6d62 b63d 2d89 18bd
000002f0: 43e9 b9bc 55f1 303d 5995 d4bc b7e6 45bd
00000300: 6da8 c63c b239 c63b 005d 01bd 7a46 833d
00000310: f762 923d dc9c 8c3d b8c5 cf3d 58e4 a0bc
00000320: 20d5 153e af13 1fbd 32df ec3c cc9d 2b3d
00000330: 8e90 c6bd 67a8 65bd f06c 053d df5d d6bc
00000340: 8ece 13be 7060 8dbd ffaa 6abd bb2c 893c
00000350: ccb0 b2bd e2f3 ea3d cc13 f93d 6203 23be
00000360: 6e5a 96bd a1a6 193d 6156 18bc 615f 39bd
00000370: 6680 1abc 8f93 43bd 1e84 323c 0418 bbbd
00000380: 82eb 083c fb1c b73d c7d4 433d ad17 e0bd
00000390: 6fba d63c 0a52 b43d eb1a c43d 09cc eebd
000003a0: 63eb e23d 7a15 9e3d 5596 46bc bba9 d33d
000003b0: 0c8e adbd b146 5abd b9ec b03d 6061 8abc
000003c0: 7b4d 07bd 56e8 a8bd baf7 48bd f2e9 2ebd
000003d0: f0da 6dbd 1ec6 52bd bbdd 09bd 4c21 ff3d
000003e0: 71e0 993d a5e1 3c3d 6287 ec3c 2666 a23d
000003f0: 399e d33d c36d 11bd a986 8d3d eec0 083e

tree_conv.0.weights.bias f4 [256]
0.01637098 -0.054195274 -0.015795555 -0.07698088 -0.04586696 0.12724769 -0.08556125 -0.023009364
0.07410203 0.06450013 -0.021418622 0.067017876 0.03503115 -0.093888775 0.028633364 0.074438654
0.0437789 0.03398996 0.037391707 0.018349933 0.011368784 0.08765745 0.0051148417 0.048584186
0.08223678 -0.002857024 0.09430221 -0.034929346 -0.057346497 0.075392306 -0.09988343 0.05610536
0.04471879 -0.025227591 -0.004809489 -0.001550354 -0.008877316 -0.07532024 -0.012958505 -0.006310283
-0.06514298 -0.031242305 -0.0052848426 0.009075902 0.025010837 0.05064666 -0.02110782 0.028116722
-0.0032386272 -0.001549185 0.065816365 -0.021642605 0.07596473 -0.021093335 0.07148873 -0.06931678
0.09079108 0.003274491 0.061668098 -0.03672916 -0.028701894 -0.03316342 -0.06171636 -0.057437893
-0.05827781 0.08071862 0.07935548 0.030482767 0.08356666 0.074244484 -0.0014392349 -0.0146297915
-0.04201164 0.025287772 0.06863552 -0.040179774 -0.004645246 -0.07815985 0.062183704 0.074109524
-0.06897496 0.0041439263 -0.021003844 -0.02618005 0.016733546 -0.015204692 -0.021823669 0.12586011
-0.044982973 0.06713674 -0.046008755 0.12649146 -0.04268855 -0.090213925 0.084715694 -0.0676134
0.09571251 -0.020883882 -0.010537989 -0.060452037 0.02417204 0.012276167 -0.026430042 0.071818575
0.09121368 0.04617458 -0.09297325 0.0325364 0.002409357 0.097766496 0.0625458 -0.031837262
0.031582426 0.061025698 -0.030973108 0.044377323 -0.06407995 -0.062928915 -0.052275904 -0.099035025
0.03795683 0.07598976 -0.08718827 0.058690492 0.07941572 -0.117515616 0.08059727 -0.09098056
0.10280762 0.098084286 0.031882845 0.07079766 -0.0338939 0.10337304 0.057791717 0.00014416929
-0.046235345 -0.0602149 -0.03551817 -0.03178561 0.057192218 -0.053481687 -0.069399714 0.015371817
0.15402825 0.03627533 0.01718866 -0.017062688 -0.06720863 -0.0102498615 -0.008580071 0.05954434
0.027062403 0.0235411 0.11773629 0.06119933 0.021416206 -0.014158603 -0.073552586 0.04218593
-0.06875228 0.083096646 0.108631074 -0.040552683 -0.051942926 0.04265388 0.092082545 -0.076636344
-0.082877286 0.079239935 0.045195978 0.08367206 0.0069148014 -0.120958544 -0.07940056 0.01660752
0.089745216 0.051751282 -0.09370602 0.105752714 -0.07424145 0.061509963 -0.008986697 0.033197287
-0.021506537 0.0025400738 -0.006820562 0.0634801 -0.06448927 -0.09107808 -0.005328766 -0.0497465
0.09314094 0.0452475 0.09223326 0.07801905 0.062494434 -0.061219435 -0.012552306 0.06957544
0.07112347 0.096806034 0.027706139 0.082232915 -0.029760534 -0.0683746 0.026855722 -0.057992626
0.05378255 0.004620012 -0.13033757 -0.06809735 -0.014071464 0.09195861 0.054698877 0.046303976
0.0035682 0.049272988 -0.008867865 0.01865352 -0.0153709855 -0.0349519 -0.011609469 0.091428734
0.036770355 -0.064816296 -0.08019366 0.042785294 0.009434069 -0.093179666 0.036253095 0.08240659
0.08847885 0.0069649187 0.026133802 0.11311423 0.076482974 -0.047420047 0.069228716 0.043398235
-0.07759213 -0.00033867313 0.08178544 -0.08796787 -0.06737037 0.04926286 -0.0062469705 -0.0031915393
-0.0027835907 0.03641609 -0.07885035 0.008652303 -0.06708775 0.025373863 -0.039429516 0.062914
00000000: 6f1c 863c ddfb 5dbd ae65 81bc 27a8 9dbd
00000010: fede 3bbd 384d 023e bd3a afbd 227e bcbc
00000020: cec2 973d a518 843d 1b76 afbc ab40 893d
00000030: d37c 0f3d c248 c0bd 8490 ea3c 4b73 983d
00000040: 8151 333d 0e39 0b3d 0c28 193d 9952 963c
00000050: 2344 3a3c c085 b33d 679a a73b 3600 473d
00000060: c26b a83d e93c 3bbb 8421 c13d 1312 0fbd
00000070: 29e4 6abd 4867 9a3d af8f ccbd bcce 653d
00000080: 0d2b 373d 18aa cebc eb98 9dbb 3f35 cbba
00000090: 2972 11bc 7f41 9abd e94f 54bc 7ec6 cebb
000000a0: af69 85bd ddef ffbc 792c adbb 18b3 143c
000000b0: 87e3 cc3c df72 4f3d 4fea acbc 0a55 e63c
000000c0: 263f 54bb 060e cbba bbca 863d d54b b1bc
000000d0: 6593 9b3d eecb acbc af68 923d f5f5 8dbd
000000e0: acf0 b93d d898 563b b097 7c3d 5171 16bd
000000f0: 3c20 ebbc 5ed6 07bd 4bca 7cbd ff43 6bbd
00000100: b7b4 6ebd ce4f a53d 2085 a23d ffb6 f93c
00000110: ff24 ab3d 7e0d 983d b6a4 bcba cbb1 6fbc
00000120: 6614 2cbd 4d28 cf3c c890 8c3d 8c93 24bd
00000130: 2637 98bb 4512 a0bd 57b4 7e3d bcc6 973d
00000140: be42 8dbd c6c9 873b 4110 acbc 8b77 d6bc
00000150: ca14 893c 1a1d 79bc 8dc7 b2bc 79e1 003e
00000160: 1140 38bd fd7e 893d ad73 3cbd fa86 013e
00000170: 30da 2ebd 14c2 b8bd 6c7f ad3d e578 8abd
00000180: ec04 c43d ad14 abbc 88a7 2cbc 8e9c 77bd
00000190: 7104 c63c fa21 493c d183 d8bc 9e15 933d
000001a0: 3dce ba3d 8e21 3d3d c268 bebd e344 053d
000001b0: 4ee6 1d3b cd39 c83d 0318 803d ca67 02bd
000001c0: 935c 013d 15f6 793d 51bb fdbc ffc4 353d
000001d0: 593c 83bd e0e0 80bd 421f 56bd e0d2 cabd
000001e0: 9f78 1b3d 85a0 9b3d c48f b2bd 7165 703d
000001f0: b6a4 a23d 07ac f0bd 2e10 a53d 0454 babd
00000200: cd8c d23d 6ae0 c83d 9697 023d 5dfe 903d
00000210: 55d4 0abd 3fb5 d33d 02b7 6c3d 262c 1739
00000220: 4661 3dbd e6a3 76bd 807b 11bd a131 02bd
00000230: 6342 6a3d 9d0f 5bbd 7021 8ebd 13da 7b3c
00000240: 95b9 1d3e 7195 143d 3ccf 8c3c 0dc7 8bbc
00000250: aea4 89bd 09ef 27bc 6d93 0cbc c4e4 733d
00000260: f9b1 dd3c 44d9 c03c b91f f13d 26ac 7a3d
00000270: 0a71 af3c 7cf9 67bc bda2 96bd 27cb 2c3d
00000280: ffcd 8cbd 932e aa3d f879 de3d 921a 26bd
00000290: 1bc2 54bd d6b5 2e3d c695 bc3d 84f3 9cbd
000002a0: 91bb a9bd 8c48 a23d 6b1f 393d 425c ab3d
000002b0: 8f95 e23b 1db9 f7bd c39c a2bd 7e0c 883c
000002c0: 57cc b73d 27f9 533d f1e8 bfbd e194 d83d
000002d0: e70b 98bd dff1 7b3d f03c 13bc e1f9 073d
000002e0: 7a2e b0bc 5e77 263b 057f dfbb db01 823d
000002f0: f312 84bd 2587 babd ee9c aebb fcc2 4bbd
00000300: adc0 be3d 7155 393d cbe4 bc3d 74c8 9f3d
00000310: 2afa 7f3d 3bc1 7abd 30a8 4dbc 917d 8e3d
00000320: 2fa9 913d 3e42 c63d fcf7 e23c bb69 a83d
00000330: 5dcc f3bc fb07 8cbd 8800 dc3c ad89 6dbd
00000340: 174b 5c3d 7863 973b 3677 05be a076 8bbd
00000350: ff8b 66bc cc54 bc3d ee0b 603d 3da9 3d3d
00000360: 76d8 693b 79d2 493d 864a 11bc 44cf 983c
00000370: 96d6 7bbc b929 0fbd a435 3ebc fd3e bb3d
00000380: 839c 163d 68be 84bd 933c a4bd a23f 2f3d
00000390: 5a91 1a3c fbd4 bebd 207e 143d c9c4 a83d
000003a0: 6634 b53d f939 e43b 8e16 d63c 6fa8 e73d
000003b0: 1ba3 9c3d 863b 42bd c9c7 8d3d 59c2 313d
000003c0: 9fe8 9ebd f08f b1b9 207f a73d 8028 b4bd
000003d0: 7af9 89bd dac7 493d 63b3 ccbb 2529 51bb
000003e0: e76c 36bb 0a29 153d 4b7c a1bd 64c2 0d3c
000003f0: 4d65 89bd d9dc cf3c d880 21bd 0ed9 803d

tree_conv.3.weights.weight f4 [128, 256, 3]
-0.0021631508 -0.023847193 0.02407012 -0.054951366 -0.050108645 0.025929317 0.025093134 0.034524918
0.04361953 -0.041700073 -0.009431435 0.0015147509 -0.017819569 0.011095135 0.001165232 -0.023144538
-0.03596938 -0.023196641 0.0053711473 -0.046586342 0.017093733 -0.03223639 0.0018904197 0.016181111
-0.028394056 -0.023822565 0.013462625 0.025515629 0.0070785885 -0.051114697 -0.041790742 -0.058748096
-0.0039812042 0.026734633 -0.0334274 -0.014636713 0.03014192 0.05083546 0.030044666 -0.03800344
-0.008088647 0.019753695 0.0029956452 0.016152693 0.036164593 -0.06871049 -0.04994115 -0.021941515
-0.0896159 -0.1091263 0.03813679 0.0081184525 0.012095013 -0.019978015 0.035644308 0.026557364
0.036941644 0.034595583 0.024632365 0.0025312696 0.030019382 0.008048471 0.04497338 -0.019308614
-0.0025357297 -0.030452408 0.041971114 0.047497947 0.015430189 -0.04938616 -0.02330906 -0.024762595
-0.05862088 0.03325369 -0.03190561 0.036270935 0.028309448 0.025877532 -0.021182638 -0.020205108
-0.020283908 -0.04517488 0.045062244 0.04161827 0.065021046 0.009339257 0.0076700696 0.016464176
-0.042621136 -0.005519848 0.027260007 -0.042270634 0.00998761 0.011667664 0.0023087144 0.020422282
-0.022654783 0.010951777 -0.0461969 0.021987112 0.045277834 0.05806892 -0.050718796 0.035200983
0.041126672 0.02321534 0.018457718 0.014905225 0.018531386 -0.011001583 0.0100012645 -0.027142309
-0.062419396 -0.014337243 0.027962588 0.017645026 -0.012264307 0.032891247 -0.022590403 -0.034598976
-0.039749186 0.0037723298 0.012105129 -0.03555703 0.05228225 -0.0031123036 -0.017564332 -0.092932664
0.027436448 -0.018100794 0.08659759 0.04670054 -0.07905066 -0.004025241 0.010242721 -0.03251363
-0.027305314 -0.042358156 -0.0072920197 0.017885648 0.008326865 0.036934275 0.035854954 -0.06585124
0.05139458 -0.01820446 -0.0020150794 -0.017733335 -0.0115308035 0.049412243 -0.005603775 0.005454732
0.013828379 0.004239367 -0.018999575 -0.012902348 -0.055743046 -0.0049117515 0.024748186 -0.045734648
-0.030903611 -0.008138848 -0.010900852 -0.005418058 -0.02841868 0.032506682 0.023534533 -0.046788637
0.0135185 0.02318323 -0.004337651 0.023953099 0.047796823 0.018821435 -0.010924175 0.0047695357
0.04762799 -0.00053867296 0.06293572 0.013336537 0.024910955 0.0054532574 0.01614788 -0.022407375
0.043857034 -0.042643927 0.012477748 -0.0018731623 -0.017244933 0.029206863 0.0052598882 0.033049088
0.034686115 0.024572073 -0.024562957 0.040999927 0.078578584 0.021389354 0.03825315 0.008304407
0.020307925 0.028141458 0.017274493 0.03519906 -0.012923906 -0.081122465 -0.019925117 -0.020218907
-0.0017634812 -0.020844152 -0.017742086 -0.027324667 -0.043383386 -0.044092603 -0.13582356 0.014845266
0.030805511 0.018961392 0.0032388766 -0.014449665 -0.039684802 -0.012471573 -0.03742898 -0.054741558
-0.0070223766 0.042872567 -0.0059281676 -0.007344835 -0.030998874 -0.012830396 0.0078415 -0.013296894
0.030946966 0.012984667 -0.011502086 0.015549254 -0.008705345 0.017124152 0.051802866 -0.0018445266
-0.0073103355 0.066897936 0.011619964 -0.021876583 0.010585055 0.001364346 -0.008025031 0.042385884
0.030718848 -0.010790166 -0.0007192606 0.01002454 0.0045143473 0.05753255 0.019076264 0.023007471
00000000: a6c3 0dbb 305b c3bc b32e c53c af14 61bd
00000010: b93e 4dbd b869 d43c 1e90 cd3c 006a 0d3d
00000020: 64aa 323d b2cd 2abd 4e86 1abc 9b8a c63a
00000030: 58fa 91bc 5ec8 353c b3ba 983a 9d99 bdbc
00000040: a154 13bd e206 bebc 7300 b03b 52d1 3ebd
00000050: 2808 8c3c 4e0a 04bd f6c7 f73a 408e 843c
00000060: a79a e8bc 8a27 c3bc 5892 5c3c 2706 d13c
00000070: 81f3 e73b a55d 51bd c52c 2bbd d8a1 70bd
00000080: c374 82bb 9702 db3c 2beb 08bd d3ce 6fbc
00000090: 30ec f63c d838 503d 3b20 f63c 7fa9 1bbd
000000a0: 3f86 04bc 80d2 a13c 9652 443b a752 843c
000000b0: 5321 143d 16b8 8cbd 178f 4cbd b1be b3bc
000000c0: 8a88 b7bd 9c7d dfbd 5335 1c3d 4203 053c
000000d0: 292a 463c efa8 a3bc c4ff 113d d48e d93c
000000e0: 1f50 173d 19b4 0d3d d0c9 c93c a8e3 253b
000000f0: 35eb f53c bcdd 033c 0236 383d 192d 9ebc
00000100: 7c2e 26bb 5477 f9bc e7e9 2b3d 358d 423d
00000110: e7ce 7c3c 2449 4abd a4f2 bebc edda cabc
00000120: 731c 70bd 0535 083d 75af 02bd d590 143d
00000130: 37e9 e73c 1efd d33c 3687 adbc 2f85 a5bc
00000140: 702a a6bc 4c09 39bd 3093 383d eb77 2a3d
00000150: c129 853d af03 193c 3555 fb3b e1df 863c
00000160: 8093 2ebd d7df b4bb 6150 df3c f923 2dbd
00000170: 13a3 233c bb29 3f3c cd4d 173b a14c a73c
00000180: 8696 b9bc 156f 333c f638 3dbd 511e b43c
00000190: 4075 393d add9 6d3d 83be 4fbd e82e 103d
000001a0: 7174 283d 192e be3c a434 973c 0b35 743c
000001b0: 22cf 973c fc3f 34bc 58dc 233c 8c59 debc
000001c0: 7bab 7fbd c1e6 6abc cc11 e53c 4d8c 903c
000001d0: 3bf0 48bc f9b8 063d 820f b9bc a8b7 0dbd
000001e0: 0bd0 22bd 3139 773b 9754 463c 40a4 11bd
000001f0: ea25 563d caf7 4bbb 13e3 8fbc 7b53 bebd
00000200: 67c2 e03c 1e48 94bc 145a b13d 1149 3f3d
00000210: 50e5 a1bd 2be6 83bb 16d1 273c 032d 05bd
00000220: 65af dfbc bf7f 2dbd e5f1 eebb ec84 923c
00000230: 676d 083c 6548 173d a5dc 123d 04dd 86bd
00000240: 2083 523d 8521 95bc 6c0f 04bb 8045 91bc
00000250: b2eb 3cbc 7e64 4a3d df9f b7bb 9cbd b23b
00000260: 6d90 623c 63ea 8a3b ffa4 9bbc 5f64 53bc
00000270: d252 64bd c2f2 a0bb b5bc ca3c 4154 3bbd
00000280: 9229 fdbc cd58 05bc 7d99 32bc f789 b1bb
00000290: 4bce e8bc ba25 053d 7ecb c03c 71a5 3fbd
000002a0: b37c 5d3c c2ea bd3c db22 8ebb 4a39 c43c
000002b0: 9ac6 433d 692f 9a3c 50fb 32bc c449 9c3b
000002c0: 9115 433d bb35 0dba 71e4 803d 7e81 5a3c
000002d0: 0f12 cc3c 3db1 b23b 8f48 843c ac8f b7bc
000002e0: 6fa3 333d 66ab 2ebd 786f 4c3c e684 f5ba
000002f0: 3f45 8dbc 3b43 ef3c 245b ac3b 7b5e 073d
00000300: 0713 0e3d 5f4b c93c 4138 c9bc 8aef 273d
00000310: cfed a03d ba38 af3c 56af 1c3d 350f 083c
00000320: ce5c a63c ea88 e63c 3d83 8d3c e42c 103d
00000330: cabe 53bc 8923 a6bd 003a a3bc 1fa2 a5bc
00000340: 9c24 e7ba 5bc1 aabc da57 91bc fbd7 dfbc
00000350: c7b2 31bd 729a 34bd 5515 0bbe 8f39 733c
00000360: d75b fc3c ec54 9b3c 5543 543b 4abe 6cbc
00000370: 888c 22bd 9255 4cbc 214f 19bd af38 60bd
00000380: f71b e6bb 259b 2f3d 1341 c2bb f1ac f0bb
00000390: 5af1 fdbc 9536 52bc a379 003c 37db 59bc
000003a0: 7e84 fd3c a4bd 543c 3f73 3cbc 4cc2 7e3c
000003b0: dda0 0ebc f347 8c3c 3e2f 543d 0bc4 f1ba
000003c0: 8a8b efbb c901 893d a961 3e3c 8536 b3bc
000003d0: f06c 2d3c dbd3 b23a 6b7b 03bc d29c 2d3d
000003e0: 18a6 fb3c 3dc9 30bc c38c 3cba f83d 243c
000003f0: 17ed 933b 40a7 6b3d d345 9c3c 2a7a bc3c

tree_conv.3.weights.bias f4 [128]
-0.008304872 0.014831701 -0.002759928 0.01203981 0.011548128 -0.017693967 -0.021372113 0.0334529
-0.008799498 0.03934441 0.0032684999 -0.0033783917 0.031034056 0.0005298885 0.03302976 -0.013995269
0.030803066 -0.011454115 0.0028760957 -0.0060739615 0.032217465 0.02145197 -0.010349839 0.04273743
-0.0039297654 0.013962333 0.0010145353 0.023714447 -0.0071121524 0.006356981 -0.026862517 0.028623115
0.024564497 0.02898984 -0.010515802 0.0017848886 0.043611206 0.026125085 0.021490121 -0.023342554
0.0037101828 0.02706989 -0.011548533 -0.0302717 0.010905398 -0.024580333 -0.03445109 -0.0016442229
-0.050475094 0.012982401 -0.028753279 -0.01934077 0.029247083 0.0030996131 -0.02163811 -0.01717488
0.006467828 -0.006375822 -0.009359956 0.03433926 0.025693735 -0.016706072 0.0013239696 -0.000961298
-0.008809422 -0.016290436 0.031997506 0.015972313 -0.0253884 -0.0090417005 -0.024665907 -0.03272901
0.011430797 0.017098287 -0.008755092 -0.0065312637 -0.031824067 -0.022819735 0.026496327 0.016761424
-0.009513731 0.008071816 0.021853331 -0.011867545 0.011397995 -0.015515911 -0.0056544174 0.013406317
0.038679563 -0.02810289 0.041966215 0.014708608 0.01693189 -0.004941184 -0.0030492146 0.037736606
0.008757704 0.028258696 0.039153997 -0.01592442 -0.020060329 0.011645907 -0.034520477 0.03632184
-0.011242744 -0.0046651796 0.023354996 -0.005662627 -0.028973121 -0.019075714 0.0033726797 -0.0016543225
-0.022201907 0.02310542 0.04060914 -0.007138818 0.010624713 0.029432302 0.03687228 0.014972104
0.021475038 -0.012439113 -0.00052253576 -0.011069579 0.034814853 0.037845895 0.00012771442 -0.017232524
00000000: 2811 08bc aa00 733c e8df 34bb a042 453c
00000010: 5c34 3d3c f0f2 90bc 9214 afbc e805 093d
00000020: c52b 10bc 9b27 213d 5434 563b 0268 5dbb
00000030: 223b fe3c 37e8 0a3a 374a 073d 6a4c 65bc
00000040: b656 fc3c 0aaa 3bbc e17c 3c3b 1508 c7bb
00000050: 76f6 033d 0bbc af3c 5f92 29bc 720d 2f3d
00000060: 43c5 80bb 45c2 643c 28fa 843a cd44 c23c
00000070: 0f0d e9bb 394e d03b c80e dcbc 067b ea3c
00000080: 7c3b c93c 1a7c ed3c 784a 2cbc ecf2 e93a
00000090: aaa1 323d 4604 d63c 0d0c b03c e238 bfbc
000000a0: 8a26 733b adc1 dd3c 0f36 3dbc 5bfc f7bc
000000b0: 8eac 323c b25c c9bc 961c 0dbd f782 d7ba
000000c0: f9be 4ebd 23b4 543c ff8b ebbc 8970 9ebc
000000d0: 9497 ef3c e122 4b3b 6842 b1bc 55b2 8cbc
000000e0: 13f0 d33b 45ec d0bb 805a 19bc 53a7 0c3d
000000f0: ab7b d23c 2cdb 88bc 0c89 ad3a 9eff 7bba
00000100: 6555 10bc 8573 85bc d10f 033d 5ed8 823c
00000110: 55fb cfbc a423 14bc 2810 cabc db0e 06bd
00000120: 3d48 3b3c b511 8c3c 8471 0fbc 3604 d6bb
00000130: f459 02bd 74f0 babc d30e d93c 414f 893c
00000140: 7bdf 1bbc a63f 043c c205 b33c 1770 42bc
00000150: a8be 3a3c 7336 7ebc b148 b9bb 2ba6 5b3c
00000160: 766e 1e3d 0838 e6bc c4e4 2b3d 60fc 703c
00000170: bfb4 8a3c a8e9 a1bb 55d5 47bb b391 1a3d
00000180: 797c 0f3c c87e e73c f15f 203d ee73 82bc
00000190: 8f55 a4bc 79ce 3e3c 5865 0dbd 36c6 143d
000001a0: 7c33 38bc 5dde 98bb fa52 bf3c 8f8d b9bb
000001b0: 0a59 edbc ac44 9cbc 2d08 5d3b dad5 d8ba
000001c0: c6e0 b5bc 9447 bd3c c555 263d bfec e9bb
000001d0: 4713 2e3c 031c f13c 6307 173d 8e4d 753c
000001e0: 6bec af3c 6ccd 4bbc c8fa 08ba 2e5d 35bc
000001f0: 059a 0e3d 4c04 1b3d 14eb 0539 392b 8dbc

tree_conv.6.weights.weight f4 [64, 128, 3]
0.049904387 -0.016764963 0.04472977 0.008183333 -0.036524232 0.0057054725 0.0213862 0.030343812
-0.010135008 -0.0450304 -0.075149015 -0.038099386 0.004341642 -0.010235748 -0.059773315 0.07136325
-0.05545862 0.007664454 0.028909389 -0.0037672953 -0.00954031 0.038718186 0.06999785 -0.0016516529
-0.043850936 0.00880785 0.05668751 0.039661188 0.028816653 -0.03774135 0.05814841 -0.0076870224
0.008885442 -0.034512937 0.01739545 0.0018739132 -0.01822369 0.048586387 -0.030038785 0.040734094
-0.03029048 0.029141296 0.026778162 0.037621506 -0.011388711 -0.026496604 -0.029834896 -0.020579
-0.017392697 0.0025582162 -0.0005286329 -0.05310839 0.06247968 0.025034316 -0.021617666 0.002765369
-0.05815779 0.055117443 -0.011413491 -0.02555069 0.020269027 -0.039634872 0.034560677 -0.03465192
-0.03295827 0.00059331406 0.051253892 -0.04132354 0.03223062 -0.06603449 0.014083469 0.025591845
-0.05036566 0.038227677 0.026394535 -0.01454403 -0.028125959 -0.01456428 0.015006268 0.0012850062
-0.0066728145 -0.060164362 0.0056346245 0.03290457 0.0046433564 0.012840882 0.028427193 0.028652573
0.0024735942 0.03750608 -0.019291917 0.016635759 -0.04410689 0.022616535 -0.095744476 -0.011408456
-0.01067282 0.022035588 -0.0006826755 -0.06317026 0.0058783367 -0.016425114 -0.021841655 0.01419457
-0.033283 -0.0976555 -0.012077217 -0.025876937 0.0075294008 0.0071290913 -0.05533928 -0.015322735
0.021169987 -0.00891033 -0.009820288 0.02550953 -0.028807817 -0.004820922 -0.00940863 0.021170171
0.016212566 -0.007917901 0.021031877 -0.011137666 0.0056067365 0.06098928 0.02237078 -0.022066236
-0.021920906 0.00027728974 0.03204596 -0.010288925 -0.03273609 -0.01624078 -0.024649132 -0.029841702
0.066791974 0.02574059 0.0074250633 0.0018044948 -0.0060254056 -0.0056488602 4.020994e-05 0.0112952255
-0.024508296 0.011161059 0.021500641 0.050812848 0.049585767 0.017635021 -0.0022117805 -0.0046400507
0.044452265 0.052826557 -0.037248094 0.01717636 0.033497907 0.02693196 -0.01937194 -0.0067972504
0.009513284 -0.0019253255 0.02918204 0.0063332166 0.034349654 0.023968913 -0.011358832 -0.027680859
-0.0074802847 0.07521503 0.025723217 5.0371742e-05 -0.018127458 0.03833887 0.0070621446 -0.071982294
-0.014035791 -0.04197905 -0.014785475 -0.0366036 0.051418785 0.04630661 0.029264143 0.022607103
-0.052795872 -0.03267943 0.02288377 0.019534836 -0.051553287 -0.032957286 0.0083318055 0.0023430712
0.018125454 -0.022295918 -0.053510793 0.042761765 -0.02899219 -0.003160422 -0.061040077 -0.0645533
0.0056695533 -0.065650634 -0.02204368 -0.037663333 0.060710616 -0.014707485 0.005235911 -0.017244464
-0.032206926 0.011327811 -0.063570365 0.04538693 -0.02354896 0.0076782326 0.02354331 -0.01546928
-0.022514313 -0.06673648 -0.029493336 0.002004952 0.035243686 0.08408952 -0.07469389 0.0660336
0.038720857 0.002017971 -0.029802332 -0.00919638 0.011635635 -0.069885 -0.04858582 -0.016273417
0.008758943 0.0016445029 -0.02874349 0.024099726 -0.04181876 -0.024150927 0.045147475 -0.02405904
0.024890207 0.02347621 -0.019370476 -0.0150772 0.056417964 -0.001906993 -0.043285847 0.03157159
0.025812436 -0.032064244 0.07781176 -0.021109125 -0.036873408 -0.033016894 -0.04432865 0.025958367
00000000: 8b68 4c3d ad56 89bc 9036 373d 6313 063c
00000010: 6f9a 15bd f9f4 ba3b 1d32 af3c 9693 f83c
00000020: 4e0d 26bc cc71 38bd bae7 99bd 1a0e 1cbd
00000030: 5544 8e3b d7b3 27bc ddd4 74bd e526 923d
00000040: 9428 63bd 1a26 fb3b 62d3 ec3c bae4 76bb
00000050: f64e 1cbc f696 1e3d 085b 8f3d 467c d8ba
00000060: 0a9d 33bd cd4e 103c 2a31 683d c573 223d
00000070: e710 ec3c ac96 1abd 072d 6e3d 6be3 fbbb
00000080: 3f94 113c 705d 0dbd e780 8e3c 189e f53a
00000090: d949 95bc 8502 473d e613 f6bc cbd8 263d
000000a0: be23 f8bc bab9 ee3c e05d db3c 0219 1a3d
000000b0: b797 3abc 680f d9bc 5068 f4bc 4a95 a8bc
000000c0: 217b 8ebc bfa7 273b f493 0aba 2f88 59bd
000000d0: b1ea 7f3d c414 cd3c 8817 b1bc 313b 353b
000000e0: dd36 6ebd d4c2 613d a7ff 3abc ae4f d1bc
000000f0: 3b0b a63c 2d58 22bd 7f8f 0d3d 2cef 0dbd
00000100: 40ff 06bd a288 1b3a 9aef 513d df42 29bd
00000110: 4104 043d 173d 87bd 5abe 663c fda5 d13c
00000120: 394c 4ebd a094 1c3d 5a39 d83c 154a 6ebc
00000130: 6968 e6bc 059f 6ebc dadc 753c a76d a83a
00000140: a0a7 dabb e86e 76bd a8a2 b83b f1c6 063d
00000150: 4c27 983b 9062 523c 25e0 e83c cdb8 ea3c
00000160: 061c 223b fa9f 193d 150a 9ebc b747 883c
00000170: 6da9 34bd 5046 b93c ae15 c4bd 88ea 3abc
00000180: 0ddd 2ebc fa83 b43c 94f5 32ba 695f 81bd
00000190: 109f c03b f68d 86bc 45ed b2bc 5790 683c
000001a0: c153 08bd 9bff c7bd 85df 45bc dffb d3bc
000001b0: 31b9 f63b 279b e93b 71ab 62bd 350c 7bbc
000001c0: ae6c ad3c a2fc 11bc 46e5 20bc 5df9 d03c
000001d0: 5ffe ebbc d3f8 9dbb a826 1abc 116d ad3c
000001e0: 37d0 843c 15ba 01bc 0b4b ac3c c27a 36bc
000001f0: b7b8 b73b e5cf 793d ed42 b73c 40c4 b4bc
00000200: 7993 b3bc 3361 9139 a042 033d e192 28bc
00000210: 4716 06bd 620b 85bc faec c9bc 9676 f4bc
00000220: 3bca 883d eedd d23c f24d f33b cc84 ec3a
00000230: c470 c5bb 131a b9bb 18a7 2838 9c0f 393c
00000240: 9fc5 c8bc e0dc 363c 1d22 b03c 2221 503d
00000250: 721a 4b3d 5277 903c 85f3 10bb 910b 98bb
00000260: 9413 363d a960 583d 7591 18bd 70b5 8c3c
00000270: 1a35 093d 6aa0 dc3c e7b1 9ebc 78bb debb
00000280: 9bdd 1b3c 345b fcba 2c0f ef3c df86 cf3b
00000290: 39b2 0c3d 745a c43c 651a 3abc f8c2 e2bc
000002a0: 2d1d f5bb 560a 9a3d 7fb9 d23c 3f46 5338
000002b0: 0980 94bc 3809 1d3d 9069 e73b 746b 93bd
000002c0: 60f6 65bc 39f2 2bbd c73e 72bc a8ed 15bd
000002d0: 819c 523d 00ac 3d3d 5bbb ef3c 8832 b93c
000002e0: 7c40 58bd deda 05bd be76 bb3c 8507 a03c
000002f0: 8a29 53bd 38fe 06bd 2082 083c 368e 193b
00000300: d57b 943c eea5 b6bc 222e 5bbd f626 2f3d
00000310: 0781 edbc 151f 4fbb 2905 7abd 8534 84bd
00000320: a9c7 b93b d773 86bd f394 b4bc de44 1abd
00000330: b2ab 783d aaf7 70bc 0192 ab3b 4344 8dbc
00000340: 69eb 03bd 4898 393c 2e31 82bd a5e7 393d
00000350: c0e9 c0bc af99 fb3b e6dd c03c dd72 7dbc
00000360: f06f b8bc 23ad 88bd 029c f1bc 8365 033b
00000370: af5b 103d 2037 ac3d 1cf9 98bd a03c 873d
00000380: c399 1e3d ef3f 043b 0524 f4bc 6aac 16bc
00000390: 64a3 3e3c de1f 8fbd ed01 47bd d44f 85bc
000003a0: ab81 0f3c 5c8c d73a 7877 ebbc ca6c c53c
000003b0: 264a 2bbd 2ad8 c5bc 8fec 383d 7717 c5bc
000003c0: 8ce6 cb3c 2e51 c03c d5ae 9ebc 5c06 77bc
000003d0: 8616 673d 11f4 f9ba 804c 31bd 3651 013d
000003e0: 9a74 d33c cc55 03bd c65b 9f3d 0bed acbc
000003f0: 9208 17bd b93c 07bd f591 35bd a4a6 d43c

tree_conv.6.weights.bias f4 [64]
-0.013745886 -0.011256168 0.013260552 -0.017048124 -0.019260043 -0.0066162744 -0.017001191 0.02496274
-0.046547275 0.0100028 -0.029485727 -0.003522722 0.013060334 -0.009940241 -0.0060383654 -0.026075758
0.0053814333 0.0049527604 -0.019786026 0.009012433 -0.01107478 -0.061004717 -0.0046341065 0.0015587128
-0.0037547727 -0.038209684 -0.013612863 -0.012094744 -0.021988796 0.011799195 0.018986925 0.06956974
-0.021281654 0.059518863 0.019999452 0.009324505 0.025769696 -0.028866138 -0.02524029 -0.012271773
-0.030012881 -0.031962574 0.0072532343 -0.016801659 0.022068795 -0.043246936 0.06518216 -0.0304229
0.030899413 0.0002016143 0.0028018784 -0.015659874 -0.0019443983 0.067197636 0.032697562 -0.0017258833
0.03945943 -0.043995503 0.04195903 0.0121481 -0.01346705 0.031103615 0.08818675 0.017634286
00000000: 6d36 61bc ca6b 38bc c942 593c 82a8 8bbc
00000010: 3dc7 9dbc 55cd d8bb 1546 8bbc a97e cc3c
00000020: 5ba8 3ebd c9e2 233c 0d8c f1bc 78dd 66bb
00000030: 03fb 553c 65dc 22bc 7bdd c5bb d49c d5bc
00000040: bc56 b03b c44a a23b 4e16 a2bc e2a8 133c
00000050: fe72 35bc 15e0 79bd b4d9 97bb b94d cc3a
00000060: a212 76bb c281 1cbd 7c08 5fbc 0829 46bc
00000070: d921 b4bc 6951 413c 788a 9b3c 947a 8e3d
00000080: dd56 aebc 0dca 733d e4d5 a33c cfc5 183c
00000090: f81a d33c ae78 ecbc bac4 cebc 8c0f 49bc
000000a0: 93dd f5bc 30eb 02bd 8aac ed3b a2a3 89bc
000000b0: 9ec9 b43c b323 31bd 397e 853d 7239 f9bc
000000c0: c420 fd3c 6d68 5339 b89f 373b 2349 80bc
000000d0: 2edb feba ea9e 893d e1ed 053d 0937 e2ba
000000e0: 36a0 213d a134 34bd 3bdd 2b3d d308 473c
000000f0: e7a4 5cbc 02cd fe3c 419b b43d c775 903c

tree_conv.9.weight f4 [32, 64]
-0.02448541 0.05555305 0.066464506 0.07196214 -0.013521801 0.119742155 -0.023853494 -0.06761766
-0.03308081 -0.082031295 -0.093405336 0.09707975 0.047730774 -0.024214197 0.0089732865 -0.15865628
-0.049892735 0.06311939 0.085829794 0.035714738 -0.10321161 0.061182372 0.025112424 0.12310439
-0.054396234 -0.08586938 0.095378235 0.066492215 -0.13379025 -0.1032125 0.12789245 0.060430106
-0.06659548 -0.06049658 0.10256202 0.06087328 0.0022003488 -0.09081697 0.02355525 -0.13121383
0.014741156 -0.10736288 -0.013573742 -0.12891585 -0.09957312 -0.06648442 0.025406031 0.039247848
-0.06398032 0.12694147 -0.13448654 0.055744387 0.014994484 0.02478917 0.10809521 0.12290941
-0.05859064 -0.017158108 0.009712499 -0.15212564 -0.0371243 0.088282704 -0.124942064 -0.07175609
0.006708271 0.16377793 0.025111021 0.026896847 0.034135826 0.12665652 -0.1588283 0.023606123
-0.002373071 -0.090679005 -0.13330998 0.0070247175 0.040846996 0.01247579 0.19591793 0.05999035
-0.0031270902 -0.13167928 0.09298479 0.002825339 0.18416841 -0.037601423 -0.044000033 0.097317874
0.16474791 0.10814289 -0.0029198101 -0.016517032 -0.06485256 -0.015059231 -0.06932627 0.07364307
0.035378136 -0.13724247 0.09507798 -0.038735524 0.16649887 0.11640781 0.055337135 0.06436487
0.08240817 0.052781016 -0.09164004 -0.06075576 0.1224947 -0.12641118 0.0019497339 0.0012478675
-0.034476068 0.14031522 0.058575746 0.06137582 0.09267189 0.14674108 0.07660203 -0.11619666
-0.039862562 0.043276206 0.15098536 -0.06143625 -0.10360469 0.0065181777 0.03413026 -0.060522884
0.06455688 -0.10316698 -0.018036954 -0.09936407 -0.05519062 0.029869568 0.032141272 -0.07784812
0.003117587 -0.094552 0.067741126 0.017071877 -0.001570371 -0.036493715 0.07235266 -0.0756003
0.007401688 0.02334405 0.0075056804 -0.12236876 0.05448417 0.051909138 0.12799287 0.07392912
-0.063311785 -0.08351429 -0.0746416 0.03618032 -0.046385556 0.036410622 -0.10496631 0.06390481
-0.0049980595 0.12123675 0.094728634 -0.038508907 -0.05631391 -0.00801395 -0.033795685 -0.07779935
-0.076785214 0.1312572 -0.05798899 -0.04842598 0.053714246 0.1429873 0.080642834 -0.081387304
-0.04682515 0.040045083 -0.094199166 0.019313775 0.07430249 0.025353052 0.03233918 0.113535345
0.103420205 0.08348498 -0.05630021 0.17500542 0.00812227 -0.0033328077 -0.047072113 0.10424544
0.072195336 -0.0051715444 0.016984008 -0.026159054 0.19496484 0.10218939 0.0035742328 -0.006878883
-0.031554624 0.028768271 0.12809561 -0.14317812 0.039798085 0.102895826 0.04450141 0.11845887
0.07850434 0.19255845 -0.049756438 -0.005460095 -0.13102655 0.14810565 0.07075661 0.093123026
-0.14441621 0.09334053 0.0040378287 -0.080053374 -0.10107949 0.010675842 0.13915905 0.047138825
0.11740934 0.10109047 0.042703338 -0.087268434 -0.17534475 0.096782945 -0.08222806 -0.07901239
-0.09955194 0.13368057 0.17831615 0.0006946798 0.084479585 0.06682007 -0.10519013 -0.052660998
0.08804741 -0.018791918 -0.12018959 -0.055051163 0.030988453 0.06862107 0.078694984 0.18538491
0.0115119405 0.020430816 -0.055179954 -0.013083946 0.06968244 -0.15722513 -0.024672188 -0.0008813083
00000000: a095 c8bc 988b 633d 8b1e 883d e360 933d
00000010: 8b8a 5dbc 603b f53d 6768 c3bc 217b 8abd
00000020: be7f 07bd 0600 a8bd 4c4b bfbd bfd1 c63d
00000030: 5881 433d da5c c6bc b104 133c cb76 22be
00000040: 535c 4cbd bd44 813d 88c7 af3d 9e49 123d
00000050: 9c60 d3bd 5e9a 7a3d 92b8 cd3c 281e fc3d
00000060: 96ce 5ebd 49dc afbd aa55 c33d 122d 883d
00000070: 5000 09be 1361 d3bd 3df6 023e 8f85 773d
00000080: 3663 88bd 43cb 77bd 090c d23d 4356 793d
00000090: ba33 103b 3ffe b9bd f1f6 c03c eb5c 06be
000000a0: e484 713c 12e1 dbbd 6664 5ebc 8402 04be
000000b0: feec cbbd fc28 88bd 4f20 d03c 5ac2 203d
000000c0: 1d08 83bd f2fc 013e d7b6 09be 3a54 643d
000000d0: 6dab 753c a812 cb3c 0561 dd3d eeb7 fb3d
000000e0: bdfc 6fbd 298f 8cbc 2c21 1f3c d3c6 1bbe
000000f0: a60f 18bd 90cd b43d a0e1 ffbd dbf4 92bd
00000100: 0ed1 db3b 67b5 273e a1b5 cd3c c756 dc3c
00000110: 02d2 0b3d 3fb2 013e e3a3 22be a161 c13c
00000120: 8685 1bbb eab5 b9bd 6982 08be 9a2f e63b
00000130: 2e4f 273d 4267 4c3c b69e 483e 71b8 753d
00000140: deef 4cbb efd6 06be cf6e be3d 5329 393b
00000150: a596 3c3e f303 1abd 6139 34bd 984e c73d
00000160: adb3 283e 057a dd3d 495a 3fbb ba4e 87bc
00000170: 6bd1 84bd feba 76bc eefa 8dbd 2ed2 963d
00000180: aae8 103d 4a89 0cbe 3eb8 c23d 24a9 1ebd
00000190: ae7e 2a3e 3867 ee3d 31a9 623d bbd1 833d
000001a0: 9dc5 a83d e830 583d c6ad bbbd 08db 78bd
000001b0: 80de fa3d ef71 01be 378e ff3a 7c8f a33a
000001c0: c736 0dbd cbae 0f3e 1fed 6f3d 3665 7b3d
000001d0: c3ca bd3d 4b43 163e 86e1 9c3d 84f8 edbd
000001e0: ed46 23bd 6442 313d e89b 1a3e 94a4 7bbd
000001f0: b22e d4bd 7096 d53b 2ccc 0b3d d8e6 77bd
00000200: 6636 843d 3649 d3bd 3cc2 93bc 647f cbbd
00000210: 8f0f 62bd 06b1 f43c 91a6 033d d66e 9fbd
00000220: 6e50 4c3b 7ba4 c1bd dcbb 8a3d 52da 8b3c
00000230: e8d4 cdba 6f7a 15bd a22d 943d 55d4 9abd
00000240: dc89 f23b 053c bf3c 36f2 f53b 799c fabd
00000250: cb2a 5f3d ad9e 543d 9010 033e 2768 973d
00000260: 9ca9 81bd 8a09 abbd b2dd 98bd d131 143d
00000270: c8fe 3dbd 4e23 153d 94f8 d6bd 86e0 823d
00000280: c3c6 a3bb f94a f83d 1601 c23d 84bb 1dbd
00000290: 6aa9 66bd f14c 03bc 586d 0abd 4455 9fbd
000002a0: 9141 9dbd 4a68 063e dd85 6dbd 525a 46bd
000002b0: 7803 5c3d 436b 123e 1228 a53d 63ae a6bd
000002c0: bacb 3fbd 5006 243d 7eeb c0bd ec37 9e3c
000002d0: e72b 983d 34b1 cf3c 1776 043d 3885 e83d
000002e0: f9cd d33d 2cfa aa3d 0d9b 66bd 9f34 333e
000002f0: 4513 053c 3c6b 5abb b0ce 40bd a27e d53d
00000300: 26db 933d 0f76 a9bb 0c22 8b3c 834b d6bc
00000310: dda4 473e ac48 d13d ad3d 6a3b 4168 e1bb
00000320: 6c3f 01bd 70ab eb3c 7f2b 033e 499d 12be
00000330: 5103 233d 0cbb d23d 1c47 363d 909a f23d
00000340: e2c6 a03d 0b2e 453e 68cd 4bbd 99ea b2bb
00000350: d32b 06be 02a9 173e d7e8 903d 49b7 be3d
00000360: d8e1 13be 5229 bf3d c34f 843b 06f3 a3bd
00000370: c302 cfbd bae9 2e3c b67f 0e3e a414 413d
00000380: 4f74 f03d 8508 cf3d b2e9 2e3d cbb9 b2bd
00000390: 938d 33be 2336 c63d 2f67 a8bd 3fd1 a1bd
000003a0: e3e1 cbbd 8fe3 083e 8298 363e 2c1b 363a
000003b0: a203 ad3d f6d8 883d ec6d d7bd 0fb3 57bd
000003c0: 3352 b43d 82f1 99bc f625 f6bd 547d 61bd
000003d0: 7fdb fd3c 3489 8c3d d62a a13d 8bd5 3d3e
000003e0: 949c 3c3c 875e a73c 6004 62bd 0c5e 56bc
000003f0: abb5 8e3d a0ff 20be 541d cabc 9907 67ba

tree_conv.9.bias f4 [32]
-0.11968003 -0.01863954 0.06480889 0.084862724 0.030632297 0.06621301 0.33441967 -0.10345648
-0.042343527 0.022660993 -0.0078013893 0.1223969 -0.024894195 -0.06664083 0.1531222 0.035681393
-0.0036676007 0.2958349 -0.050935473 0.14018413 0.13645516 0.12077196 -0.12170379 0.017747523
0.12716994 0.28917578 0.21212132 0.13281928 0.055643264 -0.07250693 0.14638929 -0.13192631
00000000: ce1a f5bd f3b1 98bc 86ba 843d 82cc ad3d
00000010: 95f0 fa3c b09a 873d 0e39 ab3e fee0 d3bd
00000020: 6870 2dbd 8ca3 b93c cca2 ffbb 3aab fa3d
00000030: e9ee cbbc fd7a 88bd 11cc 1c3e a726 123d
00000040: 215c 70bb ac77 973e b7a1 50bd 6e8c 0f3e
00000050: e7ba 0b3e 4a57 f73d d63f f9bd 4163 913c
00000060: d638 023e d90e 943e 5536 593e c701 083e
00000070: 31ea 633d 837e 94bd 13e7 153e b117 07be

tree_conv.11.weight f4 [1, 32]
0.10904244 -0.19614077 0.047965102 0.35447076 0.21084182 0.13092875 0.2461414 -0.13059697
-0.37165797 -0.37949938 -0.08157003 0.12556797 -0.45286143 0.0824963 0.19712546 -0.3726967
-0.35352647 0.2977635 -0.51449394 0.3388661 -0.39530355 0.41615152 0.08047835 0.075355485
-0.5805711 0.188741 0.33445603 -0.35594898 -0.1901143 0.15836647 0.3217693 0.250743
00000000: a551 df3d 20d9 48be 0e77 443d 317d b53e
00000010: ebe6 573e 3012 063e 7e0c 7c3e 36bb 05be
00000020: f449 bebe be4d c2be 300e a7bd e494 003e
00000030: 74dd e7be d2f3 a83d 42db 493e 1ad2 bebe
00000040: 6c01 b5be 7574 983e e0b5 03bf dc7f ad3e
00000050: 3a65 cabe d011 d53e d5d1 a43d fa53 9a3d
00000060: 4fa0 14bf 5245 413e d23d ab3e f23e b6be
00000070: 53ad 42be d22a 223e f2be a43e 6361 803e
