models/lero_on_stats_STATS_Lero.pth (torch, 583354 bytes, 9 tensors)

tree_conv.0.weights.weight f4 [256, 25, 3]
00000000: 8f62 663d fd89 553d 0e8b cabd c052 ae3d
00000010: 7008 8bbd 4f5a 4ebd 71db ef3c 5938 a0bb
00000020: e2ec b13d f602 70bd d2d3 1fbc b004 80bd
00000030: e3df a3bd fd27 a93d d790 75bd ad0a ab3c
00000040: 8e6f 9c3d b066 13bc 9400 b33c c2b9 76bd
00000050: 5beb 253d 05f1 9ebc 609c 08bd 3ba0 8e3d
00000060: f8c7 153c 4c0d 0e3d d1d7 b2bc bf13 9dbd
00000070: 0559 28bd 27db 1fbd be70 c3bd b2a1 c4bc
00000080: 0eb4 873d 757a 66bd 95d3 4d3c dafe 83bd
00000090: 9a98 d6bd 0c9d 073e bc09 99bd 0742 eebc
000000a0: 67d3 e9bd 2f7f cfbd 186f b73d 153c babb
000000b0: c7e6 7bbd 90d7 153d f6b9 463d 8ec3 b3bd
000000c0: 3355 25bc ff8a 753c bb5e 983c 154b b03d
000000d0: 28e0 3abd 5f3f 943d 0fd8 883d c979 acbd
000000e0: 1598 d33b 94c3 973c ce4f b03d 255e 113d
000000f0: 8e38 903d 4f9a 48bc d035 c83d b2cd 0c3d
00000100: 44ae 99bd 5ddd 2539 1ea9 bd3d a6ae e43c
00000110: 19a0 9b3b 0772 ac3d b42d 103a 05ee ddbc
00000120: 7b4a ba3d 5208 c83d 7c2e 7a3d 5584 e6bd
00000130: 15a8 9abb 3774 3d3d 10a4 963c 43f6 b43d
00000140: dc65 bbbd 9144 aebd a27f b3bd 3e2e f8bc
00000150: 4170 833c bb36 e2bd 08e9 213d 202b b0bd
00000160: ec31 ba3d c233 dcbd 96bb a03d a5a5 9fbd
00000170: d7d7 8dbd 4f35 d5ba 6f55 1a3d 2065 d13b
00000180: c9ac 03bd 74bf c3bd 1a12 8ebd 2aea 10bd
00000190: c284 333d 487c a1bd faf6 04bd 5698 06bd
000001a0: 1314 25bc b793 3d3c 6964 36bd b39b d3bd
000001b0: 8a1d a53c dd57 b23d b26b e33d e224 993d
000001c0: bf38 5a3d 098d 80bd 1479 00be 1eb5 ddbd
000001d0: 3d9e c23c 153a 56bd 3b70 98bc b327 b93d
000001e0: dbdf ce3c e070 2c3d b87e 593d 1c33 953c
000001f0: c631 6f3d dd77 15bc c1ad 63bd 52a5 a7bd
00000200: 0950 6ebd 8989 2cbd d93f acbc 6fde b2bd
00000210: 0560 bd3d 4896 b9bd f427 d73c d61e 7cbd
00000220: a5cd e9bc 92af fd3d cd46 7f3d 2e91 45bd
00000230: 7c52 c83c c1ee 1dbd 97b9 d8bb 85aa aebd
00000240: a5ff 1abc 357b d53d aa93 7dbd 9c5f 1e3d
00000250: a1de e03d 1745 a1bd 583c 8b3a 932d 623d
00000260: 0e3a 563b 9911 633d f626 c83d 4b62 90bd
00000270: a523 74bc cd13 c33d 88db 3fbd 52ed 4fbd
00000280: 1ab8 b33d 4375 9abd 1ac1 4b3d 2803 0c3d
00000290: 7056 36bd c8c6 9b3d 7de2 903d b2ae 5fbc
000002a0: 4c25 e5bc 3d23 e93c bb68 20bd d3ee 4c3c
000002b0: 3aff 293d 69ed f8bc b483 073e 4bcf f03d
000002c0: 5d1b 83bd b9db a1bd 98f3 a8bd 774c 053e
000002d0: 1828 66bc 74f7 debd 1d45 cb3d e3f9 84bd
000002e0: 57bb b7bd 119e cbbd 010c fc3c ebdb 0bbd
000002f0: 43e9 b9bc 5030 a83d b6df 913c b7e6 45bd
00000300: a7d4 d63c 62ce a4bd 005d 01bd 4950 803d
00000310: 9e8d 103d 2a95 e63d 1544 bb3d e07f 903d
00000320: 5c64 823d 7ae8 6fbd a4b6 863c 9c28 343d
00000330: 2aab d1bd e0ae 3cbd ce64 fe3c 8d47 c2bb
00000340: 46ac b5bd 85ca a6bd de4e 9ebc 45ec 4b3d
00000350: ca39 6cbd 1478 cf3d 81b1 d73d cad9 eabd
00000360: b31a 93bd ebb3 d23c 9623 8ebb 185c 81bd
00000370: 983f 14bc 74d6 6abd bdaf d73b d981 bbbd
00000380: 3934 513c 0dc3 be3d 105d 513d e6e4 30bd
00000390: b4f9 993d 0a52 b43d ab87 ab3d 9246 d0bd
000003a0: 63eb e23d 63aa 923d f0d7 fabc 0958 a43d
000003b0: 8f27 67bd 4a40 6abd f30a b03d 6061 8abc
000003c0: 7b4d 07bd 56e8 a8bd baf7 48bd f2e9 2ebd
000003d0: f0da 6dbd 1ec6 52bd 0cad 76bb 5464 e23d
000003e0: 71e0 993d 8c29 9b3d abc3 853d 8e45 4f3d
000003f0: b2fa b13d 49af 4fbd d314 953d 9483 d73d
0.056246337 0.05213355 -0.09889804 0.08511877 -0.06788719 -0.050379094 0.029279443 -0.0048895297
0.0868776 -0.058596574 -0.009755092 -0.06250894 -0.080016874 0.0825958 -0.059952583 0.020879114
0.07638465 -0.008996651 0.021850862 -0.060235746 0.040507656 -0.019402036 -0.033352256 0.06964155
0.009141915 0.03468065 -0.021831425 -0.07669782 -0.04110052 -0.03902736 -0.09542988 -0.024002884
0.066261396 -0.056269128 0.012562652 -0.064450935 -0.10478325 0.13243502 -0.0747256 -0.029084219
-0.11417275 -0.1013168 0.08956736 -0.005683432 -0.061499383 0.03658253 0.04851719 -0.087775335
-0.010091114 0.0149867525 0.018599859 0.08608071 -0.04562393 0.072386496 0.06681835 -0.08421666
0.0064573386 0.018525876 0.086089715 0.035490174 0.07042037 -0.012243821 0.09775889 0.034375854
-0.07503942 0.0001581809 0.09260772 0.02791531 0.0047493097 0.084201865 0.00054999744 -0.027091036
0.09096237 0.09767212 0.061079487 -0.11255709 -0.004719744 0.04625341 0.018388778 0.08836033
-0.091502875 -0.08509172 -0.087645784 -0.030295487 0.016044738 -0.11045595 0.039528877 -0.086019754
0.09091553 -0.107520595 0.07848279 -0.07795266 -0.06925934 -0.0016266498 0.037679132 0.006390229
-0.032147203 -0.09558001 -0.06937046 -0.035379566 0.04382778 -0.07885033 -0.032462098 -0.032860123
-0.010075587 0.0115708625 -0.044529352 -0.10332432 0.020155687 0.08708165 0.111045256 0.07477738
0.053276774 -0.062769 -0.12546188 -0.10825561 0.023757095 -0.052301485 -0.018608203 0.09040775
0.025253227 0.042099833 0.053099364 0.018212847 0.058397077 -0.009122816 -0.055585627 -0.08185829
-0.058181796 -0.04212335 -0.021026539 -0.08733832 0.0924683 -0.09061867 0.026264168 -0.061552845
-0.028540442 0.12387003 0.06232338 -0.048234157 0.024453394 -0.03855777 -0.006613921 -0.08528618
-0.0094603645 0.104238905 -0.0619084 0.0386654 0.10979963 -0.07874506 0.0010622842 0.055219244
0.0032688412 0.055436704 0.09773056 -0.07049998 -0.014901076 0.09525261 -0.04684022 -0.050763436
0.08775349 -0.07541897 0.049744703 0.034182698 -0.044516027 0.07606274 0.07074449 -0.01365249
-0.027971886 0.028459186 -0.03916238 0.012508112 0.04150317 -0.030386643 0.13233835 0.11758288
-0.064017035 -0.07903237 -0.08249587 0.1301745 -0.014047645 -0.10887042 0.09925292 -0.064929746
-0.08971279 -0.09942258 0.030767443 -0.034145277 -0.022694236 0.0821234 0.017806869 -0.04831573
0.026224447 -0.08047177 -0.031582832 0.06265313 0.035291307 0.112589195 0.09143845 0.0705564
0.06366798 -0.058571316 0.016444512 0.04398404 -0.10237725 -0.04606521 0.031053927 -0.0059289397
-0.08870749 -0.08144096 -0.019324716 0.04978587 -0.0576723 0.10130325 0.10531903 -0.11467321
-0.07182827 0.025720557 -0.0043377383 -0.063163936 -0.009048365 -0.057333425 0.006582229 -0.09155626
0.0127687985 0.09314547 0.051114142 -0.043187045 0.0751833 0.0880471 0.08375486 -0.1016971
0.11080053 0.07161405 -0.030620545 0.08024604 -0.05643421 -0.057190217 0.085958384 -0.016892135
-0.033032876 -0.082474396 -0.049064375 -0.042703576 -0.058070123 -0.05145847 -0.0037639765 0.11054292
0.07513512 0.07576284 0.06531461 0.050603442 0.086903945 -0.050704274 0.072793625 0.105231434

tree_conv.0.weights.bias f4 [256]
00000000: 7e0c 2e3d fc11 89bd c79b 16bd 1ded 7bbd
00000010: 4021 61bd 49d3 d83d 6f69 d5bd c120 3dbd
00000020: 722f af3d ad44 803d d5f0 11bd 96f1 6d3d
00000030: 3fb0 823c cd67 debd 066f 043d 5e6e a53d
00000040: bdb1 fe3c 9f81 0e3d f2de 4d3d f93f 9a3c
00000050: 554e 613b 8d74 933d 90f4 44bd 0e63 863d
00000060: cdbe a33d 6a66 1f3c 32eb 9d3d 4523 82bd
00000070: 974b 75bd 8e5a 963d 762e e8bd d43a 693d
00000080: 358e 893d 2c9b bfbc 4c29 31bb 7ee5 8cbc
00000090: e9e7 89bc 5022 9fbd 4e67 8abc 00c1 acbb
000000a0: 8cfd 87bd 2fa4 55bd d67b 46bc ba65 5bbc
000000b0: 0e8c 003d f896 293d 861f 6ebc e9a5 283d
000000c0: 5e8e 93bc a6be e9bc d559 a53d bea7 a2bc
000000d0: 9120 9f3d 9ba2 10bd f1d8 b23d 3029 b4bd
000000e0: 0f4e 843d d290 f53a 87f7 fb3c 31d6 5dbd
000000f0: 4890 f6bc b576 31bd 848e a3bd 8424 86bd
00000100: b835 98bd ba09 623d b43e 953d a859 613c
00000110: ae2d 913d c34b b83d 9853 8f3b 601e edbc
00000120: ef92 36bd c381 883c 5e5c 643d 536f 06bd
00000130: fab3 03bd 5637 cabd 43e4 843d 23d4 7e3d
00000140: 2807 cdbd 7b63 51bd 68bc a1bc c160 71bc
00000150: 444a 67b9 21b9 adbc 9a51 8dbc 0abb f33d
00000160: 4dd6 86bd 93bf 863d 797e 4fbd a797 c93d
00000170: e7a9 3dbd ddfa babd 5857 d73d 15ae 9bbd
00000180: 8c40 ea3d 4292 30bd 236f 83bc af9f b0bd
00000190: ed68 003d e0ce 8c3c 8cc3 33bd bb71 5d3d
000001a0: 1c2c ad3d 0763 263d e3ca c0bd cc55 563c
000001b0: 5ef3 c53b 438b e73d 71f5 743d 141d 5ebd
000001c0: 2221 d43c 25c3 d83c 4aeb 31bd 3632 693d
000001d0: 1603 aabd c4ff 81bd 0a87 6dbd 6f46 a3bd
000001e0: 521f 543d 6419 473d c5ad aebd 0a28 843d
000001f0: dd44 d33d f297 f0bd ab19 933d 03ca c4bd
00000200: 5264 de3d 1b14 b63d a378 ed3c 2cc2 693d
00000210: 74ea 83bc 829b e63d cf00 6b3d 2699 bcbc
00000220: 91cf a0bd 1561 8ebd d2d9 3fbd 1267 81bd
00000230: 439f ac3d 79c8 8ebd c63d dfbd 2251 ea3a
00000240: 91ab f53d 4d60 113d ee85 463d 1442 77bc
00000250: 1b8a afbd c117 943a fde7 c1bc 7f83 0c3d
00000260: 64aa 993c c45f af3c 25a3 e23d bc9b 4f3d
00000270: baba 1039 a4a4 09bd fa4a adbd c115 843c
00000280: 5715 9ebd ac58 a03d f685 ce3d e26d 70bd
00000290: 3f74 70bd 8946 ce3c 6bb3 be3d 60fa b4bd
000002a0: 9f81 aabd 621a 723d 7f79 433d 3ec1 a93d
000002b0: efbf a7bc 856d febd 33a4 acbd 7752 3abc
000002c0: 1f41 b73d fd20 823d edcf d0bd 02c4 c83d
000002d0: 29f9 b5bd fcc6 ac3d 4600 2b3a f86e 853c
000002e0: 61c5 47bd 3a4d 3dbc e52f 05bd e36e 5e3d
000002f0: 0152 b1bd c30c a8bd 0c44 fbbc 4c7d 88bd
00000300: 4a74 cf3d 2fb3 b13c 2e95 be3d 01a3 813d
00000310: d29d 903d 7243 98bd 243b 68ba f133 743d
00000320: 4502 aa3d 137c b43d 3dc5 df3c 0517 6f3d
00000330: debe 7fbd 26dd abbd d3ca 713c d17c 1dbd
00000340: 9c75 223d 52ed 1439 b053 f8bd 69dd 59bd
00000350: 0004 2bbd 6752 c53d a558 5b3d 9900 943d
00000360: f1ee 14bd dbe3 643d 429d 48bc c6e0 0dbd
00000370: b928 84bd fc43 5ebd aadc edbb 5bae 8b3d
00000380: a535 4a3d 04f2 afbd f4dd 93bd 0e76 ce3c
00000390: 498b 0fbd 6ccd bfbd d09d 8d3b dd25 a33d
000003a0: 1e05 a53d 6bdb 8b3c 7f6b 693d e885 d33d
000003b0: f084 813d dc2d a4bd a521 af3d 887f 3c3d
000003c0: 7061 eabd 4f91 96bb 13e6 763d f98a d2bd
000003d0: 29f4 a6bd 638b 6e3d 413e 8abc b616 b4bc
000003e0: 62f8 b23b 9d34 553d eabd a7bd 4f56 c23c
000003f0: 7d6e b9bd a61b 233d ea4c acbd 6c62 5c3d
0.042492382 -0.06692883 -0.036769655 -0.061505426 -0.05496335 0.105871744 -0.104205005 -0.046173815
0.08553971 0.06263099 -0.035630066 0.058091722 0.015953181 -0.10859642 0.032332443 0.080776915
0.031090612 0.034791585 0.050261445 0.018829333 0.0034378965 0.07199965 -0.048084795 0.06561862
0.07995377 0.009729007 0.077108756 -0.063543834 -0.05988654 0.07341491 -0.11336987 0.05694087
0.06716577 -0.023389421 -0.0027032671 -0.017199274 -0.016834216 -0.077702165 -0.016894963 -0.005272031
-0.06640157 -0.05215853 -0.012114486 -0.013390953 0.031383567 0.04140374 -0.014533883 0.04117385
-0.018012222 -0.028533291 0.08073775 -0.019855376 0.077698834 -0.035311323 0.087327845 -0.087969184
0.06460201 0.0018735176 0.030757679 -0.054159347 -0.030098096 -0.0433261 -0.07986167 -0.065499336
-0.07432121 0.055185057 0.0728735 0.013754286 0.07088791 0.089988254 0.004373979 -0.028945148
-0.04457372 0.016663438 0.05575215 -0.03282101 -0.03215406 -0.09873836 0.0648885 0.062214028
-0.100111306 -0.051120263 -0.01974316 -0.014732541 -0.00022057543 -0.02120644 -0.017250825 0.11900909
-0.065838434 0.06579509 -0.050657723 0.098433785 -0.04630461 -0.091298796 0.105147064 -0.07601563
0.114380926 -0.043108232 -0.016044205 -0.08624207 0.031350065 0.01718849 -0.04388766 0.05406354
0.08455679 0.040621784 -0.094136976 0.013081979 0.0060409745 0.11305859 0.059804384 -0.05422695
0.025894705 0.02646024 -0.04343728 0.05693265 -0.0830137 -0.063476115 -0.05799011 -0.079724185
0.051787682 0.0486082 -0.08529238 0.06452949 0.10315869 -0.11747731 0.0718263 -0.09608843
0.10858978 0.088905536 0.028988188 0.057069942 -0.016103007 0.112601295 0.057373818 -0.023022246
-0.0785209 -0.06952111 -0.04683859 -0.06318487 0.08428814 -0.06971831 -0.10900454 0.0017876963
0.11995614 0.03549223 0.04846757 -0.015091438 -0.085712634 0.0011298583 -0.023670191 0.034305092
0.018758006 0.02140797 0.110662736 0.05068563 0.00013802471 -0.03360428 -0.08461566 0.016123654
-0.07718914 0.07829413 0.10084145 -0.058698542 -0.05870461 0.025180118 0.09311565 -0.08836818
-0.083255045 0.05910719 0.04772329 0.08288811 -0.020477263 -0.12423233 -0.08429756 -0.0113722
0.08947968 0.06353948 -0.10195909 0.098030105 -0.08885414 0.08436391 0.0006523173 0.016288266
-0.04877222 -0.011554057 -0.03251638 0.05430497 -0.08658219 -0.08205559 -0.030672096 -0.066645235
0.10129602 0.021691887 0.093057975 0.06329919 0.07061352 -0.07434739 -0.00088589103 0.059619848
0.08301214 0.08812728 0.02731573 0.058371563 -0.062437885 -0.0839179 0.01475783 -0.038449112
0.039662942 0.00014202789 -0.12125337 -0.05318967 -0.04175186 0.096348576 0.053551335 0.072266765
-0.036360685 0.055881362 -0.012244524 -0.03463819 -0.0645308 -0.054264054 -0.007258971 0.06820365
0.049367566 -0.08591083 -0.072200686 0.025202777 -0.035044942 -0.09365353 0.004321791 0.07966206
0.08057617 0.0170724 0.056987282 0.10328275 0.06324184 -0.080165595 0.08551339 0.04602006
-0.11444366 -0.004594959 0.06027801 -0.10280413 -0.081520386 0.0582384 -0.016875388 -0.021983486
0.0054617384 0.05205213 -0.0819052 0.023722796 -0.09054277 0.03982129 -0.08413108 0.0538048

tree_conv.3.weights.weight f4 [128, 256, 3]
00000000: c6de 8abc 1e08 b2bc 3642 2c3c c201 bcbc
00000010: c022 ba3c e487 8f3c 423d 123b 719f adbc
00000020: 333d 763b b466 02bc 4e37 c43c e655 4ebc
00000030: 672e c5bc a2a4 0b3b 9104 d3bc 0d60 6ebc
00000040: 61d5 0cbd 6d7b e73b 8441 7ebc 9b57 723b
00000050: 1400 cd38 6638 d5bc 9720 b6bb 1a0b 02bd
00000060: 6ef2 22bd 8d5a e2bc 1f79 ebbb 32d0 993c
00000070: 78f3 6ebc 7678 b0bc ce57 9fbc 3910 453b
00000080: db26 08bc 8656 1f3c f423 e3bc 6d54 a7bc
00000090: d1e4 b73c 6f06 d6bc 736f 5a3b 22ee 01bd
000000a0: ec1b 063d 9ee2 633b c607 aebb 5481 e6bb
000000b0: e27e a13c ec68 a2bc 39e9 48bb 3389 aabc
000000c0: 7838 9fbc 9168 cbbc d4ea 023d 71bf c43b
000000d0: 6de7 2c3b 2bfb ccbc b9e1 d03c b99f 33bc
000000e0: 27cc 043d 0680 013d 17cd 83bc 39c8 3dbc
000000f0: 09f4 1f3c a58b d9bc 51be e83b 5f61 aabc
00000100: 00fc c33a 96e5 bcbc acf6 1a3d fb94 643c
00000110: d3d0 21bc e80c 1abd 38e3 31bc 7618 6cbb
00000120: af6c d7bc c914 15bc 8842 febc d8ff d93c
00000130: 934f cf3c c28f 4e3c b202 02bd d1c7 68bc
00000140: 26db d6bc e1c5 09bd 00d5 bf3c 21c4 783c
00000150: 3c73 7c3c e44e 94bc b4ea 89bc 8f46 033d
00000160: 355c 0a3d 9024 0d3d e659 b43b 7914 02bd
00000170: 872f 003d 177a 873c 678b 193d 287c d8bb
00000180: df4e babc ec53 06bb 97ad 00bd 8f29 bf3c
00000190: 0780 133c 15f5 ff3c 7c14 2abc e63c 373c
000001a0: f095 093d c38a 093d 2d33 ac3c 6af5 5a3b
000001b0: cd4d d43c 9de1 b0bc 3ef4 81bc 2613 a3bc
000001c0: 11a6 8ebc 84d0 8bbc f42b c33c 4b40 81bb
000001d0: 4d71 c2bc 1d1f 123d 58c9 22bc d2ae 06bd
000001e0: 7b5b fbbc 1b05 34bb 03ad 343c 0b01 13bd
000001f0: 2fde fa3c 0685 f4bc d719 053d bf84 00bd
00000200: 0efc 813c 52cd c7bc 0907 073d c881 9b3c
00000210: 2dbc a5bc 0904 bcbc b9b9 853b 7347 c8bc
00000220: b3d5 9cbc aee5 73bb 18fc 86bb 8d85 613c
00000230: 0d43 273b 1f29 a23c 31bb 943c 9d4d e5bc
00000240: 948d 0d3d b915 8dbb 026b bd3c 6a6e 4f3c
00000250: 7f45 07bd 9bd8 a13c 2a1e e43b 4a1a c1bc
00000260: 894e 9f3c e2fe ddbb ee71 8cbc 4b22 edbc
00000270: 5e0a 91bc 18c0 c0bc 33f4 9c3c 61fb fdbc
00000280: 6633 94bc 2654 30bc e78a fcbb 9972 ab3a
00000290: b2c5 b6bc b304 c33c 694e ec3c 9dfb 2dbb
000002a0: 1360 f63b 8c71 91bc 1404 edbc c906 e73c
000002b0: f763 cf3b 2825 863c 86ec 0fbc 5e2c 893c
000002c0: d764 bb3c e0e2 8abc c01f 033d 0c0c 54ba
000002d0: afe2 313c cef0 e7bb 50bf 2abc 0671 74bc
000002e0: 1170 d83c dfe1 e0bc 318a 643c 66bd 9dbc
000002f0: c25f c1bc 578c b43c 74ea 0c3c 97a1 8b3b
00000300: c69c 143d edeb 6d3c 636f a8bc 449f 993b
00000310: fcca 043c f3d0 663c f2ec 063d 93e0 1d3c
00000320: 1093 c2bb 172b d6ba 5413 e0bb 55bc 44bc
00000330: 50cd bcbc a1d6 28bc 9cce 27bc 1617 ed3b
00000340: b0a8 aebc 8c4f b8bc 1f72 90bc d1dd 5ebc
00000350: d933 44bc 7099 063a 1c5e 0ebd 3123 223b
00000360: 37dc e93c 2606 063c 1ecb 0a3b 2186 463a
00000370: f35e 48bc f601 7ebc bab8 4d3c 0ee7 babb
00000380: 1f1e 0ebc 8b08 073d 3da1 d33b 4a82 c8bc
00000390: aa23 463d d41c 643c 237b b33c f7e5 76bc
000003a0: be49 0ebc f6a5 42b6 c0c8 99bc 11dc 203c
000003b0: 5a7e 873a dfcf 03bb 7374 e83c 0cb6 51bc
000003c0: dace 46bb 2772 933c 3204 533b 0d7f 003d
000003d0: faf1 bdbc c8cf d3bc 7bfc d43c 0571 c53c
000003e0: f057 06bb 3027 0abd a788 833a c021 053c
000003f0: 60c5 2d3c 0532 203d fcb1 303c 7118 e33b
-0.01695193 -0.021732386 0.010513833 -0.022950057 0.022721648 0.017520852 0.0022314345 -0.021194192
0.0037573099 -0.007959057 0.023952153 -0.012593722 -0.024069978 0.0021307846 -0.025759013 -0.0145492675
-0.03438318 0.007064274 -0.01551855 0.0036978486 9.775176e-05 -0.02602787 -0.005558084 -0.03174887
-0.03978198 -0.027631069 -0.0071860696 0.018776033 -0.014584415 -0.021541815 -0.019451048 0.0030069484
-0.008310045 0.009725219 -0.027727105 -0.020426 0.022447975 -0.026126115 0.003333059 -0.03172124
0.032741472 0.0034772526 -0.0053109853 -0.00703446 0.019713823 -0.019825421 -0.003065659 -0.020817375
-0.019436106 -0.024830135 0.03196223 0.006004267 0.0026383058 -0.02502211 0.025498258 -0.010963374
0.032421257 0.031616233 -0.016089005 -0.011583381 0.009762772 -0.026555846 0.0071027656 -0.020798383
0.0014952421 -0.023058694 0.0378329 0.013951535 -0.009876448 -0.037609965 -0.010857396 -0.0036025322
-0.026296942 -0.009099194 -0.031037584 0.026611254 0.025306499 0.012607517 -0.03174085 -0.014207796
-0.026227545 -0.033635978 0.023416996 0.0151834795 0.015408333 -0.018104024 -0.016835548 0.03204971
0.03377934 0.034458697 0.005503881 -0.031757805 0.031295326 0.01653771 0.03748646 -0.0066065975
-0.022742687 -0.0020496799 -0.03141555 0.023335246 0.009002692 0.031244794 -0.01038086 0.011183953
0.033590257 0.0335796 0.021020496 0.0033410438 0.025916005 -0.021591956 -0.015863534 -0.019906592
-0.017413171 -0.017067201 0.02382467 -0.003944432 -0.023735667 0.035674203 -0.009935699 -0.032881565
-0.03068327 -0.0027468863 0.011027577 -0.035889667 0.030623524 -0.029848587 0.032495346 -0.031376597
0.01586726 -0.024389897 0.032965694 0.018982783 -0.02023133 -0.022951143 0.0040809778 -0.024448132
-0.019144868 -0.0037215757 -0.0041194074 0.013764751 0.0025522143 0.019794999 0.018155666 -0.02799111
0.034558848 -0.004305568 0.023122314 0.012660602 -0.03302526 0.019756606 0.0069616036 -0.023572106
0.019446628 -0.006774769 -0.01714417 -0.028947016 -0.017705139 -0.023529097 0.019159412 -0.031003656
-0.018090915 -0.01076225 -0.007706988 0.0013080417 -0.022311065 0.023805952 0.028845983 -0.0026547678
0.007518777 -0.017754339 -0.028932609 0.028201478 0.0063290554 0.01637514 -0.008784419 0.016744789
0.022875233 -0.016953886 0.0320127 -0.00080889533 0.010857268 -0.0070782667 -0.010421589 -0.014919525
0.026420625 -0.027451454 0.013948963 -0.019255351 -0.023605231 0.022039576 0.00860082 0.0042612064
0.036282323 0.014521581 -0.020560926 0.0046881754 0.008105036 0.014087903 0.032940812 0.009636062
-0.0059379414 -0.0016339746 -0.0068382416 -0.0120077925 -0.02304712 -0.010305078 -0.010242131 0.007235418
-0.02132067 -0.022498868 -0.017632542 -0.01360269 -0.011975252 0.00051345583 -0.03475772 0.0024740214
0.02854739 0.008180177 0.0021178196 0.00075730874 -0.012229669 -0.015503397 0.012556249 -0.0057038134
-0.008674174 0.03296713 0.00645843 -0.02447619 0.048373856 0.013922889 0.021909302 -0.015069476
-0.008684574 -2.9004855e-06 -0.018772483 0.009818093 0.0010337338 -0.0020112914 0.02837584 -0.012799751
-0.0030335695 0.017998768 0.0032198546 0.031371165 -0.023186672 -0.025855914 0.025999298 0.024101743
-0.0020499192 -0.03372878 0.0010035232 0.008125722 0.01060614 0.039110202 0.010784622 0.006930404

tree_conv.3.weights.bias f4 [128]
00000000: a7b3 ddbb 98d1 9f3c a928 5b39 0988 e43c
00000010: b856 273c 50ce 4abc b1aa 99bc 9f0b 9a3c
00000020: 2e3d 12bc e43e 0e3d 782d 473c f464 e1bc
00000030: 668b ef3c 5e18 e1bb b92e 1b3d 784d 98bb
00000040: 7c3b ea3c 8273 d3ba f0a1 2cbc 497f bcb9
00000050: 11fe 3b3c 31af cf3c eb8e 6cbc 226d de3c
00000060: 912b 97bc 3525 62bb 362e 5c3c cec5 b53c
00000070: 5efb 2dbb 90e3 28ba a7e2 aabc 404e 073d
00000080: d1cc 123d 9d4a dd3c 751d 02bc ca75 353c
00000090: abfa 263d 8503 373c 0652 843c 4ce7 f9bc
000000a0: 1d16 44bc b372 093d a480 f4bb 1212 d4bc
000000b0: 1a93 933c 7b0a c4bc 69b3 02bd ab48 23bb
000000c0: 43d9 02bd 85e5 32bb bfb0 a5bc 9088 12bd
000000d0: e908 033d ba79 ad3c 4dc8 54bc 948d 85bc
000000e0: 098c 273b 5526 8f3c 1ff0 ddbc 8a3c 083d
000000f0: 687b c83c f987 2fbc cc6d 433c a6b3 9fbb
00000100: 7745 11bc 6470 3cbc 65d3 063d 9bc6 b33c
00000110: d406 f3bc 48ea 9bbc 126f 02bd 52c6 a6bc
00000120: 801c 943c e0e0 b83c 5eea 8bbc 8ac2 30bb
00000130: f00b c7bc e0d7 93bc 6246 483a 71d5 6b3b
00000140: adc7 8f38 e28e 5e3c 5c05 dc3b 6449 3abc
00000150: de79 913b b9d6 c2bb eb57 37bc 83b0 253c
00000160: d854 143d 60ff aebc f5f0 c83c fe26 2e3c
00000170: 795a 2a3c 5373 cabb 8893 abbc 6e75 023d
00000180: 964c 1d3c 596b 543c 33c5 0c3d 2eb4 bdbb
00000190: 3cd5 70bc 115f ee3b 8a71 bbbc 9a46 043d
000001a0: c72e 1bbc db9f 26bc 9355 e13c 6a91 273c
000001b0: 32cd 1bbd 86df 0bbd f66b 89ba 2e39 ea3b
000001c0: 21ed d1bc 4af3 d83c da0e 003d 2a0e 9dbc
000001d0: e8cf 4f3b f0e8 8f3c 59cc 5e3c e2a6 593c
000001e0: 61d6 803c f652 57bc 6abf a43b 02dd 5dbc
000001f0: e324 cd3c fd73 143d 3382 3abc 2dda dfbc
-0.006765801 0.019509122 0.00020900615 0.027896898 0.010213546 -0.01237829 -0.01875815 0.01880437
-0.008925719 0.034727946 0.012156837 -0.027513959 0.029241275 -0.00686936 0.037886355 -0.004647907
0.028592817 -0.0016132446 -0.010536656 -0.0003595299 0.011474148 0.025352092 -0.014438371 0.027151648
-0.018453391 -0.003450704 0.013438752 0.022189047 -0.0026547532 -0.0006442601 -0.02086003 0.03303361
0.03583986 0.027013117 -0.007941593 0.011075446 0.0407664 0.011170273 0.016152393 -0.030505799
-0.011968163 0.03355665 -0.007461624 -0.025887523 0.01801448 -0.023930779 -0.03190938 -0.002491514
-0.03194548 -0.0027297449 -0.02022588 -0.035774767 0.03199092 0.021176208 -0.012987209 -0.016302861
0.0025565645 0.017474333 -0.027092038 0.03326086 0.024472907 -0.010713571 0.011928033 -0.0048737107
-0.008866659 -0.011501405 0.032916445 0.021945288 -0.029666342 -0.019032612 -0.031844206 -0.020358238
0.018079996 0.022568166 -0.017079528 -0.0026971423 -0.024297684 -0.018047273 0.00076398824 0.0035985375
6.855964e-05 0.013583871 0.006714506 -0.011370037 0.0044395765 -0.005946007 -0.011190395 0.010112884
0.036213726 -0.021362007 0.02452896 0.010629414 0.010397547 -0.0061782985 -0.020944372 0.03185027
0.009600779 0.012965047 0.03436775 -0.0057893014 -0.014699277 0.0072745164 -0.022881288 0.032293893
-0.009471602 -0.010169948 0.027506625 0.0102275405 -0.038037486 -0.034148715 -0.0010484445 0.0071479296
-0.025625767 0.026483197 0.031264164 -0.019171793 0.0031709615 0.017567128 0.013598525 0.013284417
0.015727224 -0.013142338 0.005027701 -0.013541462 0.025042003 0.036243428 -0.011383581 -0.027325714

tree_conv.6.weights.weight f4 [64, 128, 3]
00000000: 2882 09bc 537c 013d af36 ed3c 40a0 fe3c
00000010: 1b72 5fbc 9ada 0b3c 188e a53c b91e 273c
00000020: c065 20bd 669e 1cbd 89a1 51bd 9254 9bbc
00000030: 053e d8bc fcfe 11bd 870d 00bd 2623 723d
00000040: 7961 3cbd 00b1 1e3b a0b1 d43c 40ab 1bbc
00000050: c6ab b43b 2d26 e13c 5db9 013c 99c8 1c3d
00000060: 9d22 a2bc 8947 a33c 7d8b fd3c 5d5b 023d
00000070: 7a32 4fb9 7081 46bc b84d cc3c 118d b8ba
00000080: 0c3a d5bb 2dba 0abd bfc1 2e3d 003a 1d3d
00000090: 7bce dabc 4417 55bc 9fbb 26bd b65f 043d
000000a0: dde6 14bd 1f5c 113d dce9 cc3b 9e5a 163d
000000b0: 5e78 703c 8e72 64bc 072f 16bd 4d32 a0bc
000000c0: 27a4 d4bc d5fe 6bbc 3ba4 92bc fc6f 4fbd
000000d0: d8ca 053d 3414 e73c cfc6 35bc 9319 9f3c
000000e0: 0571 6fbc 0412 853c 118f a5bb f549 083d
000000f0: 60ff 0c3c 5699 75bc 70df 8d3c 48b4 f7bc
00000100: 023d b5bc e244 393c 6df6 2e3d a70c 20bd
00000110: ea2e 823c 982d 00bd 5edc 33bc 5bc9 063d
00000120: 3f20 47bd 035f 213d 742f 0b3d fbd0 be3b
00000130: 9b1e 1ebd 6cf8 0dbd 41dc efbb 0891 88ba
00000140: 0d92 9838 09ec 14bd 97e9 5cbc 16dd 003d
00000150: ee22 113b 02bb 0dbb 7652 3e3d 7fd8 313d
00000160: a25e d63c 13f7 063c 346e 38bd 88a4 1d3d
00000170: 2c06 f0bc fd34 913b af36 31bd 9466 32bc
00000180: 3aca 8eb9 8b96 e33c ee72 083d 6664 fabc
00000190: 4bfa 2b3c d11c c3bb 3b19 1dbd f541 e4ba
000001a0: 9643 95bc bfc1 20bd e858 a7bc ac8e 04bd
000001b0: 562d 313c a24d 7f3c b113 e1bc 2747 5dbb
000001c0: 75d9 dd3c b0cc f63b 3a41 723c 9e4b 843a
000001d0: 5eeb 6abc 5172 553c 50e6 363c 21fe 4abc
000001e0: 5b8f b5bc 9b7e 95bc 578c 1f3d 20ec 9ebb
000001f0: e0fe dd3b dda0 033d 3b73 9a3c 36f6 c5bc
00000200: 34e7 99bc 28aa c73c 6a4d 343d ba2e 02bd
00000210: c88b 8dbc 7c73 cb3a b899 8dbb ac8f c23b
00000220: 7994 b73c bee6 ba3c 17eb cd3b 6107 d43c
00000230: ea4b 59bd c68e 42bc 3235 85bc 9532 0b3d
00000240: cc59 a9bc ed9b 0bbd e1bf eb3c 826c 5d3c
00000250: aa55 0c3d 3d90 283d 1160 f8bc 7067 d5bb
00000260: 6311 b5bc 0585 0a3d dda4 ccbc 43e7 e9bc
00000270: 041a fc3c e89b 0d3d b171 ddbc a87b 2f3c
00000280: b55e 833a d7e9 afbc 0982 cc3c b9bb b33c
00000290: 22fc d33c 0f6f 5f3c 943d 073d 9125 cbbc
000002a0: 37bf d13c 4d1c f33b cc48 263d 791d b2bb
000002b0: 089e 1cbd b531 2a3d 4f4b 69bc 61cb 5dbd
000002c0: 80d8 7e3c da86 cbbc 38c5 a03c 5745 cdbc
000002d0: 9991 e93c 3cc4 2c3d 69ef 743a 2ec4 2bbd
000002e0: 1995 903c ced1 7bbb ec26 b93c 65ed 1f3d
000002f0: 5d2b 193b d430 b9bb 0d78 2d3d bdcc eb39
00000300: 5524 133c 6f31 c7bb fd9a 0abc 109e 173d
00000310: 4cbe 19bd 12b2 48bd 7239 0fbc 3f7a d0bc
00000320: 8895 42bc 7167 2bbd f3f3 a2bc d5f1 44bb
00000330: cacb 503d 2053 8dbc 74cc 5fbd a337 b339
00000340: bb70 53bd 1d5f a8ba ecf9 78b9 12ba 253d
00000350: 42aa ba3c cfad a43b 0625 ff3b 668b 30bd
00000360: fb39 09bd 30a9 d1bc b5d5 18bd 7176 273c
00000370: 8218 e13c 646a 0e3d da02 d6bc 5014 ee3c
00000380: 7750 303d 90a9 ed3b 867d f6bb f5e0 4cbc
00000390: 7495 66bc 7cd6 35bd de61 e6bc a215 0d3d
000003a0: efa3 46bc 8d24 0e3d 3339 e0bc 22e1 273c
000003b0: 2c7a 3fbd 24a8 f2bc a43f 483d 8d85 96bc
000003c0: eb44 cf3b 3741 dd3c 7d57 92bc 12ea 7d3b
000003d0: 6df3 3d3d 38e4 10bd 3952 d4bc b038 e43c
000003e0: cdd7 bc3c b3f4 7e3c f812 223d 669f 39bc
000003f0: e72c 72bc 0a06 13bd 70fc daba 27e2 563d
-0.008392848 0.031612705 0.02895674 0.031082273 -0.013638045 0.008536005 0.020209357 0.010200196
-0.039159536 -0.038236998 -0.051179443 -0.018961225 -0.02639676 -0.035643563 -0.0312629 0.05911555
-0.045991395 0.0024214387 0.025963604 -0.009501278 0.005513641 0.027484024 0.007917729 0.038277242
-0.019791896 0.019931572 0.030950302 0.031825412 -0.00019759862 -0.012115821 0.024939403 -0.0014080127
-0.006507164 -0.033868957 0.04266524 0.03838539 -0.026709786 -0.013006035 -0.040706273 0.03231784
-0.03635298 0.035488244 0.006253464 0.036707513 0.014677135 -0.013943328 -0.036665943 -0.019555235
-0.02595718 -0.014404018 -0.017900577 -0.050643906 0.03266415 0.028207876 -0.011094763 0.019421374
-0.014614348 0.016243942 -0.0050524552 0.033273656 0.008605808 -0.014990171 0.017318457 -0.030237332
-0.022123817 0.011307927 0.04271548 -0.039074566 0.015891511 -0.03129348 -0.010977833 0.03290687
-0.048614737 0.03939725 0.0339808 0.0058232523 -0.038603406 -0.03466074 -0.0073199575 -0.0010419199
7.275129e-05 -0.036357913 -0.0134834265 0.031460844 0.0022146064 -0.0021626358 0.04646536 0.043419357
0.026168171 0.008237618 -0.045026973 0.038486987 -0.029299818 0.0044313655 -0.04326504 -0.010888714
-0.0002723502 0.027781745 0.03331273 -0.030565452 0.010496686 -0.005954363 -0.03835414 -0.0017414676
-0.018220704 -0.03924727 -0.020428136 -0.032362625 0.010814032 0.015582474 -0.02747521 -0.0033764334
0.02708123 0.007531725 0.014786059 0.0010093336 -0.0143383425 0.013027743 0.011163309 -0.012389691
-0.022163084 -0.018248847 0.038952198 -0.0048499256 0.0067747682 0.032135833 0.018853774 -0.024165254
-0.018787004 0.024373129 0.04401914 -0.031782843 -0.017278567 0.0015522088 -0.004321303 0.005937537
0.022409664 0.022815105 0.0062841284 0.025882425 -0.053050913 -0.01187486 -0.016260717 0.033983786
-0.020672701 -0.03408425 0.028778018 0.01351464 0.034261383 0.04115318 -0.030319246 -0.006512575
-0.022103017 0.033818264 -0.024980957 -0.028552657 0.030774124 0.034572512 -0.027031751 0.010710634
0.0010022732 -0.021473808 0.02496435 0.0219401 0.025877062 0.013637318 0.03301771 -0.024798186
0.025603874 0.007419145 0.04059677 -0.0054356423 -0.038236648 0.04155131 -0.014239146 -0.054149035
0.015554547 -0.024844576 0.019625291 -0.025057478 0.02851181 0.04217933 0.0009343536 -0.04193514
0.01764922 -0.0038424614 0.022601567 0.039044756 0.0023371794 -0.0056515727 0.042350817 0.00044975235
0.00898083 -0.006078891 -0.008459804 0.037015975 -0.037534997 -0.048997946 -0.008741723 -0.025448916
-0.011876471 -0.041846696 -0.019891715 -0.003005137 0.0509756 -0.017251551 -0.05463834 0.00034182993
-0.05162118 -0.0012845729 -0.00023744226 0.040460654 0.022786263 0.0050256024 0.007786396 -0.04310169
-0.03350256 -0.02559337 -0.037313182 0.01022111 0.027477507 0.03476943 -0.026124407 0.02906242
0.043045487 0.0072528794 -0.007522288 -0.012504806 -0.014073718 -0.044394 -0.028122839 0.03444446
-0.012124046 0.034702826 -0.027371025 0.010246547 -0.04674737 -0.029621191 0.048888817 -0.018374229
0.0063253543 0.027008636 -0.017863983 0.0038744253 0.046374727 -0.035373896 -0.025918113 0.027859062
0.02305212 0.0155612705 0.03956887 -0.011329507 -0.014781213 -0.03589443 -0.0016707312 0.05246177

tree_conv.6.weights.bias f4 [64]
00000000: 076c 373c 59fd 3fbc a0c4 ce3c 8e35 dabc
00000010: 8e2f 4fbc 295c 01bd 36da 6bbb 4756 523c
00000020: 75c7 40bd 1e44 32bc 066a 023b 1541 28bc
00000030: 7f4b 1bbc 2763 2c3c d8ca e6ba 246e 73bb
00000040: ec97 a53b a638 c63c 4e5a 12bd 2b5e 2e3c
00000050: 14ec 77bc abe7 2bbd 7fef 32bc 91fb c13c
00000060: ad38 d93b 9003 12bd 74bd 8dbc 7b41 c6bb
00000070: 66a2 773b 178f 94bc d02b 923c 4754 8d3c
00000080: e386 b0bc 7ea7 8b3c c42f 0f3c f685 973c
00000090: b9ae 30bc 38b5 02bd 1f81 05bd 92bd 3fbd
000000a0: 755a 533a 7f69 55bc db51 deba df2e e43c
000000b0: 1ed3 833c 8c4d c3bc 20fd 233d a7d3 6b3c
000000c0: deec 013d 421a 113a b9b2 f3bc 0daa 2ebc
000000d0: e031 ccbb 9fa6 ce3b f497 893c 8df1 9e3a
000000e0: fcaa 6f3c 717b 2abc 0746 f73b 623e 05bd
000000f0: 681d 66bc f46a 83b9 103d 0b3d edcc 9b3c
0.011195189 -0.011718118 0.025240242 -0.026636865 -0.012645615 -0.03158203 -0.0035988218 0.012837953
-0.047065217 -0.010880498 0.001989962 -0.010269423 -0.009478449 0.010521687 -0.001760806 -0.0037144506
0.005053511 0.024196934 -0.035730653 0.010642569 -0.015131969 -0.041968983 -0.010921358 0.023679527
0.0066290707 -0.03564793 -0.017302252 -0.0060502863 0.0037786006 -0.018134637 0.017843157 0.0172521
-0.021548694 0.01704764 0.008739416 0.018496495 -0.010783845 -0.031911105 -0.032593843 -0.046811648
0.00080624904 -0.0130256405 -0.0016961651 0.027854381 0.01609188 -0.023840688 0.04003632 0.014393724
0.031720035 0.0005535224 -0.029748308 -0.01066066 -0.0062315315 0.006306484 0.01679609 0.0012126431
0.014628168 -0.010405407 0.0075461897 -0.032530196 -0.014045097 -0.00025065953 0.03399378 0.019018615

tree_conv.9.weight f4 [32, 64]
00000000: 45d6 94bd d52a e23d 0fa7 783d e140 463d
00000010: 0bc9 82bb 8858 e03d 42f6 7dbd edc2 34bd
00000020: e84f 283c a333 5cbd d3a3 dbbd d825 833d
00000030: 88c7 753d f275 71bb 19a2 bb3c 39e4 f5bd
00000040: 9c84 89bc aee0 a83d c8cf 413d d0b4 c03c
00000050: f5e4 adbd 9f95 7c3d f001 a03c c4e6 c63d
00000060: 063a 56bd 0609 a5bd 3d25 883d 0a3c 833d
00000070: decb d3bd 8746 78bd e192 eb3d f329 2c3d
00000080: 163a 81bd 3a72 c1bd de31 bd3d 7562 ee3b
00000090: 5725 5dbc f3e1 dfbd 581d 303d 4830 e1bd
000000a0: b743 0ebd 96bb 9bbd ba0d 0ebd 9b16 02be
000000b0: fce0 e8bd 49f1 39bd 089a 9d3d 6890 1b3d
000000c0: 65af 36bd bf46 f03d c134 d8bd 9ead 073d
000000d0: 6fbd 333d 71bf 313d 8135 e03d 7632 ce3d
000000e0: e327 45bd 84cc 193c d15e a4bc 76c2 febd
000000f0: e8bf 76bd 9860 ea3d bda4 edbd 960c 9cbd
00000100: f8d1 8dbc 16f6 bf3d 7291 e43c 07e5 4bbd
00000110: b313 c93d 49cf c73d 79d0 d4bd 4358 fb39
00000120: e506 f7bc f5b9 e8bd 2b52 0abe 739f 12bb
00000130: 6cba 023e 2f24 463d e706 453e 85c4 823d
00000140: 0ad7 3b3d 6ac4 f0bd c56f fd3d cd8f 2fbc
00000150: 9a40 223e b927 efbc d324 04be 3d52 933d
00000160: 571b 013e dfb5 e73d 2c32 813b aa5e 6fbc
00000170: c99c 8bbd 902d ccbd 9678 88bd e71e 413b
00000180: ca08 693d f1f2 06be cda5 673d 7667 13bd
00000190: 53c7 fb3d bab4 c43d 9f32 263d bf02 983b
000001a0: 9367 103d 0e6d 4d3d 59ff cabd 70d7 33bd
000001b0: a5eb 0a3e fded dcbd ecfb 2c3c db19 f6bb
000001c0: 70ed c2bc c91c 1d3e 6873 9e3c a75a bc3d
000001d0: 34a9 9f3d 30c4 493d 11f0 e93c d0c8 acbd
000001e0: 28fb efbd 25d4 263d 5756 1d3e 8f8b 7cbd
000001f0: 6e7b 39bd 3b54 35bd a94d d73c b061 213b
00000200: 8d62 c23d be43 ecbd 14c1 d3bc 2230 5cbd
00000210: 1e3c 8fbc d20e ac3d 1093 0c3c b4f8 9ebc
00000220: 8f1d 7a3d 2158 2bbd 0b27 dc3d 7fef eb3b
00000230: 614d 64bc bc93 d7bc 4385 2d3d 665c 20bd
00000240: 3a7f a7bc 31a5 9a3d 36ea 4dbd e64f f2bd
00000250: fdb5 573d c634 833d 1c9f 193e 24d4 b93d
00000260: 9b11 a2bd 73cd bbbd a3b5 7ebd 2212 073d
00000270: 3f16 86bd 43a2 c03d e0c5 59bd cd81 db3d
00000280: f9c6 fa3c 0cc3 dc3d 4046 213e 9077 a5bd
00000290: 11bd 80bd d4b6 a63c 3135 fabc 8524 98bd
000002a0: 6e86 19bd e3fb 263e 66f7 ebbc c9f7 79bd
000002b0: 2355 a43d 850d f53d 18ad 803c f4a2 90bd
000002c0: 21e3 f93b 6f94 a13c fa31 fbbd 36f2 3abd
000002d0: fc3c 263d 9239 a53d bbbf b33d 7513 143e
000002e0: ddcb 143e c003 063e fd54 9ebd 9be6 3b3e
000002f0: 562e 14bc 1db0 4f3b 9e56 8fbd 0b7a a13d
00000300: 4dd9 c03d 2b0b 343d 77f7 733c 0637 dc3c
00000310: 8e90 193e 5e5f dd3d 5feb 34bd 0827 b73c
00000320: 18e5 b6bc c791 063d 2346 193e ab2b 0bbe
00000330: 1473 54bd 76a3 693d f04b 1f3d 3dca fe3d
00000340: 3b4a 27bc db8b 223e a9c3 acbd d7ea 26bc
00000350: d685 1bbe 6ab0 0a3e 718d 1c3e ac74 f43d
00000360: f3d6 ebbd 1efd 563d fdf5 bcbc 7f47 d3bd
00000370: 9aa3 f7bd df94 b33d b460 f63d 0bd6 033e
00000380: f2ed d43d 2147 9b3d 911d 803d 1d4e bebd
00000390: 25e9 12be 3690 ae3d 6274 8bbd 2962 35bd
000003a0: 43d2 b2bd 4248 063e d675 353e e17d 80bc
000003b0: 695c 5f3d 7267 c83c 9bd1 0abe 73f7 3cbd
000003c0: 3cc6 8a3d cda2 52bd fc14 01be 6712 92bd
000003d0: 132c 6b3c 0005 483e 5cfe f73d 30bd 0f3e
000003e0: d1b8 9c3d 4e58 863c 4de3 93bd d626 92bc
000003f0: d231 5f3c cff2 f6bd 4353 efbc 92fc 8fbd
-0.07267431 0.11043326 0.060706194 0.048401717 -0.0039912513 0.10954386 -0.062002428 -0.04413121
0.010272957 -0.053760182 -0.10724606 0.064037025 0.06000474 -0.0036843983 0.022904443 -0.12006421
-0.016786866 0.08245979 0.047317296 0.023523718 -0.08490936 0.061666127 0.019532174 0.09711984
-0.05230143 -0.08058362 0.06647728 0.06407936 -0.10341619 -0.060614135 0.11502624 0.042032193
-0.06309907 -0.09445615 0.09238027 0.0072749206 -0.013497672 -0.10931768 0.042996734 -0.10995537
-0.034732547 -0.076041386 -0.03468106 -0.12703936 -0.11371037 -0.045396123 0.07695395 0.037979513
-0.044600863 0.11732244 -0.10556937 0.03312456 0.04388183 0.043395463 0.10947705 0.100682184
-0.048133742 0.009387139 -0.020064743 -0.12439434 -0.06024161 0.11444205 -0.11603687 -0.07619588
-0.017312035 0.09373109 0.027901385 -0.049778964 0.098182105 0.097563334 -0.103913255 0.0004794021
-0.030154655 -0.113635935 -0.13507907 -0.0022372871 0.12766427 0.04837435 0.19240914 0.063851394
0.045859374 -0.11756213 0.12374834 -0.010715437 0.15844956 -0.029193746 -0.12904672 0.0719342
0.12608086 0.11313986 0.0039427485 -0.014609972 -0.06817014 -0.09969628 -0.06663625 0.0029467882
0.056893148 -0.13178612 0.056554604 -0.03598734 0.122938775 0.09604783 0.04057562 0.0046389992
0.035255026 0.05015283 -0.09911985 -0.04390663 0.13566454 -0.1078758 0.01055811 -0.0075104064
-0.02379486 0.15343012 0.01934214 0.09196978 0.07795945 0.049259365 0.028556855 -0.084367394
-0.11717826 0.04072966 0.15364967 -0.06165653 -0.045283727 -0.04426978 0.026282148 0.0024624877
0.09491453 -0.11536358 -0.025848903 -0.05375684 -0.01748472 0.08401264 0.008579984 -0.0194057
0.061063346 -0.041832093 0.10749634 0.007200181 -0.013934464 -0.026315562 0.042363416 -0.039150618
-0.020446409 0.07551039 -0.05027219 -0.11831646 0.052663792 0.0640655 0.15002102 0.09073666
-0.07913514 -0.09170046 -0.06218494 0.032976277 -0.06547212 0.09405949 -0.053167224 0.10718117
0.030612456 0.1077939 0.15749454 -0.08079445 -0.062860616 0.020350851 -0.030542942 -0.074288405
-0.037481718 0.16307025 -0.028804492 -0.061027322 0.08024051 0.11965469 0.015707538 -0.07062331
0.007625953 0.019724099 -0.12265392 -0.045641147 0.040585503 0.08067621 0.08776804 0.14460547
0.14530893 0.13087368 -0.07731054 0.18349688 -0.0090442505 0.0031690665 -0.06998943 0.07884606
0.09416447 0.043955963 0.014890543 0.026881706 0.1499655 0.108092055 -0.04416978 0.022357479
-0.022326037 0.032853868 0.14968161 -0.13590877 -0.05186756 0.057040654 0.03889078 0.12440918
-0.010210569 0.15873663 -0.08435757 -0.010187826 -0.15187773 0.13543859 0.1528833 0.11936316
-0.11515608 0.052487485 -0.023066515 -0.10316371 -0.120917514 0.08768629 0.120301634 0.1287462
0.10396947 0.07581926 0.06255639 -0.09292243 -0.1434675 0.085236 -0.06809308 -0.044283066
-0.087315105 0.13113502 0.17720732 -0.015685024 0.05453149 0.02446339 -0.1355652 -0.046134423
0.067760915 -0.05142479 -0.12605661 -0.07132416 0.01435377 0.19533157 0.12109062 0.14037013
0.076524384 0.016399529 -0.072210886 -0.017840784 0.013622718 -0.12058031 -0.029214507 -0.07030596

tree_conv.9.bias f4 [32]
00000000: 030f f0bd 8e61 b8bc f005 b93d ad8d d0bc
00000010: 0ee3 093d 51de 813d 9c6a 263e 36b1 92bd
00000020: ecde c0bc 4bcf 633c cf54 b93c 1246 a03d
00000030: a487 96bb 5a58 d3bd 3d51 f73d 9d99 0fbb
00000040: eab6 873c 79fa ee3d 59bd 93bd 8958 953d
00000050: 3514 9c3d f897 c93d 0cb6 eabd 69ec 383d
00000060: 7560 ff3d da39 1a3e 6259 0e3e 855e 333e
00000070: 5711 a83d f0e1 c4bd ee3e 1c3e 4c2f c0bd
-0.11721613 -0.022507455 0.090343356 -0.025458181 0.0336638 0.063412316 0.16251606 -0.071627066
-0.023543797 0.013904403 0.022623448 0.07825865 -0.0045938063 -0.10319586 0.12076042 -0.002191163
0.016566712 0.116688676 -0.072138496 0.07292277 0.07621042 0.09843439 -0.11460504 0.045147333
0.124695696 0.15061131 0.13901284 0.17516525 0.08206432 -0.09613407 0.15258381 -0.09384021

tree_conv.11.weight f4 [1, 32]
00000000: ac4a 8a3d 41db 1dbe 3eaf 0b3e 4e6c 8d3e
00000010: d1e1 243e c648 0c3e 18b2 133e 2984 1abe
00000020: 871a 9fbe dc03 07be 99b3 4abe f2fc 053e
00000030: aff2 88be f789 223d 99ab 213e 8d8e 72bd
00000040: c4b0 56be adbb 5c3e 1230 41be 0d81 483e
00000050: c4e9 06be da33 983e 75e9 60bc af62 3e3e
00000060: b343 5cbe 19a8 c4bd b583 5e3e 66e1 fabd
00000070: 244b 1b3e 29de bf3d 54a7 883e 096a 813e
0.06752524 -0.1541567 0.13641068 0.27621692 0.16101767 0.13699636 0.14423406 -0.15089478
-0.31074926 -0.13185066 -0.19795074 0.13084772 -0.26747653 0.039682355 0.15788116 -0.05921798
-0.20965868 0.21555968 -0.18865994 0.19580479 -0.13175112 0.2972706 -0.0137275355 0.18592332
-0.215102 -0.096023746 0.2172993 -0.122500226 0.15165383 0.093685456 0.2669016 0.2527621
