models/lero_on_tpch_10_TPCH_JOP.pth (torch, 583270 bytes, 9 tensors)

tree_conv.0.weights.weight f4 [256, 25, 3]
000000 81 cd 99 3d 96 83 e7 3c 13 78 d5 bd 48 97 7b 3d
       0.075099 0.028260987 -0.10423293 0.06142357
000010 70 08 8b bd cc c1 c8 bc 81 52 60 3d 59 38 a0 bb
       -0.06788719 -0.024506472 0.05476618 -0.0048895297
000020 d4 72 7c 3c a0 e4 17 bd 9f cc 30 3c a1 18 9e bd
       0.0154082365 -0.03708327 0.010790973 -0.07719541
000030 de be fe bd fb b9 bf 3d d7 90 75 bd ad 0a ab 3c
       -0.12438749 0.09361645 -0.059952583 0.020879114
000040 8e 6f 9c 3d b0 66 13 bc 94 00 b3 3c c2 b9 76 bd
       0.07638465 -0.008996651 0.021850862 -0.060235746
000050 5b eb 25 3d ef 38 d8 bc b3 b5 c0 bd 3b a0 8e 3d
       0.040507656 -0.026394336 -0.094096564 0.06964155
000060 4a a7 1a bc d9 6a a9 bc c4 5d 3a bd 86 85 5d bd
       -0.009439299 -0.020680832 -0.045499578 -0.054082416
000070 5b e0 5c bd c0 66 6c bd ad c5 e6 bd 02 de e6 bc
       -0.0539249 -0.057715178 -0.112681724 -0.028182033
000080 af b6 73 3d 41 93 be bd bd 6a 8f 3d da fe 83 bd
       0.059500393 -0.0930543 0.070027806 -0.064450935
000090 9b 9b a1 bd 72 ab e0 3d bc 09 99 bd 1b a9 63 be
       -0.078910075 0.109702006 -0.0747256 -0.22232477
0000a0 8a d4 a2 3e 2f 7f cf bd e2 b7 09 3e 52 e3 bb bc
       0.3180278 -0.1013168 0.13449052 -0.022935543
0000b0 c7 e6 7b bd 1f fd 36 3d 86 21 6b 3d c4 08 e8 bd
       -0.061499383 0.04467499 0.057405017 -0.11329797
0000c0 81 6e 63 3d c7 89 65 3d a1 42 ee 3d 55 e9 21 3e
       0.055525307 0.056039598 0.11633802 0.15811665
0000d0 48 a6 82 3c 74 a3 de 3d 31 9e 34 3d d9 4f c6 bd
       0.01594843 0.1087102 0.044096176 -0.096831985
0000e0 61 08 68 bc a5 56 1d 3d f1 0d 4d 3d c8 cb 0c 3e
       -0.014162154 0.03841271 0.050062124 0.13749611
0000f0 08 b5 88 3d 7b f6 d8 bb 5a da a8 3d 7d 22 09 3d
       0.06675154 -0.0066211796 0.08244772 0.033480156
000100 5a 67 45 bd 43 a3 ea bc dd 55 17 3e 9d 80 98 3d
       -0.048194267 -0.028642302 0.14778848 0.07446406
000110 7c 18 a8 3c 68 96 3b 3d f9 dd 44 bb 6d 50 b6 bc
       0.020519488 0.045797735 -0.0030039533 -0.022255147
000120 f3 27 31 3e 79 58 13 3e 11 d0 0b 3e 63 c0 96 bd
       0.17300396 0.14389218 0.1365359 -0.073609136
000130 cc 19 e9 bd eb 30 0a 3d 62 4b 0f 3a 43 f6 b4 3d
       -0.113818735 0.033738058 0.000546625 0.08836033
000140 96 cd af bd db b1 db bd a2 7f b3 bd 66 1a 13 bd
       -0.08584134 -0.107272826 -0.087645784 -0.035913847
000150 97 b1 dc 3c 66 d8 a0 bd 1e 88 a0 3d 92 f4 f8 bd
       0.02694015 -0.07853775 0.07838462 -0.12156023
000160 db 43 c3 3d c2 33 dc bd 96 bb a0 3d a5 a5 9f bd
       0.09534427 -0.107520595 0.07848279 -0.07795266
000170 d7 d7 8d bd 4f 35 d5 ba 6f 55 1a 3d 20 65 d1 3b
       -0.06925934 -0.0016266498 0.037679132 0.006390229
000180 76 97 a2 3c f6 74 d0 bd 1a 12 8e bd 1b 62 89 bd
       0.019847613 -0.101785585 -0.06937046 -0.06708165
000190 f0 cf 57 3d 07 7d ac bd 13 08 32 bd b6 34 48 bd
       0.05268854 -0.084222846 -0.04346473 -0.048878394
0001a0 a8 58 3c bc e3 d2 a3 3a 54 3c 80 bc 39 a2 75 bb
       -0.011495747 0.0012498762 -0.015653767 -0.0037480725
0001b0 7a 86 fd 3c ff 0b 0a 3e b2 6b e3 3d 28 bd a4 3d
       0.030947912 0.13481139 0.111045256 0.08043891
0001c0 0c 3f 37 3d 09 8d 80 bd 26 6f 69 be 43 54 1e 3f
       0.04473786 -0.062769 -0.22796306 0.61847323
0001d0 3d 9e c2 3c fc 7b e6 bc 54 fd ec bc b3 27 b9 3d
       0.023757095 -0.028135292 -0.02892939 0.09040775
0001e0 0b 5a f5 3c a2 e4 b7 3d cf f9 50 bc ca e4 b8 3d
       0.029950162 0.08979155 -0.0127548715 0.09028013
0001f0 87 4e 01 3e 93 74 e8 bc 4f c2 b3 bd 31 72 79 bd
       0.12627612 -0.0283759 -0.08777296 -0.060899917
000200 90 5a 2a be 42 47 1c bd 79 0b 81 bc bb 96 be bd
       -0.1663611 -0.038153894 -0.01575254 -0.09306093
000210 0c b8 d7 3d 26 2d 06 be 18 bf 0a 3e 78 24 7b bd
       0.10533151 -0.1310316 0.13549459 -0.061314076
000220 e6 c5 a6 bc 40 90 ea 3d 04 2f 8a 3d 30 38 34 bd
       -0.020358037 0.11453295 0.06747249 -0.043998897
000230 6f d5 cc 3c f2 56 f7 bc eb 4a a1 3c 98 c3 f0 bd
       0.025004117 -0.030192826 0.019689044 -0.117560565
000240 86 b3 d4 bc d6 18 d2 3d b4 8a 2a bd c6 18 96 3d
       -0.02596451 0.10258643 -0.041636184 0.07328944
000250 94 46 eb 3d 1d da c3 bd 08 92 00 bb 10 9e 1f 3d
       0.11488071 -0.09563086 -0.0019618291 0.0389691
000260 be 46 32 3d f1 55 97 3d f6 26 c8 3d 2a 3b 0c bd
       0.043524496 0.07389439 0.09773056 -0.03423611
000270 25 8f b2 3c cd 13 c3 3d 83 0e 69 ba df bc 77 bd
       0.021796772 0.09525261 -0.0008890407 -0.060482856
000280 54 ca 99 3d 75 98 e3 bc f5 70 95 3d c4 88 7c 3d
       0.07509294 -0.027782658 0.072969355 0.061653867
000290 70 56 36 bd c8 c6 9b 3d 7d e2 90 3d b2 ae 5f bc
       -0.044516027 0.07606274 0.07074449 -0.01365249
0002a0 4c 25 e5 bc 3d 23 e9 3c bb 68 20 bd 5b 38 5b 3d
       -0.027971886 0.028459186 -0.03916238 0.05352054
0002b0 31 a7 70 3d 69 ed f8 bc f2 cf 88 3d 6d 81 d5 3e
       0.058753196 -0.030386643 0.066802874 0.41700307
0002c0 3d ee e4 bd 08 fb 57 bd 31 b7 f0 bc 4f 5c ad 3d
       -0.11178253 -0.052729636 -0.029384227 0.08464872
0002d0 d7 a2 e9 3d 7a db 9b 3c 99 06 52 3e 44 15 c8 bd
       0.11408012 0.019025553 0.2051033 -0.09769681
0002e0 ca b3 11 3d 11 9e cb bd a3 47 89 3d 31 11 4d bc
       0.03557185 -0.09942258 0.06703117 -0.012516306
0002f0 43 e9 b9 bc 1c 2f 89 3f 0a f9 77 3f b7 e6 45 bd
       -0.022694236 1.0717502 0.9686438 -0.04831573
000300 54 3c 37 3d b0 32 43 3d 00 5d 01 bd 98 07 15 3d
       0.044735268 0.04765576 -0.031582832 0.036384195
000310 8e da 50 3d ce 88 16 3d 5a 04 ca 3d f6 73 22 3d
       0.05098968 0.03675156 0.09864111 0.03966137
000320 9b 61 14 3e b5 ae 8d bc 48 db a4 3d 03 c2 53 3d
       0.14490359 -0.01729522 0.08049637 0.051698696
000330 3d c1 cf bd 9b 0f 9f bc a6 fb 88 bc e5 00 9b 3c
       -0.10144279 -0.019416621 -0.016721558 0.018921325
000340 19 24 c8 bd 49 8e e4 bc 29 42 03 bd 4a 7a 1e 3d
       -0.0977251 -0.027899878 -0.032045517 0.038690843
000350 a1 7f 94 bd 93 e3 c8 3d 66 50 d1 3d fc cf e2 bd
       -0.07250906 0.09809031 0.10220413 -0.11074826
000360 0f 76 c0 bd 1a 62 45 3d b0 a8 69 bd e6 12 04 bd
       -0.09397518 0.04818926 -0.05704564 -0.032244585
000370 1e 50 23 3c be e5 fb bc c8 76 2c 3d cd ef 8d bd
       0.009967832 -0.030749198 0.042105466 -0.06930504
000380 a0 9b 30 3d ab 00 ce 3d b8 49 6e bc c7 54 51 bd
       0.043117166 0.10058721 -0.014543943 -0.05110624
000390 5b 8b 51 3d 0a 52 b4 3d b4 9c c6 3d e2 04 bb bd
       0.05115829 0.0880471 0.096978575 -0.09131791
0003a0 63 eb e2 3d 18 af 97 3d 39 d0 01 bc f0 1f b8 3d
       0.11080053 0.07406443 -0.007923179 0.089904666
0003b0 46 4c 5f bd 9f 41 7c bd 0a 09 b7 3d 60 61 8a bc
       -0.0545161 -0.06158602 0.08937271 -0.016892135
0003c0 7b 4d 07 bd 56 e8 a8 bd ba f7 48 bd f2 e9 2e bd
       -0.033032876 -0.082474396 -0.049064375 -0.042703576
0003d0 f0 da 6d bd 1e c6 52 bd 1c 61 e1 3c 2e 5a f8 3d
       -0.058070123 -0.05145847 0.027512126 0.121265754
0003e0 71 e0 99 3d 8b bc b2 3c f8 23 8e 3d d2 1a 0f 3d
       0.07513512 0.02181842 0.06940454 0.034937687
0003f0 72 0e e2 3d 58 d0 54 bd 60 9e b8 3d 36 d8 1a 3e
       0.110379115 -0.051956505 0.09014583 0.1512154

tree_conv.0.weights.bias f4 [256]
000000 f3 ef e0 3c 99 42 68 bd cc a6 2f bd 76 00 87 bd
       0.027458167 -0.056704137 -0.04288368 -0.06591885
000010 f3 42 05 bd 56 53 d6 3d 40 b3 bf bd 2a da 4f bd
       -0.03253455 0.10465114 -0.09360361 -0.050745167
000020 1c 73 9e 3d dd 43 31 3d bb ec 57 bc 56 1f 17 3d
       0.07736799 0.04327761 -0.013179 0.03689512
000030 a1 c9 05 3d 53 41 e6 bd f2 ef 22 3d ca 94 bb 3d
       0.03266299 -0.11242928 0.03977961 0.09159239
000040 b5 ea 21 3d c2 e9 3b 3d 8a 98 81 3d 67 ce 03 3b
       0.039530475 0.045877226 0.06327923 0.002011204
000050 62 7e bb bb 3c ee 4a 3d c5 98 4b bd 9d 44 4b 3d
       -0.005721853 0.049543604 -0.04970624 0.04962598
000060 25 c3 af 3d 20 02 ce 3c 4e 86 cc 3d d4 5c 42 bd
       0.08582143 0.025147498 0.09986554 -0.04745181
000070 a8 31 88 bd bb 5f 9b 3d 51 c4 d9 bd 4b c0 10 3d
       -0.06650096 0.075866185 -0.106331475 0.035339635
000080 11 e8 7e 3d b8 67 a9 bc ee b6 68 bc ac a5 a7 bb
       0.062233035 -0.02067934 -0.01420377 -0.005116185
000090 7e 82 e0 bc bc ec d5 bd d2 6e a8 bc c3 0d ef 3b
       -0.027405974 -0.10445544 -0.020560656 0.0072953417
0000a0 32 6e 91 bd ef b4 24 bd 52 23 a8 bb 84 e3 63 3c
       -0.07101096 -0.040211614 -0.0051311636 0.013909224
0000b0 7e cd 2b 3d 83 44 09 3d c5 4c af bc 91 a9 58 3d
       0.04194402 0.033512603 -0.021398911 0.052896086
0000c0 3d e1 c3 3a 4a f1 ea bc 8e d2 1b 3d 3f d5 86 bc
       0.0014944446 -0.028679509 0.038042597 -0.016459106
0000d0 9a 0b 95 3d d8 dd 4c bd 1f 5a a1 3d 84 e2 8a bd
       0.072776034 -0.050016254 0.07878517 -0.06781486
0000e0 25 bb 66 3d 74 c8 c5 ba 4b 5f 28 3d fe 82 54 bd
       0.05633082 -0.0015089647 0.041106503 -0.051882736
0000f0 1f fb bf bc c7 10 44 bd 15 cc b6 bd c7 09 3b bd
       -0.023435174 -0.047867563 -0.08925644 -0.04566362
000100 55 39 89 bd 8d b3 74 3d 61 09 b0 3d db 0f b7 3b
       -0.06700388 0.059741545 0.08595539 0.005586607
000110 27 9f a4 3d 1d 96 7b 3d f5 7a 56 3c aa 43 23 bd
       0.080381684 0.061422456 0.013090839 -0.03985945
000120 55 d4 3f bd fd 16 0f b9 11 a3 ff 3c d8 93 26 bd
       -0.046833355 -0.00013646107 0.031205686 -0.04066834
000130 59 3e 01 bd bd 91 ed bd 54 26 8a 3d 0c 59 37 3d
       -0.0315536 -0.11600063 0.06745592 0.044762656
000140 18 6e 84 bd a2 86 1b bd 64 4c c4 bc f2 98 68 bc
       -0.06466311 -0.037970193 -0.023962207 -0.014196621
000150 1a f1 18 38 29 e4 8e bc 2e 9f e0 bc c9 e6 ef 3d
       3.6464167e-05 -0.01744278 -0.027419653 0.11713941
000160 1f dc 8d bd 60 12 84 3d 53 5a 1d bd 7b 7f e3 3d
       -0.069267504 0.06448817 -0.038416218 0.11108299
000170 d8 17 8e bd f7 4d e5 bd bd 7d e8 3d 87 5e a5 bd
       -0.069381416 -0.11196511 0.11352108 -0.0807467
000180 9e c8 d7 3d 74 5d 26 bd 22 d2 6d bc 54 fc d5 bd
       0.105363116 -0.040616468 -0.014515432 -0.104485184
000190 0b fd ff 3c a6 1c 24 3b 78 97 71 bd 67 9c 57 3d
       0.03124859 0.002504149 -0.058982342 0.05263939
0001a0 87 52 81 3d 80 cd 50 3c 95 99 a4 bd fc 58 03 3d
       0.06314569 0.0127443075 -0.08037106 0.032067284
0001b0 f0 62 b3 3a 6c 71 d3 3d 41 26 93 3d b3 9a 5d bd
       0.0013686102 0.10324368 0.07185031 -0.05410261
0001c0 5b bb 33 3d df 7f 24 3d ff f9 24 bd 03 d5 2e 3d
       0.043879848 0.04016101 -0.040277477 0.042683613
0001d0 a6 be a1 bd 32 f1 6d bd e2 17 61 bd df cc c6 bd
       -0.078976914 -0.05809135 -0.054954417 -0.09707045
0001e0 2f ab 4e 3d 5f ed 38 3d 57 cc 8b bd 35 41 b2 3d
       0.050456222 0.04514825 -0.06826084 0.087038435
0001f0 33 56 c6 3d 52 0f dc bd 66 da 92 3d 8b 8a ca bd
       0.0968441 -0.107451096 0.071705624 -0.09889706
000200 04 df d8 3d ba 1a df 3d 1e 6a b7 3c 15 21 5f 3d
       0.10589412 0.108937696 0.022389468 0.05447491
000210 63 b9 83 bc c1 6c f3 3d 7c 4b 86 3d fa c5 2c bc
       -0.01607961 0.118859775 0.06557366 -0.010545248
000220 c0 03 4c bd 68 a8 82 bd b8 de 35 bd b6 ed a6 bd
       -0.049808264 -0.06379777 -0.044401854 -0.081508085
000230 a2 98 57 3d 0a 03 86 bd b4 d2 c4 bd 15 8d db 3c
       0.052635796 -0.065435484 -0.09610501 0.026800672
000240 b9 38 c3 3d bc 0f 3a 3d a3 59 5f 3c d4 2e 4e bc
       0.09532303 0.04542516 0.013632211 -0.012584407
000250 e8 ad 92 bd d5 b2 11 bc 8b 67 9f bc 98 fc 5e 3d
       -0.07162076 -0.008892735 -0.019458553 0.05444011
000260 5d b4 08 3d cb 50 84 3c f3 74 e5 3d d6 8e 36 3d
       0.033375133 0.016151806 0.11203947 0.044569813
000270 ce 95 94 3c c9 c3 91 bc c3 ca 8b bd 86 c6 30 3d
       0.018137839 -0.017793553 -0.06825783 0.043158077
000280 19 6b 5d bd 40 59 8f 3d 64 1a db 3d 83 d8 77 bd
       -0.054057214 0.06999445 0.10698393 -0.060509216
000290 29 56 57 bd b1 ee 03 3d 80 54 c1 3d 07 33 7a bd
       -0.052572403 0.032210056 0.09439945 -0.06108382
0002a0 3f 09 ab bd e4 c6 98 3d 06 d9 07 3d 97 35 9a 3d
       -0.08351373 0.074598104 0.033165954 0.07529753
0002b0 cc 27 5a bc d3 58 dc bd a1 f8 af bd e6 eb 5b 3a
       -0.013315152 -0.107591294 -0.08592344 0.00083893386
0002c0 50 3f a5 3d 8e fb 88 3d 3d 75 b7 bd 26 6f a2 3d
       0.080687165 0.06688605 -0.08957908 0.07931356
0002d0 55 1f 96 bd ce be a4 3d 14 b7 b0 ba 36 eb f8 3c
       -0.07330195 0.080442056 -0.0013482296 0.030385595
0002e0 a2 d8 4b bd 92 67 ae bb 4d f4 c7 bc a3 b3 1e 3d
       -0.049767144 -0.005322405 -0.024408484 0.038745534
0002f0 a1 00 a2 bd e2 ab 9e bd 09 e0 8c bc 4d 23 84 bd
       -0.07910276 -0.07747628 -0.017196672 -0.064520456
000300 3c 3d ca 3d 26 ee 2c 3c 93 42 c3 3d 16 25 5b 3d
       0.09874961 0.010554826 0.095341824 0.053502165
000310 4c 89 4b 3d 2b 67 80 bd 99 d6 4b 3c c1 f3 7f 3d
       0.049691483 -0.06269678 0.012441301 0.06248832
000320 d7 05 8f 3d 72 91 bc 3d 63 17 fa 3c bd 28 91 3d
       0.06983536 0.09207429 0.03052873 0.07087848
000330 ab d2 51 bd 0c bc 9d bd b5 de c5 3c c1 d4 1f bd
       -0.0512263 -0.07701883 0.024154047 -0.039021257
000340 74 b6 05 3d 32 cc a9 ba 77 bb ff bd 84 da 25 bd
       0.032644704 -0.0012954532 -0.12486928 -0.040491596
000350 3e 4e 31 bd f5 96 5a 3d 62 b6 2f 3d b4 01 8e 3d
       -0.04328751 0.05336662 0.042898543 0.069339186
000360 e8 c0 1f bd b0 24 82 3d 4c e3 a3 3b 48 37 30 bd
       -0.03900233 0.06354654 0.005001461 -0.04302147
000370 02 ba 44 bd 12 b3 b3 bd 63 12 e1 b9 a3 e0 7b 3d
       -0.048028953 -0.08774389 -0.00042929043 0.061493527
000380 33 fd 9f 3c 75 a2 bd bd c0 b1 30 bd 08 37 16 3d
       0.019529914 -0.09259502 -0.043138266 0.036673576
000390 2d f1 c0 bc 4a 27 b9 bd c1 3b e2 bb 76 f6 ac 3d
       -0.023552502 -0.09040697 -0.006904096 0.08445446
0003a0 8b 40 bc 3d 6c 44 11 3c 8b 61 3e 3d b7 77 95 3d
       0.09191998 0.008866411 0.046479743 0.072982244
0003b0 67 df 83 3d ff 5c 90 bd e2 54 98 3d 6a b9 0c 3c
       0.06439095 -0.070489876 0.07438065 0.008589128
0003c0 82 2f a0 bd ac 5d ba bc 1d 0a a5 3d c1 4b aa bd
       -0.078215614 -0.022749744 0.080585696 -0.0831523
0003d0 03 a2 ac bd fa 0d 9a 3d 41 ef 88 bc a5 82 7f bc
       -0.08429339 0.07522197 -0.016715648 -0.015595113
0003e0 15 b2 c1 3c 27 49 18 3d 01 ca 68 bd 9a c6 ad 3c
       0.023644486 0.03717914 -0.05683327 0.021212865
0003f0 d4 dc 5e bd 0c 1f cc 3c 5c 1b a7 bd 3d 2b 7e 3d
       -0.054409817 0.024917148 -0.08159515 0.062052954

tree_conv.3.weights.weight f4 [128, 256, 3]
000000 a7 42 0d bc 14 11 8d bc d3 5a e9 3c cd bd bd bc
       -0.008621848 -0.017220058 0.028485691 -0.023161793
000010 33 72 13 bd 30 00 15 3d 8b 57 fc bc 30 a7 12 bd
       -0.03599758 0.036377132 -0.030803462 -0.035803974
000020 ca 45 91 bc 13 ac 65 3d 5f 69 a3 bc 0d 9e a8 3c
       -0.017733473 0.056072306 -0.019947706 0.020583177
000030 53 04 a5 bc dd 71 2f bd e6 b7 77 bd 28 44 a0 3c
       -0.020143664 -0.042833198 -0.060478114 0.01956375
000040 ec c1 78 bd 6c af 7d 3c 3f b8 0a bc bd 0f 79 bd
       -0.060731813 0.015483718 -0.008466779 -0.060806025
000050 ca 5e f0 3c d9 cb 64 bd ea 00 ac bc 2e 76 da bb
       0.029342074 -0.055858467 -0.02099653 -0.00666692
000060 b7 07 0d bd 1b 35 f6 bc e0 c1 d0 3b b9 ab 11 3d
       -0.034431186 -0.03005462 0.006370768 0.035564158
000070 19 2a 05 bd cd 5f 1e bc dc bb f7 bc e0 97 96 3c
       -0.03251085 -0.009666395 -0.030240946 0.018382967
000080 26 e3 db 3b 71 a2 21 3c a4 5f 19 bd a1 93 87 bc
       0.006710428 0.009865389 -0.037444726 -0.016549887
000090 73 86 3f 3c 2d b4 40 bd e4 15 b3 bb ef aa f0 bc
       0.01168977 -0.04704683 -0.005465256 -0.029378382
0000a0 23 ec 45 3c d8 dd af 3c a3 98 5a 3c a1 4e 75 bc
       0.012080225 0.021468088 0.0133420555 -0.01497236
0000b0 6f 8d b0 3c 13 2c ec bc 7d 55 2a 3d 3e a3 74 3b
       0.021551816 -0.02882961 0.041585434 0.0037328745
0000c0 3c 1c 95 bc 03 2b 0f bd 11 56 45 3d 8e d5 0c 3d
       -0.01820194 -0.03495313 0.048177782 0.03438335
0000d0 2e 03 fa 3c 04 f4 85 bc 7c d8 2a 3d d0 56 17 bd
       0.030519094 -0.016351707 0.04171036 -0.036948025
0000e0 7e f7 1a 3d 2c 44 9b 3c 19 52 fa bc d7 0e 1d bc
       0.037833683 0.018953405 -0.030556725 -0.009586058
0000f0 c0 a9 ea bb eb a3 ea bc 9c c4 30 3a 54 fa aa bc
       -0.007161349 -0.028642615 0.0006743164 -0.020871319
000100 8c 39 bd bb 1e dd c6 ba 2d 0b 80 bc 68 af 9e bb
       -0.0057746824 -0.0015172099 -0.015630329 -0.0048426874
000110 f8 bc 0f bd 39 67 e3 bc bb 9b de ba b0 a0 9a 3c
       -0.035092324 -0.027759181 -0.0016983667 0.01887545
000120 51 94 55 bd 76 27 f1 bc 8c 7b b3 bc 95 81 3f 3d
       -0.0521434 -0.029437762 -0.021909498 0.04675444
000130 87 6b 19 3d e5 17 fb ba ae 72 c8 bc 74 85 77 bc
       0.03745606 -0.0019156901 -0.024468746 -0.015107501
000140 78 8f 4b 38 dc 2f 9e bc 89 b1 95 bc 72 0f 62 bc
       4.8532587e-05 -0.01930993 -0.018273132 -0.013797628
000150 5c 4a 73 3c 71 cc 0f bd da 41 ae bc e0 dd 11 3d
       0.014849272 -0.03510708 -0.021271635 0.035611987
000160 36 85 c9 bb b5 5c 9e 3c 39 65 42 3d 1a b9 ad bc
       -0.006149913 0.019331316 0.047459815 -0.021206427
000170 73 ec 23 3d 09 fb 60 3c 4a dc 0b bc 14 40 06 3c
       0.040020417 0.013731726 -0.008536408 0.008193988
000180 ae 9d f2 bc ef f1 89 3c 83 25 b1 bc 91 62 46 3d
       -0.029616203 0.016838996 -0.021624332 0.048433844
000190 d2 f0 20 bd 62 bb c8 3c 4d 93 2b bd e7 4c 49 bb
       -0.039292164 0.024503414 -0.041888524 -0.0030716003
0001a0 4e a4 23 3d e6 b3 cc bc ae 8a ec 3c a0 ac 00 3d
       0.039951615 -0.024988126 0.028874721 0.031414628
0001b0 17 16 fe ba 44 24 1a bd c0 b8 95 bc da 48 d7 bc
       -0.0019385245 -0.03763224 -0.018276572 -0.026279856
0001c0 60 f5 fb bc d0 f8 4f b8 31 97 6e 3d 2a 76 69 bb
       -0.030756652 -4.958437e-05 0.058249656 -0.003562341
0001d0 05 a5 4f bc b9 4a 2f 3c 06 a9 96 ba 85 3b 8b bc
       -0.012673621 0.010698968 -0.0011494465 -0.016996155
0001e0 ce 65 b1 bc 66 5e 1d bc 7a 79 de 3c 8c 52 e1 bc
       -0.02165499 -0.009605026 0.027157534 -0.027505182
0001f0 7d 5f e5 3a 9e ae 5e bd 6d 11 60 3d a4 45 eb 3b
       0.0017499771 -0.054365747 0.05470412 0.0071799327
000200 11 0a 07 3d 20 de b1 3b a1 94 e7 3a 81 bb 2d 3c
       0.032968584 0.0054280907 0.0017668196 0.010603786
000210 b8 3a 1e 3c b9 d1 ea bc 63 d4 78 bb c0 c8 3c bd
       0.009657554 -0.028664457 -0.003796839 -0.046089888
000220 67 af e1 bc ce 9a b5 3b 38 74 15 bd a7 f7 79 bc
       -0.027549459 0.005542136 -0.036487788 -0.015256799
000230 aa c3 41 3c bf 0b 48 3d 77 50 e6 3c f9 16 41 bd
       0.011826435 0.048839327 0.02811454 -0.04714105
000240 5b 71 88 b9 a9 a1 cb bc 86 4f cd 3c 92 6f 02 3d
       -0.00026024398 -0.024857359 0.025062334 0.031844683
000250 75 43 0c bd 79 bc 17 bb 38 48 67 bc 2f 66 de bc
       -0.03424402 -0.002315311 -0.014116339 -0.027148334
000260 55 33 d7 3c aa d7 8a 3b b9 40 98 bd be 62 e9 bb
       0.026269594 0.004237135 -0.0743422 -0.0071223667
000270 65 4e 7f bb 52 28 ea bc 72 e1 d1 3c e3 a0 28 bd
       -0.003895664 -0.02858368 0.025620196 -0.04116906
000280 60 36 77 bd e1 49 ef 3a 81 13 01 bc 09 57 16 3a
       -0.06035459 0.001825627 -0.007878185 0.0005735015
000290 9c 95 87 3a b7 72 29 3d b7 48 69 3c 7a cf 5a 3b
       0.001034427 0.041369166 0.014238528 0.0033387826
0002a0 12 15 8d bc 7e fc 26 3c e3 f0 1e bd bc 7c 05 3d
       -0.017221961 0.010192035 -0.038803946 0.03258966
0002b0 78 30 6d bc 36 8b da 3c d7 04 0b 3c f9 ba e0 bc
       -0.014476888 0.02667771 0.008485041 -0.027432906
0002c0 08 e7 0b 3c 71 9d 30 3c 93 c9 03 3b 8c 0b 8d 3c
       0.008538969 0.010779724 0.0020109161 0.01721742
0002d0 e7 6b fb 3c 88 d8 3e bc bd 16 ce bc c1 fc c6 bc
       0.0306911 -0.011648305 -0.025157327 -0.024290444
0002e0 7f 33 b1 bc 09 98 3f bd b1 05 65 3a fe 67 5e bc
       -0.021631 -0.04677585 0.0008736505 -0.013574598
0002f0 0b 77 31 bd c0 fb d4 3c 6f 81 87 3c 50 a7 bd bc
       -0.04332642 0.02599895 0.016541211 -0.02315107
000300 9a 94 59 3d b2 35 d2 3b 2b 9d 7d 3a 01 84 2c bd
       0.053120233 0.0064150924 0.0009674604 -0.042118076
000310 ba 2d 4e bb 16 cf 3d bb 1e 64 68 3d 4b 51 4f bc
       -0.003146036 -0.0028962544 0.056736104 -0.012653659
000320 91 6e 4b bc fc ea 05 bc 73 f5 5e 3b f1 5c ba bc
       -0.012416498 -0.0081737 0.003402081 -0.022749396
000330 96 ac 93 bc b7 8b 76 bd 06 43 8a 3c 74 d9 06 bd
       -0.018026631 -0.060191836 0.016877662 -0.032922223
000340 1f 08 d3 bc aa 49 cf bc 17 f9 c3 bb 76 0c 9e bb
       -0.025760708 -0.02530368 -0.0059806216 -0.004823263
000350 28 ad 9a bc 60 15 fe bc ae 23 9f bd 6f 38 84 3c
       -0.018881395 -0.031016052 -0.07770477 0.01614019
000360 18 64 79 3c 7f aa ba 3c 44 85 13 3c 47 1a 8b 3a
       0.015221618 0.022786377 0.009003941 0.001061269
000370 7f 68 a0 bd 88 a6 ad bb 9e ad 5a 3c 89 a1 0f bd
       -0.07832431 -0.005299393 0.013347058 -0.03506616
000380 0b 02 95 3b 07 6d 24 3d b3 7a 0f bd 87 1d 89 bc
       0.0045473627 0.04014304 -0.035029124 -0.016737713
000390 ba 7f 0c bd 4f 1a 1f bc 8b 3b ac ba 26 32 b7 bc
       -0.034301497 -0.009710862 -0.0013140304 -0.02236278
0003a0 f5 fd e2 bc e7 9c 50 bb 19 4a 6c 3c 3c f2 50 3c
       -0.027708987 -0.0031831802 0.014421963 0.012753066
0003b0 3a 4e 38 3c 6c 34 6d 3c 7f f6 ea 3c 5c 41 59 bc
       0.011249119 0.01447783 0.028681992 -0.013260212
0003c0 a2 5d a7 3c 9d fc 8d 3b 9e fd 59 3a a5 70 a6 bc
       0.02043039 0.0043330924 0.0008315685 -0.020317385
0003d0 cb 30 33 bd 60 82 5f bd 4f 6f 50 3d a4 49 26 bc
       -0.043747704 -0.054567695 0.050887402 -0.010149393
0003e0 51 2a 8b 3c c7 19 2f bc 78 db 30 3b 47 50 06 3d
       0.016987951 -0.010687298 0.0026986282 0.032791402
0003f0 63 62 7e 3c 17 33 34 3d c2 aa 8c bc 4f f4 7a 3c
       0.015526387 0.043994036 -0.017171267 0.015317037

tree_conv.3.weights.bias f4 [128]
000000 43 e6 ad 3b 3d 21 53 3c b4 44 92 3c a6 8e c9 3b
       0.0053069904 0.012886343 0.017855026 0.006151038
000010 6d 0c 5c 3c ed 63 93 bc 05 1f df bc ff 55 e5 b7
       0.013430697 -0.017991984 -0.027236471 -2.7338972e-05
000020 64 6b 25 bc 2f 17 6e 3d 51 a7 b6 3c e0 ef 10 bd
       -0.010096405 0.05812758 0.02229658 -0.035385013
000030 00 ce 07 3d 91 ed bb bb 35 00 fe 3c f8 e8 1f bb
       0.03315544 -0.005735107 0.031005958 -0.0024400335
000040 fe 03 bf 3c 3c 18 51 3b ae 23 34 bb 10 2b 83 3c
       0.023317333 0.0031905314 -0.0027487087 0.016011745
000050 99 84 6f 3a 72 ab 07 3d 61 83 8f bc 8a c5 09 3d
       0.0009136885 0.033122487 -0.017518701 0.033635654
000060 02 24 e9 b8 29 ae c1 bc 3a 55 a0 3c 57 cd 12 3d
       -0.00011117013 -0.023642616 0.01957189 0.03584036
000070 63 b4 85 3b 3e be 83 bb 23 d5 cb bc d4 f7 7a 3c
       0.0040803417 -0.0040204814 -0.024881905 0.015317876
000080 ef ee bd 3c 34 d2 e0 3c 59 08 aa bc 11 2e 1a 3d
       0.023185221 0.027443983 -0.020755934 0.03764159
000090 93 f9 22 3d 70 f5 06 bc b1 83 34 3c 7f 48 be bc
       0.039788794 -0.008237228 0.011017726 -0.023227928
0000a0 8f 02 b8 bb e8 e2 1f 3d 7e 97 0e bc 70 44 e2 bc
       -0.0056155394 0.039034754 -0.008703111 -0.027620524
0000b0 e4 ef 84 3c 55 6c d1 bc b4 36 25 bd a7 f2 82 bc
       0.01622767 -0.025564352 -0.040335372 -0.015984846
0000c0 8f 22 6f bc 37 0f 24 bc 99 90 d4 bc 8b 98 f7 bc
       -0.014595642 -0.010013393 -0.025947856 -0.030224105
0000d0 f2 9f 13 3c 0f 4f 9a 3c ca ab 00 bd 63 cc 61 bc
       0.009010302 0.018836526 -0.03141383 -0.01378164
0000e0 34 9e 48 3c c5 b3 e4 3a 7d cf 9b bc f7 64 ec 3c
       0.01224475 0.0017448595 -0.019019837 0.028856738
0000f0 b4 cf fb 3b 58 f3 32 bc cd ac 75 3c 4f f8 1d 3b
       0.0076846723 -0.0109222755 0.014994812 0.0024104302
000100 90 88 33 bb 9e c2 dc bc 31 69 46 3d 65 46 14 3d
       -0.002739463 -0.02694827 0.048440162 0.036199946
000110 8a 24 b2 bc 03 a0 ef bb eb fe b4 bc e2 05 e0 bc
       -0.021745939 -0.007312776 -0.02209421 -0.027346555
000120 c5 a8 f9 3b cd 8c d8 3c 9c 7d d3 ba 55 d4 3a 3c
       0.007618996 0.026434327 -0.0016135457 0.011403163
000130 e7 f1 25 bd 8a 15 00 bd ce 3f 37 bc 41 eb 07 3b
       -0.0405139 -0.03127054 -0.011184646 0.0020739587
000140 f9 6a 5c 3c b1 52 2f 3c 8a 26 9c 3c f0 f7 06 bc
       0.013453239 0.0107008675 0.019061346 -0.008237824
000150 3c f8 5f bc 05 92 1e bc 8d 32 b4 bb db 5d 51 3c
       -0.0136700235 -0.009678368 -0.00549919 0.012778725
000160 77 1b e1 3c e5 f0 18 bd 1e 18 fe 3c dd d6 e4 3c
       0.027478917 -0.03733911 0.03101736 0.027934486
000170 0c a1 09 3c e1 6c b5 bb 82 24 ee bc 02 0d f8 3c
       0.008400213 -0.005536661 -0.029070143 0.03027964
000180 89 96 a6 3b 0d ff 15 3d f6 b9 36 3d 95 19 95 bc
       0.005083863 0.03662019 0.04461094 -0.018200675
000190 6d dd 62 bc a0 82 52 3b 7d f5 97 bc 3f 1b df 3c
       -0.013846737 0.0032121316 -0.018549675 0.027234672
0001a0 6a 49 01 3c 1e 3d 8f bc 20 9a 26 3d a7 b4 86 3b
       0.007891038 -0.017485198 0.04067433 0.004110891
0001b0 51 e5 1f bd 52 de 13 bd 33 67 8f 3b f9 3e 95 3c
       -0.039037053 -0.036100693 0.004376316 0.018218504
0001c0 11 ad 13 bd 7d 53 06 3d d9 d0 18 3c 2f b3 27 bd
       -0.03605372 0.032794464 0.009327137 -0.040942367
0001d0 aa fe aa 3b b3 a1 7b 3c e2 7d 92 3a 1a a8 97 3c
       0.0052183466 0.015358376 0.0011176432 0.018512774
0001e0 ee 29 28 3d 6a 57 9d bc b4 72 17 3c ee 37 c4 bb
       0.041055612 -0.019206721 0.009243656 -0.0059881127
0001f0 02 0f b3 3c 8d ec e2 3c 91 98 f8 bb 63 70 85 bc
       0.021857742 0.027700687 -0.0075865467 -0.016288942

tree_conv.6.weights.weight f4 [64, 128, 3]
000000 0e 35 14 bd da 40 5a 3d 6a 1b 1f 3d b3 d2 93 bb
       -0.03618341 0.053284504 0.038844503 -0.0045112013
000010 24 55 0f 3d ba 04 a7 ba ed 8f c2 3c f0 b8 0e 3d
       0.034993306 -0.0012742497 0.02375027 0.03484434
000020 1c e0 52 bc 4e 77 17 bd 9e 00 27 bd 9d a5 4c bd
       -0.012870815 -0.036979012 -0.040772073 -0.04996263
000030 83 3d 32 ba 6b 51 1d bc 70 79 12 bd 46 c2 19 3d
       -0.0006799327 -0.009601931 -0.035760343 0.03753879
000040 7f 7f 52 3b d2 79 f3 3d b5 50 ff 3c 74 7a 7b 3c
       0.003211945 0.1188847 0.031166414 0.015349019
000050 f6 78 e9 bc ed a0 ee 3c 45 0f 75 3d d6 5f a2 3c
       -0.028500061 0.02912947 0.059829015 0.019821089
000060 11 bd ac bc 46 a1 ca 3c b0 5b 76 3c 1a 0c 2a 3d
       -0.021086248 0.024735104 0.015036508 0.041515447
000070 3c 6c 24 bc 58 37 c2 3c 6e 1a 0b 3d 6c 12 d1 bb
       -0.010035571 0.02370803 0.033960752 -0.00638037
000080 c5 ff c9 bc 44 08 54 bd 71 5e 80 3d 78 a6 bd bb
       -0.024658093 -0.051765695 0.06268013 -0.005787667
000090 2c ec db bc d4 a8 fa bc 67 b5 40 bd 12 90 9c bb
       -0.026846014 -0.030598082 -0.047048 -0.0047779167
0000a0 80 a1 a9 bc 9f bb 5a 3d 00 60 37 3d ab ad d6 3c
       -0.020706892 0.053401586 0.044769287 0.026205858
0000b0 5d 19 0b 3d 8e 8f 68 3b a4 c8 a0 bd d8 5a eb bc
       0.033959735 0.0035485956 -0.07850769 -0.028729841
0000c0 17 ac 31 bd 2c 28 07 bc f5 ef 8c bc 1d 44 00 bd
       -0.04337701 -0.008249324 -0.017204264 -0.031314958
0000d0 2b 36 8d 3c 6b 04 1a bd da 5d c3 bc 64 8f b4 3c
       0.017237743 -0.03760187 -0.023848463 0.02204103
0000e0 41 c5 69 bc b0 f8 1b 3d 5e 12 48 bc ef a6 56 bd
       -0.01426822 0.038078964 -0.01221141 -0.052405294
0000f0 39 b3 64 3b f0 85 f0 bb 52 2f 04 bc c8 e8 10 bd
       0.0034896864 -0.0073401853 -0.008067923 -0.035378247
000100 61 13 56 3b 21 81 21 3c 64 d8 21 3d 06 f1 fa bc
       0.003266536 0.009857447 0.039513007 -0.030632507
000110 44 93 e7 3c ac 73 76 bd dd 4e 21 b9 20 54 b7 3d
       0.028268464 -0.060168907 -0.00015383535 0.089515924
000120 27 34 28 bd 04 76 91 3d 8e 22 82 3d ba 00 22 bd
       -0.04106536 0.07102588 0.06354247 -0.039551474
000130 d1 68 73 bd 51 ae df bc c2 c2 42 3c 98 bc f9 bb
       -0.059426133 -0.0273048 0.011887254 -0.007621359
000140 bc 72 dc 3b 63 50 4a bd 7f bf 1e bc 8f fd 1f 3d
       0.0067275446 -0.04939307 -0.009689211 0.03906017
000150 3e 76 4a 3c c8 ef 5a bc af e3 c2 3c a2 1e 0b 3d
       0.012357293 -0.013362832 0.023790209 0.03396476
000160 24 15 7c 3d 29 89 af 3c 40 6f 46 bd 2a 18 4b 3d
       0.0615436 0.021427708 -0.04844594 0.04958359
000170 80 41 26 bd 55 12 87 bb 76 eb 89 bd 3d 8c 4f bd
       -0.04058981 -0.0041220584 -0.06734364 -0.05067085
000180 30 56 0c 3c 06 a9 15 3d b2 73 95 3c 85 84 1a bd
       0.008565471 0.036538146 0.018243644 -0.037724037
000190 45 04 cf bc 5b 67 fb 3c 61 6a 04 bd 85 70 25 3c
       -0.02527059 0.030688932 -0.032328013 0.0100976275
0001a0 f8 76 65 bd 31 2e fd bc 13 12 64 3b c6 6f 8f bb
       -0.05602166 -0.030905815 0.0034800812 -0.004377338
0001b0 bc c4 84 b9 ed d0 86 3c 0f af fd bc 08 cc b7 bb
       -0.0002532358 0.016457045 -0.030967264 -0.005609039
0001c0 ec c5 94 bc e9 18 7a bd 6b 70 26 bc c0 6d 96 ba
       -0.018160783 -0.061058912 -0.0101586385 -0.00114768
0001d0 26 99 ed bb a4 8b cd 3c f8 66 7b 3c 29 35 f8 bb
       -0.0072509227 0.025091 0.015344374 -0.0075746966
0001e0 68 62 3f bd 63 90 35 bd 8f 9a 56 3d a0 da b4 3c
       -0.046724707 -0.04432715 0.052393492 0.022076905
0001f0 61 b2 db 3c ad 71 81 3d 32 a4 8a 3b 0d 15 da bc
       0.026818456 0.0632051 0.0042309994 -0.026621366
000200 bb e1 2b bd bf 9e fe 3c b0 d3 03 3d a9 13 12 bb
       -0.04196332 0.031081555 0.032184303 -0.002228955
000210 5f 55 7b 3c ae 6a 32 bb 68 6a 05 bd 74 83 8b 3c
       0.015340178 -0.002722423 -0.03257218 0.017030455
000220 4f 06 93 bb 43 d2 25 3d 01 d5 2d b9 ac 46 dc 3a
       -0.004486836 0.040483724 -0.00016577916 0.001680573
000230 19 e3 2b bd 0d cf 64 39 c6 47 92 bc a3 8b 35 3d
       -0.041964624 0.00021820907 -0.01785649 0.04432262
000240 17 15 af bc 41 b7 b9 3c 98 e7 df 3b 9e 99 01 3d
       -0.021372361 0.02267039 0.006833028 0.03164064
000250 1e c3 21 3d 24 8b 8f 39 3a 20 8b 3a 19 04 80 bc
       0.03949272 0.00027378753 0.0010614463 -0.015626954
000260 a7 a5 83 bd 3e 48 20 3d 71 43 c7 bc 53 e7 1b bd
       -0.0642808 0.039131396 -0.02432415 -0.038062405
000270 cc 8e e2 3c c1 92 87 3c 3f e2 74 bd 3d 9f aa 3c
       0.027655981 0.01654947 -0.059786078 0.020827884
000280 52 61 af bc 78 f8 75 bd c3 d9 28 3d f5 25 97 bc
       -0.02140871 -0.06005141 0.0412233 -0.018450717
000290 b8 77 de 3c 38 6a 21 3c c1 f0 50 3d c2 5d 7b bc
       0.027156696 0.009851985 0.05101085 -0.015342178
0002a0 69 6e 02 bd 22 0b 2f 3d 5c 8c 91 3d 4d dc bf bc
       -0.031843577 0.042735226 0.071068496 -0.023420477
0002b0 c2 29 61 bc 47 bd 7a 3d 0d 85 93 bc aa 31 df bc
       -0.013742866 0.061215665 -0.01800778 -0.027245361
0002c0 52 25 1c ba 4f 67 0b bd 5f 50 29 bc 30 ce f2 bc
       -0.0005956489 -0.03403407 -0.010334103 -0.029639333
0002d0 f0 fb 3d 3d 09 e8 5f 3d 02 6c d4 39 51 ea 08 bd
       0.046382844 0.054664645 0.00040516263 -0.033426587
0002e0 dd 91 53 3c d4 45 ff 3c fe 70 f2 3c 3c 8b 04 3d
       0.0129131945 0.031161226 0.029594894 0.032359347
0002f0 f3 a1 0e 3d f8 a2 d4 3b c0 40 62 3d b7 36 41 bc
       0.034822416 0.006489154 0.05523753 -0.01179283
000300 2e ef c9 3c eb ac a8 3b 3a cc 81 bd b6 db 86 3c
       0.024650183 0.0051475666 -0.06337781 0.016462188
000310 fd 4b 94 bd ca 75 3a bd e9 6b 9d bc 15 ac e1 bc
       -0.07241056 -0.04552249 -0.019216495 -0.027547875
000320 44 04 1d bd b4 0d ee bc e0 13 1e bd 23 b3 94 bc
       -0.038334146 -0.029059269 -0.038593173 -0.018151825
000330 e5 78 f5 3c d2 a9 c8 3b b5 5a 04 bd 78 b8 b2 3b
       0.029964874 0.00612376 -0.032313067 0.0054541193
000340 7f 5c 5f bd e8 c6 df 3c 6e 4b cf bc 85 56 75 3d
       -0.05453157 0.027316526 -0.025304522 0.059896965
000350 a0 5f 40 3c 6f 8d 12 3b 10 2a ef bb 4b fb 48 bd
       0.011741549 0.0022362133 -0.0072987154 -0.049067777
000360 bd 02 b4 bd 8e f8 50 bd 6f 6a 1b bd 57 25 71 3c
       -0.08789585 -0.05101829 -0.0379433 0.014718375
000370 a8 b1 1d 3d 01 de f8 3c 98 37 94 bd 39 3c 5d 3d
       0.038499504 0.030379297 -0.07237166 0.05401251
000380 df c7 fc 3c 71 c7 a3 bc c3 d2 2b bc c9 d4 b0 bc
       0.030857025 -0.019992562 -0.010487261 -0.021585839
000390 18 83 8a bc 07 46 a8 bd 6b 73 d3 bb 92 50 c5 3c
       -0.016908213 -0.08216482 -0.006452968 0.02408627
0003a0 40 59 e5 bc 52 2b fd 3b 8e cf 84 bd ae 07 e1 3c
       -0.02799666 0.0077261114 -0.064849004 0.027469482
0003b0 68 1a 8e bd 99 ea 19 bc e0 34 d0 3b b2 e1 0e bd
       -0.0693863 -0.009394311 0.0063539594 -0.03488321
0003c0 3f 3f 09 bc 96 49 a0 3c 97 31 be bc d4 65 ff bb
       -0.008376895 0.019566339 -0.023217006 -0.0077941213
0003d0 a5 45 f3 3c 64 46 fd bb 22 0c 19 bd 00 92 fd 3c
       0.029696295 -0.0077293385 -0.037365086 0.030953407
0003e0 cf 33 be 3c 48 17 c4 3a 8b 9f 93 3d d8 fc 01 bd
       0.023218064 0.0014960552 0.07208165 -0.03173527
0003f0 97 7b 6c bc d0 6c b7 bc 90 d2 ef bc d6 f6 93 3c
       -0.014433763 -0.022390753 -0.029275209 0.018062036

tree_conv.6.weights.bias f4 [64]
000000 7a 77 37 3b 78 8d 49 bc d9 85 8a 3c e6 3f 0c bd
       0.0027994798 -0.012301795 0.016909527 -0.034240626
000010 aa b5 9c bc d3 68 30 bd d2 c7 55 3c e8 68 01 3d
       -0.019129593 -0.04306872 0.013048129 0.031594187
000020 03 04 36 bd df 67 10 3c 27 3e 1e 3c 89 7a b3 bc
       -0.04443742 0.008813827 0.009658373 -0.021909015
000030 26 89 a8 bc bb 19 21 3c 47 67 59 39 b3 de 04 3c
       -0.02057321 0.009832795 0.00020733206 0.008109736
000040 f2 2c 4a 3c e8 cb b0 3c 1f 7b 1e bd 4e a2 97 3b
       0.012339817 0.021581605 -0.038691636 0.0046275025
000050 da 50 8d bc f1 ad 45 bd 2f 8c be bc 9d 2f a3 3c
       -0.017250467 -0.048261587 -0.023260204 0.019920165
000060 bf 4f 90 3b d2 26 7d bc 89 90 b3 bc 37 89 26 bc
       0.0044040377 -0.01545115 -0.021919506 -0.0101645505
000070 5b da 90 bc 9a 08 28 3b 37 77 0b 3d 31 06 ac 3c
       -0.017682245 0.0025639893 0.03404924 0.020999046
000080 c9 d2 d7 bc 16 52 b6 3a f8 bd 80 bc 6b 9b 48 3d
       -0.026345627 0.0013909962 -0.015715584 0.048976343
000090 ae e8 04 bd dc 2a a7 bb b9 14 3a bd da 0d 32 bd
       -0.032448463 -0.005101545 -0.04542992 -0.04347024
0000a0 fa 8a 22 3b 36 43 d2 bc 51 30 b5 3b 1a 3d df 3c
       0.0024802075 -0.025666814 0.0055294414 0.027250815
0000b0 68 26 62 3c 18 41 9f bc a5 e2 5a 3c 5d 09 88 3c
       0.013803102 -0.019440219 0.0133597 0.016606027
0000c0 5c 20 05 3d ed ea 87 bc be ac 98 bc 9a 12 32 bc
       0.032501563 -0.016591514 -0.018637057 -0.010868693
0000d0 9b 67 94 3c 61 d2 a9 3c 77 e3 c2 3c fb 25 bf 3b
       0.01811581 0.0207302 0.023790104 0.005833385
0000e0 b3 35 b6 3c af 9f fa bb 4d 2c f2 ba 48 77 87 bc
       0.022242403 -0.0076484303 -0.0018476337 -0.01653637
0000f0 79 69 8a 3c fe e5 88 b9 56 63 85 3c c8 89 07 3d
       0.016895996 -0.000261113 0.016282719 0.033090383

tree_conv.9.weight f4 [32, 64]
000000 c7 a8 fe bd 38 35 c4 3d ad 5f 71 3c 14 bd b3 3b
       -0.124345355 0.09580463 0.014732284 0.0054851864
000010 97 4d 14 bc b7 b6 ca 3d b7 70 d1 bd 42 88 8f bd
       -0.009051702 0.09898131 -0.10226577 -0.07008411
000020 c9 06 ff bb c1 66 a9 bd d9 bf f2 bd 3a 2b 2e 3d
       -0.0077827913 -0.08271552 -0.11852998 0.042521693
000030 29 a3 85 3d 3f 48 05 bd 7e 98 a6 3b 67 70 19 be
       0.06525261 -0.032539602 0.0050840965 -0.14984284
000040 13 3c ec bc 26 8d ef 3c 15 ba 50 3d a8 58 a0 3c
       -0.02883724 0.02924211 0.05095871 0.019573525
000050 d0 d0 a9 bd 43 53 da 3c cd c0 6e 3c d8 95 84 3d
       -0.08291781 0.02665103 0.0145723345 0.06473893
000060 0c 80 4e bd b6 d5 ed bd 05 db 89 3d 74 95 74 3d
       -0.050415084 -0.11613028 0.06731228 0.059712842
000070 6d ea d5 bd 28 55 a6 bd 16 53 c5 3d 00 0a 7b 3c
       -0.10445104 -0.08121711 0.09634988 0.015322208
000080 c1 0e dd bd 25 a3 ea bd 7a 19 97 3d e0 60 72 3c
       -0.1079383 -0.114568986 0.07377906 0.014793605
000090 b9 ed 95 3b c2 63 eb bd 07 25 aa 3c cb d3 c4 bd
       0.004575458 -0.11493637 0.02076961 -0.09610709
0000a0 2c 73 1d bd c4 77 a0 bd de fd 46 bd 46 68 11 be
       -0.038439915 -0.078353435 -0.04858195 -0.14199933
0000b0 dd 0b 05 be e1 a4 80 bd 26 a6 9c 3d 7e 73 3e 3d
       -0.12992807 -0.06281448 0.07648878 0.04649686
0000c0 a2 ba 2d bd bf 76 f4 3d d4 22 c9 bd 70 b7 e6 3c
       -0.042414315 0.119367115 -0.09821096 0.028163642
0000d0 d2 80 48 3d 7d 8c fd 3c b8 98 de 3d a8 f8 97 3d
       0.048950978 0.03095078 0.108689725 0.07420474
0000e0 4d b7 66 bd e4 fd 04 bd fd d5 92 bc 4f 6f 0c be
       -0.056327153 -0.03246869 -0.017924303 -0.13714336
0000f0 8c 1d 82 bd 05 db ec 3d 49 fc 1c be 75 3c a4 bd
       -0.06353292 0.11565212 -0.15330614 -0.08019344
000100 c4 b1 e8 bc 87 51 98 3d 0e 95 18 bc 33 85 47 bc
       -0.028405078 0.07437425 -0.009312881 -0.012177753
000110 3d bc ec 3d 4f ca 1b 3e 25 de be bd 98 18 9b bc
       0.11559341 0.15213893 -0.093197145 -0.018932626
000120 d1 50 83 bc 5f 93 33 bd 92 f9 af bd 2a 39 80 3c
       -0.016029747 -0.043841716 -0.08592524 0.015652258
000130 ec 7b 0d 3e 26 02 a0 3d f7 05 50 3e ce 06 d9 3d
       0.13816804 0.0781291 0.20314775 0.10597001
000140 32 94 59 3d 14 e9 23 bd 6e a1 b5 3d fa 9c 4b 3c
       0.053119846 -0.040017202 0.08868681 0.012427563
000150 4a bb ec 3d 76 03 e8 39 45 6a 06 be 60 90 01 3e
       0.1155916 0.00044253067 -0.13126476 0.12652731
000160 3b 3e 1d 3e e6 4b bb 3d 50 e4 66 3c 56 34 40 bd
       0.1535577 0.09145336 0.01409252 -0.04692491
000170 13 e4 a8 bd 34 0e 69 bd 93 62 e2 bc 40 d6 0a 3d
       -0.08246627 -0.05689831 -0.027634894 0.03389573
000180 1f 00 aa 3d 09 03 ee bd 21 69 d4 3d c3 65 e6 bd
       0.08300804 -0.11621673 0.10371614 -0.11249878
000190 cd b5 91 3d 85 f8 c2 3d 1b 5f 98 3d 86 ca 4c 3d
       0.07114754 0.095200576 0.07440015 0.04999783
0001a0 0d 37 7f 3b 85 74 04 3d bd ba 43 bd 63 74 a3 bc
       0.0038942725 0.032337684 -0.04778551 -0.019952958
0001b0 ae d6 17 3e af a1 a1 bd fc dc ec bc 4b 95 df bb
       0.14827988 -0.07892167 -0.028913967 -0.006823217
0001c0 82 51 c6 3b 95 86 40 3e b7 ac bc 3c c3 8d 1b 3d
       0.006052197 0.18801339 0.023031576 0.03797699
0001d0 31 c3 95 3d bd 7a d8 3d 2a f2 a8 3d 97 01 b5 bd
       0.073126204 0.105702855 0.08249314 -0.08838194
0001e0 f1 40 f9 bd c1 1a 9a 3d cc 15 f2 3d a3 b1 8d bc
       -0.1217059 0.07524634 0.11820564 -0.017296618
0001f0 51 c2 10 bd 3e fd 25 bd 3d e0 a6 3b 09 9a 26 bd
       -0.035341565 -0.040524714 0.0050926493 -0.040674243
000200 7e cd 04 3e 09 a3 e2 bd 81 5a 07 3d 1e d5 88 bd
       0.12969014 -0.11066253 0.033045296 -0.06681274
000210 3e f5 b5 bd 28 fc 78 3b c7 c9 b4 3c 47 06 a9 3d
       -0.08884667 0.0037992094 0.022068871 0.082531504
000220 9b 24 86 3d d5 e9 22 bd 54 53 2c 3d c5 5a 47 bd
       0.06549951 -0.03977378 0.042071655 -0.04867055
000230 02 17 29 bd 81 70 34 bd 2d e1 00 3c c7 cd bd bc
       -0.041281708 -0.044052605 0.007866186 -0.023169411
000240 0b e9 4c bd 3b c7 5d 3d 2c 02 d7 bc 1c dc 27 be
       -0.050026935 0.05414508 -0.026246153 -0.16392559
000250 e2 c5 7f 3d f8 fe f3 3d 56 08 15 3e b5 df 76 3d
       0.062444575 0.11913866 0.14553961 0.060271937
000260 e3 6f e7 bd a7 fe 89 bd 6e 04 a0 bd 12 4b 64 3d
       -0.113006376 -0.06738024 -0.07813345 0.055735655
000270 77 80 3c bd 81 f4 05 3d cb f0 a4 bd ce 67 cb 3d
       -0.04602095 0.03270388 -0.0805374 0.099319085
000280 b0 e2 e3 3c a5 fe 01 3e 9a 1e ef 3d 62 54 5e bc
       0.027818054 0.12694795 0.11675759 -0.013569923
000290 2b 1d 35 bd c6 f1 7e 3d c1 a4 83 bd 50 15 bb bd
       -0.04421727 0.062242292 -0.06427909 -0.091349244
0002a0 38 e4 41 bd 6c 20 44 3e d2 12 7c bd 3d d4 b1 bd
       -0.047336787 0.19152993 -0.061541386 -0.08683059
0002b0 7b a1 87 3d 01 0f f4 3d 8c 30 4c 3d fb f4 14 bd
       0.06622597 0.11916924 0.049850985 -0.036366444
0002c0 29 59 c7 3c 96 cb 99 bc f1 a7 30 be a1 b1 0b bd
       0.024334507 -0.018773835 -0.17251565 -0.034104947
0002d0 3d cb 72 3d 16 b1 11 bb bd 0d 8c bc 37 39 2e 3e
       0.059275854 -0.0022230796 -0.017096395 0.17014013
0002e0 a1 e7 87 3e c5 96 aa 3d e4 b2 7a bd 2a ed 91 3e
       0.26543906 0.08329538 -0.06120576 0.28501254
0002f0 d9 d8 4e bd 1f 3d 28 bd a8 74 47 bd c4 ae 58 3e
       -0.05049977 -0.041073915 -0.048695236 0.21160418
000300 3b 36 dc 3d 06 fe 9b 3d 86 87 8b 3d ba a7 4c 3c
       0.10752531 0.076168105 0.068129584 0.012491161
000310 7e c0 f2 3d 64 74 ae 3d 15 2d 30 bd 13 63 22 3d
       0.11853121 0.085182935 -0.043011744 0.039645266
000320 38 05 ee bc b2 43 e4 bb 17 8d b2 3d 2a 42 27 be
       -0.029055223 -0.0069660777 0.08718317 -0.16333833
000330 77 b5 58 bd 9e 44 c3 3c d1 a0 22 3d 6a 3a a0 3d
       -0.052907433 0.02383643 0.039704148 0.078236416
000340 2b 2d 16 3c 2e 32 cc 3d 29 8f 56 bd 6e bc c3 3b
       0.009166042 0.099705085 -0.052382622 0.0059733903
000350 91 ed d5 bd 09 94 e4 3d 70 e3 11 3e 28 3d 82 3d
       -0.10445703 0.11161048 0.14246917 0.06359321
000360 1f 54 df bd d6 fc c6 3d 8d f0 e4 bc 84 77 4a bd
       -0.10904717 0.097161934 -0.027946735 -0.049430385
000370 83 99 a6 bd 5d 18 ea 3c 90 71 ab 3d e5 c7 e7 3d
       -0.08134749 0.02857607 0.0837127 0.11317424
000380 d2 ae 8c 3d 1c d4 87 3d b5 12 a0 3c 84 0a 00 bd
       0.06869282 0.066322535 0.01954017 -0.03126003
000390 be 12 a9 bd d0 ab a6 3d 0a dc ae bd 45 1c 92 bd
       -0.08255528 0.081382394 -0.08538063 -0.07134298
0003a0 90 d0 83 bd 2b 2c 0a 3e b2 3d 0b 3e cf b1 15 bd
       -0.064362645 0.13493411 0.13597754 -0.036546525
0003b0 b0 31 86 3d 18 87 04 3c e6 fe 9e bd b6 a4 d5 bc
       0.06552446 0.0080888495 -0.07763462 -0.026079517
0003c0 be 05 6c 3d 3b 39 54 bd ed cc e0 bd 74 44 55 bc
       0.057622664 -0.05181239 -0.109765865 -0.013016809
0003d0 5e 64 0f 3d d9 24 04 3e c5 d8 a5 3d 3f f8 0c 3e
       0.035007827 0.12904681 0.08097986 0.13766573
0003e0 23 04 d7 3d b3 b4 18 bd db 62 b8 bc 81 05 73 bd
       0.10498836 -0.037281703 -0.022508075 -0.05933142
0003f0 45 fb 09 bc 87 78 ea bd 9c 52 a2 3a e5 ab e9 bc
       -0.008421724 -0.1144877 0.0012384239 -0.028524349

tree_conv.9.bias f4 [32]
000000 55 69 02 be 99 f0 25 bb 38 41 93 3d 86 08 06 bd
       -0.12735493 -0.002532041 0.07190174 -0.032722972
000010 ae 1f 83 3d 9e 4d 19 3d 59 43 0a 3f a8 32 1b 3e
       0.06402527 0.037427537 0.54009014 0.15156043
000020 71 56 ac 3e a7 a7 91 ba 4c 70 0d bc e5 06 74 3d
       0.336597 -0.0011112586 -0.008632731 0.059576888
000030 4c e6 46 3d 29 d6 ed bd 63 3a 09 3e 71 a7 15 3c
       0.048559472 -0.116131134 0.13401179 0.009134159
000040 59 df 15 bd 0b 98 43 3e 29 08 2c 3c 21 c0 89 3d
       -0.036589954 0.19100969 0.010499992 0.06726099
000050 66 28 bb 3d ef 1e 88 3e 44 f3 ea bd 82 fb 4f 3c
       0.09138565 0.265861 -0.114721805 0.0126942415
000060 0e be df 3e 7d ea d2 3d 72 63 12 3e 6b 7b 29 3e
       0.43699688 0.10298631 0.14295748 0.16550986
000070 26 b0 a7 3e bb a3 80 bd aa 5f 02 3e ca c9 87 3e
       0.32751578 -0.06281229 0.12731805 0.2652114

tree_conv.11.weight f4 [1, 32]
000000 d3 af 08 3d b7 b1 0c be 86 f4 92 3e ba c8 43 3e
       0.033370804 -0.13739668 0.28702182 0.1911954
000010 41 a2 34 3d 20 12 a1 3d b4 eb 98 3c 9d 06 0e be
       0.04410005 0.07864785 0.01866708 -0.1386971
000020 d3 aa 83 be c0 e2 71 bd 21 ce 23 be 25 6c 5d 3e
       -0.25716266 -0.059054136 -0.159966 0.21623285
000030 26 fa 43 be d4 dc 4e 3e 62 ed 95 3d 9c 61 83 be
       -0.19138393 0.20201427 0.07320668 -0.25660408
000040 a7 51 63 be 99 29 ca 3d 62 db 30 be 0b 4f b1 3e
       -0.22199117 0.098712154 -0.17271188 0.34630617
000050 a1 81 e0 be 76 6e 3e 3e 69 ff 3f b9 89 1e 03 3e
       -0.438489 0.18596825 -0.00018310327 0.12804617
000060 7b 8d 52 be ca 40 ab bd 6f b4 02 3e 15 1a e2 bd
       -0.20561783 -0.08361967 0.12764142 -0.11040131
000070 10 d8 8e bd 16 2d ec 3e 2d 7b 91 3e 3a 99 33 3e
       -0.069748044 0.46128148 0.28414288 0.1753892
